models/checkpoints/SMALLAE/MNIST/MNIST_SMLLAE_0.001_64_1_3.pth (torch, 191422 bytes, 23 tensors)

autoencoder.encoder.0.0.weight f4 [3, 1, 5, 5]
00000000: 0a8a 67be ae78 44be edd5 00be b9e7 54be
00000010: 05db 25bd 11b2 14be a267 d93d c503 d73d
00000020: 5d37 283d 8d59 233e 3892 5fb8 543f 023e
00000030: 8c00 f1bd cb32 12bd 3d13 16be 2337 95bc
00000040: 046a 08be 50ad f23d a6cb 933d b79b e63d
00000050: 0c06 ed3c b47f 17be 42a0 d93d 7b65 75be
00000060: 546f 18be 7e83 d3bd 989b 5ebd c44b 593d
00000070: ea23 ccbd e72e 04be cd70 7ebd 809e f13d
00000080: 37fe f4bd e3a2 31be cfe9 27be 88d6 46bd
00000090: d63a 20bc 3ed6 0abe 4629 98bd 31ed 5e3c
000000a0: cfd7 083d e6d7 4ebc 85e0 ffbc 0f4c e1bd
000000b0: 30ba dd3d 1169 8abd ae23 12be 0a9a 69bd
000000c0: 986c d7bc 2e26 3d3e 0f1c 1f3e 390b ee3b
000000d0: 3798 b23d b8ee 513e 9249 1f3e 47e5 ba3d
000000e0: 7e51 8a3c 7974 6e3e cc23 cd3d 0845 4cbd
000000f0: b0e2 323e 6bac 963d 3204 96bd e9bb 4fbd
00000100: d9f0 04be 1d0c eabd 6975 4c3d 8f9c b9bd
00000110: 188f 9b3d 80be ac3c 0c7d a53d 7900 353e
00000120: 393e 76bd 30e4 04bd 9a9e 733d
-0.22611251 -0.1918666 -0.12581606 -0.2079152 -0.040492076 -0.14521052 0.106154695 0.10498766
0.041068424 0.1595213 -5.330352e-05 0.1271947 -0.117676824 -0.03569297 -0.14655776 -0.018214768
-0.13321692 0.11849463 0.07216577 0.11260169 0.028933547 -0.14794809 0.1062627 -0.23964493
-0.14886218 -0.103278145 -0.054347605 0.05305077 -0.099677876 -0.12908517 -0.062119294 0.117978096
-0.1196255 -0.17347293 -0.16397785 -0.048544437 -0.009779653 -0.1355829 -0.07429747 0.0136063555
0.033408936 -0.012624716 -0.031234989 -0.11000835 0.10826528 -0.06758321 -0.14271423 -0.05703167
-0.026296899 0.18471596 0.15538047 0.0072645214 0.08720439 0.2050122 0.15555409 0.091257624
0.016884562 0.23286618 0.10016593 -0.04987052 0.17469287 0.07357105 -0.07325019 -0.050716314
-0.12982501 -0.11428092 0.04991666 -0.09063064 0.07595652 0.021086931 0.080804914 0.17675962
-0.060117934 -0.03244418 0.059477426

autoencoder.encoder.0.0.bias f4 [3]
00000000: 1323 c9b5 6880 b335 a7ff bbb4
-1.4985875e-06 1.337391e-06 -3.5017476e-07

autoencoder.encoder.0.1.weight f4 [3]
00000000: d940 693f 24c0 663f 19fc 7d3f
0.91114575 0.90136933 0.99212795

autoencoder.encoder.0.1.bias f4 [3]
00000000: eb04 963c fd07 cc3b 8fe9 23bd
0.018312892 0.006226538 -0.04001766

autoencoder.encoder.0.1.running_mean f4 [3]
00000000: 74be 173f c832 423f c13a 38bf
0.59274983 0.75858736 -0.7196465

autoencoder.encoder.0.1.running_var f4 [3]
00000000: 561c 2c3e 19d1 a13e 7ec2 9e3e
0.16807684 0.3160484 0.3100776

autoencoder.encoder.0.3.weight f4 [9, 3, 5, 5]
00000000: f5e2 7fbb c1b8 8e3d 677a c7bc cc0a e5bc
00000010: 9fa9 45bd b88b 51bd 169e 0a3d 007a b7bd
00000020: 7791 d6bb 79fb 00be 6a5c debd 2e87 bbbc
00000030: b8f7 21bd 95bc eb3c 215d a0bd 79ee 913d
00000040: d470 c63c c2ba 0d3d 9466 1ebd e5fb 893d
00000050: 304c b2bd 7d78 ccbd a680 17bd 685b 9f3c
00000060: 2c4d 8dbc 62ca e4bc c363 cb3d 0bec aa3c
00000070: b3a9 1a3c df8a 8f3c 1ea5 0f3d 8859 88bd
00000080: 36ab a23c e119 3f3d cd43 8bbd 3c86 ddbd
00000090: 161d bdbd fc54 c3bd 71e9 703d 83c7 933d
000000a0: 0748 aabc 98a9 9f3d 7ed0 493d c5db a0bd
000000b0: 27d6 a6bd cc7c c0bd 7d34 d3bd 73cc 22bd
000000c0: d343 f73c 20e0 14bd 1e2c 33bc 75b5 9fbc
000000d0: 8c60 223d ef49 7bbc 26bc 8d3d 4db0 afbc
000000e0: aa04 a1bd 40af c83b d6d1 db3d 63a8 ba3d
000000f0: d5b9 77bd 3834 783c 5c2f 87bd 337a d43c
00000100: bd7d 8e3b 4c34 6c3d fdc1 b83c 0801 ab3c
00000110: 94f6 cc3c 396d 94bd c747 033e dc6f 0b3e
00000120: d5f7 5bbd 43c7 ff3d 3d73 5e3d 12d2 793d
00000130: 0324 833d 25d5 40bd 30aa 983d 8ab0 7bbc
00000140: 1084 8dbc c6b0 70bd 0f9b 65bd faab a0bc
00000150: 8494 4a3c a230 6d3c 271f 6fbd c24e 08bd
00000160: e4c8 683d 47f6 d4bc e9ca 9bbc 1e1e dbbc
00000170: 1ce3 153c b561 383c b325 e5bd c17f 31bc
00000180: 2e32 61bc aa18 063d d628 79bd 4b09 023d
00000190: ff7f 9d3d a53f 38bc 7c2d f23d 77d9 673d
000001a0: 2c59 bb3d 5567 923d c0a9 de3b fc66 bf3c
000001b0: 5797 083d 3fe1 533d 0f49 e5bd 5ef8 8ebc
000001c0: b9de cb3d ca9f a1bd 30fd a8bd 98b5 103b
000001d0: 4e48 1a3d 5ee5 8f3d c929 b1ba 7c0c 823a
000001e0: 0cee 81bd 7a00 bb3d 3086 67bd 709f 2c3d
000001f0: d8d0 7f3c be7b df3d 3b7d e43d 21df 18bd
00000200: d932 8a3d c0c9 9cbd ff24 c23d c639 59bd
00000210: 9b74 d0bd 3c04 b3bd 84ce 8c3d 23c4 443d
00000220: 0569 6bbd 8d0b 99bd bd0f e63c 5904 e83c
00000230: 74d0 ad3d 9916 d23d fffa 0abd f7b8 4bbd
00000240: 9a78 9f3d 2a6c dd3d 688f a53d ecb1 1f3c
00000250: a4e9 f5bb 98ec 853d 9208 463d bcc1 0cbd
00000260: 74d7 273b 523a b43d 6c1e 6e3d 9241 8c3d
00000270: 372e 243d 18f9 ad3d 0e59 96bd 76f7 443c
00000280: da4c debc 7d17 1b3d ac17 553c ec9c 903d
00000290: 0896 bdbd c43f 34bd 0a3c a73b a012 5d3d
000002a0: 6091 f03c 5e5b 5c3d 068f 8fbd 6177 ebbc
000002b0: 328b 9b3d 4be0 9c3d c875 413d 699e c4bd
000002c0: 5cec abbc 25cb 83bd c869 c53d d023 803d
000002d0: ec22 e53c 1756 77bd 4250 3cbd 9651 7fbd
000002e0: 880a 943c 4f7c 573d 0fd1 563b a6b4 92bd
000002f0: 5361 8ebb 7b39 ac3b 9c7a 30bc 3998 823d
00000300: 1f86 643d 79ad 17bc 5733 a4bd 9a0a 06bd
00000310: 2ac8 7dbd bc1d 8cbd 84d7 8cbd 0831 ebbd
00000320: 4825 3a3c f7ef 8cbc c46e 6abd c178 213c
00000330: 828a 9f3c f94e 40bd 06a1 fb3d 7afd 87bc
00000340: 898a a23c 2ea9 dd3d f95f f03d 002c c23d
00000350: f61c cf3b e6c1 2a3d 58a0 20bd a016 863d
00000360: 4fb0 083e c4c7 13bd f7b1 ddbd c6ee 843d
00000370: 9976 9c3d 8ebe 963d 0eb9 09bd 4dab 07bd
00000380: 184c 593c fa2a 25bd c83d a23c b5e9 cbbc
00000390: 9d60 6cbc db93 8abd 0d09 4bbd 39f0 9ebd
000003a0: be1e 47bc e498 553d e772 393d 40ca 82bc
000003b0: df49 b8bd 0616 4fbd 3cac 93bc a58b 523d
000003c0: c941 2e3c a013 e03c 6e0e 323d 609f df3b
000003d0: 1405 a8bd 900a c9bd 3b08 403d d7b3 15bd
000003e0: e675 113d 8809 223d eba5 10bd 530e c0bd
000003f0: 4976 f9bc e65d c73c 60c5 82bd da3d dcbc
-0.003904519 0.06968833 -0.024350358 -0.02795925 -0.048257466 -0.051158637 0.03384217 -0.089588165
-0.0065481025 -0.12595929 -0.1085747 -0.022891607 -0.039542884 0.028776446 -0.07830263 0.07125563
0.024223723 0.034601934 -0.038672045 0.06737498 -0.08705938 -0.09983919 -0.036987923 0.019452766
-0.017248712 -0.027928535 0.099311374 0.020864507 0.0094398735 0.017522274 0.035069577 -0.06657702
0.01985703 0.04665554 -0.06800041 -0.10816619 -0.09234063 -0.09537694 0.058816377 0.07215788
-0.020786298 0.07796019 0.0492711 -0.07854418 -0.08146315 -0.09398803 -0.10312746 -0.03974576
0.030183708 -0.036346555 -0.010935811 -0.019495705 0.039642856 -0.015337451 0.06920652 -0.021446371
-0.07862218 0.006124407 0.107333824 0.091141485 -0.060479958 0.015149169 -0.0660083 0.025937175
0.0043484853 0.05766706 0.022553438 0.020874515 0.025019921 -0.07247395 0.1282035 0.1361689
-0.053703148 0.12489178 0.05430912 0.060991354 0.06403353 -0.04707827 0.07454336 -0.015361914
-0.017274886 -0.058762334 -0.05605608 -0.019613255 0.01236451 0.014476927 -0.05837932 -0.033278234
0.05683221 -0.02599634 -0.019017654 -0.02674776 0.009148385 0.011253764 -0.11188831 -0.010833682
-0.013744874 0.032738365 -0.06082996 0.031747144 0.07690429 -0.011245643 0.11825082 0.056603875
0.091478676 0.07148615 0.006795138 0.023364536 0.033347454 0.051728483 -0.111955754 -0.017452415
0.0995459 -0.078918055 -0.08251417 0.0022080895 0.03766661 0.0702617 -0.0013516481 0.0009921934
-0.06344232 0.0913095 -0.056524456 0.04214424 0.015613757 0.10912274 0.11156698 -0.037322167
0.0674798 -0.07655668 0.09479713 -0.053033613 -0.10178491 -0.08741042 0.06875327 0.048038613
-0.0574732 -0.07472906 0.028083676 0.028322386 0.08487025 0.102582164 -0.033930775 -0.049736943
0.07786675 0.10811646 0.08083993 0.00974701 -0.007504659 0.06539267 0.048348017 -0.034364447
0.0025610598 0.08800186 0.05813448 0.06848444 0.040083136 0.084947765 -0.073412046 0.01202189
-0.027136255 0.037864197 0.013006132 0.070611805 -0.09257132 -0.044006124 0.0051035928 0.05397284
0.029366195 0.053798072 -0.070097014 -0.028743448 0.07594909 0.07659968 0.047231466 -0.09600527
-0.020986728 -0.06435231 0.09639317 0.06256831 0.027970754 -0.060384836 -0.045974977 -0.062333666
0.018071428 0.052608784 0.0032778417 -0.07163362 -0.004345098 0.0052558756 -0.01077142 0.063766904
0.05579197 -0.009257668 -0.08017605 -0.032724954 -0.06195847 -0.06841609 -0.06877044 -0.11483961
0.011361428 -0.017204268 -0.05723454 0.00985545 0.019475225 -0.046950314 0.12286572 -0.01660036
0.01984145 0.10823284 0.11737055 0.094810486 0.006320591 0.041688822 -0.039215416 0.06547284
0.13348506 -0.036079183 -0.1082496 0.06490855 0.07639808 0.07360564 -0.033623748 -0.03312235
0.013262771 -0.04032419 0.01980485 -0.024891714 -0.014427331 -0.067664824 -0.04956918 -0.077606626
-0.012153326 0.05214776 0.045275595 -0.015965581 -0.08998465 -0.050558113 -0.018026464 0.051402707
0.010635802 0.027353108 0.043470792 0.006824419 -0.082040936 -0.09816468 0.04688285 -0.03654846
0.035512827 0.03955987 -0.03531448 -0.09377732 -0.03045191 0.024336766 -0.063853025 -0.026884962

autoencoder.encoder.0.3.bias f4 [9]
00000000: c448 3e34 53be 9b33 9499 61b3 301c dab4
00000010: a1be e2b4 72f6 f5b4 96a7 d4b5 fc23 c433
00000020: 5498 9934
1.7721601e-07 7.25237e-08 -5.2526573e-08 -4.0626173e-07 -4.223448e-07 -4.581412e-07 -1.5844005e-06 9.133507e-08
2.8609304e-07

autoencoder.encoder.0.4.weight f4 [9]
00000000: d05d 743f 5472 643f a9b9 623f 8236 673f
00000010: 252c 683f a2e0 743f 2db6 723f 6445 743f
00000020: c8d6 633f
0.95455647 0.8923695 0.88564545 0.9031755 0.9069236 0.9565526 0.9480923 0.9541838
0.88999605

autoencoder.encoder.0.4.bias f4 [9]
00000000: 7a1d 2ebd 5f63 49bd a7dd 54bd b9c2 2bbd
00000010: 4edc d1bc ed77 023d fa83 59bd 9bb4 b93b
00000020: e407 04bc
-0.04250858 -0.049167033 -0.051969197 -0.04193375 -0.025617745 0.03185265 -0.05310438 0.005667282
-0.008058522

autoencoder.encoder.0.4.running_mean f4 [9]
00000000: 18d9 94bd 5684 143e d4ce 273e 6ec8 61bd
00000010: daf8 29bb 8fbf b8bd 2946 c23c 1583 2abd
00000020: abb0 0cbe
-0.0726797 0.14503607 0.16387492 -0.055122785 -0.002593568 -0.09020912 0.023715096 -0.041628916
-0.13739268

autoencoder.encoder.0.4.running_var f4 [9]
00000000: 3233 f43d 1c61 d73d c83f d93d 2587 eb3d
00000010: f71e c93d ee2c b13d e39d 133e 13cd c83d
00000020: d71b a33d
0.11923827 0.10516569 0.106078684 0.11500386 0.09820359 0.08651148 0.14415698 0.0980474
0.079642944

autoencoder.decoder.0.0.weight f4 [9, 3, 4, 4]
00000000: ba70 e23c d47a 4b3d 32b2 51bc 6a45 debd
00000010: 926f b83d 04a5 a1bd 1f5f a73c 0be8 d23d
00000020: 6b28 a93c b50d 143d c879 4e3c 5ada 07be
00000030: 5895 2d3d 1d07 e6bc 4553 febd d21e 393d
00000040: 3656 0ebb 2386 71bd 338d c03d bd8d 193e
00000050: eb6b d4bd 4848 e2bd dbfe 84bd d20e 62bd
00000060: 4baa 403d 7c98 f6bd 690a 8fbd acfa bdbc
00000070: 4f1c 1f3d 1fd2 2fbd f01b bb3d 6603 683c
00000080: a379 8f3d a45d df3c bb8b d23c 2b73 2cbd
00000090: e924 383c f055 d1bb a55c c7bd e0cc a93a
000000a0: 2e92 9a3c 96fe 4f3c 7997 2fbd 7c10 1cbd
000000b0: aa22 123e 6e63 033d 2fe6 813c 6a35 273c
000000c0: 97a2 4a3a 125c 5cbd dea3 62bc 64f3 28be
000000d0: 121c 6f3d 2170 f6bc 4304 cf3d 8636 18ba
000000e0: 1cdb fbbc 3682 19be 8342 e03d 90fd 183e
000000f0: 7b61 3bbd eee1 29bb 2de4 87bd 369f 4bbe
00000100: d204 23bc 9c9f 7e3d 13da d2bd f80e 3bbe
00000110: c126 8d3d 76b3 bd3c 15c7 89bd d758 2f3d
00000120: faca 883d 76f6 4cbd f526 193e 7458 293e
00000130: 98a2 9b3b c059 08be 3f63 99bd fedd 403d
00000140: 1698 443d ff91 7fbd 97aa 12bd a222 6d3d
00000150: 29e8 d9bc c26f 59bd d451 7dbc 7fbf 88bc
00000160: 6430 3b3c 2f43 ba3c a398 033e 7c01 b13d
00000170: 5f27 c1bd cb59 8cbd f7bc ad3d b2be 06be
00000180: 1c48 dfbc e4a9 103e 4b16 83bd a74f f23c
00000190: 21b0 403d 3fa5 2a3d cc76 ed3c c6e2 07bd
000001a0: ac29 b73a f93a a83c 7417 9fbd c691 03bd
000001b0: 6122 6f3d 8681 18be 0696 113d 4c0c 7e3d
000001c0: 3807 ad3c 4bd3 babd adcf 36bd 6477 ed3d
000001d0: b0ff a6bc 48d3 47bd aaf7 ce3d 2338 14bd
000001e0: fff0 53bc dcaf 013e 96a8 963d 34f4 e43c
000001f0: 6e9c abbd 25c6 023c e22d 1fbd 31ca 94bd
00000200: 6c41 d43c 7b84 753d 0ac1 023e 2a25 4f3d
00000210: 4ffa 8dbd 8a31 0f3e 3b43 683d 9fdf 6e3d
00000220: b886 9a3d 54b4 1a3c 1af9 6d3d 7041 b63d
00000230: 43ed 9c3d bfc4 b63d 0497 893d c609 f03c
00000240: 4c0c 193c 7824 c43d 1294 803d 9b61 3b3d
00000250: 3e4d 5e3d 7d98 e53c b799 d33d 9f93 40bc
00000260: 2a42 fb3c 2cc3 9abd 33fe 0d3c e923 1c3d
00000270: 221d c3bb 11b4 a23d 6622 ce3c 5082 8a3c
00000280: 31d3 06be 900b 91bd 71e3 90bc 65a4 5b3d
00000290: 988b 57bd 6249 05be b64d a23d 6885 5f3c
000002a0: 8cd3 debd 23bb 2abd 322f 873c bb15 06bd
000002b0: 9983 a4bd 58d2 fbbb 6c9a a03c 5f05 033d
000002c0: f262 84bc b12f 39bd 1832 68bd a499 0fbc
000002d0: 0850 b63d b80f dd3d 736c 643d f7ce 9d3c
000002e0: a4a6 cc3c b768 f53d 1cd8 0f3e 4d09 c63d
000002f0: 98b1 e03d c5d2 7cbd 6f6b d13d 8c63 4bbc
00000300: 55af 313e d920 c53d d1d8 cbbc 5f42 53bd
00000310: 9002 d63d e86d 1cbe 2ed3 20bd 8828 56be
00000320: 831b 7cbc 6adc 903c 71a6 61bd e663 53bd
00000330: 01ad a2bd f44c e3bd cdfb d63c d9fb d5bd
00000340: 5ea9 1f3e e036 ec3d 67b5 693d 04b9 8e3d
00000350: 50ea 0abd 5804 ef3d be47 173e 9dd1 a93c
00000360: 05f4 1d3e 0b59 443d f4ac 1bbc 34fd 2abe
00000370: 2cb6 72bd 3b15 45bc 2867 9ebc a2f4 e9bd
00000380: 3a40 1d3e 14f2 95bd 3e8e 4fbd a670 143d
00000390: 0952 e1bb 559a e3bd c7d9 86bd 28e5 883d
000003a0: 0faf aebd 30e6 453c 0614 83bd e6ae acbc
000003b0: 78ec 95bc def8 9fbd 21e3 edbd 36a1 4ebd
000003c0: 3e26 023c 2eba 3a3d 8ef4 5abd 82e3 173c
000003d0: 042d efbd 81b8 503d 33cd 51bd 93c9 303d
000003e0: f126 48be 808c acbc d012 0cbc e476 e93c
000003f0: 1071 153d 8efc f8bb 5c9e bbbd 2faf 61be
0.027641643 0.049677685 -0.012798833 -0.108530834 0.09005655 -0.07892802 0.0204311 0.10298165
0.020649156 0.036145885 0.012602277 -0.13266888 0.042378753 -0.028079564 -0.12418226 0.04519541
-0.0021718866 -0.058965813 0.094019316 0.14995475 -0.10372146 -0.11048943 -0.06493922 -0.055189915
0.047037404 -0.12040803 -0.069844075 -0.023190819 0.038845357 -0.042924996 0.09136188 0.0141609665
0.07005622 0.027266331 0.025701394 -0.04210202 0.011239269 -0.0063884184 -0.097344674 0.0012954734
0.018868532 0.012694975 -0.042869065 -0.03810166 0.14271036 0.032077245 0.01585683 0.010205606
0.0007729916 -0.053798743 -0.013833014 -0.16499096 0.05837638 -0.030082764 0.10108235 -0.00058064645
-0.030744128 -0.14991078 0.10950186 0.14940476 -0.04574726 -0.0025922018 -0.06635318 -0.19884953
-0.00994988 0.062163934 -0.102955006 -0.18267429 0.06892157 0.023156863 -0.06727425 0.042809334
0.0667934 -0.05003973 0.14956267 0.16537648 0.0047496073 -0.13315487 -0.07489633 0.04708671
0.047996603 -0.062395092 -0.03580722 0.057894357 -0.02659996 -0.053085096 -0.015461404 -0.016692875
0.011425111 0.022737114 0.12851195 0.08642861 -0.094313376 -0.06853064 0.08483308 -0.13158682
-0.027256064 0.14127308 -0.064007364 0.029578997 0.04704297 0.041661497 0.02898731 -0.033175252
0.0013974211 0.020535933 -0.07768145 -0.032121442 0.058382396 -0.1489316 0.035543464 0.062023446
0.021121606 -0.09122332 -0.04463165 0.115950376 -0.020385593 -0.048785478 0.10105832 -0.03618635
-0.012935876 0.12664741 0.07356374 0.027948476 -0.08379446 0.007981812 -0.038862117 -0.072651275
0.025910102 0.059940796 0.12768951 0.05057255 -0.06932508 0.13983741 0.05670474 0.05831873
0.07545227 0.009442408 0.05809889 0.088992 0.076624416 0.08924245 0.06718257 0.029301535
0.009341311 0.09577268 0.06278242 0.04574738 0.054272883 0.028026814 0.10332053 -0.011753946
0.030671198 -0.07556757 0.008666563 0.038120184 -0.0059544006 0.07944501 0.025162887 0.016907841
-0.131665 -0.070822835 -0.017686578 0.053623576 -0.05262336 -0.13016275 0.079249784 0.013642646
-0.10880193 -0.041682374 0.016501997 -0.032735568 -0.08032913 -0.007684987 0.019604884 0.031987544
-0.016160462 -0.045211498 -0.056688398 -0.008764658 0.089019835 0.10794014 0.055767488 0.019263728
0.024981804 0.119828634 0.14047283 0.09669743 0.10971373 -0.061724443 0.102255695 -0.012413871
0.1735204 0.09625406 -0.02488366 -0.05157697 0.104497075 -0.15276301 -0.039263897 -0.20913899
-0.015387419 0.017683227 -0.05509037 -0.051608942 -0.07943154 -0.11098662 0.026243115 -0.10448427
0.15591952 0.11533904 0.057057764 0.06968883 -0.033914864 0.116707504 0.14773461 0.020729834
0.15425117 0.04793648 -0.009501684 -0.16698152 -0.059255764 -0.0120289875 -0.019336298 -0.11423613
0.15356532 -0.07321563 -0.050672762 0.036240242 -0.0068762344 -0.11113421 -0.065845065 0.06684333
-0.085294835 0.012078807 -0.064003035 -0.021079492 -0.018301234 -0.078111395 -0.11615587 -0.05044671
0.007943688 0.04558771 -0.05345588 0.009270551 -0.11678508 0.050957207 -0.051221084 0.043160986
-0.19546105 -0.02106309 -0.008549407 0.028499074 0.036484778 -0.0075984662 -0.09161064 -0.22039483

autoencoder.decoder.0.0.bias f4 [3]
00000000: aa1f 1b36 2f77 7cb8 6884 9c36
2.311523e-06 -6.019248e-05 4.6645764e-06

autoencoder.decoder.0.1.weight f4 [3]
00000000: 9578 683f 5ab5 813f ab96 793f
0.90808994 1.0133469 0.97495526

autoencoder.decoder.0.1.bias f4 [3]
00000000: bf7c 6d3d 5fe6 063e 4d1c 1c3c
0.057980295 0.13173817 0.009528232

autoencoder.decoder.0.1.running_mean f4 [3]
00000000: 5e4a 38ba d476 a2bb f4bd 8b3c
-0.00070301245 -0.004958013 0.01705835

autoencoder.decoder.0.1.running_var f4 [3]
00000000: e74f 2c3d 629b 1b3d afdb 113d
0.04206839 0.03798998 0.035609897

autoencoder.decoder.0.3.weight f4 [3, 1, 4, 4]
00000000: fde5 963c f4bf 23bc 0232 313d a49c aabd
00000010: ac73 7ebb 51a1 f83d 0649 a33c 9bfe 12bd
00000020: d8ec e23c 2582 be3c 4d03 fd3d f146 64be
00000030: f4b4 1b3e 3cbf 593d 5c2b d73d 6cb4 83be
00000040: 2254 2fbd 22aa 33bd 8b97 fabd 40ff d13b
00000050: 72d3 5bbe b894 8bbe c493 19be 108a 9ebe
00000060: 8902 cabd 7483 30be d36c d8bd 22bd febc
00000070: 60f7 aebc 5c93 0dbe 3ac3 8bbd c3b4 feba
00000080: 2b99 a0bd 62a5 2c3e 0cbe 2d3d 310f 97bd
00000090: ffae 1f3c 0f9f f83d 1a70 a03d e192 8dbe
000000a0: 2698 d13d 8976 3bbe 6722 f9bc fe51 be3d
000000b0: b036 4d3d d6c2 063e fe70 23bd 7325 94be
0.018420214 -0.009994496 0.04326058 -0.08330658 -0.003882627 0.12140144 0.019932281 -0.035887342
0.027700827 0.023255417 0.12354145 -0.22292687 0.15205747 0.05316089 0.10506317 -0.25723588
-0.042804845 -0.043863423 -0.12235936 0.006408602 -0.21467379 -0.272619 -0.14997774 -0.30964708
-0.09863765 -0.17237645 -0.105676316 -0.031096045 -0.021358192 -0.13825744 -0.06824346 -0.0019432533
-0.078417145 0.16859964 0.04241757 -0.073759444 0.009746312 0.12139713 0.07833882 -0.27651122
0.10234098 -0.18306936 -0.030411912 0.092929825 0.050100982 0.13160262 -0.03990268 -0.2893482

autoencoder.encoder_out.0.weight f4 [49, 441]
00000000: 2825 873c aa1a 673c 5c4a 8c3c 59e7 b83b
00000010: c6c0 2b3c 3a63 983b 255f f1bb 6630 b63b
00000020: 2077 27bd 828e 11bd b690 91bc 19c6 cd39
00000030: b512 c8bc 1df1 9dbc 6a91 7bba 1d18 b3bb
00000040: d71a 7f3b f8e0 c83b d468 9cbc 0279 1ebc
00000050: eb73 003c a679 ffba c92e 6c3a d956 f63c
00000060: 4f26 39bc 383a 1c3b ba0c e0bc 0f6c 573b
00000070: 30c0 cbbb 945a a43c 4061 d63c dac3 91bb
00000080: 864e 13bd 5807 72bc b876 903c b3ce 0e3c
00000090: 2357 bcbc 4f6a 933c 7956 7f3c dfc7 25bc
000000a0: 19ea 2fbc e33a 2b3b b500 16bc aa31 403c
000000b0: be38 9ebb a9e1 c7bc 8f12 133c f31f 27bb
000000c0: 44db 5f3c 6252 9c3b 1768 2fba 09bf 8b3b
000000d0: b939 583c d8ba 063a 0c08 ad3b c0c3 453c
000000e0: 854e 7d3b 4f65 8dbc a1da 84bc 9032 db3a
000000f0: 724c 6fbb 3cb9 f9bb bee8 0dbd ac63 e1bb
00000100: 1cd1 5b3c 92ae 863c 1270 783b d780 803c
00000110: b079 08bd c76c 66bc b028 aabb ea82 57bc
00000120: 754f b7bc b186 7a3b 94e4 33ba 0162 91bb
00000130: 0d4e 07bc 0c93 72bc ac9d a7bc f49e 0c3c
00000140: 102f 5dbc 57f0 a4bc 5f3f 0dbd 3ed9 d8bc
00000150: b71d 83bc 840e ccbb 0874 973c 4d31 89bc
00000160: 4878 2bbc 1e45 043d 1c93 a53c b130 7b3b
00000170: 8bf8 b33b b786 93bb ecec cb3b b642 ab3b
00000180: 694c cbbb 88a8 d83c ac8f 063c 6363 febc
00000190: 1348 e7bc 92e4 cc3c 2d24 c93c 8852 bd3c
000001a0: 04aa 5dbc 0f57 843b 1523 cf3b 5e6c 1c3b
000001b0: 2598 99bc 9ea3 443c e222 7d3b 1a5e d83c
000001c0: ecba bc3b 3c7e 9b3c d6ca 3fbb 14a9 a43c
000001d0: 4255 35bc 866c b83c 68a2 483c 97e9 903c
000001e0: bb34 e33a 0bf6 0abc 9f32 773b 371b 74bc
000001f0: 4a10 3d3c a46b c43c 9722 5a3c da7b bebb
00000200: be49 513c abcc 1fbd 2812 1fb8 6f68 fcbc
00000210: 2d1e 1fbc 8b39 75ba 0f0c 2bbc 7814 053c
00000220: 1a3f b4bc 9dc4 ab3c 9eca 0b3c 0127 863c
00000230: 3fa5 e23b 8400 073c c5bf 063c 0a98 77bb
00000240: 65a0 773a 8adf 4abc 0d3a 063c 5c36 77bc
00000250: 07ce 923a b684 24bd 408a 49bd 4221 06bd
00000260: 7077 acbc 20cf 2d3c 4add 123c f2ad 18bc
00000270: 3082 85b9 0176 923c 35f5 34bc 8ad3 41bc
00000280: be55 40bc 4fe1 953a d176 2c3b 80bb 4bbc
00000290: c66f b03c e202 0fbc 9dd7 77bc ccab 9c3a
000002a0: 9a2f 7d3b cf00 6d3c e65b 4dbc f932 fcbc
000002b0: 5044 6fbc 8c0d a23c 6a7f 953b 0e84 02bb
000002c0: 1d64 42bb 4e5a 5ebc 9b0a 21bc 00a2 42bc
000002d0: 9b12 5fbc 4467 363b 81af f13b ce3f 1ebc
000002e0: 1c77 edbc 21f6 123c c8b9 bf3b aeb9 e53b
000002f0: fe17 0a3c b39b fa3b 154c 3abb 1d0a 8dbb
00000300: e150 a43c 48cc 4dbc 8c81 123b 83f7 273c
00000310: 2747 f7bc 27bf 63bb c62f 10bc 90e4 1bbc
00000320: 4bad 7dbb 9a7a a8bc 9f74 45bd 255e 8d3b
00000330: 74a5 53bc 3fcd 03bd 2742 a9bb 2264 143b
00000340: f5e0 dfbc f734 dfbc 238f 0aba e50d 823b
00000350: ec40 173c a6ff afbc a561 ae3b 2463 b23a
00000360: 6288 853c bac3 393b 390e b83b 9db3 a5bb
00000370: 1f41 073d 9171 13bd 0f0a 1bbc 9953 85bc
00000380: 4a24 3ebc ebbe 893c a602 61bb 886c dbbc
00000390: 112e 12bd 4271 abbc c078 d3bc b509 193c
000003a0: 1555 0dbc da71 2b3c 0a66 9b3c 5cd9 853b
000003b0: 86a6 2abc 620d 91bc c4b9 58bb 061b 0e3c
000003c0: 6e4a ef3c 8f83 5d3a 11fc bfbb 9467 fcbb
000003d0: 8515 db3c 8bd6 543b 8349 4a3c 47e7 90bb
000003e0: 280f 43ba 77c8 d43b 9cc5 f4bb ce6c e23a
000003f0: eda5 c4bb c444 be3c bb1e 803c 7f35 153c
0.01649721 0.014105478 0.017125301 0.005642813 0.0104829725 0.0046505006 -0.0073660784 0.0055599688
-0.04088509 -0.035536297 -0.017769199 0.0003924824 -0.024422983 -0.01928001 -0.00095965585 -0.005465521
0.003892591 0.006130334 -0.019092955 -0.009672405 0.007840137 -0.001949121 0.0009009657 0.030070709
-0.011300637 0.0023838412 -0.027349818 0.0032870804 -0.006217979 0.020062722 0.02616942 -0.004448396
-0.035963558 -0.014772259 0.017634735 0.008716273 -0.022990769 0.017995028 0.0155845815 -0.010118454
-0.010736966 0.0026127629 -0.009155442 0.011730591 -0.0048285415 -0.024399595 0.008976593 -0.002550122
0.013663117 0.004770563 -0.0006691231 0.0042647165 0.013197356 0.0005139536 0.0052805003 0.012070596
0.0038651538 -0.017260222 -0.016217532 0.0016723443 -0.003651407 -0.0076209586 -0.03464579 -0.006878337
0.013416555 0.016440663 0.0037908596 0.015686436 -0.033319175 -0.0140640205 -0.0051928386 -0.013153771
-0.022376755 0.0038227255 -0.0006862369 -0.004436732 -0.008258355 -0.0148055665 -0.020460926 0.008582819
-0.01349999 -0.020134134 -0.034484264 -0.026470777 -0.01600538 -0.0062273163 0.018487945 -0.016747141
-0.010465689 0.032292478 0.020211749 0.0038328583 0.005492275 -0.0045021432 0.0062233116 0.0052264584
-0.006204177 0.02644755 0.008212965 -0.03105325 -0.02823261 0.025011335 0.024553383 0.023110643
-0.013529304 0.0040386985 0.006321321 0.0023868303 -0.018749306 0.0120019 0.0038625528 0.026412059
0.0057595875 0.018981092 -0.0029265187 0.020100154 -0.01106769 0.022512686 0.012245752 0.01768951
0.001733444 -0.008481513 0.0037719382 -0.014899067 0.011539528 0.023977108 0.013313911 -0.005813104
0.012773929 -0.039013546 -3.7925463e-05 -0.030811517 -0.009711784 -0.0009354583 -0.010439887 0.008122556
-0.022002745 0.020967776 0.008532194 0.01637602 0.0069166715 0.008239869 0.008224432 -0.0037779831
0.0009446203 -0.012382397 0.008192551 -0.015088644 0.0011200317 -0.040165626 -0.04920411 -0.03274656
-0.021053046 0.0106084645 0.008963892 -0.009318816 -0.00025464734 0.017878534 -0.01104479 -0.01183022
-0.0117391925 0.0011434945 0.0026315937 -0.01243484 0.021537673 -0.008728715 -0.01512709 0.0011953055
0.003863311 0.014465525 -0.012534117 -0.030786024 -0.014603689 0.01978185 0.004562308 -0.0019915137
-0.0029661723 -0.013571335 -0.009829189 -0.011879444 -0.013615276 0.0027832547 0.007375658 -0.009658767
-0.02898746 0.0089698145 0.0058510043 0.00701066 0.008428572 0.0076479553 -0.0028426696 -0.004304184
0.020058097 -0.0125609115 0.0022355048 0.0102518825 -0.030185295 -0.0034751387 -0.008800453 -0.009514943
-0.0038708027 -0.020566273 -0.04820692 0.0043142014 -0.012917865 -0.03217816 -0.0051653567 0.0022642692
-0.027328948 -0.027246935 -0.0005285611 0.0039689415 0.009231787 -0.021484207 0.0053216987 0.0013609868
0.016300384 0.0028345422 0.00561693 -0.005056812 0.03302109 -0.035996977 -0.009462847 -0.016275214
-0.011605332 0.01681467 -0.0034333854 -0.02678515 -0.035688464 -0.020928029 -0.025814414 0.009340693
-0.008626242 0.010464156 0.018969554 0.004084749 -0.010415679 -0.017706577 -0.003306971 0.008673435
0.029210296 0.0008450085 -0.005858906 -0.007702777 0.02674366 0.003247651 0.012346628 -0.0044221017
-0.0007440918 0.006493624 -0.007469846 0.0017274858 -0.006001225 0.02322615 0.015639653 0.009106993

autoencoder.encoder_out.0.bias f4 [49]
00000000: 0cc9 5cbd 602c 4d3a fb95 efbc f677 5cbc
00000010: 961c 9bbb 0f98 fe3c bd75 1dbc 6377 26bd
00000020: e4f9 d9bc 87be 08bd d874 0cbd d777 e83c
00000030: 2ada b1bb ba49 fdba 9181 a5bb 996a 57bd
00000040: 4b29 aa3b 493d 08bc 9d3b a1bc 5f78 debc
00000050: b49c f0bc 56aa 9dba 6798 793c 6992 8ebb
00000060: 231c 823c 5664 c03b d4b2 853c 5ad8 473c
00000070: 8866 80bc b05b 98bc 00e0 bcb5 2d4a 58bd
00000080: 3c94 103c d421 783d 7cd3 27bd 4e7c 23bd
00000090: 2215 37bd 038b 29bc e923 b13c 621d 2dbc
000000a0: 2fe0 34bb 2314 453b 2f1f b7bb b658 c7bc
000000b0: c254 583c ada6 c4bc f62a 7e3b 00f4 ffbc
000000c0: ad97 f1bc
-0.05390267 0.0007826742 -0.029246321 -0.013456335 -0.0047336323 0.031078367 -0.0096105905 -0.0406412
-0.026608415 -0.033384826 -0.03429112 0.028377457 -0.0054276185 -0.001932434 -0.005050846 -0.052591894
0.005192911 -0.008315393 -0.019681746 -0.027157007 -0.029371597 -0.0012028913 0.015234089 -0.0043509495
0.015882557 0.005871336 0.016320623 0.012197578 -0.01567389 -0.018598408 -1.4072284e-06 -0.052805115
0.008824404 0.060579136 -0.04097317 -0.039913468 -0.04469789 -0.010348084 0.021623569 -0.010566087
-0.0027599444 0.0030071817 -0.005588434 -0.024334293 0.013203802 -0.024005258 0.003878293 -0.031244278
-0.02949127

autoencoder.decoder_in.0.weight f4 [441, 49]
00000000: 8f65 a63c f205 b2bb 2714 4f3c dacc 43bb
00000010: b0ee 983b 6d8f 83bc b5a3 fc3b 849f 883c
00000020: 945b 33bb 2ceb cebc 7739 0dbb 6401 fcba
00000030: 4fac c63b 9288 15bb 0182 4dbc 6392 773c
00000040: f076 0e3c 0152 45bc 890f 9aba 9e2d 37bc
00000050: 07da 02bd 20e1 39bc 94be ef3b b737 1b3c
00000060: 2f4f 683c a633 72bd 168e 1c3d fcd4 51bd
00000070: 37d7 e7bc a41d e03c cd8d 17bc 9a3e ef3a
00000080: 3d84 8bba c6f8 123c 63bd 013c a637 883c
00000090: 30f1 7b38 ee0a 413c 3e7a 27bc 1d98 463c
000000a0: 36a9 173c 23c2 da3b 4095 d2ba 3ba2 013d
000000b0: 6eda b3bb e3d1 603c 58e8 523d 45d3 debc
000000c0: c98f bb3c 8036 143d e09b d33c e2ea 003b
000000d0: 7a92 efbb ab7f cabc 2224 c33c c5fa 9ebb
000000e0: b6e2 78bd acca d23c ec4c 683c 4073 5abb
000000f0: e7e1 fa3b a8f0 9dbc c012 803c 230e 013c
00000100: 22bc 6abd 3942 203d 8585 07bd 606d 4f3c
00000110: ba10 7dbc 7c0c c63a afd6 383d 9662 ce3a
00000120: 7b08 20bc f5a8 c4bc 0a27 90bd 78cf 023d
00000130: b079 b3bc 5df9 d6bc 5278 303d 0b85 963b
00000140: 830c 38bc e0ba 8bbc df20 e2bc aaa8 5f3c
00000150: e468 57bd a8b2 00bd 9e48 a5bc c104 f7bb
00000160: 8657 9f3b b45b 073c ce85 0aba ae88 a83c
00000170: dee5 2b3c 7e07 313b 3187 21bd 8d8d 9f3d
00000180: 08c7 05bc d263 9dbc 92d7 87bc 2892 edbc
00000190: 1e8b ddbb cc54 433c 501f dbbc 5454 a6bb
000001a0: 52ca a23b d8e2 0dbb 4c0a 343c 6855 ea3c
000001b0: abfa 943b a8b8 073c 4d19 2ebc 81ff 14bd
000001c0: 7fa3 3b3c f946 f7bc c0be 8fbd 4ab0 bb3b
000001d0: 5d87 20bd 0142 38bc c2ee 05bc a7b3 d83c
000001e0: 2e34 623c 77cb 00bc 4763 2b3b 8a78 6ebd
000001f0: dfb2 2cbd 3c2d 5dbd 8f9b 2bbc ddad 16bb
00000200: c30b d13c 6fc2 b6bb 3263 0c3c ef4d 0a3b
00000210: e895 643d 76b7 0abc 596e 3a3d b119 44bd
00000220: f5be dfbb 001b b9bb 0f85 7ebc 6ada b9bb
00000230: 7113 a3bc 78ce 24bd 7990 5e3c 162f 103d
00000240: eedc 79ba b84c 81bc 0733 5abc fbb9 ab3d
00000250: e937 493c ce37 f83c 6d18 b2bc 57d3 d93c
00000260: 4a83 57bd 22c8 093d 60f4 063d bc63 6fbd
00000270: 400b d53d a429 b93c 8a61 4c3c ca68 ebbb
00000280: 4f37 bbbc 0198 d1bb 5fcb 873b 158c b5bd
00000290: a39a a03c b2a2 32bc b7e6 7fbd 19c4 a53d
000002a0: 54ab ccbd 9e2c 803b fc7d 5fba 5289 6a3b
000002b0: 80de dcbd 4091 49bd 5a23 983b a7f6 8abd
000002c0: 1eec 86bb eff7 913c 14d6 55bd 9244 89ba
000002d0: ffe7 a6bc 30dc 073d 9959 733d 5049 c1b9
000002e0: b380 843c d416 84bd 5eaf 8b3c e130 2f3d
000002f0: 668c 673c 7da8 f93c 5d09 223d e5ee 973c
00000300: 1eaa c23d b299 c53b ce62 633d 45d3 61bb
00000310: a47e 57bb 3154 98ba e696 bfbc a7ba 243d
00000320: 44dc 02bd d5e9 873d ad8d 123c 7168 f2bb
00000330: 4537 2d3c b072 6d3d 1535 d4bc 371e 3f3c
00000340: d83a b239 2328 d03c 2439 0c3c 6b83 a8bd
00000350: 250d 94bd 9add d7bc 30b4 97bc ea40 61bc
00000360: 6b70 d73c eb36 483c 95b7 373b 362b f139
00000370: afe7 553d 57c4 d2bd 0c56 8f3c 6867 913b
00000380: fa3f a9bd 0fea 793d a71c 9d3c b2b1 a83b
00000390: 0297 5c3b a8ea afbc 7120 393c dd99 ea3c
000003a0: cf83 37bc a2d3 183d bb26 6fbc 88c0 bdbb
000003b0: 9157 543d a2d1 1bbd cd86 833c ed08 ae3d
000003c0: ff6c 1ebd cace 90bd 79aa d43c 6a8f ed3c
000003d0: e160 b7bc fae8 a53d ea43 d63c 7194 883c
000003e0: 006d f8bc 3fbd 583c 3278 d83c 44b7 a8bb
000003f0: b99a c33d f332 653d 5a36 5a3d fb92 eb3c
0.020312099 -0.0054328376 0.012639082 -0.002987674 0.0046671256 -0.016059602 0.007709945 0.016677625
-0.0027367817 -0.025258623 -0.0021549144 -0.0019226489 0.0060630213 -0.0022816998 -0.012543202 0.015110585
0.008695349 -0.012043477 -0.0011753897 -0.01118031 -0.03194621 -0.011345178 0.00731642 0.009473733
0.014179035 -0.059131287 0.03822144 -0.05122851 -0.028300865 0.027357884 -0.009250117 0.001825291
-0.0010644268 0.008970445 0.0079186885 0.016628098 6.0067687e-05 0.011782391 -0.010222016 0.012121228
0.009256652 0.006675975 -0.0016066208 0.031648856 -0.0054886853 0.013721916 0.05149111 -0.02720035
0.02289571 0.036184788 0.025831163 0.001967125 -0.0073111625 -0.02471908 0.02382094 -0.0048516714
-0.060763083 0.025731407 0.014178496 -0.0033332855 0.007656324 -0.019279793 0.01563394 0.007876906
-0.057308324 0.039125655 -0.03308632 0.012660354 -0.015445882 0.0015109922 0.045126613 0.0015745934
-0.009767647 -0.024006346 -0.07038696 0.03193614 -0.021908611 -0.026241953 0.043083496 0.0045934967
-0.011233452 -0.017056882 -0.027603565 0.0136510525 -0.052590266 -0.03142038 -0.020176228 -0.0075384085
0.0048627285 0.00826161 -0.00052842207 0.020572986 0.010491816 0.0027012522 -0.03943557 0.077906705
-0.0081651285 -0.019212637 -0.016582284 -0.029000357 -0.006760969 0.011922073 -0.02674833 -0.0050759707
0.004967966 -0.0021650102 0.010988783 0.028605178 0.0045464835 0.008283772 -0.010626149 -0.03637648
0.011452555 -0.03018521 -0.070188046 0.0057278024 -0.039191592 -0.011246205 -0.0081746 0.026452852
0.013806386 -0.00786101 0.0026151703 -0.058220424 -0.042162772 -0.053998217 -0.0104741 -0.0022991814
0.025518304 -0.0055773775 0.008568572 0.002110358 0.055807024 -0.008466592 0.045515392 -0.047876064
-0.006828184 -0.0056489706 -0.015534653 -0.005671789 -0.019906731 -0.040235966 0.01358425 0.035201155
-0.0009531517 -0.015783653 -0.01331783 0.08385082 0.012281396 0.030300047 -0.021740163 0.026590033
-0.05261544 0.033638127 0.032947898 -0.058444723 0.104025364 0.022602864 0.012474427 -0.0071841227
-0.022853522 -0.006396294 0.004144117 -0.08864609 0.019604987 -0.010903047 -0.062475886 0.08094043
-0.09993616 0.003911569 -0.0008525548 0.0035787416 -0.10784626 -0.049210787 0.004642886 -0.067853265
-0.004117503 0.01781842 -0.052206114 -0.0010472706 -0.020374296 0.03316897 0.05941162 -0.0003686645
0.01617465 -0.064496666 0.017051395 0.042771224 0.014132595 0.03047585 0.03955971 0.018546531
0.095051035 0.006030285 0.05551415 -0.0034458202 -0.003288188 -0.0011621771 -0.023387384 0.040217068
-0.031948343 0.06636397 0.008944911 -0.0073977043 0.010572259 0.057970703 -0.025904218 0.011664919
0.00033994648 0.025409764 0.008558545 -0.08228191 -0.072290696 -0.026350785 -0.018518537 -0.013748387
0.026298722 0.012220125 0.0028033007 0.00045999297 0.052222904 -0.10291355 0.017497085 0.004437376
-0.08264156 0.06101423 0.019178702 0.005148136 0.0033659344 -0.021474198 0.011299239 0.02863782
-0.011200859 0.037311204 -0.014596636 -0.005790774 0.051841322 -0.03804172 0.016055489 0.08497796
-0.038678166 -0.07070692 0.025960194 0.02899905 -0.022385063 0.081010774 0.02615543 0.016672345
-0.030325413 0.013228714 0.026424501 -0.0051488 0.095509954 0.055956792 0.05327449 0.02875661

autoencoder.decoder_in.0.bias f4 [441]
00000000: a3c1 fe3a 5f51 1d3b 7612 763d 8895 123c
00000010: aeb1 b83c 2dcb f13d 0608 80bd 239d 083d
00000020: 33df f23c ae0a c93d e237 ab3d ca77 143d
00000030: a8ac 0a3d cc14 5fbd 2d73 d83c 4e07 79bb
00000040: 2c45 6a3d caab 043e c011 dd3d e8a8 0bbd
00000050: e117 f73d c004 923d aaf0 c53a 14a3 62bc
00000060: f460 42bd 0f28 cdbc c117 91bc 6de7 413d
00000070: d3ff a8bc 39cc 8cbd b5f1 25bd 543c 64bd
00000080: 7848 29bd 6299 823c 7296 7a3d 565e 2abd
00000090: f4f9 4f3d 4bb6 a13d cace 2c3d 1fad 2f3d
000000a0: 79b0 a5bd fb54 81bc 1082 b83a ac01 2a3d
000000b0: aa81 053d 3b1e 94bd e78a d5bc 93e1 aa3d
000000c0: de3c 5f3c 2278 57bd 74b7 30bd abfa 423d
000000d0: c057 9abd 9bc9 e13c c065 86bd 7bb8 01bd
000000e0: 749e 60bd b291 ac3d 37a4 93bd 62c3 c4bd
000000f0: 0dea c23d 1eca 7cbd df8b 13bd 8ccd c03c
00000100: 6b0d 79bd 6c04 523d 1733 c83d 5d43 55bd
00000110: bfb7 84bd 4fe6 713d df01 ff3b f8fe 87bd
00000120: 3fdc 14bd 7be7 85bd a9af d03d dbe2 f43c
00000130: 478c 6e3d 6625 c6bc 3ddf 96bd c4be 95bc
00000140: f297 3cbd 58ca 2ebd 56d4 8e3d 26e7 57bd
00000150: bf8c bcbd eeff 9d3d 17aa 8dbc 9b92 ca3d
00000160: 1b83 40bd 2121 3bbd f751 d03c 7ec0 8fbd
00000170: dbeb c53b 2b92 773d d5a4 6c3d 4aa7 b13d
00000180: 349d 313d 4f25 a33b a616 903c 5966 b1bd
00000190: 7dc6 14bc 43b8 97bd f023 d1bd 2e4c ac3c
000001a0: 0a8e 1c3d 94c5 58bd 674d 253d a24c cfbd
000001b0: 14d0 f13d fad1 fa3d ad8a 4a3c 1c4d 84bc
000001c0: 678d 653d d66e 43bd 356d 7f3d 5379 a8bd
000001d0: 63b4 b23d d12c aebb 7987 9fbd 7941 863d
000001e0: b6d6 453d b856 f73c ec62 29bc 22c5 39bd
000001f0: 7273 9b3d c2e7 2d3d 6ca4 873d e8e0 06bd
00000200: 5be3 fbbd 21c0 acbd 60ce 573c 539d d23d
00000210: e66e 043d e6a8 963c 2f85 b1bb 4c24 78bc
00000220: 6edd 743b a6c8 d83d 9c31 99bb 165e b63d
00000230: cf3a 043c 80fb 693b b4c7 d73c a838 6cbc
00000240: d696 d23d 38d0 cc3d 6fbe 8dbd 3b65 2c3c
00000250: 3ead 60bc f7c9 12bd a4d4 313c 657e c73c
00000260: f2df 0abd 990c 903d dad4 8cbd b1a2 583d
00000270: 611e 0fbd 13c2 313d 9737 1a3e 5ff9 d33d
00000280: f985 95bd 5c14 14bc 3d15 4d3c 2e92 963d
00000290: b5ba 8bbd 3789 b03d c0cf 45bd 2a36 dfbc
000002a0: 5fd0 ebbd f0c6 23bc f109 87bd dadb fc3c
000002b0: 6b32 91bc 0656 c83d 5876 bd3d 36d4 7abd
000002c0: 60b5 b43d ed66 893d f54b b9bd ecde 8a3d
000002d0: c27a 5b3d 3b07 56bd 5708 93bd 7c0f 6d3d
000002e0: eab7 5ebd fc38 083e 0a6e 483d 4804 6b3c
000002f0: 6be3 c03d 527e 68ba dcd2 403d c64a 3fbd
00000300: 387d 91bd 210e 5d3c fef1 88bd ad50 73bd
00000310: 8f02 08bd 8647 2cbb 8b5a 763c a9fb 0dbd
00000320: 2813 713d d85a 09bd c74e c0bc d7c8 bfbc
00000330: e7b0 b83d 6d0b c03c 822a 5bbc 8327 b1bd
00000340: c695 a53d 3cb7 a43c 885b 13bd 867e e8bc
00000350: 31a3 1e3d c9ba 94bd 09a4 4b3c adfe 9a3d
00000360: 7c83 343d 2bd5 083d 4d36 51bd 5ef5 b3bd
00000370: 8994 0f3e b841 143e 9bd1 b93d 9f5a a83c
00000380: 4f8d c4bd 6262 81bd d7b2 c03c f533 483d
00000390: 41f7 8f3d caba 6e3d c3a8 cebd 7309 89bd
000003a0: f88a d9bb ba34 6c3d 3767 d43c b944 263c
000003b0: 33c5 343d 2a3d 683d 9ab9 683c 1a93 8fbd
000003c0: 70a9 61bd 43c5 5ebd 9092 7c3d d046 f6bc
000003d0: ef6e 45bd cc7b eb3c 774c 70bd 71aa 82bd
000003e0: e869 83bd ee2f 20bd 185e 813c ccf4 773d
000003f0: 1af8 1ebd 3ecd 4e3c 1d1a 53bd 0de2 a3bb
0.001943637 0.00240048 0.0600762 0.008946784 0.022545662 0.11806331 -0.0625153 0.033352982
0.029647445 0.0981649 0.08360268 0.036247052 0.033856064 -0.054463193 0.026422108 -0.0037998739
0.057194874 0.12956157 0.10794401 -0.03409663 0.120651014 0.07129812 0.0015101631 -0.013832826
-0.047455743 -0.025043515 -0.017711522 0.047339845 -0.020629799 -0.0687489 -0.040513713 -0.055721596
-0.041328877 0.01594228 0.061178632 -0.041593872 0.050775483 0.07896098 0.042189397 0.04288971
-0.080903 -0.015787592 0.0014076848 0.0415055 0.03259436 -0.072323285 -0.02606721 0.08343806
0.013625352 -0.052604802 -0.043143705 0.047602337 -0.07536268 0.027561953 -0.06562376 -0.031670075
-0.054838613 0.08426227 -0.07209056 -0.09607579 0.09517298 -0.06171619 -0.036022063 0.023535512
-0.060803812 0.05127375 0.097753696 -0.052066196 -0.06480359 0.05905753 0.0077822055 -0.06640428
-0.036342856 -0.06538292 0.101897545 0.02989333 0.058239248 -0.024187755 -0.07366798 -0.01827944
-0.046043344 -0.04267344 0.069740936 -0.052710675 -0.09206533 0.0771483 -0.01729302 0.09891244
-0.047000032 -0.04568589 0.025429709 -0.07019137 0.006040079 0.06044213 0.057774384 0.08674486
0.04336281 0.0049788128 0.017588925 -0.086620994 -0.009080526 -0.07408192 -0.10211933 0.021032419
0.038221397 -0.0529228 0.04035702 -0.101220384 0.11807266 0.12247081 0.012362164 -0.01615005
0.056043055 -0.047713123 0.062360007 -0.08226266 0.08725812 -0.005315401 -0.07789511 0.06555457
0.048300467 0.030192718 -0.010338526 -0.045354016 0.07590379 0.04245735 0.06623158 -0.03292933
-0.12299224 -0.08435083 0.013171762 0.102839135 0.032332323 0.018391084 -0.005417488 -0.015145373
0.0037363428 0.10585146 -0.0046751034 0.08904664 0.008070662 0.0035702884 0.026340343 -0.014417805
0.10282676 0.10000652 -0.06921088 0.010522182 -0.013713179 -0.03583714 0.01085392 0.024352262
-0.033904977 0.07033653 -0.06876536 0.05288953 -0.03494108 0.043397974 0.15060268 0.10350298
-0.07300944 -0.009038057 0.012517271 0.073521 -0.06822721 0.08619922 -0.04829383 -0.027247507
-0.11514353 -0.009996161 -0.06593693 0.030866552 -0.017724236 0.09782033 0.09251088 -0.061237536
0.08823657 0.06709085 -0.09047691 0.067808 0.053583868 -0.05225299 -0.07179325 0.057876095
-0.054374613 0.13302988 0.048933066 0.014344282 0.094183765 -0.0008868921 0.04707609 -0.04670217
-0.07103962 0.013492138 -0.06686781 -0.05940311 -0.033205565 -0.0026287748 0.015036236 -0.03466383
0.05885616 -0.0335339 -0.023475064 -0.023411198 0.090181164 0.023442948 -0.013376834 -0.086501144
0.08085208 0.020106904 -0.035975963 -0.028380644 0.03872985 -0.07262189 0.012429246 0.07568107
0.044070706 0.033406418 -0.051077176 -0.087870345 0.14021505 0.14478195 0.09073182 0.020551024
-0.09597265 -0.06317593 0.023522777 0.048877675 0.07029582 0.058283605 -0.100907825 -0.066912554
-0.006638881 0.05766747 0.025928123 0.010148221 0.044133376 0.056698956 0.014204407 -0.07010479
-0.05509323 -0.054387342 0.06166321 -0.030063063 -0.048201498 0.028745554 -0.058666673 -0.06380165
-0.064166844 -0.03910821 0.015791938 0.06053619 -0.038810827 0.012622176 -0.051538575 -0.0050013126
