models/checkpoints/SMALLAE/MNIST/MNIST_SMLLAE_0.0001_32_10_3.pth (torch, 191494 bytes, 23 tensors)

autoencoder.encoder.0.0.weight f4 [3, 1, 5, 5]
0	0xbda21d60	-0.07915759
1	0xbd93e9a9	-0.072223015
2	0xbe0416d3	-0.12899332
3	0xbe17b92d	-0.14816733
4	0xbdc637df	-0.09678625
5	0xbd832be5	-0.064048566
6	0xbccee268	-0.025254443
7	0x3b765f82	0.0037593548
8	0xbc36a4d0	-0.011147693
9	0xbd033b81	-0.03203917
10	0xbdb63d0e	-0.08898364
11	0xbd0393ad	-0.032123256
12	0xbda0e9bd	-0.07857082
13	0x3cb47406	0.02202798
14	0xbe341e71	-0.17589737
15	0xbd9882ef	-0.074468486
16	0xbe2377f1	-0.15963723
17	0xbbe6874b	-0.007035171
18	0x3d4b845f	0.049686786
19	0xbdb60759	-0.0888812
20	0x3ca5189c	0.020153336
21	0xbe00fb1f	-0.12595795
22	0x3b2652bf	0.002537891
23	0xbdd3b60d	-0.10337458
24	0xbe466c96	-0.1937736
25	0xbbfc56d8	-0.0077007823
26	0xbd96be58	-0.07360524
27	0xbdcac8b9	-0.09901566
28	0xbd9b645c	-0.075875014
29	0xbd96c5fa	-0.0736198
30	0xbddc802c	-0.10766634
31	0xbd15d2c3	-0.03657795
32	0xbd8f92e3	-0.07010438
33	0xbd55ae25	-0.05216803
34	0xbd8e5cf5	-0.06951324
35	0xbe022243	-0.12708382
36	0x3d12f4e7	0.03587809
37	0x3bcf8542	0.0063330242
38	0xbd1ea42f	-0.038730796
39	0xbd9104d4	-0.07080999
40	0xbd08d6a0	-0.033407807
41	0x3ca20926	0.019779753
42	0xbd4cfe62	-0.050047286
43	0xbdd535cb	-0.10410651
44	0x3cc962c5	0.02458323
45	0xbdc53d3e	-0.09630822
46	0xbdd8be7e	-0.105832085
47	0xbde49fc7	-0.111632876
48	0xbc85b49b	-0.016321471
49	0x3e30a014	0.17248565
50	0x3d937d20	0.072016
51	0x3e134a22	0.14383748
52	0x3e167818	0.1469425
53	0x3e528e68	0.20562136
54	0x3db15d60	0.08660388
55	0x3d79bdba	0.060971953
56	0x3e7f7f6e	0.24950954
57	0x3e898a38	0.26863265
58	0x3e2cf015	0.16888459
59	0xbd0ffca7	-0.035153057
60	0x3dc58c66	0.096459195
61	0x3e29dfb7	0.16589247
62	0x3dd103fa	0.102058366
63	0x3d1a42f0	0.037661493
64	0xbcfd0bf9	-0.030889498
65	0xbd46bf45	-0.048522253
66	0x3bea33e0	0.0071472973
67	0xbd070971	-0.03296799
68	0xbb86e9a1	-0.004117206
69	0xbc29a812	-0.0103550125
70	0x3c6d6f88	0.014491923
71	0x3c4d6e3f	0.012538492
72	0x3b7ea5c9	0.003885614
73	0x3c285dd9	0.010276281
74	0x3d9818fd	0.07426641

autoencoder.encoder.0.0.bias f4 [3]
0	0x366b18dd	3.5032201e-06
1	0xb6080407	-2.0267923e-06
2	0x365fc1b8	3.3342349e-06

autoencoder.encoder.0.1.weight f4 [3]
0	0x3f5023c3	0.8130457
1	0x3f4bd16e	0.7961644
2	0x3f449bed	0.76800424

autoencoder.encoder.0.1.bias f4 [3]
0	0x3d2ad3d8	0.041705936
1	0x3e27ae12	0.16374996
2	0x3eddcb5e	0.4331922

autoencoder.encoder.0.1.running_mean f4 [3]
0	0x3f8b3144	1.087441
1	0x3f4399b6	0.7640642
2	0xbf92916a	-1.1450627

autoencoder.encoder.0.1.running_var f4 [3]
0	0x3ecd4be7	0.4009697
1	0x3e8606d7	0.26177093
2	0x3f3ffecf	0.7499818

autoencoder.encoder.0.3.weight f4 [9, 3, 5, 5]
0	0xbbbd507c	-0.0057774168
1	0xbc8d199b	-0.017224124
2	0xbcadb852	-0.021206055
3	0xbd221ea5	-0.039580006
4	0x3ddeac3b	0.10872694
5	0x3d4b63ca	0.049655713
6	0x3dd974b5	0.10617963
7	0xbd438866	-0.0477375
8	0xbd46532a	-0.048419155
9	0xbd425bae	-0.047450714
10	0xbdaed577	-0.08536809
11	0x3d7b27fa	0.06131742
12	0x3c967946	0.018368375
13	0xbd355ab9	-0.044275973
14	0x3d28a73e	0.04117512
15	0xbb2156fe	-0.0024618502
16	0x3bd85131	0.0066014756
17	0x3d09cd64	0.03364314
18	0xbd703c43	-0.05865122
19	0x3dcadd92	0.099055424
20	0x3bb5c7a3	0.00554748
21	0xbc3c4d4b	-0.011493037
22	0x3dd083a5	0.10181359
23	0xbb9da5af	-0.004811011
24	0x3d198323	0.037478577
25	0xbc961c0f	-0.018323926
26	0xbd66f046	-0.056381486
27	0xbc1ceaae	-0.009577436
28	0x3c730109	0.01483179
29	0x3d5aa4ae	0.053379707
30	0x3cfba681	0.030719044
31	0x3b92b356	0.004476945
32	0x3cec1582	0.02881885
33	0xbd844eee	-0.06460367
34	0xbd4923f4	-0.049106553
35	0xbd373615	-0.04472931
36	0xbc30bee2	-0.0107876975
37	0x3c29decd	0.010368061
38	0xbd8613d7	-0.06546753
39	0x3dd445dd	0.10364888
40	0xbc8d73d2	-0.017267141
41	0xbd6e3a0f	-0.058160838
42	0x3d78914d	0.060685445
43	0xbd45900f	-0.048233088
44	0xbcefa373	-0.029252743
45	0x3c901148	0.017586365
46	0xbcffca8d	-0.031224513
47	0x3d048155	0.032349903
48	0xbde7fd37	-0.11327594
49	0xbd911ba8	-0.07085353
50	0xbb7d9ef8	-0.003869949
51	0x3c982a98	0.018574998
52	0x3ce89049	0.028389113
53	0x3c36ff79	0.011169308
54	0xbda3ac17	-0.07991808
55	0xbd16bd89	-0.03680185
56	0xbd32071c	-0.04346381
57	0xbd3993ea	-0.045307077
58	0x3d9b84f3	0.075937174
59	0x3d6abf9e	0.057311647
60	0xbcf89dee	-0.030348744
61	0xbcb3011e	-0.021851119
62	0xbde63e64	-0.11242369
63	0x3d89bf31	0.0672592
64	0x3aa6a6f2	0.0012714549
65	0x3bd61778	0.0065335594
66	0x3b20bfb3	0.0024528324
67	0xbd19ab7b	-0.037517052
68	0x3d7ca99d	0.061685193
69	0xbddced77	-0.1078748
70	0x3d1f72ff	0.03892803
71	0x3daae126	0.08343725
72	0xbdbcced4	-0.09219137
73	0x3d9b4307	0.07581144
74	0x3d2abd62	0.041684516
75	0x3cce05ff	0.025149344
76	0xbcc4ff16	-0.024047416
77	0xbd061a2c	-0.032739803
78	0xbc9c999d	-0.019116217
79	0xbc19fb22	-0.009398254
80	0x3c076edf	0.00826618
81	0x3bd005a9	0.006348331
82	0x3d69f063	0.057114016
83	0xbdcec329	-0.100958176
84	0xbca3f83f	-0.020015834
85	0x3d54f55d	0.05199181
86	0xbc38eb68	-0.011286594
87	0x3d7f57d0	0.062339604
88	0xbd08a0e9	-0.03335658
89	0x3d338adb	0.043833595
90	0xbcba488d	-0.022739673
91	0xbdba9933	-0.09111252
92	0x3d37d9c2	0.044885404
93	0xbc3c301c	-0.01148608
94	0xbd3024a4	-0.043003693
95	0x3dcd8292	0.1003467
96	0xbcab96c8	-0.020945922
97	0x3d509b57	0.050929394
98	0xbd265a5f	-0.04061353
99	0x3d838788	0.06422335
100	0x3d83cb9a	0.06435318
101	0xbca7221a	-0.020402003
102	0x3cf9f89f	0.03051406
103	0xbc96ab2a	-0.018392164
104	0x3d343645	0.043997068
105	0xbd52cd48	-0.051465303
106	0x3cbfeb3e	0.023427602
107	0x3d1a18b6	0.037621222
108	0xbacc4571	-0.001558466
109	0x3cedfb4a	0.029050488
110	0xbc92cc34	-0.017919637
111	0xbd205ea9	-0.039152775
112	0x3cbf8134	0.023377039
113	0x3cce4239	0.025178062
114	0xbd8858b5	-0.066575445
115	0x3d2b70b3	0.041855525
116	0xbdaa0ab7	-0.08302825
117	0x3d1f83cb	0.038944047
118	0x3d54a352	0.051913567
119	0x3b32b441	0.0027268084
120	0x3d3f0a97	0.04664096
121	0xbd38c918	-0.045113653
122	0xbc956600	-0.018237114
123	0xbd160a79	-0.03663108
124	0x3cb033ce	0.021509077
125	0x3dab3ae2	0.083608404
126	0x3d59e553	0.053197216
127	0xbd0e937c	-0.03480862
128	0x3d636c28	0.055523068
129	0xbcbd2cb5	-0.023092607
130	0x3dde308a	0.10849102
131	0xbdbb65e8	-0.091502964
132	0xbd2851bf	-0.041093584
133	0x3d04ebf7	0.032451596
134	0x3cc8f55b	0.024531057
135	0x3c78181e	0.015142469
136	0xbd9c7ac0	-0.076406
137	0xbd8814a5	-0.06644563
138	0xbd0e5e03	-0.034757625
139	0x3d17b8de	0.037041537
140	0x3d950249	0.072758265
141	0x3e0a69e0	0.1351695
142	0x3bf482a9	0.007461865
143	0xbda11def	-0.078670375
144	0x3df7af4f	0.12093984
145	0xbcc555cf	-0.024088768
146	0x3d77d6a8	0.060507447
147	0xbd0a9699	-0.033835027
148	0x3c2724b2	0.01020162
149	0x3dacaacc	0.084310144
150	0xbbdbe7e9	-0.0067109955
151	0x3c80e448	0.015733853
152	0x3d991e7b	0.07476517
153	0xbc57ce8d	-0.013171804
154	0x3d41243a	0.04715369
155	0x3ddfec3b	0.10933729
156	0x3d2e32cd	0.042528916
157	0x3de25c90	0.11052811
158	0xbd97be51	-0.07409347
159	0xbd40dd78	-0.04708621
160	0x3b887b91	0.004165121
161	0xbc6e1457	-0.014531217
162	0x3d8c032c	0.068365425
163	0x3dd4e518	0.10395259
164	0xbddfd612	-0.109295025
165	0x3d49d6ef	0.049277242
166	0x3c27b089	0.01023496
167	0x3d0a3c5a	0.033748962
168	0x3d9bf3b2	0.076148406
169	0xbd60af9f	-0.054854985
170	0x3d69da6f	0.05709308
171	0xbb721b66	-0.00369426
172	0x3c2d593b	0.010580356
173	0x3cea10e2	0.028572503
174	0x3ce62135	0.028092006
175	0xbd4e93d5	-0.050433952
176	0x3d15abd6	0.03654083
177	0x3c0333fc	0.0080079995
178	0x3ba2fd4e	0.004974044
179	0x3d88f5c9	0.06687505
180	0x3d4feb9e	0.05076181
181	0x3ca91da6	0.02064402
182	0x3caf162d	0.021372879
183	0xbdd7329b	-0.10507699
184	0xbc8a5782	-0.01688743
185	0x3d0f1b49	0.03493813
186	0xbd88aa82	-0.06673147
187	0xbd08bf0c	-0.03338532
188	0xba6337cb	-0.00086676766
189	0x3d112d1e	0.035443418
190	0x3dd4c8aa	0.10389836
191	0x3bb9c087	0.005668703
192	0xba4c2915	-0.0007788104
193	0x3d312760	0.04325044
194	0xbcec0418	-0.028810546
195	0x3db5e266	0.08881073
196	0xbc35891b	-0.011080052
197	0xbcba7beb	-0.022764167
198	0xbd5d646e	-0.054050855
199	0xbdc24843	-0.09486439
200	0xbcad6a79	-0.021168934
201	0x3d3d4a86	0.04621365
202	0xbc81e997	-0.015858455
203	0x3cfd83ad	0.030946577
204	0xbc6f78e1	-0.014616222
205	0xbc84606d	-0.01615926
206	0x3ca18f8c	0.019721769
207	0xbc885482	-0.016641859
208	0x3d51c59e	0.051213853
209	0x3dc40f0f	0.09573185
210	0x3dc3c5ff	0.09559249
211	0x3d84bb75	0.06481067
212	0xbc8f5ccc	-0.017500304
213	0xbd824cd3	-0.06362309
214	0xbcaf5871	-0.021404477
215	0x3cf416f8	0.029796109
216	0x3df40c27	0.119163804
217	0xbd068050	-0.032837212
218	0xbde375b2	-0.11106433
219	0xbc88d257	-0.01670186
220	0xbc34d9dc	-0.01103827
221	0x3d9be7f9	0.07612605
222	0x3d112374	0.0354342
223	0xbcafa786	-0.021442186
224	0xba5f93fc	-0.00085288263
225	0x3c6971bf	0.014248311
226	0x3cacd3e1	0.021097125
227	0x3c8aad55	0.016928354
228	0xbc938def	-0.018012015
229	0xbd37c0e7	-0.0448617
230	0x3c861e16	0.016371768
231	0xbd6b5a72	-0.057459302
232	0xbbb8da6b	-0.005641272
233	0x3d31cfe8	0.043411165
234	0xbd0e246c	-0.034702703
235	0xba93fca2	-0.00112905
236	0xbe04e3cf	-0.12977527
237	0xbd144f08	-0.036208183
238	0x3c44b729	0.012006559
239	0x3c78cdd6	0.015185794
240	0x3cd8f756	0.026485126
241	0xbccc47a9	-0.024936514
242	0x3c28990d	0.010290396
243	0xbb90f0cc	-0.0044232365
244	0xbd37c26c	-0.04486315
245	0xbc9fabdf	-0.019491134
246	0x3d3d3a07	0.046197917
247	0xbd064d7b	-0.032788735
248	0x3cc8e039	0.02452098
249	0x3d385b5e	0.04500901
250	0xbccb7880	-0.024837732
251	0xbdba42ee	-0.09094797
252	0xbca8a02a	-0.020584185
253	0x3d9bd68b	0.0760928
254	0x3b848674	0.0040443484
255	0xbd171eed	-0.036894727

autoencoder.encoder.0.3.bias f4 [9]
0	0xb6b93476	-5.519537e-06
1	0xb5c36cba	-1.4560276e-06
2	0xb5d15a12	-1.5597927e-06
3	0xb6921ad2	-4.3542614e-06
4	0x3404d390	1.2370424e-07
5	0xb661b727	-3.3634221e-06
6	0xb6207a2a	-2.3912967e-06
7	0x3498a941	2.8435355e-07
8	0x35eaeec8	1.7503853e-06

autoencoder.encoder.0.4.weight f4 [9]
0	0x3f14c049	0.58105904
1	0x3f14eb5c	0.5817163
2	0x3f1f6f5c	0.62279296
3	0x3f06fa67	0.52725834
4	0x3ee531c6	0.44764537
5	0x3f149075	0.58032924
6	0x3f2bba5e	0.6708125
7	0x3f107339	0.56425816
8	0x3f1090b0	0.56470776

autoencoder.encoder.0.4.bias f4 [9]
0	0x3d522cf5	0.051312406
1	0xbdc38a8b	-0.09547909
2	0xbcfaed41	-0.03063071
3	0xbbab1be9	-0.005221833
4	0x3dbbaeef	0.09164225
5	0x3d754a34	0.05988522
6	0xbd894a45	-0.06703619
7	0x3e1545fd	0.1457748
8	0x3d3f8474	0.046757177

autoencoder.encoder.0.4.running_mean f4 [9]
0	0xbdb924c2	-0.09040214
1	0x3e03de61	0.128778
2	0x3e376905	0.17911156
3	0xbe48d667	-0.19613038
4	0xbbc29140	-0.0059377253
5	0xbe01121d	-0.12604566
6	0x3c859574	0.016306616
7	0xbdbbdc77	-0.0917291
8	0x3db05248	0.08609444

autoencoder.encoder.0.4.running_var f4 [9]
0	0x3cdaef91	0.026725562
1	0x3d839ab4	0.06425992
2	0x3d35f9e4	0.044427767
3	0x3d0084c6	0.031376623
4	0x3d10ab0d	0.035319377
5	0x3d7fddd6	0.06246742
6	0x3d37100c	0.044693038
7	0x3d31730c	0.043322608
8	0x3d6c176a	0.057639517

autoencoder.decoder.0.0.weight f4 [9, 3, 4, 4]
0	0x3d16f9d4	0.03685935
1	0x3c7ed365	0.01555333
2	0xbde74af5	-0.11293594
3	0xbe317a0e	-0.17331716
4	0x3d58f052	0.052963562
5	0x3d2590a4	0.040421143
6	0x3de5c11d	0.11218474
7	0x3e171fd2	0.14758232
8	0x3da60157	0.08105724
9	0x3d9aed0a	0.07564743
10	0x3d2c17db	0.042014938
11	0x3b88a67b	0.0041702366
12	0x3cc9cd06	0.024633896
13	0xbd4017ce	-0.046897702
14	0xbda19570	-0.07889831
15	0x3d077ed8	0.033079952
16	0xb8d95357	-0.000103628896
17	0xbcd4278e	-0.025897767
18	0x3db86dc9	0.09005315
19	0x3e152258	0.14563882
20	0xbcccdb51	-0.025006922
21	0xbd8e89e9	-0.06959898
22	0xbde6912a	-0.112581566
23	0xbdf6e013	-0.120544575
24	0xbcc2456e	-0.023714747
25	0xbddcea35	-0.10786859
26	0xbdfafe3f	-0.12255525
27	0xbdadbbc4	-0.08483079
28	0x3c08ea18	0.008356594
29	0x3c823960	0.0158965
30	0x3d2771c4	0.04087998
31	0xbd31c296	-0.043398462
32	0x3dcad088	0.099030554
33	0x3d1b0ce8	0.037854105
34	0x3b88e2a1	0.004177407
35	0xbb2b6501	-0.0026152732
36	0x3d314a99	0.043284032
37	0xbb4e0621	-0.0031436759
38	0xbe0bd374	-0.13654882
39	0xbba67107	-0.005079392
40	0x3d8748dd	0.066056944
41	0xbc5dcc6f	-0.01353751
42	0xbda2e282	-0.07953359
43	0xbc0b3c81	-0.008498312
44	0x3daf62c9	0.08563764
45	0x3ca0b20c	0.01961615
46	0x3ba3a902	0.0049945125
47	0xbb8d51e9	-0.004312743
48	0x3d6c7c5e	0.057735793
49	0xbd410f83	-0.047133934
50	0x3df03898	0.117295444
51	0x3de9233d	0.11383674
52	0xbb3168b9	-0.0027070476
53	0xbd9a29f9	-0.07527537
54	0x3df6734e	0.120337114
55	0x3d97e94e	0.07417546
56	0xbd3fbba9	-0.046809826
57	0xbd9a0ba4	-0.075217515
58	0xbc1134e4	-0.008862708
59	0xbd6b4f6e	-0.057448797
60	0xbc9bb6ad	-0.019008005
61	0x3dbc475c	0.09193298
62	0xbce5b739	-0.028041469
63	0xbe1dc5d1	-0.15407492
64	0xbc6dc6f3	-0.014512765
65	0x3d76ce48	0.06025532
66	0xbde2c60c	-0.11072931
67	0xbdd6a5c5	-0.10480837
68	0x3db070d1	0.08615268
69	0x3dd5d8e0	0.10441756
70	0xbd9fd3ad	-0.07804046
71	0x3ccd78aa	0.025081951
72	0x3d860ecd	0.06545792
73	0x3d716bd8	0.05894074
74	0x3d9f0df0	0.0776633
75	0x3e03a2bf	0.12855051
76	0x3a214db6	0.00061532424
77	0xbe094fe3	-0.1340938
78	0xbb98faf5	-0.0046685883
79	0x3e0e3157	0.13886009
80	0x3d957d0e	0.07299243
81	0x3b064ca2	0.0020492454
82	0xbd3c3d5c	-0.045956954
83	0x3c7b5144	0.015339199
84	0x3d275799	0.040855024
85	0xbcb7f423	-0.02245528
86	0xbc3dc7ce	-0.011583282
87	0xbcbbe931	-0.022938343
88	0x3cf64ce6	0.030065965
89	0x3b17635c	0.0023099994
90	0x3dde9abb	0.10869356
91	0xbb4f9977	-0.0031677166
92	0xbdbddf3b	-0.092710935
93	0x3b7cab60	0.0038554296
94	0x3da9bf46	0.08288436
95	0xbb99aa61	-0.0046895
96	0x3d0a13ae	0.033710174
97	0x3dfe61b6	0.12420981
98	0xbd92de1b	-0.071712695
99	0xbdcf5bab	-0.10124906
100	0x3d832477	0.064034395
101	0xbcb0c9a1	-0.02158052
102	0xbe2451ab	-0.16046779
103	0xbdeba061	-0.11505199
104	0x3a18eff4	0.00058340956
105	0xbe5e5a7d	-0.21714206
106	0xbe44b350	-0.19209027
107	0xbd88567f	-0.06657123
108	0x3d281456	0.04103502
109	0xbe112c2b	-0.14177005
110	0xbd4ccd5c	-0.050000533
111	0x3db2a9b1	0.08723772
112	0xbd240b7a	-0.040050007
113	0xbe2a6ba1	-0.1664262
114	0xbbe348d7	-0.0069361734
115	0x3dc01ddd	0.09380696
116	0xbde4913c	-0.11160514
117	0xbdb40dae	-0.08791672
118	0x3d9c3555	0.0762736
119	0x3d7427a4	0.059608117
120	0xbde917e9	-0.113815136
121	0x3d1c0d8a	0.03809885
122	0x3d7548e6	0.059883974
123	0x3c3e7817	0.011625311
124	0xbdd24aec	-0.102681965
125	0x3cbfd969	0.023419099
126	0xbd4b9ac0	-0.049708128
127	0xbd828bb3	-0.06374302
128	0xbdd5f681	-0.104474075
129	0x3c539041	0.012912811
130	0x3d698a24	0.057016507
131	0xbc0ad46b	-0.008473496
132	0xbbaab1e5	-0.005209195
133	0x3bbb189a	0.00570972
134	0x3db288d8	0.08717507
135	0x3b1d27f1	0.0023980106
136	0x3dbc0972	0.09181489
137	0x3c0eb3ad	0.00870983
138	0x3e03412c	0.1281783
139	0x3cc82036	0.024429422
140	0x3d11b414	0.035572127
141	0xb9a75e38	-0.0003192292
142	0x3d44d14a	0.048051156
143	0x3ca185ec	0.01971718
144	0x3d337870	0.04381603
145	0x3dd5cfc5	0.104400195
146	0x3dd4f60b	0.103984915
147	0x3d72b595	0.0592552
148	0x3d7d329e	0.06181585
149	0x3db70795	0.08936993
150	0x3d1510e8	0.036393076
151	0xbd050da4	-0.03248371
152	0x3d2964b1	0.041355792
153	0xbc9faee9	-0.019492583
154	0xbdb829e8	-0.08992368
155	0xbcb37fa7	-0.021911455
156	0x3d12c4a9	0.03583208
157	0x3c44a3a7	0.012001908
158	0xbcd843ff	-0.02639961
159	0x3c805f64	0.015670486
160	0xbd8d0771	-0.06886185
161	0xbe00694a	-0.12540165
162	0xbdab6c91	-0.08370317
163	0xbcf7d216	-0.030251544
164	0xbd8caf0b	-0.06869324
165	0xbe112c01	-0.14176942
166	0x3baeb01c	0.0053310525
167	0x3ce0ff03	0.027465349
168	0xbd7861b0	-0.060640037
169	0x3bac92f7	0.005266543
170	0x3dc57042	0.09640552
171	0x3c39809d	0.011322168
172	0xbd14d993	-0.036340307
173	0x3a2c2ac5	0.00065676525
174	0x3d136f23	0.03599466
175	0x3bd83446	0.0065980284
176	0xbd643848	-0.055717736
177	0x3c6e1b67	0.0145329
178	0xbe11abf9	-0.14225759
179	0xbc2e0ef6	-0.010623684
180	0xbd0f9839	-0.03505728
181	0x3c5e4c93	0.013568061
182	0xba424f0e	-0.0007412293
183	0xbc2bfe6f	-0.010497673
184	0xbccb5e69	-0.024825292
185	0x3ca660d2	0.02030984
186	0x3d8089d2	0.06276287
187	0xbc62a802	-0.0138340015
188	0x3c8fb639	0.017542945
189	0xbae2c7f5	-0.0017302023
190	0x3cd58785	0.026065597
191	0xbc67a074	-0.014137376
192	0x3dbd7baa	0.09252103
193	0xbc3e1b57	-0.011603198
194	0xbdf5eea3	-0.12008407
195	0xbda2f6d9	-0.07957239
196	0x3d9e91da	0.07742663
197	0xbe1ada02	-0.15122226
198	0xbddec82d	-0.10878024
199	0xbd615ac9	-0.05501822
200	0xbc5f2489	-0.0136195505
201	0xbd45e5ce	-0.048314862
202	0x3b0b1fd4	0.0021228688
203	0x3b7d2b77	0.0038630643
204	0xbcd2fd63	-0.02575559
205	0xbba794de	-0.005114182
206	0x3d848132	0.064699546
207	0x3d605973	0.054772805
208	0xbc0ab822	-0.008466752
209	0x3da9b240	0.082859516
210	0x3e022f19	0.12713279
211	0x3dcd45f2	0.10023107
212	0xbd40ef44	-0.04710318
213	0x3e31f69e	0.17379233
214	0x3dfa3504	0.12217143
215	0x3d204974	0.03913255
216	0x3d2b9c36	0.04189702
217	0x3db69a00	0.08916092
218	0xbc247b68	-0.010039188
219	0xbcce47b1	-0.02518067
220	0x3cb3c4cc	0.021944426
221	0x3c830502	0.015993599
222	0xbd705a7e	-0.05868005
223	0xbd92b056	-0.0716254
224	0x3e1d994e	0.15390512
225	0xba5cba8c	-0.00084201316
226	0x3dcb5821	0.09928919
227	0xbc854bf4	-0.016271569
228	0x3db62bd4	0.08895078
229	0xbc15990d	-0.009130728
230	0x3cbfd29c	0.023415856
231	0xbc3c3a0d	-0.01148845
232	0xbc31674c	-0.010827851
233	0xbca18419	-0.01971631
234	0xbcf16876	-0.029468756
235	0x3c06893e	0.008211432
236	0xbd991487	-0.074746184
237	0xbbb02480	-0.005375445
238	0xbd7f1f4f	-0.062285718
239	0x3b12991b	0.002236909
240	0xbca97838	-0.020687208
241	0xbd8c080c	-0.06837472
242	0xbd7aa0d6	-0.06118854
243	0x3bdf2354	0.0068096314
244	0xbdf5de33	-0.12005272
245	0xbd0fd1c4	-0.035112157
246	0x3dac1878	0.084031045
247	0x3dcb1603	0.09916308
248	0xbdf01b64	-0.11723974
249	0xbbf389c9	-0.0074321968
250	0x3d904cd8	0.07045907
251	0x3d9a712c	0.07541117
252	0x3c79d14e	0.015247656
253	0xbd62f8f7	-0.055413213
254	0xbdb79cea	-0.08965476
255	0xbcbae548	-0.022814408

autoencoder.decoder.0.0.bias f4 [3]
0	0x3794699b	1.7692151e-05
1	0xb81c4fe2	-3.7267695e-05
2	0x3805d4fe	3.1908035e-05

autoencoder.decoder.0.1.weight f4 [3]
0	0x3f73ecb9	0.95283085
1	0x3f83bf94	1.029284
2	0x3f5fb8b8	0.87391233

autoencoder.decoder.0.1.bias f4 [3]
0	0x3db6e133	0.08929672
1	0x3e35243f	0.17689608
2	0xbe0f5c79	-0.1400012

autoencoder.decoder.0.1.running_mean f4 [3]
0	0xbc02c60d	-0.007981789
1	0xbaa70e96	-0.0012745436
2	0xbae8e73a	-0.0017769106

autoencoder.decoder.0.1.running_var f4 [3]
0	0x3a0cf546	0.0005377125
1	0x39d9bfb2	0.0004153229
2	0x3a0f55b8	0.000546779

autoencoder.decoder.0.3.weight f4 [3, 1, 4, 4]
0	0xbc630377	-0.013855807
1	0x3cb03753	0.021510756
2	0x3d80e370	0.0629338
3	0x3caf0024	0.021362372
4	0x3c9b79b5	0.018978933
5	0x3e2029e8	0.15640986
6	0x3e3d9097	0.18512188
7	0x3d1fb2e5	0.038988966
8	0x3d5f7d7a	0.054563023
9	0x3e453ec8	0.1926223
10	0x3e1f337e	0.15546986
11	0x3c60464d	0.013688636
12	0x3cd38bdb	0.025823524
13	0x3d88e668	0.066845715
14	0x3cfbb03a	0.03072368
15	0xbcc5d244	-0.024148114
16	0xbd0fb2c7	-0.035082605
17	0xbddc39cf	-0.107532136
18	0xbe0dacf2	-0.13835505
19	0xbdb8d97b	-0.09025856
20	0xbdfe53ed	-0.12418351
21	0xbe7a908d	-0.24469204
22	0xbe9839c2	-0.29731566
23	0xbe3d0561	-0.18459083
24	0xbe2f202b	-0.17102115
25	0xbe97a428	-0.2961743
26	0xbe84f616	-0.25969
27	0xbe00aebd	-0.12566657
28	0xbdbd491c	-0.0924246
29	0xbe135c9c	-0.14390796
30	0xbde1a4f7	-0.11017793
31	0xbd4ad657	-0.049520817
32	0xbbf0a005	-0.0073432946
33	0xbc2f8cd2	-0.0107147265
34	0xbc27be14	-0.010238189
35	0xbdb85ecb	-0.09002455
36	0x3be54fa1	0.006998018
37	0xbad456f0	-0.0016200226
38	0x3c35092e	0.011049552
39	0xbe82aedd	-0.25524035
40	0x3c600aba	0.013674432
41	0xbc930bce	-0.017949965
42	0x3c322ff0	0.010875687
43	0xbd953dab	-0.07287153
44	0xbbd1f96e	-0.006407908
45	0xbd2624f2	-0.040562578
46	0xbd1b8103	-0.037964832
47	0xbe8d35a1	-0.27579978

autoencoder.encoder_out.0.weight f4 [49, 441]
0	0xbbdc907d	-0.0067310915
1	0x3c1b76c6	0.009488767
2	0x3c5553b6	0.0130204465
3	0x3944c093	0.00018763756
4	0x3cbb6d96	0.022879403
5	0x3c6fc76c	0.014634948
6	0x3ce04c2b	0.02738007
7	0xbb204248	-0.002445357
8	0x3c04dc23	0.008109125
9	0xbafd3065	-0.0019316791
10	0x3bc94bba	0.0061430605
11	0x3b122533	0.0022300004
12	0x3b4caaba	0.003122969
13	0x3b41aae8	0.002955133
14	0xbc1743c7	-0.009232468
15	0xba7eaca7	-0.0009715058
16	0x3c9622a8	0.018327072
17	0x3beacfd3	0.007165888
18	0x3cfb38cb	0.03066673
19	0xbbb2c6d2	-0.00545583
20	0x3ace6c44	0.0015748818
21	0xbacf2f59	-0.0015806957
22	0x3ccf31bd	0.025292272
23	0x3c58a84d	0.01322372
24	0xbc4de71d	-0.012567309
25	0x3c1b4b51	0.009478406
26	0x3d10d55e	0.035359733
27	0xbc7f2eab	-0.015575091
28	0xbc5f75b0	-0.013638899
29	0xba855f44	-0.0010175486
30	0x3bd81bfc	0.006595133
31	0x3c1db41e	0.009625463
32	0x3c15493e	0.009111701
33	0x3c8c83a1	0.01715261
34	0x3d5f39b8	0.054498404
35	0xbc205471	-0.009785757
36	0x3cdcc75f	0.026950536
37	0xb613b02c	-2.2007252e-06
38	0x3b8cb461	0.004293964
39	0x3cc5886e	0.024112906
40	0xbc4438b3	-0.011976409
41	0x3b7c4573	0.0038493543
42	0xbcd5976c	-0.02607318
43	0xb988bd48	-0.00026080967
44	0x3cc6ade6	0.024252843
45	0x3cde064f	0.027102618
46	0xbb247679	-0.002509503
47	0xbd0f0b57	-0.034922924
48	0xbcadce79	-0.021216618
49	0xbb873451	-0.0041261096
50	0xbc3a18fb	-0.011358495
51	0xbc569f82	-0.013099553
52	0xbc0d393c	-0.008619603
53	0xbc22d8f1	-0.009939418
54	0xbc1a895f	-0.009432166
55	0xbc25419b	-0.010086442
56	0xbb99c011	-0.0046920856
57	0x3c190907	0.009340531
58	0xb88faa45	-6.8504865e-05
59	0x3c1b07e1	0.009462328
60	0x3c5daace	0.013529493
61	0x3cd5941b	0.026071599
62	0xbb1542cb	-0.0022775407
63	0xbc1f7977	-0.009733549
64	0x3c2f8423	0.010712656
65	0x3c87251e	0.016497191
66	0xbaf8ddbc	-0.001898698
67	0x3bbd7e0f	0.0057828496
68	0xbbb62081	-0.005558074
69	0xb949756d	-0.00019212598
70	0xbc6649a6	-0.014055645
71	0xbcab4e91	-0.020911487
72	0x3d034abd	0.032053698
73	0xbb8861e1	-0.0041620587
74	0x3c0d2670	0.008615121
75	0x3c79a71a	0.015237594
76	0xbc4b34ed	-0.012402755
77	0xbc269f76	-0.010169854
78	0xbbfc996d	-0.0077087195
79	0x3c5aea1a	0.013361478
80	0x3bdea7c1	0.0067949
81	0x3b95c42b	0.004570504
82	0x3d470e40	0.048597574
83	0xb90063a2	-0.00012244147
84	0xbcc463fa	-0.023973454
85	0xbcc02bb3	-0.023458337
86	0xbb18202a	-0.002321253
87	0x3ca8138b	0.020517131
88	0x3a81a4e3	0.0009891059
89	0x3d50f246	0.0510123
90	0xbcc10e01	-0.023566248
91	0xbc8b300e	-0.016990688
92	0x3a0c4a52	0.0005351651
93	0x3d066674	0.03281255
94	0xbccacac5	-0.024754891
95	0xbb1bce01	-0.002377391
96	0x3be92b42	0.0071157524
97	0x3d22a323	0.03970636
98	0xbc5d2e13	-0.0134997545
99	0xbc17c556	-0.009263357
100	0xbc349d2c	-0.011023801
101	0xbc3370c4	-0.010952178
102	0x3a6ee954	0.0009113748
103	0xbc3e19c3	-0.011602822
104	0xbca82fca	-0.0205306
105	0xbb3c769a	-0.0028757215
106	0xbc3f2dab	-0.011668603
107	0x3c580b18	0.013186239
108	0xbc50b9e6	-0.012739634
109	0xbcdbefd1	-0.026847752
110	0x3c19ca38	0.009386592
111	0x3bb919d9	0.0056488332
112	0xbb8bc2cd	-0.0042651654
113	0xbc9ff28e	-0.019524839
114	0x39fbd9e4	0.00048036792
115	0x3d062bb4	0.032756522
116	0x3c6f1844	0.014593188
117	0x3c2d4e1a	0.010577703
118	0x3bb559bb	0.0055343783
119	0xbae5a091	-0.0017519166
120	0x3ca6ccb6	0.020361286
121	0x3c9bfa0e	0.019040134
122	0xbb981bf0	-0.0046420023
123	0x39c986fa	0.00038438273
124	0x3b4874e4	0.003058725
125	0x3b8db4e4	0.0043245424
126	0x3a946146	0.0011320494
127	0xbd89c129	-0.067262955
128	0x3c90c5bc	0.017672412
129	0x3c0dcfe0	0.008655518
130	0xb7963c38	-1.7909435e-05
131	0x3cbc2f22	0.022971693
132	0xbc1ac87d	-0.009447214
133	0xbc2e4914	-0.01063754
134	0x3ceacc5c	0.0286619
135	0xbc77a4ea	-0.015115002
136	0x3c976500	0.018480778
137	0xbc2e2f99	-0.010631465
138	0x3ccb6d95	0.024832526
139	0x3ca05be5	0.019575069
140	0xbc734283	-0.014847401
141	0xbbe85820	-0.0070905834
142	0x3d159226	0.03651633
143	0x3c0f9949	0.008764573
144	0x3cebfa3c	0.028805844
145	0x3c958260	0.018250644
146	0xbd7a7da9	-0.061154995
147	0x3c378b70	0.011202678
148	0x3cbfa7cb	0.02339544
149	0xbbbdf164	-0.0057965983
150	0xbaeba8df	-0.0017979405
151	0x3ba68f65	0.005083012
152	0x3c261b01	0.010138274
153	0x3cda12d9	0.026620315
154	0x3bb6269c	0.005558802
155	0xbc8209c7	-0.015873803
156	0xbb7bc11a	-0.0038414658
157	0x3c3215a6	0.010869419
158	0x3cbe3634	0.023219205
159	0x3bb78dc2	0.0056016156
160	0xbb9d18b3	-0.004794204
161	0x3c546b90	0.012965098
162	0x3a8db8c5	0.0010812512
163	0x3c6494ce	0.013951493
164	0x3ccf7f63	0.025329297
165	0x3b63d9fd	0.0034767382
166	0xbbc0be05	-0.005882027
167	0xbc2d46f3	-0.010575998
168	0x3c6224b9	0.013802701
169	0xbc9fac3e	-0.019491311
170	0xbc743444	-0.014905039
171	0x3b801ccb	0.0039096824
172	0x3d0545a6	0.032537125
173	0x3ca414f5	0.020029524
174	0x3b04eefd	0.002028405
175	0x3cbf3a6b	0.023343286
176	0xba563d2c	-0.00081725675
177	0x3d133f22	0.03594888
178	0x3b5d7f1c	0.0033797687
179	0xbcb6b47f	-0.022302864
180	0x3cfa558d	0.030558372
181	0x3c7e7705	0.015531306
182	0x3c3283eb	0.0108957095
183	0xbcb37104	-0.021904476
184	0xb9a89b3a	-0.0003215911
185	0x3ca59a6a	0.020215232
186	0x3ccf518e	0.025307443
187	0x3cee6bc9	0.02910413
188	0x3c26868e	0.010163916
189	0x3c87f931	0.016598316
190	0xbcda79ed	-0.026669467
191	0x3c2f87d7	0.010713539
192	0x3c47ecb5	0.012202431
193	0xbd384b65	-0.044993777
194	0xbb02bcde	-0.0019949
195	0xbd262fae	-0.040572815
196	0x3b18d7dc	0.0023322022
197	0x3a88b114	0.001042875
198	0x3b97d175	0.0046331235
199	0x3b9c42be	0.0047686985
200	0x3c0a4474	0.008439172
201	0xbc61ad71	-0.013774262
202	0xbc97eb9b	-0.018544963
203	0xbc25bd6b	-0.010115962
204	0xbadc2877	-0.0016796727
205	0x3cb1285f	0.021625696
206	0x3c7dd527	0.015492714
207	0x3cb780df	0.022400318
208	0x3caea57a	0.02131914
209	0x3d167e17	0.036741342
210	0xbc8bc6c1	-0.017062547
211	0x3cb54b3e	0.022130605
212	0x3b92c7d4	0.004479388
213	0x3ceeee07	0.029166235
214	0xbad9ccf9	-0.0016616873
215	0xbba9e473	-0.005184704
216	0x3c4fb63d	0.012677726
217	0xbbb0ac35	-0.0053916224
218	0xba278f57	-0.0006391904
219	0xbb3c1068	-0.0028696302
220	0xbbbc7af2	-0.005751961
221	0x3d189823	0.037254464
222	0x3be2b639	0.0069186953
223	0x3cdbca15	0.026829759
224	0x3aecf4d9	0.0018078341
225	0x3ce77202	0.028252605
226	0x3b05aaec	0.0020396067
227	0x3aa37e9a	0.0012473643
228	0xbc5debf1	-0.013545022
229	0x3d7073ce	0.05870419
230	0xbdb16f84	-0.08663848
231	0x3d112dab	0.035443943
232	0xbc1f1962	-0.009710642
233	0x3c91c51d	0.017794186
234	0x3c624f11	0.013812796
235	0x3bc56f70	0.0060252473
236	0x3b125f67	0.0022334696
237	0x3d2e3ad2	0.042536564
238	0xbb848b11	-0.0040448983
239	0x3c9bd42b	0.019022068
240	0xbc11e7c2	-0.008905353
241	0xbc2d1b55	-0.0105655985
242	0xbd38fe35	-0.045164306
243	0x3d08d64a	0.033407487
244	0xbb64f3b0	-0.0034935288
245	0xbc7951cb	-0.015217255
246	0xbc101ce8	-0.008795954
247	0xbbbb1927	-0.0057097855
248	0xbb591e2c	-0.0033129556
249	0xbc369dd2	-0.011146026
250	0xbc411568	-0.011784889
251	0xbc3041db	-0.010757889
252	0x3c42b59c	0.011884119
253	0x3c439c92	0.011939185
254	0x3c62ebbc	0.013850149
255	0x3c427bd6	0.011870345

autoencoder.encoder_out.0.bias f4 [49]
0	0xbc1f8d75	-0.009738316
1	0x3ce446b5	0.027865747
2	0x3c9169a1	0.017750563
3	0x3b81d643	0.0039623096
4	0x3c335199	0.010944747
5	0xbd8f1eef	-0.06988322
6	0x3c7ae3ed	0.015313131
7	0xbc69f5e3	-0.014279815
8	0x3c82eab0	0.015981048
9	0xbc6df94e	-0.014524771
10	0xbd99d7bd	-0.07511852
11	0x3d28b0ba	0.041184165
12	0xbd8ad0c8	-0.06778103
13	0x3ba43c11	0.0050120433
14	0x3d0e7457	0.03477892
15	0xbc384161	-0.011246056
16	0x3d08b133	0.033372115
17	0x3d07a9f1	0.033121053
18	0x3c896a18	0.016774222
19	0x3bd60ba2	0.0065321485
20	0x3be83a1e	0.0070870062
21	0x3cb0da95	0.021588603
22	0x3cf46f89	0.02983834
23	0x3cb7a9d8	0.022419855
24	0x3d314c43	0.04328562
25	0xbd693972	-0.05693955
26	0x3d58e2b0	0.05295056
27	0x3d06d36e	0.03291648
28	0xbab76eb9	-0.001399479
29	0x3beb391f	0.00717844
30	0x3d1167de	0.035499446
31	0xbd1f3902	-0.038872726
32	0x3d07991c	0.033105
33	0x3dc02142	0.093813434
34	0xbb8cbae2	-0.004294739
35	0xbd822f87	-0.06356721
36	0xbc685f0b	-0.014182816
37	0x3ced8631	0.028994652
38	0x3d5d628e	0.054049067
39	0xbd96957d	-0.073527314
40	0x3c51e5a9	0.012811103
41	0x3ce55823	0.027996128
42	0x3cd70d06	0.026251327
43	0x3c90a00c	0.017654441
44	0x3c7418ef	0.014898523
45	0x3b8ee74a	0.004361068
46	0x3cb3b685	0.021937618
47	0xbb88b695	-0.004172156
48	0xbd65621c	-0.056001768

autoencoder.decoder_in.0.weight f4 [441, 49]
0	0x3bd0344b	0.00635389
1	0xbc22df33	-0.00994091
2	0x3b1dfda6	0.0024107485
3	0xbc2c058e	-0.010499371
4	0xbb1b0516	-0.0023654155
5	0x3be4fb8a	0.0069879936
6	0xbab852e0	-0.0014062785
7	0x3c0f15e6	0.008733248
8	0x3c07a5ed	0.008279306
9	0xbcf6eba8	-0.030141667
10	0x3b540877	0.0032353678
11	0x3c6d53ae	0.014485283
12	0x3b9a4ffc	0.004709242
13	0x3c912bc0	0.017721057
14	0xbad98abd	-0.0016597133
15	0x3bdd7ecb	0.0067594997
16	0x3bd110dd	0.006380184
17	0xbc774fa9	-0.015094676
18	0x3c52891c	0.012850072
19	0xbc7c167e	-0.015386222
20	0xbc141209	-0.009037503
21	0xbbf703d3	-0.0075382977
22	0x3ad95df4	0.0016583786
23	0x39d27505	0.00040141508
24	0x3aa729d2	0.0012753552
25	0x3b1f1d5e	0.0024278979
26	0x3cdc0766	0.026858997
27	0xbc9e387d	-0.019314045
28	0xbbfd207f	-0.007724821
29	0x3c87ef16	0.016593497
30	0xbc6d7c70	-0.014495
31	0x3b9f54fb	0.0048624254
32	0xbc034b78	-0.008013599
33	0x3bd833ec	0.0065979864
34	0xbc14f0ac	-0.009090584
35	0x3bdb4dcd	0.006692624
36	0x3c804e2e	0.015662279
37	0x3bf50e20	0.0074784905
38	0x3b0267e0	0.001989834
39	0x3b97801d	0.0046234266
40	0x3cbd0320	0.02307278
41	0xbbae4161	-0.0053178524
42	0x3a9f133c	0.001213647
43	0x3ca40e58	0.02002637
44	0x3a143c57	0.0005654743
45	0x3b92d657	0.0044811177
46	0x3ccadc82	0.02476335
47	0xbc3c57b8	-0.011495523
48	0x3bd4320c	0.0064756926
49	0x3c9a38a7	0.018825842
50	0x3ba9871a	0.005173576
51	0x3b0d806e	0.0021591443
52	0xbb625042	-0.00345327
53	0x3c781f68	0.015144207
54	0x3bd97489	0.0066362065
55	0xbb80f9b3	-0.0039360165
56	0x3bb5f1ce	0.005552507
57	0xbbb30158	-0.0054628067
58	0x3c289e07	0.010291583
59	0xbc4a4ffb	-0.01234817
60	0x3c9421bb	0.01808249
61	0x3b57c5cc	0.0032924293
62	0x3bccdd25	0.0062519484
63	0xbb1c69f1	-0.0023866857
64	0xbc6eb5b6	-0.01456969
65	0x3ad83f23	0.0016498308
66	0x3b8a6769	0.004223753
67	0x3c34f17a	0.011043901
68	0x3bf736f0	0.007544391
69	0x3bb280ef	0.005447499
70	0x3c87214c	0.01649537
71	0x3be122cd	0.0068706037
72	0x3c36e093	0.011161941
73	0x3ba4d1c2	0.005029888
74	0xbb3f47db	-0.0029187116
75	0x3bec40d2	0.0072098756
76	0xbc8f34c5	-0.017481217
77	0x3c2fb581	0.010724426
78	0x3ca3163b	0.019908061
79	0x3b6e6f18	0.0036382135
80	0x3b956c7a	0.0045600506
81	0xbc2ae3d8	-0.010430299
82	0xb992aa83	-0.0002797433
83	0x3ca4ac13	0.020101583
84	0xbba38fd6	-0.004991512
85	0xbc48c12b	-0.012253086
86	0x3c5e4102	0.013565304
87	0xbc344150	-0.0110019
88	0xbb0c6b8b	-0.0021426405
89	0xbb908a3c	-0.00441101
90	0x3aa2ff41	0.0012435691
91	0x3cdca8cb	0.026935956
92	0x3c908aa3	0.017644232
93	0x3c191f38	0.009345822
94	0xbba3f2ad	-0.0050032944
95	0x3c89270f	0.016742257
96	0xbc0c639e	-0.008568672
97	0xbbb47fef	-0.005508415
98	0xbc926f27	-0.017875267
99	0xba315dce	-0.0006765992
100	0xbb070f74	-0.0020608576
101	0xbd1421bd	-0.036164988
102	0xbbb98fd9	-0.0056629
103	0x3baaa52a	0.0052076774
104	0x3c29be1d	0.010360268
105	0x3c15981e	0.009130506
106	0xbc9706b0	-0.018435806
107	0xbc675eeb	-0.014121751
108	0x3c7b3239	0.015331798
109	0xbbf6a08e	-0.007526464
110	0x3b01cdc8	0.0019806493
111	0xbc96535e	-0.0183503
112	0xbc07b891	-0.00828375
113	0x3ac9f07d	0.0015406754
114	0xbc9efdd4	-0.019408144
115	0x3b81979b	0.0039548404
116	0xbc8f52dd	-0.017495567
117	0x3b870268	0.00412016
118	0x3ccfda0f	0.025372533
119	0x3b6c3b3e	0.0036046053
120	0x3c85c29b	0.016328147
121	0x3c8fd765	0.017558763
122	0xbb9fe226	-0.004879254
123	0x3c5a3a1e	0.01331952
124	0xbc9321db	-0.01796048
125	0xbc3771e3	-0.011196586
126	0xbcf89b77	-0.030347569
127	0x3c2eefcd	0.01067729
128	0x3ce4628c	0.027879022
129	0x3a9b8da6	0.0011867776
130	0xbc957862	-0.01824588
131	0xbbe3b219	-0.006948721
132	0x3d03499c	0.03205262
133	0x3d0d5ce8	0.03451243
134	0x3cc9e303	0.02464438
135	0x3bb882cf	0.005630828
136	0xbc837d0d	-0.01605084
137	0x3c89db77	0.016828282
138	0xbd3ac8df	-0.04560172
139	0x3ca64b78	0.020299658
140	0xbca34bb7	-0.019933565
141	0xbc998376	-0.018739443
142	0x3c8c4a48	0.017125264
143	0x3ce70a3c	0.028203122
144	0xbc0fbfef	-0.008773788
145	0xbc405265	-0.011738394
146	0x3c2c836c	0.01052938
147	0x3c93e5df	0.018053947
148	0x3cc38cd2	0.02387086
149	0x3cff33f0	0.031152695
150	0xbcb2b1fb	-0.021813383
151	0x3c92c99d	0.017918402
152	0xbb5913b9	-0.0033123328
153	0x3aeab45f	0.0017906538
154	0xbb064a34	-0.0020491006
155	0xbbbc3c9b	-0.0057445294
156	0x3c877663	0.016535943
157	0xbc75892c	-0.014986318
158	0xbb1e519b	-0.0024157527
159	0x3c0b2ae2	0.008494111
160	0xbcb088ce	-0.021549609
161	0x3c675b2d	0.014120859
162	0x3b8e4d67	0.004342723
163	0xbde0a646	-0.10969214
164	0x3bf296d6	0.007403235
165	0xbc8b1269	-0.016976552
166	0xbc956616	-0.018237155
167	0x3cacba8b	0.021085044
168	0xbd16ac85	-0.03678562
169	0xbb730c18	-0.0037086066
170	0xba882018	-0.0010385541
171	0xba9dd5bd	-0.0012041848
172	0xbc4c84ad	-0.012482804
173	0xbbffd0f4	-0.0078068916
174	0xbc08368a	-0.008313784
175	0xbc675013	-0.014118212
176	0xbc420733	-0.011842537
177	0x3b91ced1	0.0044497033
178	0x3c84e61c	0.016223006
179	0x3c88d3cd	0.016702557
180	0x3c473d4f	0.012160613
181	0x3c54f754	0.012998421
182	0x3cca415f	0.024689374
183	0xbb2d5fba	-0.0026454763
184	0xbc8ed961	-0.017437639
185	0xbd3a7fd2	-0.045532055
186	0x3c28a6c5	0.010293667
187	0xbb48d6f4	-0.00306457
188	0xba8854b2	-0.0010401218
189	0x3c5395c9	0.0129141295
190	0xbc2b4153	-0.010452586
191	0xbb453034	-0.0030088546
192	0x3cf4da49	0.029889243
193	0xbca7a583	-0.020464664
194	0xbd00fdef	-0.03149217
195	0x3cebd690	0.028788835
196	0xbcc8c578	-0.024508223
197	0xbc0a0c50	-0.008425787
198	0xbb3511a9	-0.0027628934
199	0xbb29ac60	-0.0025890097
200	0xbbf2c5ff	-0.007408857
201	0x38a23632	7.7348566e-05
202	0x3c56bff1	0.013107286
203	0xbcdf90c9	-0.027290719
204	0x3b8d216e	0.0043069636
205	0x3ca19b53	0.019727385
206	0x3cb58a68	0.022160724
207	0x3810d3dc	3.4529585e-05
208	0xbba315bd	-0.0049769566
209	0xbd317fe9	-0.043334875
210	0x3cd79dfc	0.02632045
211	0xbca2ea7f	-0.019887207
212	0xbd065c52	-0.032802887
213	0xbcab706c	-0.02092763
214	0x3c92b8b7	0.017910345
215	0xbc26edb4	-0.010188509
216	0x3cf3105e	0.02967089
217	0xbce2c7f9	-0.027683245
218	0x3b5a4689	0.0033306202
219	0x3c563615	0.013074418
220	0x3cb10666	0.021609496
221	0x3ca02c3d	0.019552344
222	0x3c326b33	0.010889816
223	0x3b8f938d	0.004381603
224	0xbca636cd	-0.020289803
225	0x3cb2e6c7	0.021838559
226	0x3ba025f9	0.004887339
227	0x3bcb243f	0.006199389
228	0x3b789dfd	0.0037935965
229	0xbcdeb07f	-0.02718377
230	0x3bfb8c31	0.007676624
231	0x3cc53d12	0.024076972
232	0xbd2f2cf0	-0.042767465
233	0x3d28fdde	0.04125773
234	0x3b15f71b	0.0022882882
235	0x3b117a67	0.0022198202
236	0xbc3cc2c4	-0.011521045
237	0xbca9b155	-0.020714441
238	0xbc91d732	-0.017802808
239	0xbb87cbb6	-0.0041441573
240	0xbd06ddff	-0.032926556
241	0xbcb964a2	-0.022630993
242	0xbbed1ba9	-0.0072359634
243	0xbc884267	-0.016633226
244	0x3b29e849	0.0025925806
245	0x3baa26bc	0.005192606
246	0xbc729576	-0.014806142
247	0xbad681f8	-0.0016365638
248	0xbafa4344	-0.0019093533
249	0xb9c2a509	-0.00037125524
250	0x3ce01168	0.02735205
251	0xbc53724a	-0.012905667
252	0x3cc5624d	0.024094725
253	0x3ba5c24b	0.005058562
254	0x3d7eacd2	0.062176533
255	0xbbe4a210	-0.006977327

autoencoder.decoder_in.0.bias f4 [441]
0	0x3c6848b4	0.01417749
1	0x3c3199f0	0.010839924
2	0x3cd307b7	0.025760515
3	0xbbfed9b4	-0.007777417
4	0x3b3d3bcf	0.002887476
5	0x3d86016b	0.06543239
6	0x3c13ec83	0.009028557
7	0x3cb958c0	0.022625327
8	0x3c541478	0.012944333
9	0x3d8870c2	0.06662132
10	0x3d9da56d	0.07697568
11	0x3d8a7a68	0.067616284
12	0x3d035d97	0.032071676
13	0xbcebf8f7	-0.02880524
14	0x3cb34eec	0.021888219
15	0x3c15d336	0.009144595
16	0x3d636b63	0.055522334
17	0x3dbbb39c	0.09165117
18	0x3d7e7a78	0.062128514
19	0x3be22d06	0.00690234
20	0x3d718e5d	0.05897366
21	0x3d158d04	0.036511436
22	0x3af36325	0.0018568976
23	0xbc8bc9ed	-0.01706406
24	0xbd683ccd	-0.05669861
25	0x3cad65c2	0.021166686
26	0xbc06c90e	-0.008226646
27	0x3ca6f303	0.020379549
28	0xbc3bcbd7	-0.011462173
29	0xbd326c63	-0.043560397
30	0xbd4a7414	-0.049427107
31	0xbc2db9d3	-0.010603386
32	0xbccb2801	-0.024799349
33	0x3d057ea1	0.032591466
34	0x3d1e8ced	0.038708616
35	0xbcf617a8	-0.030040577
36	0x3d2673be	0.040637724
37	0x3d137814	0.036003187
38	0x3ce602d1	0.028077515
39	0x3d8d0407	0.06885534
40	0xbd2dd66c	-0.042440817
41	0x3b9cec7e	0.0047889343
42	0x3c6832fd	0.014172313
43	0x3cec6b79	0.02885984
44	0x3d32527f	0.043535706
45	0xbd9ffc19	-0.07811756
46	0xbc5c8941	-0.013460458
47	0x3c7948fa	0.015215153
48	0x3cc0252b	0.023455223
49	0xbbd5c000	-0.0065231323
50	0xbc84d4bf	-0.016214726
51	0x3caa41b3	0.020783281
52	0xbd1205a8	-0.035649925
53	0xbba8ce62	-0.005151556
54	0xbc8ac372	-0.016938899
55	0x391260e0	0.00013959734
56	0xbcad482d	-0.02115258
57	0x3d9045b5	0.070445456
58	0xbd2a3777	-0.0415568
59	0xbd486de8	-0.04893294
60	0x3d8a55e7	0.06754666
61	0xbd4c3ca1	-0.049862508
62	0x3a3a710d	0.0007112183
63	0x3d085cbb	0.03329156
64	0xbd7807bf	-0.060554262
65	0x3db8af34	0.09017792
66	0x3dad576e	0.084639415
67	0x3d129917	0.03579053
68	0xbd7891ab	-0.060685795
69	0x3d52c5df	0.051458236
70	0x3d028e3f	0.031873938
71	0xbcfe9bfa	-0.031080235
72	0xbc1c6672	-0.009545909
73	0xbc9bf8a2	-0.019039456
74	0x3d570968	0.052499205
75	0x3d153722	0.036429532
76	0x3d835cb2	0.064141646
77	0xbc8d554e	-0.01725259
78	0xbd92a78c	-0.07160863
79	0x3b94aa50	0.0045369044
80	0xbd1db814	-0.03850563
81	0xbd074aae	-0.033030204
82	0x3d674147	0.056458738
83	0xbbc06ecc	-0.005872583
84	0xbce625be	-0.028094169
85	0x3d8cf34e	0.06882344
86	0xbd0104fc	-0.031498894
87	0x3d7edf30	0.062224567
88	0xbb5967c0	-0.0033173412
89	0xbc588fd6	-0.013217887
90	0x3c562e61	0.013072581
91	0xbd0469e0	-0.032327533
92	0xbcb00bac	-0.02148994
93	0x3d437b07	0.04772475
94	0x3d840832	0.06446876
95	0x3d5feb22	0.0546676
96	0x3d2283c3	0.03967644
97	0x3c446321	0.011986525
98	0x3c8639a6	0.01638491
99	0xbc6c1758	-0.014409862
100	0x3cc1de59	0.023665594
101	0xbc6ce7fc	-0.014459606
102	0xbd4c71df	-0.049913283
103	0x3c722e0d	0.014781487
104	0x3cb487cd	0.022037411
105	0xbbfc6a5f	-0.00770311
106	0x3d561cb1	0.052273456
107	0xbd3a4cb2	-0.0454833
108	0x3d8a072f	0.067396514
109	0x3dc3b401	0.095558174
110	0xbcb50c1b	-0.022100499
111	0xbc529a0a	-0.012854109
112	0x3d26314b	0.040574353
113	0xbcf605b4	-0.030032016
114	0x3cfd0563	0.030886358
115	0xbdca5059	-0.09878606
116	0x3b08ac31	0.0020854587
117	0xbd04d550	-0.032429993
118	0xbd30c027	-0.043152
119	0x3d535e96	0.051603876
120	0x3d38f43f	0.045154806
121	0x3cf497c1	0.029857518
122	0xbd50109d	-0.050797094
123	0xbd7b8c44	-0.061413065
124	0x3d83149f	0.064004175
125	0x3d281adc	0.04104124
126	0x3d921134	0.071321875
127	0xbc020d06	-0.007937675
128	0xbdce5cd5	-0.100763
129	0xbd25036b	-0.040286463
130	0xbd217b14	-0.039424017
131	0x3d990c1b	0.07473012
132	0x3d4d7a47	0.05016544
133	0x3bcaaace	0.0061849123
134	0x3c804e4b	0.015662333
135	0x3c596470	0.013268575
136	0x3c2a5903	0.010397199
137	0x3d4b881c	0.04969035
138	0x3a97b7b4	0.0011575134
139	0x3dbb251a	0.09137936
140	0x3c456e1b	0.012050177
141	0xbc21eb37	-0.00988274
142	0x3d1553e6	0.036456965
143	0x3ac67c33	0.0015143215
144	0x3da0c608	0.078502715
145	0x3dd260b4	0.10272351
146	0xbce51c66	-0.027967643
147	0xbb0297ae	-0.0019926834
148	0xbcaff95a	-0.021481205
149	0xbc1d5c22	-0.009604486
150	0x3c77636c	0.015099388
151	0x3c3ddf6a	0.011588911
152	0xbb9e8f17	-0.004838835
153	0xbb9a31c7	-0.004705641
154	0xbc83ed48	-0.016104355
155	0x3d3f6be8	0.046733767
156	0xbca6f1b2	-0.020378921
157	0x3d792de0	0.060834765
158	0x3ddf4b26	0.10903005
159	0x3dac66f6	0.08418076
160	0xbcf0cab2	-0.029393528
161	0xbc00b7ef	-0.007856353
162	0x3ce71a50	0.028210789
163	0x3dc4789d	0.09593318
164	0xbd5dcb10	-0.054148734
165	0x3da59844	0.08085683
166	0xbd048e65	-0.03236236
167	0xbd1a6888	-0.037697345
168	0xbd1412e3	-0.036150824
169	0x3cc6c839	0.024265395
170	0xbd4b1e53	-0.049589466
171	0x3d77f0a6	0.060532235
172	0xbd1bd254	-0.03804238
173	0x3daf4ef9	0.08559985
174	0x3d004b23	0.031321656
175	0xbcc612f9	-0.024178969
176	0x3d9dac31	0.076988585
177	0x3d8cdcfd	0.06878088
178	0xbd678826	-0.056526326
179	0x3d7157a1	0.05892146
180	0x3d1693f1	0.03676218
181	0xbd48d3d2	-0.049030133
182	0xbc97143b	-0.018442264
183	0x3d8a37ff	0.06748962
184	0x3aa8c8d7	0.0012877238
185	0x3def3231	0.11679495
186	0x3d0a8be3	0.033824813
187	0xbb85393f	-0.004065662
188	0x3ccecbbf	0.025243638
189	0x3c2f24a7	0.010689891
190	0x3d2fafd4	0.042892292
191	0xbd17f959	-0.03710303
192	0xbd66c90b	-0.056344073
193	0x3d580db2	0.052747436
194	0xbd0ac732	-0.033881374
195	0xbc93feb1	-0.018065782
196	0xbd095c3a	-0.03353522
197	0x3bb735cb	0.0055911294
198	0x3c1a0099	0.009399557
199	0x3c3f4b76	0.011675706
200	0x3d5f79f7	0.054559674
201	0xbb21fc13	-0.0024716898
202	0xbba59f2e	-0.005054376
203	0xbc7c5c73	-0.015402901
204	0x3d30a616	0.043127142
205	0x3cba4371	0.022737237
206	0xbd00e7b8	-0.031470984
207	0xbd51b1b3	-0.051194858
208	0x3d6530c8	0.055954725
209	0x3ba9eca1	0.005185679
210	0xbce0abee	-0.027425732
211	0xbbcd5f68	-0.006267477
212	0x3d89634a	0.06708391
213	0xbc54debb	-0.012992556
214	0x3d1d2889	0.038368735
215	0x3cedb883	0.029018646
216	0x3c1d2cac	0.00959317
217	0x3c7320b9	0.014839345
218	0xbd57b17a	-0.05265949
219	0xbd4331b1	-0.04765481
220	0x3dd7fa7e	0.105458245
221	0x3df0c00b	0.11755379
222	0x3d9cbc4d	0.07653103
223	0x3bedb7cf	0.0072545777
224	0xbd4eb50a	-0.05046562
225	0xbcee4f0e	-0.02909043
226	0x3d340151	0.043946568
227	0x3cf7796f	0.030209271
228	0x3dd4e0b0	0.10394418
229	0x3d3b9578	0.04579684
230	0xbd9926b4	-0.07478085
231	0xbd706f05	-0.058699626
232	0xbce66844	-0.02812589
233	0x3d5636ff	0.052298542
234	0x3d4ec884	0.050484195
235	0x3d07aaa2	0.033121713
236	0x3d42867f	0.047491547
237	0xbc3417c9	-0.010991999
238	0x3c810094	0.015747346
239	0xbd2ff6c8	-0.04295996
240	0xbd4720fe	-0.04861545
241	0xbd26024c	-0.040529534
242	0x3d06ab26	0.032878064
243	0xbd15d2ee	-0.03657811
244	0xbcfae2b3	-0.030625677
245	0x3c77d4bc	0.015126403
246	0xbcae71db	-0.021294525
247	0xbd0f5f90	-0.035003245
248	0xbcb3cb4a	-0.021947522
249	0xbb9b0d5e	-0.004731818
250	0x3c868dbf	0.016425012
251	0x3ca83d13	0.020536935
252	0xbd124770	-0.03571266
253	0x3ca11f72	0.019668315
254	0xbd1e6c2e	-0.038677387
255	0xbcd96634	-0.026537992
