models/checkpoints/SMALLAE/MNIST/MNIST_SMLLAE_0.001_128_1_4.pth (torch, 191458 bytes, 23 tensors)

autoencoder.encoder.0.0.weight f4 [3, 1, 5, 5]
0	0x3d8938ac	0.067002624
1	0x3d7ba8e5	0.061440367
2	0xbded25f8	-0.115795076
3	0xbd6d8288	-0.057985812
4	0xbe135790	-0.14388871
5	0xbe12dc4b	-0.14341848
6	0x3e6ff42d	0.2343299
7	0x3e4cee88	0.20012867
8	0x3db2ffa1	0.087401636
9	0x3e66fe4a	0.22557941
10	0xbd04b8dc	-0.03240286
11	0xbd98850c	-0.07447252
12	0x3e521fd9	0.20519961
13	0x3cdc2834	0.02687464
14	0x3d96f0c6	0.07370143
15	0x3e1e353d	0.15449996
16	0x3e159019	0.1460575
17	0xbd94183c	-0.07231185
18	0xbd0c395e	-0.034234397
19	0xbe14f1bb	-0.14545338
20	0x3d54e32e	0.051974468
21	0xbcce7151	-0.025200518
22	0x3db049c5	0.086078204
23	0x3d59e0df	0.05319297
24	0x3e556638	0.20839775
25	0x3b0bb20a	0.0021315836
26	0x3dcdd49b	0.10050317
27	0x3de12e8d	0.10995207
28	0x3e823846	0.25433558
29	0xbc2bfeb3	-0.010497737
30	0x3e10efb4	0.1415394
31	0x3e0e9dc9	0.13927378
32	0xbd84da44	-0.06486943
33	0x3e034b75	0.12821753
34	0x3e364041	0.17797948
35	0xbdb6d9f9	-0.08928294
36	0xbd166179	-0.03671405
37	0x3e1293a6	0.14314136
38	0x3e1a0da3	0.15044264
39	0x3d0eff5a	0.03491149
40	0x3d7687af	0.06018799
41	0x3e22e4d5	0.15907605
42	0x3e4b8c66	0.19877777
43	0xbda8e7ae	-0.082473144
44	0xbd938ba6	-0.0720437
45	0x3e379663	0.17928462
46	0x3e10989c	0.14120716
47	0xbd0462da	-0.032320835
48	0xbcb54fc5	-0.022132764
49	0x3e574f92	0.21026447
50	0xbdaf9904	-0.08574107
51	0x3e31998e	0.17343733
52	0x3e1e6c33	0.15470962
53	0xbe1a40a5	-0.15063722
54	0xbe29af3b	-0.16570751
55	0x3dd54187	0.10412889
56	0x3e0e1100	0.13873672
57	0x3e53fa52	0.20700958
58	0x3d59a113	0.053132128
59	0x3e20c850	0.15701413
60	0xbdcdc5ea	-0.10047515
61	0x3e1b858a	0.1518766
62	0xbe24f473	-0.16108875
63	0x3e182917	0.14859425
64	0x3d11f7c8	0.035636693
65	0x3e1f4e5c	0.15557235
66	0x3de38074	0.11108485
67	0xbdd58942	-0.104265705
68	0x3d18e854	0.03733094
69	0x3d6673ea	0.056262888
70	0x3d105895	0.03524073
71	0xbe1a9fbf	-0.15100001
72	0xbda2d5c1	-0.079509266
73	0xbd83afb6	-0.064299986
74	0xbd8a1853	-0.06742921

autoencoder.encoder.0.0.bias f4 [3]
0	0x39bec4a5	0.00036386136
1	0xb5ca76c4	-1.5084738e-06
2	0x353619fc	6.7838096e-07

autoencoder.encoder.0.1.weight f4 [3]
0	0x3f6e278c	0.93029094
1	0x3f833330	1.0249996
2	0x3f706ec8	0.9391904

autoencoder.encoder.0.1.bias f4 [3]
0	0xbd3c1ff7	-0.04592892
1	0xbd589973	-0.052880716
2	0xbc591326	-0.013249194

autoencoder.encoder.0.1.running_mean f4 [3]
0	0xbf296c95	-0.6618131
1	0xbf9e3e96	-1.236285
2	0xbebe9f89	-0.3723109

autoencoder.encoder.0.1.running_var f4 [3]
0	0x3e5a7911	0.21335246
1	0x3f1de5f0	0.6167898
2	0x3e4a6572	0.19765261

autoencoder.encoder.0.3.weight f4 [9, 3, 5, 5]
0	0xbc5a870f	-0.013337865
1	0xbd8f0c96	-0.069848225
2	0x3cb18357	0.021669073
3	0x3deccd7f	0.11562633
4	0x3da1f093	0.07907214
5	0xbdc572f8	-0.09641069
6	0xbb086df8	-0.00208175
7	0x3ce4e44f	0.027940897
8	0x3da098c4	0.07841638
9	0x3d3f8287	0.04675534
10	0xbd8c4812	-0.06849684
11	0xbd8cb932	-0.06871261
12	0x3cacd73e	0.02109873
13	0x3cd1b5ca	0.02559938
14	0x3d7fcf67	0.062453654
15	0x3da1c6a1	0.078992136
16	0x3d87b9f1	0.066272624
17	0xbd9e008e	-0.077149495
18	0xbdb3759d	-0.08762667
19	0x3d61e681	0.055151466
20	0x3de44965	0.111468114
21	0xbd9fa56d	-0.07795224
22	0xbd9acb5e	-0.075583205
23	0x3d8b3192	0.06796564
24	0x3ded0943	0.11574032
25	0x3c93229e	0.017960843
26	0xbd5004ca	-0.050785817
27	0x3d0e14d8	0.034687847
28	0xbd8a4522	-0.06751467
29	0xbb839cd6	-0.004016499
30	0xbbfadf78	-0.007656034
31	0xbc81520d	-0.015786195
32	0x3da2554f	0.079264276
33	0x3cf77151	0.0302054
34	0xbd9015fc	-0.07035443
35	0x3bca3048	0.0061703064
36	0x3d124aa1	0.035715703
37	0x3dc5da3c	0.096607655
38	0x3c91d18a	0.017800111
39	0xbcce0f98	-0.02515392
40	0x3d882431	0.06647528
41	0x3d90f31c	0.070776194
42	0x3d163f49	0.036681447
43	0xbd51917b	-0.05116413
44	0x3d28d9d1	0.04122335
45	0x3d3612b4	0.04445143
46	0x3da1d558	0.0790202
47	0xbce87d74	-0.028380133
48	0xb801a750	-3.091182e-05
49	0x3dc5d1f0	0.09659183
50	0x3c7637b3	0.015027928
51	0x3d3321ed	0.043733526
52	0xbd5f2b02	-0.054484375
53	0x3d91e7d0	0.07124293
54	0x3d348138	0.044068545
55	0xbd7464dc	-0.0596665
56	0xbcdc7fc6	-0.026916396
57	0xbd29482b	-0.04132859
58	0x3d85e519	0.065378375
59	0x3b4f596b	0.003163899
60	0x3d08ceb1	0.03340024
61	0xbcdf4bf4	-0.027257897
62	0x3d39d579	0.0453696
63	0x3cf0d7b2	0.029399727
64	0xbdf124e1	-0.11774612
65	0xbd7ed37e	-0.062213413
66	0x3ce58c39	0.028020965
67	0x3cb90c47	0.022588862
68	0xbd4e9082	-0.050430782
69	0xbd548f79	-0.05189464
70	0x3b39bdd1	0.00283419
71	0x3cc66915	0.024220029
72	0xbd91df04	-0.07122615
73	0xbd62fa20	-0.05541432
74	0xbe23d7c9	-0.16000284
75	0x3c959e9e	0.018264111
76	0x3c9e467e	0.019320723
77	0xbcae6a34	-0.021290876
78	0xbda0468d	-0.078259565
79	0x3dd0b65f	0.101910345
80	0x3d27679f	0.040870305
81	0x3c5ea1e2	0.013588401
82	0xbd3ca28a	-0.046053447
83	0xbd0f14af	-0.034931835
84	0xbd2e2956	-0.04251989
85	0x3bb7ee4e	0.005613125
86	0xbda2c151	-0.079470284
87	0xbd1346d3	-0.035956215
88	0x3d8ceaf8	0.06880754
89	0x3dce24c4	0.10065606
90	0xbd434f6f	-0.047683176
91	0xbdeff4b5	-0.11716596
92	0x3d812ce0	0.06307387
93	0x3da24f05	0.07925228
94	0x3de1aaf1	0.110189326
95	0xbcc5897d	-0.024113411
96	0xbb13eab9	-0.0022570326
97	0x3d119e75	0.035551507
98	0x3d621bf8	0.055202454
99	0x3d13282b	0.03592698
100	0xbcc1879d	-0.023624236
101	0x3e1037f3	0.14083843
102	0x3dac8bf8	0.084251344
103	0x3b91b07a	0.0044460865
104	0xbd8f120a	-0.069858626
105	0xbc84a3c2	-0.016191367
106	0xbc181dde	-0.009284465
107	0xbbfeb55c	-0.0077730846
108	0x3d487698	0.048941225
109	0x3c8c5e24	0.017134733
110	0x3d725dea	0.059171595
111	0xbd87dd11	-0.06633962
112	0xbcc52f6f	-0.02407047
113	0x3d9c99ec	0.07646546
114	0x3e1a964c	0.15096396
115	0xbdb77f9b	-0.08959886
116	0x3c064100	0.008194208
117	0x3da2854c	0.079355806
118	0x3d06f069	0.032944117
119	0x3d89c145	0.06726316
120	0x3d97f007	0.074188285
121	0xbdb62b1a	-0.0889494
122	0x3dca19ce	0.09868203
123	0xbd572948	-0.052529603
124	0x3d752c04	0.05985643
125	0x3d75d9d3	0.060022186
126	0xbca08127	-0.019592835
127	0x3d459ef1	0.04824728
128	0xbdb4e9a3	-0.08833625
129	0xbd39d38c	-0.045367762
130	0x3da59511	0.08085073
131	0x3d9fbf90	0.078002095
132	0x3d3d11f1	0.04615969
133	0xbd4c8c5f	-0.049938556
134	0xbcdd2717	-0.026996179
135	0x3db0a580	0.086253166
136	0x3cbe6691	0.023242267
137	0x3cada27f	0.021195648
138	0xbd0d9a54	-0.034571007
139	0xbd8798fa	-0.06620975
140	0xbc802bac	-0.015645824
141	0x3d5c3fba	0.053771712
142	0x3d06a58e	0.03287273
143	0xbe00b981	-0.12570764
144	0xbda78ef0	-0.0818156
145	0xbd461e86	-0.048368953
146	0x3c09b0f4	0.008404005
147	0xbdad56e5	-0.084638394
148	0x3d13652e	0.035985164
149	0xbd134540	-0.035954714
150	0xbcc2d725	-0.02378423
151	0x3d0e887f	0.03479814
152	0xbcc5b51c	-0.024134211
153	0xbc80dfa1	-0.015731635
154	0x3d5e6a01	0.054300312
155	0x3d7c6e70	0.06162876
156	0x3c9bf8d5	0.01903955
157	0x3cb5d236	0.022194963
158	0x3cecf4b6	0.028925281
159	0xbd685731	-0.056723777
160	0xbd029ddc	-0.031888828
161	0x3ddbc7aa	0.10731442
162	0xbd602b08	-0.054728538
163	0x3d76ce55	0.060255367
164	0xbc967cbb	-0.018370023
165	0x3d71eda1	0.05906451
166	0x3d9eb651	0.07749618
167	0x3db35256	0.08755939
168	0xbd0d68c8	-0.034523755
169	0x3ccc7d69	0.024962144
170	0xbd2254ca	-0.039631642
171	0x3d720a6b	0.059091967
172	0xbcb926ad	-0.02260145
173	0x3d191cd1	0.037380997
174	0xbd3013e6	-0.042987727
175	0x3ad88808	0.0016520033
176	0xbda2c9cc	-0.07948646
177	0xbd970d46	-0.073755786
178	0x3d81b8b0	0.063340545
179	0x3d1be7dd	0.03806292
180	0xbcae2e0b	-0.02126219
181	0xbce47e31	-0.027892204
182	0x3e002e1a	0.12517586
183	0x3d22533f	0.03963017
184	0x3d855b42	0.06511547
185	0x3e0c1973	0.13681583
186	0x3e0f611a	0.14001885
187	0x3c096daa	0.008387962
188	0x3da5fd1b	0.08104917
189	0x3d01844d	0.031620312
190	0xbd3fd68e	-0.046835475
191	0x3deb8181	0.1149931
192	0x3c738605	0.014863496
193	0x3cbd4580	0.02310443
194	0x3d7c44bc	0.061588988
195	0x3e089239	0.1333703
196	0x3c92a403	0.017900473
197	0x3cbabcbe	0.022795077
198	0x3db399a2	0.087695375
199	0x3d832a67	0.06404572
200	0x3d6a37e2	0.0571822
201	0x3d9b1765	0.075728215
202	0xbd4e69cf	-0.050393876
203	0x3d3ad45a	0.04561267
204	0xbdbe379f	-0.09287953
205	0xbcc277d0	-0.023738772
206	0xbd09234b	-0.033480924
207	0xbdbd6b88	-0.092490256
208	0xbddfa2c4	-0.10919717
209	0x3afc58c8	0.0019252533
210	0xbcfab842	-0.03060544
211	0x3c9e4dad	0.019324148
212	0xbd17e7d2	-0.037086315
213	0x3d78a0df	0.060700294
214	0xbcb6c474	-0.022310473
215	0x3cc6dc95	0.024275104
216	0x3d640cd4	0.055676296
217	0x3d24c8ec	0.040230677
218	0xbd4e416c	-0.05035536
219	0x3d4d7675	0.050161798
220	0x3d01509c	0.031571016
221	0xbd8a08d9	-0.06739969
222	0x3d4b09b8	0.049569815
223	0x3d9d5af5	0.07683364
224	0x3ae9c045	0.001783379
225	0x3df14233	0.117802046
226	0x3d161b99	0.036647413
227	0x3c9048b2	0.017612789
228	0xbcf60eda	-0.030036379
229	0x3cc98637	0.024600131
230	0x3d341d64	0.04397334
231	0xbd6093e4	-0.05482854
232	0xbd0861ec	-0.03329651
233	0xbd66cf33	-0.056349944
234	0xbcad4e1d	-0.021155411
235	0x3c9b0df8	0.01892756
236	0xbd0c9179	-0.03431842
237	0x3d1ff0af	0.039047893
238	0xbd8eea99	-0.0697834
239	0x3d187ca9	0.03722826
240	0x3d313075	0.043259103
241	0x3adb951c	0.0016752812
242	0x3dc077a0	0.09397817
243	0x3c50e4b9	0.012749844
244	0xbdbd15bd	-0.09232662
245	0xbdb614fd	-0.08890722
246	0xbd9af564	-0.07566336
247	0x3d881580	0.06644726
248	0x3cf9a372	0.030473445
249	0xbdcd46f6	-0.100233
250	0x3c1ea1ce	0.009682132
251	0x3d135607	0.035970714
252	0x3cd411db	0.02588742
253	0x3daa5637	0.083172254
254	0x3e0e8af3	0.13920192
255	0x3dc26764	0.094923764

autoencoder.encoder.0.3.bias f4 [9]
0	0xb51fbe3f	-5.950896e-07
1	0xb510f286	-5.39971e-07
2	0x34857690	2.4859446e-07
3	0xb5428100	-7.245835e-07
4	0x340c3381	1.3057253e-07
5	0x32dfc599	2.6050474e-08
6	0xb4649d5b	-2.12914e-07
7	0xb3f24a04	-1.12824665e-07
8	0x33ff1bc1	1.1879411e-07

autoencoder.encoder.0.4.weight f4 [9]
0	0x3f752910	0.9576578
1	0x3f7ad157	0.9797568
2	0x3f79e51b	0.9761521
3	0x3f746e33	0.9548065
4	0x3f795932	0.97401726
5	0x3f750ed3	0.95725745
6	0x3f73b546	0.95198476
7	0x3f75f3bb	0.9607503
8	0x3f73f486	0.9529499

autoencoder.encoder.0.4.bias f4 [9]
0	0xbd2fc767	-0.042914774
1	0xbcfd3e55	-0.030913511
2	0xbd04ed32	-0.03245277
3	0xbcd29fe7	-0.025711013
4	0xbd031976	-0.032006703
5	0xbd26c478	-0.04071471
6	0xbd487edc	-0.048949108
7	0xbcd0f6de	-0.02550834
8	0xbce93282	-0.028466467

autoencoder.encoder.0.4.running_mean f4 [9]
0	0x3e053873	0.13009815
1	0x3e431edb	0.19054739
2	0x3eb01582	0.3439141
3	0x3e2a79b2	0.16647986
4	0x3de71d29	0.11284859
5	0x3e7f2f16	0.24920306
6	0x3ee5b4b8	0.4486444
7	0x3ef0e1e3	0.47047338
8	0x3edf5eeb	0.43627104

autoencoder.encoder.0.4.running_var f4 [9]
0	0x3e5a4fb4	0.21319467
1	0x3e5211ff	0.20514677
2	0x3ef1e023	0.47241315
3	0x3e36f38b	0.17866342
4	0x3ea85b19	0.32882002
5	0x3ed1b242	0.40956312
6	0x3f3048e9	0.6886125
7	0x3f19369a	0.5984894
8	0x3f0e9a1e	0.55703914

autoencoder.decoder.0.0.weight f4 [9, 3, 4, 4]
0	0xbdd8e7f5	-0.10591117
1	0xbc245a87	-0.010031349
2	0xbc2ec80d	-0.010667813
3	0xbbd8d785	-0.006617489
4	0xbcf43f99	-0.029815482
5	0xbdcbbc60	-0.09948039
6	0x3d91dc17	0.07122057
7	0xbd5b4ed0	-0.05354196
8	0x3da74ca7	0.08168917
9	0xbd4a60e2	-0.0494088
10	0x3cfe3d99	0.031035231
11	0x3e1a0f42	0.15044883
12	0xbd539797	-0.05165824
13	0xbc441d32	-0.011969851
14	0x3cf22618	0.02955918
15	0xbd04629b	-0.0323206
16	0x3d28b4db	0.041188102
17	0x3dbc6f2b	0.09200891
18	0xbbc6d619	-0.006068003
19	0xbdae4f9e	-0.085112795
20	0x3dd6b591	0.1048385
21	0x3cf2377b	0.02956747
22	0xbd847ee1	-0.06469513
23	0x3d9c003b	0.076172315
24	0x3d4953b0	0.049152076
25	0x3cbd6c83	0.023123031
26	0x3d834a6e	0.06410681
27	0x3d997517	0.07493036
28	0x3cb2c2a8	0.021821335
29	0x3dff9ae4	0.12480715
30	0xbd28cc29	-0.041210327
31	0x3d1126f1	0.035437528
32	0xbd1c2f70	-0.038131177
33	0x3cfefe35	0.031127075
34	0x3dd84f28	0.10561973
35	0x3d88171c	0.06645033
36	0xbd48b9a7	-0.049005177
37	0x3d1db4f9	0.038502667
38	0xbd693f4f	-0.05694514
39	0x3d4989d0	0.049203694
40	0xbda29a49	-0.07939584
41	0xbc9555b5	-0.018229345
42	0xbd8afabd	-0.06786106
43	0xbae67bd3	-0.001758451
44	0xbd70af30	-0.05876082
45	0xbd880031	-0.066406615
46	0x3d411b1b	0.04714499
47	0x3d8414e9	0.06449301
48	0xbe1ff7b0	-0.15621829
49	0xbe0cae40	-0.13738346
50	0x3babfc31	0.0052485694
51	0x3dd27434	0.1027607
52	0xbc8c5710	-0.017131358
53	0x3de8111d	0.11331389
54	0x3daa70d3	0.08322301
55	0x3d7fe1a4	0.062471047
56	0xbcd52331	-0.026017757
57	0xbc2dcc38	-0.010607772
58	0xbd7a3343	-0.061084043
59	0xbd65b353	-0.05607922
60	0x3cce3971	0.025173875
61	0x3e194d88	0.14970982
62	0xbd0cc129	-0.0343639
63	0xbd8739f6	-0.06602852
64	0xbd90f532	-0.07078017
65	0xbd9036bc	-0.0704169
66	0xbd3f06c0	-0.046637297
67	0x3d8a8055	0.06762759
68	0x3e2d9021	0.16949512
69	0x3dcd81b6	0.10034506
70	0xbcfb8dbb	-0.03070723
71	0x3dd27e13	0.10277953
72	0xbd413e77	-0.04717871
73	0xbd754183	-0.05987693
74	0x3cb3c9cb	0.021946808
75	0xbdb91b6a	-0.09038432
76	0x3e343d89	0.17601599
77	0x3de9c95e	0.11415361
78	0x3e3b9edf	0.18322323
79	0x3dbdee00	0.092739105
80	0xbd2e2700	-0.042517662
81	0x3d8e7358	0.06955594
82	0xbbd4c4cf	-0.006493188
83	0xbe0b4715	-0.13601334
84	0x3d98f43d	0.0746846
85	0x3defd961	0.117113836
86	0xbd61f8ef	-0.055169042
87	0x3c7fbff2	0.015609728
88	0x3d802536	0.062570974
89	0xbdcfa487	-0.10138803
90	0xbd986d0f	-0.07442676
91	0x3c685f28	0.014182843
92	0x3d9c59a9	0.07634289
93	0x3d98a215	0.0745279
94	0x3df06c48	0.11739403
95	0x3e079230	0.1323936
96	0x3d81efc2	0.06344558
97	0xbcd27717	-0.025691552
98	0xbd4a464b	-0.049383443
99	0x3dce5e25	0.100765504
100	0xbdbf4ffd	-0.093414284
101	0x3dd5f4a2	0.10447051
102	0x3da8a464	0.0823448
103	0x3e337880	0.17526436
104	0x3d3a81c9	0.04553393
105	0x3c371ece	0.011176778
106	0x3d5d263b	0.053991538
107	0x3dc8df0e	0.09808169
108	0x3e0533c0	0.13008022
109	0xbd1375bf	-0.036000963
110	0xbd455612	-0.048177786
111	0xbd3426b1	-0.04398221
112	0x3dd3b986	0.1033812
113	0x3c2ddeb1	0.010612176
114	0xbba08eee	-0.004899851
115	0xbdacce29	-0.084377594
116	0xbb107d69	-0.0022047407
117	0x3e38d0d7	0.18048416
118	0xbdc3c6c7	-0.09559398
119	0x3e08c5f5	0.13356765
120	0x3e0173ae	0.12641785
121	0x3d342f8e	0.043990664
122	0xbdcc5325	-0.09976796
123	0x3d98aa10	0.07454312
124	0x3de80777	0.11329549
125	0x3d754b6b	0.059886377
126	0x3d1779a7	0.03698125
127	0xbd7f30df	-0.062302466
128	0xbcded6bc	-0.027202003
129	0x3dd3905b	0.10330268
130	0x3d312da3	0.043256413
131	0x3db087f6	0.086196825
132	0x3e272116	0.16321215
133	0x3e3de4ad	0.18544264
134	0x3e22ef7a	0.15911666
135	0xbcd0af49	-0.025474207
136	0x3e017a25	0.1264425
137	0x3c9cb543	0.019129401
138	0x3d80d710	0.0629102
139	0xbad10e66	-0.0015949726
140	0xbd853a22	-0.065052286
141	0x3e400bcf	0.18754505
142	0xbb1c442d	-0.0023844347
143	0x3d0a0c88	0.033703357
144	0x3afb1c14	0.0019158148
145	0xbce91b6d	-0.02845546
146	0xbddea998	-0.10872191
147	0xbdd2920d	-0.10281763
148	0xbb868cf9	-0.0041061607
149	0x3dc9a4f5	0.09845916
150	0x3b9156b1	0.0044353832
151	0xbde2911d	-0.110628344
152	0x3df52a71	0.11970986
153	0xbd335478	-0.043781728
154	0xbceb926a	-0.02875634
155	0xbd971d95	-0.07378689
156	0x3df453d6	0.11930053
157	0x3aff1d1f	0.0019463635
158	0xbdd350ee	-0.103181705
159	0xbde019ab	-0.10942396
160	0xbd821690	-0.0635196
161	0x3ce1721d	0.027520234
162	0xbd7b61cd	-0.061372567
163	0x3c26d81b	0.0101833595
164	0x3e1f43a2	0.15553144
165	0x3e370999	0.17874755
166	0x3d255dd9	0.040372703
167	0x3d87c16f	0.066286914
168	0x3c88a6ed	0.016681159
169	0xbbf1da4b	-0.007380759
170	0x3dd93f9c	0.10607836
171	0x3d6016df	0.05470931
172	0xbddb2b46	-0.10701613
173	0xbdbcf517	-0.09226435
174	0xbdf2802f	-0.11840855
175	0xbded3d60	-0.11583972
176	0xbc8a6160	-0.016892135
177	0xbd9edf36	-0.07757418
178	0x3d10ee27	0.03538337
179	0x3d84319d	0.064547755
180	0x3d28d65d	0.041220058
181	0x3e2a13c6	0.16609105
182	0x3ccfc33c	0.02536165
183	0x3cbccd59	0.023047136
184	0x3d3a5ae2	0.04549683
185	0xbd9d1326	-0.07669668
186	0x3d58db01	0.052943233
187	0xbd3036b3	-0.043020915
188	0x3ac1c4c1	0.0014783369
189	0xbd09f75e	-0.033683173
190	0xbca4313f	-0.020043014
191	0x3c4ddcf6	0.012564888
192	0xbca7fbf6	-0.020505887
193	0xbca4ba35	-0.020108322
194	0xbdfdc21a	-0.123905376
195	0xbc8e50d5	-0.017372528
196	0xbd8af5a8	-0.067851365
197	0x3dc66e36	0.0968899
198	0x3ca5230b	0.020158311
199	0x3d57b8a4	0.05266632
200	0xbd2229a2	-0.039590485
201	0xbc887dea	-0.016661603
202	0x3d3c5981	0.045983795
203	0x3d97c102	0.0740986
204	0xbdf9e7f8	-0.12202448
205	0x3dcaac00	0.09896088
206	0x3d88ea13	0.06685271
207	0x3d1d627f	0.03842401
208	0xbda983cb	-0.08277091
209	0xbc3e7761	-0.011625142
210	0xbd5be200	-0.053682327
211	0xbd134920	-0.03595841
212	0x3e216699	0.15761794
213	0xbd78def6	-0.060759507
214	0x3dd0435b	0.10169097
215	0xbd98b323	-0.074560426
216	0x3d61f3a7	0.055164006
217	0x3daf333a	0.085546926
218	0xbd6da25b	-0.058016162
219	0x3d8de765	0.06928901
220	0x3e006bbc	0.12541097
221	0x3d174a25	0.036935944
222	0x3e2016b0	0.15633655
223	0x3d25a79e	0.040443055
224	0xbd8b9846	-0.06816153
225	0x3d377c02	0.044795997
226	0x3d3cfa4e	0.046137147
227	0x3b97def0	0.0046347305
228	0x3e0e7ae1	0.13914062
229	0x3ded06b2	0.11573543
230	0x3c550ac6	0.013003057
231	0x3e16976a	0.14706197
232	0x3d6be4e1	0.057591323
233	0xbc8fd02f	-0.017555324
234	0x3d510b66	0.05103626
235	0x3c7c7c5f	0.015410512
236	0x3e14a12e	0.1451461
237	0xbdc2712a	-0.094942406
238	0xbcfedcf5	-0.03111122
239	0x3d5c1699	0.05373249
240	0x3d4fce71	0.050733987
241	0x3da8f7d3	0.08250394
242	0x3c721e04	0.014777664
243	0xbd510b7e	-0.05103635
244	0xbd32fc27	-0.043697502
245	0x38af6366	8.363165e-05
246	0xbe1df96c	-0.15427178
247	0xbc31c3f7	-0.010849944
248	0xbe21e564	-0.15810162
249	0xbd189e95	-0.03726061
250	0xbccf23c9	-0.025285618
251	0xbd9eec58	-0.07759923
252	0x3dac0087	0.08398538
253	0x3db76b17	0.08955973
254	0x3d040ab5	0.032236774
255	0xbd9fed6c	-0.078089565

autoencoder.decoder.0.0.bias f4 [3]
0	0x36b343a6	5.342491e-06
1	0xb71a3374	-9.191095e-06
2	0xb61595fa	-2.2290028e-06

autoencoder.decoder.0.1.weight f4 [3]
0	0x3f73c67d	0.95224744
1	0x3f854971	1.0413038
2	0x3f842251	1.0322973

autoencoder.decoder.0.1.bias f4 [3]
0	0xbcb009fc	-0.021489136
1	0x3da1588d	0.07878218
2	0x3d908929	0.07057411

autoencoder.decoder.0.1.running_mean f4 [3]
0	0xbbacf52b	-0.0052782497
1	0x3c4a5aa5	0.012350713
2	0x3c13e0af	0.009025737

autoencoder.decoder.0.1.running_var f4 [3]
0	0x3d4a05a0	0.04932177
1	0x3ddaea8e	0.10689269
2	0x3dcd19b8	0.10014671

autoencoder.decoder.0.3.weight f4 [3, 1, 4, 4]
0	0xbde8c22e	-0.11365162
1	0x3ce69a65	0.028149793
2	0x3dc3e958	0.09565991
3	0xbdc45521	-0.095865496
4	0x3b6e7cef	0.0036390384
5	0x3e070977	0.13187204
6	0x3e2a3daa	0.16625085
7	0x3d0ed2dd	0.034869064
8	0xbd73d49c	-0.059528932
9	0x3ea324a0	0.3186388
10	0x3e70bcfc	0.23509592
11	0xbd002b21	-0.03129113
12	0x3d87bc14	0.0662767
13	0x3de9821b	0.11401769
14	0x3d1f6913	0.038918566
15	0x3e2c1746	0.16805753
16	0xbe8097a9	-0.25115708
17	0xbb0fe5e7	-0.00219571
18	0xbe456af2	-0.19279078
19	0x3d8bb1b7	0.06821006
20	0xbd6ee965	-0.05832805
21	0x3d82aafe	0.063802704
22	0xbd971e3c	-0.073788136
23	0xbe362341	-0.17786886
24	0xbdf89fac	-0.1213983
25	0xbe6c3bb7	-0.23069654
26	0xbd93b46f	-0.07212149
27	0xbe419a7d	-0.18906589
28	0x3b281dbd	0.002565249
29	0xbd29328f	-0.041307982
30	0xbd949f6b	-0.07256969
31	0xbe33b0e3	-0.17547946
32	0xbe43fab5	-0.19138606
33	0xbe834cf1	-0.2564464
34	0xbe96e01d	-0.2946786
35	0x3d205960	0.039147735
36	0xbd32b48f	-0.043629225
37	0xbdf1d87d	-0.1180887
38	0xbda22cae	-0.07918678
39	0x3ded8203	0.115970634
40	0x3d8f9be1	0.070121534
41	0xbdbea66a	-0.09309085
42	0xbdb02a5b	-0.08601829
43	0x3dd8cbbc	0.10585734
44	0xbc39dbf5	-0.011343946
45	0xba427116	-0.0007417364
46	0x3d141df0	0.036161363
47	0x3cc3abff	0.023885725

autoencoder.encoder_out.0.weight f4 [49, 441]
0	0x3d391b06	0.045191787
1	0x3c4cd453	0.012501794
2	0xbb89243c	-0.0041852277
3	0x3d2cbfe4	0.04217519
4	0x3cb2cb2f	0.021825401
5	0x3cc3dcb0	0.023908943
6	0x3d9b0181	0.07568646
7	0x3d2981c0	0.041383505
8	0xbc8686a1	-0.016421618
9	0x3b2b533a	0.0026142136
10	0x3d03c6ee	0.032172136
11	0x3ccea18a	0.025223512
12	0x3d17bb5e	0.03704392
13	0x3ce78f17	0.028266473
14	0x3cafb880	0.021450281
15	0x3d8c6c3b	0.06856581
16	0xbb73b330	-0.0037185661
17	0x3d436e45	0.047712583
18	0x3b9eb091	0.0048428257
19	0xba45e815	-0.00075495365
20	0x3d5bd9cb	0.0536745
21	0x3ca6d2c6	0.020364176
22	0x3d4f5191	0.050614897
23	0x3bc72123	0.0060769483
24	0xbc9fd235	-0.019509414
25	0x3bdf5fb8	0.0068168305
26	0x3d1606e7	0.036627676
27	0x3d32c783	0.0436473
28	0x3bf4cd00	0.007470727
29	0x3dc5c330	0.0965637
30	0xbbc44f73	-0.0059909164
31	0xbc4f7177	-0.0126613295
32	0x3c03a187	0.008034117
33	0x3c0ea59a	0.008706475
34	0x3d8b9931	0.06816328
35	0x3d210795	0.03931387
36	0x3d1ff71f	0.039054032
37	0xbc3a8535	-0.011384298
38	0x3cd8123d	0.026375884
39	0x3ceea89b	0.029133132
40	0x3d1900fd	0.037354458
41	0xba566798	-0.0008178889
42	0x3d54298c	0.051797435
43	0x3d9734ba	0.07383104
44	0x3ba35540	0.004984528
45	0x3c09127f	0.008366226
46	0x3b9aa19f	0.0047189738
47	0xbbfbabf0	-0.0076804087
48	0x3ce12193	0.02748183
49	0x3c88fd8b	0.016722461
50	0x3d512742	0.05106283
51	0xbc68e908	-0.014215715
52	0x3c6f396e	0.014601095
53	0x3d4859a9	0.04891363
54	0x3d3ee1b8	0.04660198
55	0x3cc823dc	0.024431162
56	0x3bead3b3	0.00716635
57	0xbc27c488	-0.010239728
58	0x3d4c0bb2	0.04981584
59	0x3d8769e1	0.06611992
60	0x3d29bf3a	0.041442133
61	0x3d271334	0.040789798
62	0x3c1096c0	0.008825004
63	0x3c0d8e86	0.008639937
64	0x3d554532	0.052067943
65	0xbc63058f	-0.013856306
66	0xbd062e53	-0.032759022
67	0x3c2be35d	0.010491219
68	0x3d90d38a	0.07071598
69	0x3c36d67b	0.011159535
70	0x3ca9374e	0.020656254
71	0x3c90e2a8	0.017686203
72	0x3be64cef	0.007028214
73	0xbcdf01ce	-0.02722254
74	0xbc273d84	-0.010207538
75	0x3cfa706f	0.03057119
76	0x3d29e520	0.041478276
77	0x3dcf867e	0.10133074
78	0x3dc32617	0.095287494
79	0x3c3969e4	0.01131675
80	0xbd59be97	-0.053160276
81	0x3cc80679	0.024417149
82	0x3b262631	0.0025352354
83	0x3d91fab3	0.07127895
84	0x3d9e0e99	0.07717628
85	0x3d120b6a	0.035655417
86	0x3cc657df	0.024211822
87	0x3cef78a6	0.029232334
88	0x3c846f93	0.016166484
89	0x3a524c55	0.00080222386
90	0x3d4d300f	0.05009466
91	0xbc97f497	-0.018549247
92	0xbc081a35	-0.0083070295
93	0x3c8a661c	0.016894393
94	0x3c99727b	0.018731346
95	0x3cc8389b	0.024441054
96	0x3d2cb29f	0.042162534
97	0x3d7ab843	0.061210882
98	0xbbba4d2b	-0.0056854687
99	0x3cc8b199	0.024498748
100	0x3d45f5df	0.048330184
101	0xbc323aa7	-0.010878242
102	0x3ca30ae5	0.019902656
103	0x3c2eb6d6	0.010663709
104	0x3d3fe491	0.046848837
105	0x3be3c1ec	0.0069506075
106	0x3c8b336c	0.016992293
107	0xbb8f4042	-0.004371674
108	0x3cc4808a	0.023987073
109	0x3c589865	0.013219927
110	0x3d560a03	0.05225564
111	0x3cbc7708	0.023005977
112	0x3c8a7114	0.016899623
113	0x3b8be16e	0.0042688167
114	0x3d009946	0.031396173
115	0x3cd8e999	0.026478576
116	0x3c1bcd5a	0.009509409
117	0x3b3f9d55	0.0029238064
118	0x3d2aae10	0.041669905
119	0xbcbc03ef	-0.022951094
120	0x3d194831	0.037422363
121	0x3cbbac5e	0.02290934
122	0xbd0775d3	-0.03307135
123	0x3c6be7a1	0.014398486
124	0x3bca6ea8	0.006177742
125	0x3da0bc29	0.07848389
126	0x3d1bfcf5	0.038083035
127	0x3d782266	0.06057968
128	0x3d270bb2	0.040782638
129	0xbd210d36	-0.03931924
130	0x3885c643	6.378863e-05
131	0xbcbd67a8	-0.023120716
132	0x3d5b3552	0.053517647
133	0x3d1f8ad1	0.038950745
134	0x3d63e0b3	0.05563421
135	0x3cc41f3b	0.023940673
136	0x3d604abe	0.05475878
137	0x3cd5851f	0.026064454
138	0x3d1adc48	0.037807733
139	0xbc29c7ef	-0.010362609
140	0x3cf4a66a	0.029864509
141	0x3d755cd5	0.059902985
142	0x3d216ccf	0.03941041
143	0x3cca82b6	0.024720531
144	0x3af3da88	0.0018604556
145	0x3ca6cbbc	0.02036082
146	0x3c74148d	0.014897478
147	0xbd0f54fc	-0.034993157
148	0xbc2f0fa3	-0.01068488
149	0xbc985a3f	-0.01859772
150	0x3c0f36d4	0.008741099
151	0x3cad4a90	0.021153718
152	0x3c33f3b3	0.010983395
153	0x3ccdb022	0.0251084
154	0xbc944577	-0.01809953
155	0x3d0d085e	0.034431808
156	0xbbd2686c	-0.0064211395
157	0xbd4f284f	-0.05057555
158	0xbd1051bf	-0.03523421
159	0x3caa6bdf	0.02080339
160	0x3cdc26a1	0.026873888
161	0x3d209d60	0.039212584
162	0x3cf14934	0.029453851
163	0x3abe2101	0.0014505686
164	0x3be9d4da	0.0071359696
165	0xbd1a2724	-0.037634984
166	0x3d1985f8	0.03748128
167	0x3dbda069	0.092591114
168	0xbbf58a7d	-0.0074933157
169	0x3d0b0335	0.033938605
170	0x3c0cb7c1	0.008588732
171	0x3c28544f	0.010274007
172	0xbc6c7025	-0.014431034
173	0x3cd03bd9	0.025419163
174	0x3c7f4e8a	0.01558269
175	0x3ce73145	0.028221736
176	0x3d3bf68f	0.045889433
177	0x3ceddc88	0.029035822
178	0xbd395322	-0.045245297
179	0xbc9df133	-0.019280052
180	0x3aea69f1	0.0017884356
181	0x3d0e4684	0.034735218
182	0x3d4c28e7	0.049843695
183	0x3cedee89	0.029044406
184	0x3d06ddd7	0.032926407
185	0xbd29b462	-0.041431792
186	0xbd30b013	-0.043136667
187	0xbce80b32	-0.02832565
188	0x3d6fdd50	0.05856067
189	0xbbe2d3b8	-0.0069222115
190	0x3b923b0f	0.0044626067
191	0x3bc2a0b2	0.0059395665
192	0x3d4f5135	0.050614554
193	0x3d20ae72	0.039228864
194	0x3d13b764	0.036063567
195	0x3d512762	0.05106295
196	0x3d2ea472	0.042637296
197	0x3d624808	0.055244476
198	0x3cf664c6	0.03007735
199	0xbc3b64db	-0.01143762
200	0xbd2a52b9	-0.041582797
201	0x3d3e48ad	0.046456028
202	0x3d44455a	0.0479177
203	0x3cdebcf4	0.02718971
204	0x3c6a8f27	0.014316357
205	0x3d28a181	0.041169647
206	0x3d00b90f	0.031426486
207	0xbc7c787d	-0.015409586
208	0x3c6d9dcd	0.014502955
209	0x3c659a54	0.0140138455
210	0x3cb98ddf	0.022650657
211	0xbc969ca6	-0.018385243
212	0xbb1b4934	-0.0023694756
213	0x3d09e638	0.03366682
214	0x3d35ee56	0.044416748
215	0xbc81238d	-0.015764022
216	0x3d18a295	0.037264425
217	0x3d0ef7c5	0.03490426
218	0x3d3fa372	0.046786733
219	0x3d1b39a7	0.03789678
220	0x3cf27ec0	0.029601455
221	0xbcfefcc3	-0.031126386
222	0xbd6565d0	-0.0560053
223	0x3daaedd3	0.083461426
224	0xbb0dab54	-0.0021617012
225	0x3c8d749b	0.017267516
226	0x3cf9ec41	0.030508162
227	0xbd7bf790	-0.06151539
228	0xbd161921	-0.03664506
229	0x3b8bfcbd	0.004272072
230	0x3d3ee309	0.046603236
231	0x3c15395e	0.009107916
232	0x3d5e5565	0.054280657
233	0x3cf1551a	0.029459525
234	0x3d02bac6	0.031916402
235	0x3becb8f1	0.007224195
236	0x3c945c4e	0.01811042
237	0x3cef6710	0.029223949
238	0x3bf940ed	0.0076066167
239	0x3d64e5c4	0.055883184
240	0x3d1b2f21	0.037886743
241	0x3d0ec0cf	0.034851845
242	0xbcd3ad83	-0.025839573
243	0xbc97b7e7	-0.018520309
244	0x3d548d51	0.051892582
245	0x3d252dcf	0.04032689
246	0x3c73c7cb	0.014879177
247	0x3be9c70c	0.007134324
248	0xbc263afa	-0.010145897
249	0x3c7f3b8c	0.015578162
250	0x3d50e506	0.050999664
251	0x3d4d9f16	0.050200544
252	0x3cdb39db	0.026760986
253	0x3d3b599f	0.045739766
254	0x3ceb8444	0.028749593
255	0x3d2f1479	0.042744134

autoencoder.encoder_out.0.bias f4 [49]
0	0xbb879a22	-0.004138247
1	0x38056fa4	3.1813644e-05
2	0xbc8135fe	-0.015772816
3	0x3d3c6f74	0.046004727
4	0x3bdcd64b	0.006739413
5	0xbcb837b8	-0.022487506
6	0xbceff246	-0.02929033
7	0xbc9548c2	-0.01822317
8	0x3bd90f21	0.006624118
9	0x3cc31e8d	0.023818279
10	0x3c202a34	0.009775687
11	0xbd0e1a70	-0.03469318
12	0x3b72c89d	0.0037045844
13	0xbc1a4953	-0.009416896
14	0xbd356642	-0.044286974
15	0xbd569cf9	-0.052395795
16	0xbc1733e4	-0.00922868
17	0xbcba11c7	-0.022713555
18	0xbbaa3168	-0.005193878
19	0x3b946248	0.0045283176
20	0xbd38192e	-0.04494589
21	0xbd3068c7	-0.043068673
22	0x3ceeace7	0.02913518
23	0x3ce6d83c	0.02817928
24	0x3cdeb31a	0.027185012
25	0xbd5daf4b	-0.05412225
26	0x3d1a26ff	0.037634846
27	0x3c8a9f01	0.016921522
28	0xbd1afac7	-0.037836816
29	0x3d60bc64	0.054867163
30	0xbcf58aa8	-0.029973343
31	0xbd7d6593	-0.061864447
32	0xbae7e073	-0.0017690792
33	0x3c700b57	0.014651141
34	0xbd294dc5	-0.041333932
35	0xbbc365f5	-0.005963082
36	0xbce390ad	-0.027778948
37	0xbd628a3e	-0.05530762
38	0xbd0bca05	-0.034128208
39	0xbd7d1573	-0.061788034
40	0xbba72562	-0.005100892
41	0xbd7a8769	-0.061164293
42	0xbb06b166	-0.0020552515
43	0x3d06f748	0.03295067
44	0xbce948ce	-0.028477099
45	0xbd214a38	-0.03937742
46	0xbd0844d0	-0.03326875
47	0x3bbc0418	0.0057377927
48	0xbd161462	-0.036640532

autoencoder.decoder_in.0.weight f4 [441, 49]
0	0xbdd4215a	-0.10357924
1	0x3d56476a	0.0523142
2	0xbdb9c8db	-0.09071513
3	0x3cf03ec2	0.0293268
4	0x3d305105	0.043046016
5	0x3d9ac114	0.07556358
6	0xbd3cf095	-0.046127874
7	0xbd358c86	-0.044323467
8	0x3caefd67	0.021361066
9	0xbd82bcf1	-0.06383694
10	0x3c050598	0.008119009
11	0x3d005e25	0.031339783
12	0x3de2b560	0.11069751
13	0x3d4938c6	0.04912641
14	0x3bff98e4	0.0078002084
15	0x3d44e41c	0.048069105
16	0xbdba5969	-0.09099085
17	0x3d04f67e	0.032461636
18	0xbd0badbe	-0.03410124
19	0xbcf1f6f3	-0.0295367
20	0x3d08116a	0.033219732
21	0x3d3e37a5	0.046439786
22	0xbd83581c	-0.0641329
23	0xbd908725	-0.07057027
24	0xbc4fd2d8	-0.012684546
25	0x3d8e81b3	0.06958332
26	0xbc87d61e	-0.016581591
27	0xbd0a55c6	-0.033773206
28	0xba531f84	-0.00080537074
29	0xbd49b937	-0.0492489
30	0xbd56623b	-0.052339774
31	0xbbfc05db	-0.0076911277
32	0x3d738ec5	0.059462328
33	0xbbed7c1c	-0.007247461
34	0x3d9a5ed1	0.07537616
35	0x3d1db4ad	0.038502384
36	0x3d3c2386	0.045932315
37	0xbcbc7b30	-0.02300796
38	0x3dce645b	0.10077735
39	0x3d055016	0.03254708
40	0x3ca8e574	0.020617224
41	0x3c9e95ac	0.019358478
42	0xbdebf9ec	-0.11522278
43	0xbd578c48	-0.052624017
44	0x3d931347	0.07181411
45	0xbb6a2f89	-0.00357339
46	0xbd7bcf73	-0.061477136
47	0x3ddb8e90	0.10720551
48	0xbd6aea8c	-0.057352588
49	0x3d605c72	0.054775663
50	0xbd05fbe3	-0.03271092
51	0xbc6f8b0c	-0.014620554
52	0xbcc0049d	-0.0234397
53	0xbb35b7fa	-0.0027728067
54	0x3c91ef27	0.017814232
55	0xbd2fde38	-0.042936534
56	0x3d6b8a4a	0.05750493
57	0xbcbc15f0	-0.02295968
58	0x3abf5f16	0.0014600481
59	0xbcb70d32	-0.02234516
60	0x3d0520f4	0.03250213
61	0xbbe9b341	-0.0071319644
62	0x3cc1eb4a	0.023671765
63	0x3c3673c7	0.011136002
64	0x3bb3389e	0.005469396
65	0x3d25e2e2	0.040499575
66	0xbcb8467f	-0.022494553
67	0x3c17d1b0	0.009266302
68	0x3cae4a65	0.021275708
69	0x3c243dde	0.010024516
70	0xbd333296	-0.043749414
71	0xbca8baa5	-0.020596812
72	0x3ce5d4a4	0.028055497
73	0xbbdfaece	-0.0068262583
74	0x3d06c7a1	0.032905225
75	0xbd40584a	-0.0469592
76	0xbd51a771	-0.051185075
77	0x3c8d1df3	0.017226195
78	0x3c471d25	0.012152945
79	0x3b7a7eaa	0.003822247
80	0x3d08c2c7	0.03338888
81	0xbcfe55d4	-0.031046785
82	0xbcd17dcc	-0.02557268
83	0xbd5ebcbb	-0.054379206
84	0xbcab7597	-0.020930095
85	0xbc5e8d96	-0.013583561
86	0xbd9c9ec1	-0.076474674
87	0x3bafc390	0.005363889
88	0xbc3b5b43	-0.011435333
89	0x3ca3785a	0.019954849
90	0x3d97cf13	0.07412543
91	0xbce62d68	-0.028097823
92	0x3c1b2565	0.009469365
93	0x3d8c6463	0.06855085
94	0x3c4f8692	0.012666361
95	0xbd129335	-0.03578492
96	0xbcb55f80	-0.022140265
97	0x3c688314	0.014191408
98	0x3d392d22	0.045209058
99	0xbd849b36	-0.06474917
100	0x3d1e89f7	0.038705792
101	0xbdb2d630	-0.08732259
102	0xbcc178c4	-0.023617156
103	0xbd97d538	-0.07413715
104	0xbd217a90	-0.039423525
105	0x3cf7a336	0.030229192
106	0x3bdbc64a	0.0067069875
107	0xbd405361	-0.046954516
108	0xbc78766c	-0.015164953
109	0x3d042a24	0.03226675
110	0xbd9c028d	-0.07617674
111	0xbc772976	-0.015085569
112	0x3d00c241	0.031435255
113	0xbba4b10d	-0.005025989
114	0x3dc4ddc7	0.09612613
115	0x3c875551	0.016520174
116	0x3d9eb9cf	0.07750284
117	0x3c4101be	0.0117802005
118	0x3d5f747f	0.05455446
119	0x3af721f2	0.0018854721
120	0xbcc5b592	-0.024134431
121	0x3d8d72c2	0.06906654
122	0xbcffb23f	-0.031212924
123	0xbd6a3c2d	-0.057186294
124	0x3ccdf177	0.025139553
125	0xbd4de750	-0.050269425
126	0xbbfd2661	-0.0077255224
127	0x3cc80c9b	0.024420073
128	0x3b77b510	0.003779713
129	0x3d629410	0.055316985
130	0x3cb81c7f	0.022474525
131	0xbc29dede	-0.010368077
132	0x3c916d3a	0.017752279
133	0x3a39fe0d	0.00070950465
134	0x3cc8d67b	0.024516335
135	0xbd75183c	-0.059837565
136	0xbd13f296	-0.03612002
137	0xbc96465a	-0.018344093
138	0x3d7126c1	0.05887485
139	0xbcfdaeb4	-0.030967094
140	0xbd2aebe7	-0.04172888
141	0x3ba26155	0.0049554505
142	0x3b8a0c57	0.004212897
143	0x3bba25e0	0.0056807846
144	0x3c0e2a16	0.008677026
145	0xbd873c9e	-0.06603359
146	0x3db32efa	0.087491944
147	0xbbb92803	-0.0056505217
148	0x3c8458d4	0.016155638
149	0xbd3d6dbb	-0.046247225
150	0xbd26e5e7	-0.040746596
151	0xbd3a08c1	-0.045418505
152	0x3d60930a	0.054827727
153	0xbd016242	-0.031587847
154	0xbd035bcf	-0.032069977
155	0x3c7e882a	0.015535394
156	0xbd51d0eb	-0.05122463
157	0x3d5a2fcc	0.05326824
158	0x3d795d52	0.060880013
159	0xbd765b8e	-0.060145907
160	0xbc96dc00	-0.018415451
161	0x3d399b55	0.04531415
162	0x3aaf41b4	0.0013371021
163	0xbb58ec4a	-0.0033099824
164	0xbd8bff7d	-0.0683584
165	0xbd9e7bb4	-0.07738438
166	0xbd45c412	-0.04828269
167	0xbc4c75cb	-0.012479256
168	0x3d25468f	0.040350493
169	0x3c9efe85	0.019408474
170	0x3d597272	0.05308766
171	0xbd22788b	-0.03966574
172	0x3d1db669	0.038504038
173	0xbd26432c	-0.040591404
174	0x3c549b61	0.012976498
175	0x3c74dd04	0.014945272
176	0xbd06ea78	-0.03293845
177	0xbc37f9fd	-0.011229035
178	0xbd6552ac	-0.055987045
179	0xbca92151	-0.02064577
180	0xbd342a86	-0.043985866
181	0x3dbc4a47	0.09193855
182	0x3d468074	0.048462346
183	0x3ca1042b	0.019655308
184	0xbd28515b	-0.04109321
185	0xbd406212	-0.046968527
186	0x3cc99934	0.024609186
187	0x3c285a3f	0.010275423
188	0xbc8c7316	-0.017144721
189	0xbdd0334a	-0.101660326
190	0x3d0dac5f	0.034588214
191	0x3d261947	0.04055145
192	0x3c8de4ac	0.017320953
193	0x3d4eccd7	0.05048832
194	0xbd7891bb	-0.060685854
195	0xbb9dfd47	-0.004821453
196	0xbd4019d6	-0.04689964
197	0x3d969ce7	0.073541455
198	0x3ce84794	0.028354444
199	0xbd6f7b3f	-0.058467146
200	0x3d770f2d	0.060317207
201	0x3da2e197	0.07953184
202	0xbb9e49db	-0.0048305816
203	0x3d8b68e2	0.06807114
204	0xbd08b0f5	-0.033371884
205	0xbd5e3810	-0.054252684
206	0x3d6a8b0f	0.057261523
207	0xbc97c984	-0.018528707
208	0x3ce76df5	0.028250674
209	0xbd123fb1	-0.035705272
210	0x3c3c20fe	0.011482475
211	0xbd0654fd	-0.032795895
212	0xbc72abb0	-0.014811441
213	0xbdd7bcc9	-0.10534055
214	0xbc17b8aa	-0.009260336
215	0x3d86cedc	0.06582424
216	0x3d14d812	0.036338873
217	0x3d962021	0.07330347
218	0x3d150a8f	0.036387023
219	0x3d116970	0.035500944
220	0xbd214b43	-0.039378416
221	0x3d9c9ecb	0.07647475
222	0xbd46dc77	-0.048550095
223	0xbcd61d49	-0.026137011
224	0xbd9aa9fd	-0.07551954
225	0xbdca67c6	-0.098830745
226	0x3cb1b1de	0.021691259
227	0x3d2444cb	0.04010467
228	0xbd72cab7	-0.059275355
229	0xbd9f069a	-0.07764931
230	0x3cbc5479	0.022989498
231	0x3d59f2b6	0.053209983
232	0x3d536a4c	0.051615044
233	0x3d0f6ccf	0.035015877
234	0xbc8f4361	-0.017488183
235	0x3c35899a	0.01108017
236	0xbd062c5e	-0.032757156
237	0xbd1dbab8	-0.038508147
238	0x3c1b56b5	0.009481122
239	0x3d29f8f6	0.041497193
240	0x3dc6e792	0.09712137
241	0xbac817d9	-0.0015265896
242	0x3d9d697b	0.076861344
243	0xbd97ab92	-0.07405771
244	0xbdd96f9e	-0.106169924
245	0xbd1bcd12	-0.038037367
246	0xbdadc502	-0.08484842
247	0xbc35a66f	-0.011087044
248	0xbcde31cd	-0.027123356
249	0xbcc9b0af	-0.024620382
250	0xbb26189d	-0.002534426
251	0xbd3065d7	-0.043065872
252	0xbd88d231	-0.06680716
253	0xbd807516	-0.06272332
254	0xbd6aafda	-0.05729661
255	0xbc42eac5	-0.011896794

autoencoder.decoder_in.0.bias f4 [441]
0	0x3c8ed42c	0.017435156
1	0xba97cd8d	-0.0011581645
2	0xbd0f8a48	-0.035043985
3	0x3ccc265b	0.024920633
4	0xbc46c428	-0.012131728
5	0x3d80c5b0	0.06287706
6	0x3c18e132	0.0093310345
7	0x3cffe906	0.031239044
8	0x3d64a42a	0.05582062
9	0x3d93c877	0.0721597
10	0x3d4efa1f	0.050531503
11	0xbc6d8d89	-0.014499077
12	0xbc842d77	-0.01613496
13	0xbd80895c	-0.06276199
14	0x3c42b0ce	0.011882974
15	0xbc270217	-0.010193369
16	0xbda9822c	-0.082767814
17	0x3d84404f	0.064575784
18	0xbe07c0ef	-0.13257192
19	0xbdb31b57	-0.08745449
20	0xbd465f86	-0.048430942
21	0x3d39f14b	0.04539613
22	0xb98cc3bc	-0.00026848714
23	0x3cbb8c60	0.022894084
24	0x3d8a1403	0.06742098
25	0x3da178db	0.078843795
26	0xbdae8990	-0.08522332
27	0x3d843c4f	0.064568155
28	0x3d024b37	0.03181001
29	0x3d6aefcd	0.057357598
30	0x3ba8fada	0.005156857
31	0xbdee9178	-0.1164884
32	0xbcbef716	-0.02331118
33	0xbded1385	-0.11575989
34	0xbd691a3d	-0.05690979
35	0x3e023987	0.12717257
36	0x3d983e02	0.07433702
37	0x3d9c2184	0.0762358
38	0x3dc1af2b	0.09457239
39	0x3bd44da9	0.0064789844
40	0xbd4dd1e8	-0.05024901
41	0x3de0e28e	0.10980712
42	0xbdfc3334	-0.12314454
43	0xbdd74d9e	-0.10512851
44	0x3dafa3fe	0.08576201
45	0xbd42e934	-0.04758568
46	0x3da55989	0.08073718
47	0x3dd30a3e	0.10304688
48	0x3d8f54b0	0.06998575
49	0x3d3409a6	0.043954514
50	0xbd353960	-0.04424417
51	0xbd483793	-0.048881125
52	0x3d54a478	0.051914662
53	0x3cfb1bf1	0.030652972
54	0xbde74ccf	-0.11293947
55	0xbd6d69db	-0.05796228
56	0x3c104d52	0.008807497
57	0x3d30aa8a	0.04313139
58	0x3d40d509	0.047078166
59	0xbc26a7fd	-0.010171887
60	0xbd8f9e4d	-0.07012615
61	0x3cfeccf3	0.031103587
62	0xbda08395	-0.07837597
63	0xbdcb0892	-0.09913744
64	0xbd414991	-0.0471893
65	0x3dbea342	0.09308483
66	0x3c13b21c	0.009014633
67	0xbdaaca34	-0.083393484
68	0xbd8f42c2	-0.06995155
69	0xbdeedde7	-0.11663418
70	0x3da64ee8	0.08120519
71	0x3d52ad09	0.05143455
72	0x3d0d5a3e	0.03450989
73	0xbdffa64d	-0.12482891
74	0x3da61cda	0.08110972
75	0x3d7849ab	0.06061713
76	0xbda7d541	-0.08194972
77	0xbdabce30	-0.083889365
78	0x3bb69730	0.005572222
79	0xbd3e890f	-0.046517428
80	0xbd0b2ee9	-0.033980284
81	0xbc872608	-0.016497627
82	0x3d692323	0.056918275
83	0x3cada8d5	0.02119867
84	0x3deffbf0	0.11717975
85	0x3d9264e7	0.07148152
86	0x3e31d58c	0.17366618
87	0xbc3b6a7b	-0.011438961
88	0xbc7e9031	-0.015537308
89	0xbcc28c39	-0.023748504
90	0xbd10d31b	-0.035357576
91	0x3da5298c	0.08064565
92	0x3e1c459d	0.1526093
93	0xbd412444	-0.047153726
94	0xbd6f320e	-0.058397345
95	0x3d22af48	0.039717942
96	0xbd85570a	-0.06510742
97	0xbcb99094	-0.022651948
98	0xbb72c5d5	-0.0037044187
99	0xbd53b68e	-0.05168777
100	0xbdaa211e	-0.08307098
101	0xbdd82ed8	-0.1055581
102	0xbcdfccbd	-0.027319307
103	0xbdfb1f92	-0.12261881
104	0xbdae2575	-0.08503238
105	0x3d3ad342	0.045611627
106	0x3d99c082	0.07507421
107	0x3c8d5238	0.017251119
108	0xbdaa7260	-0.083225965
109	0xbd6eb878	-0.05828139
110	0xbd851d1a	-0.06499691
111	0x3b5d20b3	0.0033741414
112	0xbd657ce6	-0.056027316
113	0xbdeaabc6	-0.114585444
114	0x3d0eb06c	0.034836218
115	0xbd797f04	-0.060912147
116	0xbdfeb4d2	-0.124368325
117	0xbb87cc4a	-0.004144226
118	0xbd3671d1	-0.044542138
119	0xbd6224c7	-0.055210855
120	0x3d1425fe	0.036169045
121	0x3d1a654c	0.03769426
122	0xbd184925	-0.03717913
123	0x3d913829	0.0709079
124	0x3bc56c59	0.006024879
125	0x3dd88c2d	0.105736114
126	0x3aa2801e	0.0012397801
127	0x3b7496b6	0.0037321276
128	0xbddb3e04	-0.10705188
129	0x3d8a3123	0.06747653
130	0x3ce507e6	0.027957868
131	0xbdbc3552	-0.091898575
132	0x3daaebb5	0.08345739
133	0xbc0aa861	-0.008462996
134	0x3dcd8bbb	0.10036417
135	0x3cd0f946	0.025509488
136	0x3d858ef8	0.0652141
137	0xbdb3319d	-0.08749697
138	0xbd1165fa	-0.035497643
139	0xbd5a3777	-0.05327555
140	0xbba2ea28	-0.0049717613
141	0x3dd80fac	0.10549864
142	0xbdb7509b	-0.08950921
143	0xbdeab1a6	-0.11459665
144	0xbd83caa0	-0.06435132
145	0x3dce34fb	0.10068699
146	0xbda77813	-0.08177199
147	0x3d064bd4	0.03278716
148	0xbd2b4cea	-0.041821398
149	0xbddd6f03	-0.108121894
150	0xbd20bc04	-0.039241806
151	0x3d9d937f	0.07694148
152	0xbd74253f	-0.059605833
153	0x3da58735	0.08082429
154	0xbe05ebb0	-0.13078189
155	0xbcefd0a6	-0.029274296
156	0xbd7928e2	-0.060830005
157	0x3db51d20	0.08843446
158	0x3dcd1736	0.10014193
159	0xbc5ebc36	-0.013594678
160	0xbdaa294f	-0.0830866
161	0xbdc160e2	-0.09442307
162	0x3d0e750a	0.034779586
163	0xbde2cb9d	-0.110739924
164	0x3dce6003	0.100769065
165	0x3d2503be	0.040286772
166	0xbc0d60cd	-0.008629036
167	0x3d6e1096	0.058121286
168	0x3d760d51	0.060071293
169	0xbdf2e259	-0.11859579
170	0xbce989bf	-0.028508065
171	0xbe148db6	-0.14507183
172	0xbc92d88f	-0.017925529
173	0xbdcfc5c3	-0.10145142
174	0x3c01cb34	0.007921983
175	0x3c1cb7ff	0.009565352
176	0xbcb19366	-0.02167673
177	0x3d2c1f32	0.042021938
178	0xbdca8f27	-0.098905854
179	0xbd9a7258	-0.075413406
180	0x3d29a249	0.041414533
181	0xbd56a5fd	-0.052404393
182	0xbd38060e	-0.04492765
183	0xbd04c83f	-0.032417532
184	0x3add1799	0.0016867995
185	0xbde6a314	-0.112615734
186	0x3db6cfbe	0.089263424
187	0x3ca2d76a	0.019878108
188	0xbdb98a3d	-0.0905957
189	0xbd806994	-0.062701374
190	0x3ddfec4b	0.10933741
191	0x3e0044d4	0.12526256
192	0x3d75b693	0.05998857
193	0xbd480ac6	-0.0488384
194	0x3ce0bae6	0.02743287
195	0xbcce08e8	-0.025150731
196	0x3d4c21f1	0.049837057
197	0xb916e84f	-0.00014391656
198	0x3d98bae1	0.07457519
199	0x3caf091b	0.021366647
200	0x3dbfa2a6	0.093571946
201	0x3d76bc0f	0.06023794
202	0x3aa1b928	0.0012338506
203	0x3d6359d3	0.055505585
204	0xbda080ff	-0.07837104
205	0x3d777b9e	0.060420625
206	0xbd1d70c5	-0.038437624
207	0x3d9fc86c	0.07801899
208	0x3cf8c0fe	0.030365463
209	0xbca59dbe	-0.020216819
210	0xbdac726c	-0.08420262
211	0x3d404007	0.04693606
212	0x3d135dd3	0.03597815
213	0x3d9e1e54	0.077206284
214	0x3cc824f0	0.024431676
215	0x3da3ce03	0.07998278
216	0xbd8a918d	-0.06766043
217	0xbc78d0c8	-0.015186496
218	0xbd5021f3	-0.050813626
219	0xbdc00d66	-0.093775555
220	0xbcedba54	-0.029019512
221	0xbe194158	-0.14966333
222	0x3d161a0a	0.036645927
223	0xbdc733bf	-0.09726667
224	0xbda888ba	-0.082292035
225	0x3d8eaa6a	0.06966098
226	0x3d0d9584	0.034566417
227	0x3c8656ea	0.016398866
228	0xbe15a56c	-0.14613885
229	0x3c3547e0	0.0110645
230	0x3c070153	0.008240062
231	0x3dc1b2a1	0.09457899
232	0x3ddbe0cd	0.10736237
233	0x3cd37936	0.025814634
234	0xbd860e1c	-0.0654566
235	0xbcbc2316	-0.022965949
236	0x3dbd6910	0.09248555
237	0x3cc1e739	0.023669826
238	0xbda335fc	-0.07969281
239	0xbb015f1e	-0.0019740532
240	0x3e0b9f98	0.13635099
241	0x3d64a0b1	0.05581731
242	0x3da62dbb	0.08114191
243	0x3db59ea9	0.08868153
244	0x3d8435ab	0.06455549
245	0xbd13e95e	-0.03611123
246	0xbd562688	-0.05228284
247	0x3d52d43a	0.051471926
248	0xbd86b658	-0.06577748
249	0xbd874c0d	-0.066063024
250	0x3d43f933	0.047845077
251	0x3dca08ad	0.09864936
252	0xbcc6b244	-0.024254926
253	0x3c94828a	0.018128652
254	0x3d49d334	0.049273685
255	0x3aba6ac5	0.0014222494
