results/transformations/mapping_files/VAE/FMNIST_VAE_8_2>FMNIST_VAE_8_3>NeuralNetwork_100_0.2_nodropout_16_convex_hull.pth (torch, 8570 bytes, 6 tensors)

weight f4 [16, 8]
00000000: 4a54 323e 19be 10be 1d51 b83c 6a33 123e
00000010: 8050 22be 90ee 753c cca4 46bd 059e 04be
00000020: f8bf 35be eaf6 0b3d adac 1c3c 7149 babd
00000030: 037e a13d ac7f b8bd 114a 583d 8694 b83c
00000040: 28af 28be ce18 dd3a 1606 0b3b b9ec 9f3a
00000050: 6bea 24be 301e 30be f233 0a3c 53ca 01bb
00000060: 5111 a8ba e65b 8ebd 84b4 19be b526 e7ba
00000070: 5acb c1ba 38af 8939 e1d2 c13c b5bb 07bd
00000080: 284b 9a3c 8c0e 69bc 14a0 e7bc b668 ec3c
00000090: 54d2 75bc 5875 113e b34b 70bb bde6 203e
000000a0: bca2 1e3e d3aa aaba e9cf 373d 4c25 abb8
000000b0: 141d 4f3d 6750 d3bb 2e9d 66bd bbe5 d5bd
000000c0: 5e2c 933c 0906 50bd 7e33 d23a 909c 33be
000000d0: e21d d6bc 2f16 a0bd f05c d7bd 5c53 c5bd
000000e0: c658 8dbd 178d afbd 798c 1fbd 79dd 433e
000000f0: 7222 0b3e 1a37 10bc ef91 f93d 1308 a2ba
00000100: 1f0c 96bd 16cb 2abb d119 14be 4664 a0bd
00000110: d7d2 37be 0e1d 323e 4f22 a1bb cc17 69bc
00000120: 2110 dabd 4151 1ebb ba36 213e 067f 76bc
00000130: c6f9 d4bb 1e67 0ebe 954b 3d3e 6298 133a
00000140: 0e60 0d3e 649a 843c 7216 c03c 5fcb fdbd
00000150: f7dd 01bc 203c 2ebb bc8c 9d3b 391c 46be
00000160: b40d 823d d39a 733c a1c3 f43d 6a5c d63b
00000170: 1f66 02bc 3e86 7139 be78 2e3e 64ce fcbc
00000180: ea22 9a3b 7ed1 a2b9 8abb 5b3b 5463 f0bd
00000190: 34df 1abe b69d d839 378f e43d 99a7 90bd
000001a0: 9c47 003b 72af 9fbd 4ea8 063e 2265 f3bb
000001b0: 82cb 91bb 432a 5f3c 4001 e1b8 814f 2fbe
000001c0: aaf7 60bd 668a 803c a3cb ed3c ca2f fdbd
000001d0: fafb 913d 9445 16ba 2888 d03d 6d1e 433e
000001e0: 8079 513d 9e8e c43d 02be d53b dca7 163c
000001f0: ac13 153c 58d6 c8bd 38b7 683b ade0 1c3e
0.17414966 -0.14135017 0.022499615 0.14277425 -0.15851021 0.015010491 -0.048497006 -0.12950905
-0.17749012 0.034171022 0.0095626535 -0.09096039 0.07885363 -0.090087265 0.05280501 0.022531759
-0.16473067 0.0016868354 0.0021213344 0.0012201286 -0.16105048 -0.17199016 0.008435236 -0.0019804433
-0.0012822544 -0.06951122 -0.15010267 -0.0017635437 -0.0014785335 0.00026261224 0.023660125 -0.033137996
0.018834665 -0.01422466 -0.028274573 0.028858524 -0.015003759 0.1420492 -0.0036666214 0.1571302
0.15491766 -0.001302088 0.044876013 -8.1608625e-05 0.05056484 -0.0064487937 -0.056302242 -0.10444208
0.017965492 -0.050787006 0.0016037074 -0.17540193 -0.026137296 -0.07816731 -0.10515773 -0.0963504
-0.06901698 -0.085718326 -0.038952325 0.19127454 0.13587359 -0.0088022 0.12186038 -0.0012362025
-0.07326531 -0.002606099 -0.14462973 -0.07831626 -0.17951523 0.17393896 -0.00491742 -0.014226865
-0.106476076 -0.0024157318 0.15743533 -0.015044933 -0.006499502 -0.13906524 0.18485864 0.0005630312
0.13806173 0.0161869 0.023448203 -0.123923056 -0.007926456 -0.002658613 0.0048080366 -0.19346704
0.0635027 0.014868456 0.11951376 0.0065417783 -0.007958918 0.0002303356 0.17038247 -0.030860133
0.004703869 -0.00031055132 0.003352853 -0.11737695 -0.15124208 0.00041316234 0.111601286 -0.07063217
0.0019573933 -0.077971354 0.1315014 -0.0074278275 -0.004449309 0.013620916 -0.00010729069 -0.17120172
-0.05492369 0.015690994 0.029027766 -0.12362631 0.07128139 -0.0005732414 0.1018222 0.19054575
0.051141262 0.095975146 0.006522895 0.009195294 0.009098928 -0.09806508 0.0035509598 0.15320082

bias f4 [16]
00000000: dbc4 813d d45d a3bd 2ad1 243c a9b1 e7bb
00000010: 4780 153e 0e24 b83d 5984 223b 6926 333e
00000020: 808c 4c3c be8a 103d e57d 1bbb 996f 36be
00000030: 2b3f 3cbd 7866 5fbd 70f2 ccbd 0fdc 133e
0.06336375 -0.07976881 0.010059634 -0.0070707393 0.14599715 0.08991252 0.0024798124 0.17495121
0.01248467 0.035288565 -0.0023726162 -0.17816009 -0.04595868 -0.05454108 -0.10007179 0.14439414

weight f4 [16, 16]
00000000: 89e9 c2bb c712 a3bb 6433 dbbb 1ed0 b9bd
00000010: 71fe 30bd cfe5 c8bb 5055 39bb af71 8b3d
00000020: f5ca bcbc 3a08 1fbb 74eb f93a 290a 04bb
00000030: 4477 343d 0ecd 2dbb f42a 343b ed37 2bbd
00000040: e6eb 3bbc 301b f13a 1b75 fbbc 6368 2abc
00000050: 1f5e acbb fc28 fdbc e157 f13b af9a 343c
00000060: 8057 00bd 6550 3bbc e5db 023c c15d c9bc
00000070: 4afa 0cbc 5c2e 013d 1cbf af3b 78cb b43a
00000080: 2396 143d 7906 95bd 5cc1 b9bd 70af e838
00000090: 91ac da3a 0f58 be3b 9847 8b3d c4a0 d7ba
000000a0: d489 0dbb b1de 9b3c 32da 043d a3b2 e03b
000000b0: d1cb 843d c892 d03c 54be 9d3d 1fa4 b0bd
000000c0: 445c 6a3b 8889 dabb da5d 19bc 0891 dc3a
000000d0: 02c5 713a ea12 3c3a e4eb 7dbd 18f2 f5bc
000000e0: 7321 c4bc c44a 6e3a af94 7a3a d7f0 453d
000000f0: 7a6d 60b9 2bc2 08b9 d45a 813b 63ab 78bb
00000100: e846 783c 22b8 853b 0c95 653a 3489 973d
00000110: ff27 0abd 35be 02ba 023b 2e3b a68a c1bc
00000120: 13c5 073c 0d02 4f3c 5eb6 213a bd59 f83b
00000130: ccb0 15bb 80d2 25bb 5b07 68bd 4854 eeb9
00000140: cbad 54bd 22f6 99bd cbf7 2ebc 0429 0d3c
00000150: 0298 63bd a6ea 91bd ee8c 46bc f604 823b
00000160: b4b0 d4bb ea21 993b accf 95ba cfc9 723d
00000170: 0989 403b 57e5 4a3c 8893 173c 1475 a73a
00000180: 2181 1abd 4a36 3dbb 6889 cdbc 15ac 04bd
00000190: fcda 773d 8069 4b38 5d6d f9bc 0c71 91bd
000001a0: 8faa 7fbc cae3 963d c3d7 443d 73e9 263b
000001b0: 0067 ce3c 62e6 343a 0b16 36bc f86b 73ba
000001c0: 225e 733d 5f55 9d3b 78e7 ff3a d52c eabb
000001d0: 7433 abbd 58cc 6dbd 6e51 313d c714 043b
000001e0: 9aca 8b3a b450 b3bc b17a 803c 6d2c 193d
000001f0: d41f 48b9 3da0 9fbc e763 e5ba 2534 6bbb
00000200: dff8 2b3b 0da1 493d b3a1 1d3b b9cd b9ba
00000210: d442 a03c 9afd 86bd c28f 5d3d 4dc5 b7bc
00000220: ac06 d83b 586a e23b 025e 003d 0eeb dcbc
00000230: 968f 9a3b d1c2 3b3d 1278 c43b 198d fe3b
00000240: 767a 74bc 09f4 ff3a 3a84 61bc d16b 103b
00000250: 1a50 a13a b981 48bd eed2 4cbc 3e11 a13c
00000260: b465 0fbc 983e 1a3d dc51 aabb 42b0 743c
00000270: f841 0cbd 6492 013b 3234 593b e85e aabb
00000280: 2c39 31bd d40b 9abc db85 933b a158 a4bd
00000290: dc30 1ebc 01c5 2a3d 3539 a339 f0f3 e939
000002a0: 5817 03ba 4efa 42bd d19c 86bb 3a8a f13b
000002b0: 7f9d 26ba 49d5 103d de3a c73b 4074 ea39
000002c0: fbf3 a3bc bd10 c83b 8448 20bc 0066 36b8
000002d0: b744 c1ba c939 b0bd f90d 99bb 400d a33c
000002e0: fd2f b7bd 4fad c6bc b66a d73c 4749 bf3b
000002f0: c6c6 84bc 207f b1bb 5c52 0cba b385 3bbb
00000300: 4870 3a3c 4fac b53b 150d 8cba e4cd 173d
00000310: 0486 83bd c888 9938 8793 8639 1670 c53c
00000320: 20f7 b63a 6f54 8b3c 77f4 a9bd a13f 8cbd
00000330: c476 8ebc 8dca 93bc beb7 073a 74bb 9e3c
00000340: b14a d13c a792 8b3d b2fa 093c 7f36 86bb
00000350: a5c5 8bbc 3d89 6dbb 010d 8b3d dee5 4cbc
00000360: bfaf 29bd aec8 173c ae15 b33b af9a e6bb
00000370: c896 cd3c 3b93 c1bd d443 1dbc 3b8b 933b
00000380: b508 bcbc 1152 b43b 5017 89bd 4810 783a
00000390: 32be 453c b606 f3bb 2326 51bc 2920 afbd
000003a0: 6f86 eebb 1cb2 bb3d 30f8 a3bb fe1c 51bd
000003b0: 057f d9bc 65a2 bdbd 9f55 c23d e27c 20bc
000003c0: e8e6 a7bd b7c8 e2bb de70 6cba d3b4 2d3d
000003d0: accc 393b 08a3 8e3b e4cf a53b eb1d 2ebd
000003e0: 8f87 c03c fe79 1e3d a6b0 92bd 9b0c 083a
000003f0: 15d2 5b3c 30dc 0e38 eea3 2cbd 0e38 d03a
-0.0059482497 -0.0049766037 -0.006689476 -0.09072898 -0.043211404 -0.006130911 -0.002827961 0.06808793
-0.023045996 -0.0024266378 0.0019067363 -0.0020147657 0.044059053 -0.0026519927 0.0027491422 -0.04180138
-0.011469817 0.0018394943 -0.030695489 -0.010400864 -0.0052602435 -0.030903332 0.0073652123 0.011023208
-0.031333447 -0.011432742 0.007986997 -0.024580838 -0.008604595 0.031538352 0.005363358 0.0013793549
0.036275994 -0.07276625 -0.090700835 0.000110953 0.0016683509 0.0058088372 0.06800765 -0.001645111
-0.0021597045 0.019027086 0.03243465 0.0068572327 0.064841874 0.025460616 0.07702318 -0.086250536
0.003576056 -0.006669227 -0.009360755 0.0016827891 0.0009222777 0.0007174449 -0.06199254 -0.030022666
-0.023941731 0.00090901204 0.0009558899 0.048325386 -0.00021403088 -0.00013042304 0.003947595 -0.0037943951
0.015153624 0.004080788 0.00087578665 0.07399216 -0.03372955 -0.00049874495 0.0026585464 -0.023625683
0.008286732 0.012634766 0.00061688374 0.007579057 -0.0022840975 -0.002530247 -0.05664764 -0.00045457692
-0.051923554 -0.07517649 -0.010679196 0.008615736 -0.055564888 -0.07124834 -0.012118561 0.0039678765
-0.006490791 0.0046732323 -0.0011429689 0.05927449 0.0029378554 0.01238378 0.009251483 0.0012775981
-0.037720803 -0.002887147 -0.025089934 -0.032390673 0.060511574 4.8497226e-05 -0.030447656 -0.0710164
-0.015604629 0.07367666 0.04805733 0.0025468736 0.025195599 0.0006900785 -0.011113654 -0.0009285803
0.059415944 0.004801437 0.0019523939 -0.0071464577 -0.08359423 -0.058056206 0.043290548 0.0020153986
0.0010665238 -0.021889068 0.015683504 0.037395883 -0.00019085343 -0.019485587 -0.0017501087 -0.0035889235
0.0026240868 0.049225856 0.002405268 -0.001417569 0.019563116 -0.065913394 0.054092176 -0.022432948
0.006592592 0.00690965 0.031339653 -0.026967552 0.004716824 0.04584009 0.005995759 0.007768285
-0.014921775 0.0019527684 -0.013764435 0.002203692 0.0012307197 -0.04895184 -0.012501461 0.019661542
-0.008752275 0.03765735 -0.0051977467 0.014934601 -0.0342426 0.0019771094 0.0033142683 -0.005199302
-0.043267414 -0.018804468 0.004502041 -0.08024717 -0.009655204 0.041691784 0.00031132405 0.0004462297
-0.0005000732 -0.04760199 -0.0041080494 0.007371214 -0.0006355866 0.035359655 0.0060800156 0.0004471857
-0.0200138 0.006105511 -0.009782914 -4.3487176e-05 -0.001474521 -0.08604772 -0.004670855 0.019903779
-0.089447 -0.024252562 0.026296 0.0058375928 -0.016208064 -0.005416766 -0.00053528487 -0.0028613626
0.011379309 0.0055442224 -0.0010685051 0.037061587 -0.06422046 7.321086e-05 0.00025668388 0.024101298
0.0013959147 0.017008035 -0.08298581 -0.06848074 -0.017390616 -0.01804092 0.0005177221 0.019376494
0.025548311 0.06815081 0.008421587 -0.004095852 -0.017062018 -0.003624513 0.0678959 -0.0125059765
-0.04142737 0.009264154 0.005465231 -0.0070374827 0.025096312 -0.0945191 -0.009598691 0.0045026815
-0.02295337 0.005502947 -0.066939 0.00094628753 0.012069272 -0.0074165715 -0.01276544 -0.08551056
-0.0072792093 0.09164831 -0.0050039515 -0.05105304 -0.026549825 -0.0925949 0.09488987 -0.009795399
-0.08198339 -0.0069208997 -0.0009019504 0.042408776 0.0028350754 0.004352931 0.005060183 -0.042509
0.02350214 0.03869056 -0.07162599 0.00051898666 0.013416787 3.4060504e-05 -0.042148523 0.0015885846

bias f4 [16]
00000000: 3829 aebd f7ff 8cbc 0f42 c43b 4d5a 94bb
00000010: 24e0 673c 6636 0f3c 1e39 6c3d 6a8c a13b
00000020: e2c4 c23c 9cf9 babd 671f c4bd 4de7 263d
00000030: 683b a03d 18d5 c8bb 4949 bcba 83e7 2c3d
-0.085039556 -0.017211897 0.00598932 -0.0045273663 0.01415256 0.008740997 0.05767166 0.0049300687
0.023775522 -0.091296405 -0.09576302 0.04074793 0.07823831 -0.0061289184 -0.0014365102 0.042212974

weight f4 [8, 16]
00000000: 8e31 03bc 0388 abbd ffad 03bb 4a51 dcbb
00000010: 7bce 063b f30a c3bc ccfe 9a3d dcaa 863b
00000020: b523 123c f5ff 09bc 3653 e63c ac06 e139
00000030: b070 9c3d d999 9bbb a80f c9ba 39a4 b83d
00000040: b01c abbb 5ad9 ffbb 5ec1 34bd 2e54 bdbb
00000050: 751c 023d 659a b63c 068c 0bbd c3c7 8c3d
00000060: 0538 493d 75b2 c03b 9343 103d 7150 613c
00000070: 0739 5b3d 1a60 ffb9 584e 563d 58ba 06bd
00000080: 80b1 e6ba 0088 96bb e9be c73c 7e01 293c
00000090: b25b 153d da42 543a 5266 97bc 1de5 67bb
000000a0: 0d9a a33d ef58 0fbd eaf2 853b 0286 333a
000000b0: b1e0 06bc 1af1 17bc f846 b43c 4b17 b3bc
000000c0: b956 8cbd ec16 afbd 5124 d6bc 04d2 c73a
000000d0: 5484 8e3b 40b1 98bc 2d61 a53d 13e2 c33b
000000e0: d846 8b3d 4556 a8bd f677 1dbb be28 bdbd
000000f0: 74bb 0cbb b03f 473d 0794 71bc 4350 8b3b
00000100: 19d8 6ebc 91ac 4a3b 5a3a b9bc dc99 26bc
00000110: aebe 313b d008 c0bc 13af c13c 715f de3c
00000120: 0a3e 49bb 8c63 34bd 2e10 b5b9 7a5d 98bb
00000130: df21 0c3b 27a6 9dbb ef70 1cbd 3df7 b83d
00000140: 183f af3d f36f 493d 5427 90bb 74b6 16bc
00000150: 6f48 973c 7bea 83bd c2ca ad3d 6b8a e73a
00000160: 97b4 13bd e982 203c 2a6a 533d c885 ec39
00000170: eb52 ddbb 34c7 b03d 9505 a9bd 24d2 9abb
00000180: 358f 813d 3812 1d3d 3862 7b3d 0a18 f0bb
00000190: b2db 083c 5afa a9bd a2ee 993d 4bda 89bb
000001a0: 101f 713d 60d3 9e3d 43ce 953d 5879 823d
000001b0: 80d5 77bb 82aa 533d 70ae 553d 0d7f 19bc
000001c0: c910 1b3b ef92 653c b358 b4bc 0a7e 5a3c
000001d0: e2c6 94bd 1434 743b fccd a7bb 4eff acbb
000001e0: 30b2 2cbc 4bf6 ad3c 3af0 d83b 18d5 fcbb
000001f0: ed24 c3ba c972 38bd e7dd b83d d83b e53a
-0.00800742 -0.083755516 -0.0020092723 -0.0067235576 0.002056985 -0.023808932 0.0756813 0.0041097235
0.008919646 -0.008422841 0.02811585 0.00042920315 0.07638681 -0.0047485647 -0.0015339749 0.09015698
-0.0052219257 -0.0078078927 -0.04412972 -0.0057778573 0.03176542 0.022290418 -0.034069084 0.06874039
0.04912569 0.0058806487 0.035220694 0.013752089 0.053521182 -0.0004870899 0.05232081 -0.032892555
-0.0017600507 -0.004593849 0.024383025 0.010315297 0.0364644 0.000809712 -0.018481407 -0.0035384365
0.07988367 -0.034996923 0.0040877955 0.0006848277 -0.008232282 -0.009273792 0.022006497 -0.021861693
-0.068524785 -0.08549294 -0.026140364 0.0015245085 0.004349271 -0.018639207 0.080751754 0.005977878
0.06800622 -0.082195796 -0.00240278 -0.092362866 -0.0021474035 0.04864472 -0.014744765 0.0042515113
-0.014577889 0.0030925611 -0.022610832 -0.010168519 0.002712171 -0.023441702 0.023643052 0.02714512
-0.0030707144 -0.044040248 -0.00034535065 -0.004649815 0.0021382493 -0.0048110667 -0.03819364 0.09031532
0.08556956 0.04917903 -0.0043992195 -0.009198774 0.018467156 -0.06441208 0.084859386 0.0017665153
-0.036060896 0.009796836 0.051614918 0.00045113103 -0.0067542694 0.08631745 -0.08253018 -0.0047247577
0.06326143 0.038347453 0.061372966 -0.0073270844 0.008353161 -0.08299704 0.07516219 -0.0042069308
0.058867514 0.0775516 0.07314732 0.06370801 -0.0037816465 0.05167628 0.05216831 -0.00936867
0.0023661128 0.0140120825 -0.022014951 0.013335714 -0.072644964 0.0037262486 -0.005120991 -0.005279458
-0.01054053 0.021235606 0.006620434 -0.0077158324 -0.0014888324 -0.045031343 0.090266995 0.0017489148

bias f4 [8]
00000000: 42b4 d73d dc36 bcbc 410a 9dbc 9e8c 1b3d
00000010: d3fb 9bbd 4b7d ef3c e5c8 2cbd 3d61 a7bc
0.10532428 -0.022975378 -0.019169929 0.0379759 -0.07616391 0.029234549 -0.042183775 -0.020432109
