results/transformations/mapping_files/VAE/FMNIST_VAE_16_3>FMNIST_VAE_16_2>NeuralNetwork_100_0.2_nodropout_16_equally.pth (torch, 9638 bytes, 6 tensors)

weight f4 [16, 16]
0.00022659023 0.0003092523 -9.076e-05 -7.160902e-05 0.0015401334 0.00059139385 -0.0018211004 -0.00021120437
0.0004152235 0.00029384095 -0.0006481993 4.672438e-05 -0.00022187147 -0.00021116644 0.0004856654 -1.6448896e-05
6.283944e-06 -3.4021963e-05 1.0274489e-06 0.0018316458 0.0025462261 0.001997034 0.0006814441 5.132193e-05
-0.00039095426 -0.0024878243 2.8827162e-06 0.0016033283 -0.00040955076 7.62822e-05 -0.0006224627 2.3773406e-05
1.297254e-05 0.00016396189 0.0036078917 -2.966786e-05 0.00023394317 0.0004939089 0.00076237414 -0.0005024382
-0.00026870403 -0.00018844497 -0.012315591 -0.00076704915 -0.0013476845 0.0005975004 -0.0007635415 -0.0016782125
-0.0004281724 0.00065380475 0.00033935148 0.00027835803 0.00071495504 -0.0012361457 -0.0019076864 0.00020522736
0.001817877 0.0030609707 0.004108199 -0.0021239233 -0.00019532634 -9.0086e-05 0.0003156127 5.295105e-05
-0.0018905307 -0.0013523861 0.0007609282 -0.0019274278 -0.0004422298 0.0013791037 -0.003709666 0.00436598
-0.00010322251 0.00035610778 0.00069531123 -0.0008180337 -9.796781e-05 -0.004477374 -0.0016133009 -0.0012507332
0.00027886016 4.8359816e-05 2.9067396e-05 0.0001565436 5.959556e-05 -0.00033994124 0.00022519109 0.0017563518
0.00075661635 0.00011399923 0.0018093196 0.00022860283 0.00076665916 1.2696386e-05 -0.0018888788 0.0016749691
0.0001649126 0.00050794147 0.00046012405 -0.0001231544 8.975185e-06 0.0007706161 -0.0016013742 0.0017297036
0.0019597223 2.1151285e-05 -0.0075139008 0.0012525851 4.3922133e-05 0.00057052466 0.00033431573 0.00068578904
0.00012508275 0.001702164 -4.5468092e-05 4.0605977e-05 0.0007168763 5.4682958e-05 0.0011215644 -0.0003153636
-0.00042397474 -0.0006599004 -0.00036610538 0.00024322928 -0.0008002423 -0.00019657792 2.4820138e-06 -0.00043192998
-2.7810853e-05 0.004072185 0.0018520703 0.0007563883 -4.439311e-05 0.001648446 -0.0008275867 -0.00045669178
0.0047080438 4.9528026e-06 7.277077e-05 0.00010458537 -0.00070603506 -0.000107649925 -0.00040058105 -0.00045316303
-2.1154119e-07 -0.0004493713 2.504259e-05 -0.00082950614 5.993347e-05 -4.755664e-06 -0.0008147844 0.00038383476
0.0010161506 0.0067964788 0.0011000363 -8.5752275e-05 0.0018164533 0.00012720356 -0.0004725722 0.00097047177
0.0018133882 -0.0055309352 0.0029269995 -0.00010142966 0.0006321273 -0.0014288705 -0.00072180026 2.326197e-05
0.00095788547 -0.0019267113 0.00046102982 0.00015472855 -0.00036116483 -0.0013494019 5.8881546e-05 0.0016208161
0.0013547417 0.0005159554 0.0034599775 0.00027441315 -0.00043030048 8.440108e-05 -0.0001448277 0.0008039617
0.0016257667 -0.00041571376 0.0005288217 -0.0001506194 0.000410842 0.00047417055 -0.005449142 -0.00073827046
0.00012575384 -0.0004310858 0.0001233703 -0.0005685716 0.0035926965 -7.6379685e-05 0.0005001722 0.00064004795
-1.3587196e-06 -0.00028294238 -0.00053009647 5.309813e-05 -0.0016814541 -0.0010512527 -0.00010298474 0.0002501564
-0.00034485292 -0.00028636164 -0.00037143816 0.00021487438 0.00069008814 1.7607088e-05 0.00074871513 0.0018911572
-0.0005125669 0.0018806193 0.0012989825 0.00035004236 -0.0002877223 0.0020447627 -0.0007690978 0.001597311
0.0018512745 -0.00043297172 -0.0018143278 0.0007719348 -0.0019333772 -3.7094713e-05 -0.00015688526 -0.0005949508
0.00075892464 -4.330367e-05 0.0011631497 9.458802e-05 1.2782708e-05 -4.7020705e-05 -0.00029921447 -0.008044225
0.0015972471 0.0012227144 -0.0015880578 -0.00062333135 -0.00051602017 -0.0004410291 -5.3170334e-07 0.0003369852
-0.00024329481 -0.00023206876 0.00017445571 0.000116277406 0.00079318206 -5.3349242e-05 -0.00017878489 0.00012999595
00000000: da98 6d39 2423 a239 6756 beb8 cd2c 96b8
00000010: 4dde c93a c507 1b3a fdb1 eeba be76 5db9
00000020: 5bb2 d939 aa0e 9a39 ebeb 29ba ecf9 4338
00000030: 2ba6 68b9 8f6c 5db9 e8a0 fe39 bcfb 89b7
00000040: abda d236 ceb2 0eb8 e0e6 8935 d613 f03a
00000050: 96de 263b ace0 023b f0a2 323a 8142 5738
00000060: fef8 ccb9 c40a 23bb b074 4136 c526 d23a
00000070: f9b8 d6b9 b2f9 9f38 c42c 23ba 006d c737
00000080: a3a4 5937 2fed 2b39 6172 6c3b 3fdf f8b7
00000090: a44e 7539 aa79 013a 10da 473a 0fb6 03ba
000000a0: d8e0 8cb9 5099 45b9 55c7 49bc cc13 49ba
000000b0: caa4 b0ba 93a1 1c3a 6728 48ba 78f7 dbba
000000c0: 547c e0b9 1864 2b3a fcea b139 95f0 9139
000000d0: d26b 3b3a 2b06 a2ba 550b faba 4d32 5739
000000e0: d545 ee3a 919a 483b 129e 863b 8531 0bbb
000000f0: 84d0 4cb9 8eec bcb8 d278 a539 c217 5e38
00000100: afcb f7ba 8c42 b1ba 0779 473a bfa1 fcba
00000110: 14db e7b9 0bc3 b43a de1d 73bb 7f10 8f3b
00000120: 2a79 d8b8 fab3 ba39 8c45 363a 5071 56ba
00000130: 1174 cdb8 efb6 92bb 6575 d3ba a4ef a3ba
00000140: fa33 9239 f5d5 4a38 c2d5 f337 da25 2439
00000150: 3ff6 7938 243a b2b9 4621 6c39 6335 e63a
00000160: aa57 463a df12 ef38 b126 ed3a 1bb5 6f39
00000170: a0f9 483a 9002 5537 4194 f7ba a38a db3a
00000180: 64ec 2c39 6027 053a ce3c f139 0223 01b9
00000190: 2094 1637 2c03 4a3a 34e5 d1ba 39b7 e23a
000001a0: af6e 003b 0a6e b137 2b37 f6bb c82d a43a
000001b0: 0839 3838 438f 153a 1947 af39 86c6 333a
000001c0: a528 0339 251b df3a feb4 3eb8 5650 2a38
000001d0: c1ec 3b3a 615b 6538 7501 933a 6357 a5b9
000001e0: ed48 deb9 2bfd 2cba d5f1 bfb9 5d0b 7f39
000001f0: 5ac7 51ba 7c20 4eb9 ac90 2636 a974 e2b9
00000200: 5a4b e9b7 f76f 853b 2bc1 f23a 5c48 463a
00000210: bd32 3ab8 ab10 d83a 67f2 58ba 2270 efb9
00000220: ef45 9a3b 4030 a636 829c 9838 d854 db38
00000230: 3615 39ba 1dc2 e1b8 1405 d2b9 8396 edb9
00000240: 0024 63b4 9899 ebb9 8d12 d237 3773 59ba
00000250: 1361 7b38 d892 9fb6 4197 55ba 6e3d c939
00000260: 5b30 853a ffb4 de3b 182f 903a e7d5 b3b8
00000270: 0f16 ee3a f261 0539 91c3 f7b9 4267 7e3a
00000280: 36af ed3a d93c b5bb e7d2 3f3b a2b6 d4b8
00000290: 58b5 253a f048 bbba 3237 3dba b322 c337
000002a0: 9b1a 7b3a b489 fcba 60b6 f139 a13e 2239
000002b0: b95a bdb9 6ade b0ba 94f7 7638 9071 d43a
000002c0: 9791 b13a 2e41 073a cac0 623b 1cdf 8f39
000002d0: f499 e1b9 7c00 b138 e4dc 17b9 f5c0 523a
000002e0: ae17 d53a 28f4 d9b9 a0a0 0a3a 96ef 1db9
000002f0: 4866 d739 189a f839 b78e b2bb 7e88 41ba
00000300: cadc 0339 5b03 e2b9 f65c 0139 320c 15ba
00000310: 7273 6b3b 082e a0b8 fd1d 033a e4c8 273a
00000320: 405d b6b5 e257 94b9 2cf6 0aba afb5 5e38
00000330: 3d64 dcba 30ca 89ba 83f9 d7b8 6c27 8339
00000340: 60cd b4b9 cf22 96b9 96bd c2b9 e74f 6139
00000350: 08e7 343a efb2 9337 6c45 443a b5e0 f73a
00000360: c85d 06ba 1d7f f63a 9f42 aa3a e485 b739
00000370: 6fd9 96b9 6d01 063b 489d 49ba dd5c d13a
00000380: 77a6 f23a 7b00 e3b9 bdce edba ab5b 4a3a
00000390: 6069 fdba 2596 1bb8 9181 24b9 79f6 1bba
000003a0: 92f2 463a f6a0 35b8 d474 983a 8e5d c638
000003b0: 5075 5637 1938 45b8 e3df 9cb9 edcb 03bc
000003c0: b85a d13a 7d43 a03a 6126 d0ba 0f67 23ba
000003d0: 8745 07ba ec39 e7b9 60ba 0eb5 63ad b039
000003e0: f41c 7fb9 7c57 73b9 19ee 3639 f5d9 f338
000003f0: 8ced 4f3a 50c3 5fb8 3478 3bb9 864f 0839

bias f4 [16]
-0.0013132064 0.00038354914 -0.0011804476 -0.0008522812 0.001774582 -0.0020132784 -0.00085628836 -0.0019470364
-0.00043143536 1.70693e-05 -0.00036493829 -0.0072045717 -1.0187363e-05 0.00039280998 3.892101e-05 -0.00043514505
00000000: e51f acba 1817 c939 40b9 9aba a06b 5fba
00000010: 1799 e83a 35f1 03bb 8a78 60ba b333 ffba
00000020: 4632 e2b9 0b30 8f37 3055 bfb9 5414 ecbb
00000030: 64ea 2ab7 10f2 cd39 1e3f 2338 2e24 e4b9

weight f4 [16, 16]
-8.78994e-05 -0.0013435389 -0.0074421535 8.383691e-05 0.0031528724 -0.00019462613 -0.0029460802 -0.00043284672
-1.0098116e-05 -0.00021282249 -0.00020692687 0.00026405018 -0.00011222076 -6.910712e-06 -0.00032090236 -0.00066159735
0.00046430694 -0.00048030933 -0.0017814635 0.0004162677 -0.0066024805 0.0018864131 0.00016550196 -0.00043530684
0.00025820453 -0.000531041 -0.00033258824 6.606404e-05 -0.00046623126 -0.0018528022 -0.0005737263 -0.0013659277
0.00064574083 -0.0011120882 -6.923487e-05 -0.0037823266 -0.0001078818 0.0051750755 2.2972075e-05 0.0016466719
-0.00013750298 -0.0016357219 -0.00045810523 -0.0013369597 -0.00070034654 0.0069839014 -0.00076413003 0.00053781376
-0.0015599413 0.00074451044 0.0004454779 0.0007375745 0.00020458928 -8.3329556e-05 0.008062285 0.00029850492
0.0007260989 0.00025835453 -0.0012395707 -1.7865932e-05 -0.0017697649 -0.0007318519 0.0002040141 -0.00016876133
-0.001287316 0.0001771673 -2.8342103e-05 0.0018507607 0.0019659626 -0.000108594366 -0.0010401394 6.759274e-05
0.0007012323 -0.00020287758 0.0017211712 -7.3967116e-05 -0.0017802365 0.001591504 -0.0017764557 0.000386593
0.00023691807 6.913085e-05 3.208917e-05 -0.0004547196 -8.4623134e-05 -0.0037727556 0.00046390982 5.497811e-05
-0.0020747709 0.001891352 -0.0004318243 -7.318306e-05 0.0024338411 -5.977367e-05 -0.0022592468 0.0006670105
-0.0027052439 3.428148e-05 -0.0002106885 0.00012105204 0.00022076734 0.00087623805 -1.2361921e-05 0.0002992646
0.00016553285 -0.00022473517 -0.00048221086 -0.0018682432 0.008070783 -0.0003128458 2.2505152e-05 -0.0017379384
0.0035764682 -9.458196e-05 0.00029877273 -0.0012933307 2.869562e-05 -0.00043548597 -0.00066172343 0.00037247143
0.0002189157 -0.0019923826 0.0002839695 5.170109e-05 -3.1188574e-05 0.00071970787 -0.00028282375 -0.00059233507
0.00047483816 0.0018109606 0.0009995635 0.00010273416 -0.0002602173 -0.00024063123 -9.065305e-05 -1.483098e-05
-0.00021237649 -0.0009362238 -0.0013162015 0.0001843083 -0.0018422464 -0.00011000012 -0.003727649 0.0003641278
0.00017621915 0.0018591159 -0.0005149239 0.00041008613 -0.0051836204 -1.6861777e-05 -0.0044737523 0.00053716474
0.00019255128 -0.0012862366 0.003631391 -3.0778185e-05 0.0008045221 0.0015872313 -0.0019663845 0.0019216354
1.4629548e-05 -0.0003805246 -0.0065652905 0.000112321824 0.00023351052 -0.0018244941 -0.0004369361 -0.0034048448
0.0002446084 0.0006700228 1.1457512e-05 -0.00043445086 0.00021911111 -0.00011548062 -3.6759193e-05 0.0015885517
-0.0050156093 -3.7712562e-07 -3.8489256e-06 0.00011276562 0.00086716306 0.003653661 -0.00016343586 -0.00010396965
-8.98242e-05 0.00012247084 -0.00017886626 0.0010463955 0.00069382926 0.0018346958 9.9155644e-05 -0.00021707792
0.00028614013 2.9307921e-05 0.00019106189 -0.0020014353 0.00112646 8.211564e-05 0.0009777416 0.0006818817
0.00014990839 1.8754799e-06 -0.00081964367 1.7711276e-05 -1.2531575e-05 -0.0010197585 0.00048323884 0.00030361558
0.00070076686 0.00055490976 0.0003295595 -0.00019387386 0.00062271254 -2.3032755e-05 -0.0010734769 0.00013539045
-0.0020309736 0.0005516016 0.00015250887 0.0015428405 5.1623923e-05 -0.001580508 0.00043115692 5.4290173e-05
-0.00023109563 0.0020724204 0.0050335377 -3.097141e-05 -0.0016587289 -8.900611e-05 0.00057551876 0.0006376825
8.362506e-06 -0.0008693942 -0.0007739904 -0.00013318243 0.0010014519 -0.0008050111 -0.0006588923 -3.635075e-05
-0.0034968965 0.000113766 0.0052485154 -0.0003275524 0.009303987 -4.1349504e-05 0.0006301333 0.00061052904
0.00015962365 -0.0006940635 -0.00074163417 0.00012959016 1.171724e-05 -0.0008036009 0.0001171741 -2.2488613e-05
00000000: a256 b8b8 af19 b0ba 4fdd f3bb 99d1 af38
00000010: 6ca0 4e3b 8e14 4cb9 0613 41bb b4ef e2b9
00000020: 146b 29b7 1a29 5fb9 82fa 58b9 3770 8a39
00000030: 1058 ebb8 90e2 e7b6 c93e a8b9 0c6f 2dba
00000040: 396e f339 07d2 fbb9 ff7f e9ba 813e da39
00000050: 9f59 d8bb 8541 f73a 988a 2d39 e539 e4b9
00000060: a05f 8739 8f35 0bba 3d5f aeb9 dd8b 8a38
00000070: 8070 f4b9 bad9 f2ba 1f66 16ba ee08 b3ba
00000080: ef46 293a 7dc3 91ba 3032 91b8 e9e0 77bb
00000090: 9a3e e2b8 ae93 a93b 28b4 c037 24d5 d73a
000000a0: ad2e 10b9 b865 d6ba d82d f0b9 ec3c afba
000000b0: 7697 37ba 36d9 e43b e64f 48ba 12fc 0c3a
000000c0: f276 ccba 402b 433a 088f e939 c959 413a
000000d0: 0487 5639 37c1 aeb8 ad17 043c a780 9c39
000000e0: ac57 3e3a c273 8739 1779 a2ba ccde 95b7
000000f0: 75f7 e7ba c0d9 3fba 9eec 5539 86f5 30b9
00000100: 28bb a8ba fcc5 3939 34c0 edb7 3995 f23a
00000110: 61d7 003b 28bd e3b8 4955 88ba 93c0 8d38
00000120: e7d2 373a 89bb 54b9 ec98 e13a cb1e 9bb8
00000130: d356 e9ba 039a d03a f6d7 e8ba a2af ca39
00000140: 366d 7839 58fa 9038 7c97 0638 6e67 eeb9
00000150: b377 b1b8 5640 77bb ec38 f339 4c98 6638
00000160: e1f8 07bb 3ee7 f73a 7a66 e2b9 db79 99b8
00000170: 1481 1f3b 7db5 7ab8 df0f 14bb 51da 2e3a
00000180: 764a 31bb 75c9 0f38 43ec 5cb9 52dd fd38
00000190: c87d 6739 57b3 653a 0c66 4fb7 9de6 9c39
000001a0: e392 2d39 e3a6 6bb9 3fd1 fcb9 d7df f4ba
000001b0: 513b 043c 7405 a4b9 72c9 bc37 89cb e3ba
000001c0: 2e63 6a3b 4e5a c6b8 99a4 9c39 fa84 a9ba
000001d0: 60b7 f037 f051 e4b9 8277 2dba 4548 c339
000001e0: bc8c 6539 a292 02bb bee1 9439 9fd9 5838
000001f0: 7ad0 02b8 c7aa 3c3a f647 94b9 ef46 1bba
00000200: b3f3 f839 c15d ed3a c903 833a fb72 d738
00000210: c66d 88b9 f451 7cb9 fc1c beb8 93d2 78b7
00000220: 61b1 5eb9 ea6c 75ba 6584 acba e242 4139
00000230: 8877 f1ba ddaf e6b8 934b 74bb 68e8 be39
00000240: 78c7 3839 94ad f33a f5fb 06ba d400 d739
00000250: 5cdb a9bb 6472 8db7 8e98 92bb 84d0 0c3a
00000260: 97e7 4939 f096 a8ba a2fc 6d3b d317 01b8
00000270: 90e6 523a a50a d03a 75de 00bb 62df fb3a
00000280: 6e71 7537 2681 c7b9 a621 d7bb 528e eb38
00000290: 81da 7439 dd23 efba 9214 e5b9 d123 5fbb
000002a0: c93e 8039 78a4 2f3a a439 4037 02c7 e3b9
000002b0: 31c1 6539 302e f2b8 e22d 1ab8 f336 d03a
000002c0: fb59 a4bb c077 cab4 0526 81b6 957c ec38
000002d0: 5452 633a 4372 6f3b fb5f 2bb9 480a dab8
000002e0: 0060 bcb8 846b 0039 0c8e 3bb9 3527 893a
000002f0: 18e2 353a 2d7a f03a c8f1 cf38 699f 63b9
00000300: 1405 9639 48da f537 c957 4839 832a 03bb
00000310: baa5 933a 8035 ac38 9027 803a 4ec0 323a
00000320: ba30 1d39 00b9 fb35 5bdd 56ba ad92 9437
00000330: b43e 52b7 6ba9 85ba 385b fd39 982e 9f39
00000340: abb3 373a 5d77 113a bac8 ac39 9e4a 4bb9
00000350: 883d 233a 7736 c1b7 e8b3 8cba 99f7 0d39
00000360: 151a 05bb 5b99 103a caea 1f39 2339 ca3a
00000370: c486 5838 0c29 cfba e70c e239 a1b5 6338
00000380: 4352 72b9 72d1 073b 60f0 a43b 4ce7 01b8
00000390: b569 d9ba cba8 bab8 69de 163a 262a 273a
000003a0: b14c 0c37 0fe8 63ba 9ee5 4aba e3a6 0bb9
000003b0: 2643 833a 6107 53ba 84b9 2cba 5277 18b8
000003c0: 302c 65bb a895 ee38 bdfb ab3b 57bb abb9
000003d0: c06f 183c b16e 2db8 882f 253a e90b 203a
000003e0: a660 2739 d0f1 35ba 3a6a 42ba 98e2 0739
000003f0: 2a95 4437 bea8 52ba 5ebb f538 eea5 bcb7

bias f4 [16]
-4.684006e-05 -0.00046341316 0.00050218665 -0.00018086832 7.925622e-05 0.00020952204 0.0007727718 -3.1377396e-05
-6.911382e-05 9.318337e-05 6.369594e-05 -0.009251631 -0.0005670433 5.7455763e-06 0.005404755 -0.0006217435
00000000: 2276 44b8 43f6 f2b9 2da5 033a 78a7 3db9
00000010: 5c36 a638 25b3 5b39 d693 4a3a 399b 03b8
00000020: 33f1 90b8 716b c338 7f94 8538 2794 17bc
00000030: a2a5 14ba 20ca c036 5f1a b13b 80fc 22ba

weight f4 [16, 16]
-0.00095811184 -0.0003051121 -4.9144888e-05 0.00033375557 0.00019829781 -0.0008268874 0.003493009 -0.0015024384
-5.8833826e-05 0.0017565527 9.779591e-05 0.0025892062 -0.0005190271 0.0006295553 -7.623291e-05 -7.775064e-06
0.00080488937 -0.0003011146 0.00059584604 -2.5048193e-06 6.537503e-05 0.00047094293 0.00016868365 -9.833791e-06
0.00014681194 -0.0006042684 0.00022854525 -0.00031938238 0.00055631873 -0.00030704797 -0.0020125834 0.00032046504
0.00060529826 0.00024672074 0.006697333 4.1303654e-05 -8.037989e-05 0.00015802844 -0.0016847195 6.259849e-05
9.5097595e-05 0.00076629035 0.0008389346 -9.546473e-05 -0.0018637797 -0.0005001573 -0.00038357518 0.004113523
1.6976886e-05 0.00077081606 0.00047141765 0.0014101147 -0.0002667372 7.498751e-06 4.1363503e-05 -0.0012891609
0.0019506358 0.00016261515 -2.4085748e-05 0.00011520993 -0.005671981 6.917308e-05 0.0016281491 0.00018368488
-0.00029701472 -0.00026091083 0.0008545957 -0.0011348089 -0.00082117144 0.00022518176 0.00028783333 -0.0001874256
0.0019144072 -0.00011569493 7.431023e-05 0.002268969 -9.317548e-05 0.00050415116 0.00057470216 -0.00040309556
-0.00026204536 0.00029795748 0.0013345147 -0.0010200234 0.0012207557 -0.0019923337 -7.033681e-05 0.00039133264
-3.800542e-05 7.0222995e-06 -8.3316634e-05 0.0006382688 0.0018764108 2.6207927e-06 0.00037678867 -0.00011255265
-0.00057145266 -0.000118933574 -0.00045180944 0.00013799724 -0.00010153766 0.00011426595 7.755717e-05 0.00013689659
-0.0017719514 -9.58226e-05 -0.0007181675 -0.0003317484 0.0001650814 0.00077359995 -4.5829882e-05 3.9994044e-05
-0.0052541373 4.2620577e-06 -0.00012405773 0.00019312775 3.1909705e-05 0.0017653718 0.0024057552 0.000112301335
0.00036475286 0.00023139612 5.157999e-06 -0.00023325613 -0.0011766643 1.070271e-05 0.0038228657 4.6861318e-05
0.0012705558 0.00025878334 1.33112335e-05 5.2145162e-05 -0.0002468917 -3.1390904e-05 0.0018797026 -0.0019019317
0.00036200072 2.8182974e-05 -0.0011182674 -0.0046797167 -0.004384997 0.0003593828 -0.00087771734 0.009809891
-0.0018371288 -0.0055473866 -0.0002106686 7.047498e-05 0.0019273051 -0.00094789907 -0.0002590878 -0.0017486861
-0.0018399439 0.004946123 7.628828e-05 -4.531771e-05 -3.343994e-05 -0.00046360155 0.00037128627 -0.0008835579
-0.00025736794 -0.00077424134 -0.0007895227 -0.00011313126 0.0018290802 1.6080798e-05 -0.0009174082 0.00016321229
0.0018750867 0.0018534662 1.9798586e-05 0.0008851447 -7.422421e-05 2.018764e-05 -0.00086330256 -0.0016678472
1.9497395e-05 -0.000518131 -0.0004019157 -0.00064337905 -1.0901686e-06 -0.0017163528 0.00014353431 -0.00016894276
0.0008352107 0.00042078996 -0.00045888455 5.3458738e-05 -0.0010685108 -4.3747816e-05 0.0007248879 0.001605082
0.0014266472 -0.0007474836 0.00038525937 -0.0017618535 0.00034012197 0.0006071972 0.0005577563 -4.6731344e-05
-5.932574e-05 -0.005853231 -0.0036847522 -4.843769e-05 -0.00011369614 0.00044158648 -0.0018880191 0.00048952585
0.00017513694 -0.000117984826 0.0004894983 -9.3437175e-06 -0.0004208032 0.0002812384 0.00023355537 0.0021894085
-0.00015759005 -0.00035164456 -0.0018990637 0.000582848 2.9261646e-05 0.0005838753 -0.0026860356 5.411265e-05
4.9193957e-05 0.0002223343 6.30267e-05 -0.0006278389 0.0017877724 0.00017160206 0.005878891 3.08627e-05
0.00031189408 -4.3040876e-05 -0.00027818218 -0.004875711 0.001218603 0.00020986995 0.00028604575 4.7491732e-05
-0.0005586732 0.00065191725 -0.0002540066 0.0017417263 0.0013708757 -0.0013174461 -0.0006543764 -0.00016524844
0.00040690353 -0.0018475963 -6.009895e-05 0.000626322 -0.005003835 -0.00023924178 -0.00012380492 -0.00044544402
00000000: cc29 7bba 74f7 9fb9 ec20 4eb8 eafb ae39
00000010: 2aee 4f39 79c3 58ba f7ea 643b 78ed c4ba
00000020: 57c4 76b8 213c e63a c817 cd38 acaf 293b
00000030: 520f 08ba be08 253a 3bdf 9fb8 a571 02b7
00000040: 36ff 523a ebde 9db9 8d32 1c3a 7818 28b6
00000050: f419 8938 e4e8 f639 ace0 3039 d0fb 24b7
00000060: 88f1 1939 c467 1eba a6a5 6f39 c772 a7b9
00000070: ebd5 113a 48fb a0b9 8ce5 03bb 1704 a839
00000080: e1ac 1e3a 4c5a 8139 4d75 db3b 763d 2d38
00000090: a091 a8b8 70b4 2539 ced1 dcba 4f47 8338
000000a0: 226f c738 e0e0 483a f3eb 5b3a 3d34 c8b8
000000b0: 124a f4ba fd1c 03ba 971a c9b9 bbca 863b
000000c0: 9669 8e37 9710 4a3a 9b28 f739 99d3 b83a
000000d0: dcd8 8bb9 c89d fb36 b97d 2d38 10f9 a8ba
000000e0: 7aac ff3a ac83 2a39 c00b cab7 dc9c f138
000000f0: 06dc b9bb 0411 9138 9e67 d53a 899b 4039
00000100: a4b8 9bb9 dcca 88b9 f206 603a debd 94ba
00000110: e243 57ba c51e 6c39 56e8 9639 ad87 44b9
00000120: d9ec fa3a 3ea1 f2b8 00d7 9b38 fcb2 143b
00000130: 3467 c3b8 0329 043a 9ca7 163a 9256 d3b9
00000140: 2263 89b9 2d37 9c39 e2ea ae3a 4eb2 85ba
00000150: c401 a03a d091 02bb ca81 93b8 c72b cd39
00000160: 0268 1fb8 18a1 eb36 47ba aeb8 7e51 273a
00000170: e6f1 f53a e0e0 2f36 b88b c539 3e0a ecb8
00000180: 8acd 15ba fa6b f9b8 d6e0 ecb9 5ab3 1039
00000190: 9ef0 d4b8 11a2 ef38 30a6 a238 e68b 0f39
000001a0: d340 e8ba 5ef4 c8b8 6843 3cba 84ee adb9
000001b0: b319 2d39 6acb 4a3a 7639 40b8 47bf 2738
000001c0: e62a acbb cc02 8f36 7e15 02b9 5682 4a39
000001d0: c9d6 0538 0c64 e73a e0a9 1d3b 5283 eb38
000001e0: 4d3c bf39 eca2 7239 e012 ad36 3796 74b9
000001f0: 4d3a 9aba ca8f 3337 0b89 7a3b f58c 4438
00000200: c788 a63a 50ad 8739 5053 5f37 71b6 5a38
00000210: 3e71 81b9 baa9 03b8 5a60 f63a 3d4a f9ba
00000220: eaca bd39 7a6a ec37 d492 92ba 4f58 99bb
00000230: 05b0 8fbb 8b6b bc39 9d16 66ba aab9 203c
00000240: d0cb f0ba dac6 b5bb ece6 5cb9 f7cb 9338
00000250: a19d fc3a 6e7c 78ba 2dd6 87b9 2b34 e5ba
00000260: 462a f1ba 1613 a23b f5fc 9f38 8513 3eb8
00000270: dd41 0cb8 8c0f f3b9 33a9 c239 919e 67ba
00000280: 57ef 86b9 75f6 4aba f9f7 4eba e240 edb8
00000290: bfbd ef3a 40e5 8637 397e 70ba f723 2b39
000002a0: 78c5 f53a 01f0 f23a 2415 a637 0e09 683a
000002b0: d2a8 9bb8 a058 a937 414f 62ba aa9b daba
000002c0: 568e a337 2fd3 07ba 36b8 d2b9 70a8 28ba
000002d0: e851 92b5 3ef7 e0ba b381 1639 3a26 31b9
000002e0: 0bf2 5a3a 799d dc39 7196 f0b9 e238 6038
000002f0: 460d 8cba dc7d 37b8 6706 3e3a 9d61 d23a
00000300: 56fe ba3a c6f2 43ba a3fc c939 feed e6ba
00000310: 6652 b239 502c 1f3a 6436 123a 6601 44b8
00000320: 87d4 78b8 76cc bfbb e27b 71bb 9329 4bb8
00000330: 2670 eeb8 bc84 e739 6977 f7ba 8653 003a
00000340: f7a4 3739 9f6e f7b8 ad51 003a f6c2 1cb7
00000350: 409f dcb9 2e73 9339 8be6 7439 2e7c 0f3b
00000360: c23e 25b9 ef5c b8b9 01ea f8ba 44ca 183a
00000370: e876 f537 350f 193a 3308 30bb 04f7 6238
00000380: 9c55 4e38 6922 6939 342d 8438 8e95 24ba
00000390: b053 ea3a 14f0 3339 b6a3 c03b 9272 0138
000003a0: b785 a339 ca86 34b8 fbd8 91b9 6ec4 9fbb
000003b0: 88b9 9f3a 8910 5c39 69f8 9539 dc31 4738
000003c0: ec73 12ba 6de5 2a3a 302c 85b9 a34a e43a
000003d0: f5ae b33a 28ae acba 758a 2bba 8a46 2db9
000003e0: ab55 d539 0b2b f2ba c212 7cb8 c22f 243a
000003f0: 36f7 a3bb fadc 7ab9 a1d1 01b9 7c8a e9b9

bias f4 [16]
-0.063341506 0.049410038 -0.0074637923 -0.027153427 0.018112326 0.033328023 -0.012763355 0.03619606
-0.036434542 0.05553652 -0.02468746 -0.02092552 -0.038300302 -0.041402917 -0.017431278 -0.03296449
00000000: 31b9 81bd 2e62 4a3d d492 f4bb dd70 debc
00000010: 4d60 943c f782 083d 641d 51bc 5242 143d
00000020: 633c 15bd 437a 633d 5b3d cabc ff6b abbc
00000030: c7e0 1cbd 1b96 29bd 0acc 8ebc c605 07bd
