results/transformations/mapping_files/VAE/FMNIST_VAE_8_2>FMNIST_VAE_8_3>NeuralNetwork_100_0.1_dropout_128_convex_hull.pth (torch, 81200 bytes, 6 tensors)

weight f4 [128, 8]
0	0x3b83e7d7	0.00402544
1	0x3c328b37	0.010897449
2	0x3d5458fa	0.051842667
3	0xbc2b16f2	-0.010442482
4	0xbbe33e54	-0.0069349203
5	0x3e0b6b03	0.1361504
6	0xbd19b254	-0.037523583
7	0xbe1f479f	-0.15554665
8	0x3db9d43e	0.09073685
9	0xbd852dda	-0.06502886
10	0xbc8efa66	-0.017453384
11	0xbe4bb17c	-0.19891924
12	0x3d1a9c37	0.037746634
13	0xbe2b610b	-0.16736238
14	0x3db7ba2d	0.08971057
15	0xbe33afa9	-0.17547478
16	0x3c99b175	0.018761376
17	0x3e060e3a	0.13091365
18	0xba18ccd6	-0.0005828863
19	0x3e04418a	0.12915626
20	0xbd6e85e9	-0.058233175
21	0x3c08de5d	0.008353797
22	0x3c02eab7	0.007990531
23	0x3e25f434	0.16206437
24	0x3de2e7bd	0.11079357
25	0x3cc4ed96	0.024039071
26	0xbc109de5	-0.0088267075
27	0xba40dfa8	-0.0007357546
28	0xbdd6dc75	-0.104912676
29	0x3a240990	0.00062575284
30	0xbbbdbb81	-0.0057901745
31	0x3c6638c7	0.014051623
32	0xbd5141c8	-0.051088125
33	0x3e25b12f	0.16180871
34	0xbe59403a	-0.21215907
35	0x3e2928b2	0.1651943
36	0x3e4804d1	0.19533087
37	0x3deafb55	0.11473719
38	0xbbbb0f59	-0.0057086167
39	0xbcfcdd15	-0.030867139
40	0xbdc49d1f	-0.09600281
41	0x3cb1c72b	0.021701416
42	0xbdbf6dd1	-0.09347118
43	0xbe4d0674	-0.20021993
44	0xbc90a020	-0.017654479
45	0xbc78f066	-0.015194034
46	0x3e33e15d	0.17566438
47	0xbcc68fa6	-0.024238419
48	0x3d1bd93c	0.038048968
49	0xbe066f9e	-0.13128516
50	0x3e3537ce	0.17697069
51	0x3b220cc3	0.0024726845
52	0xbe342dc1	-0.17595579
53	0x3cee7ee6	0.029113244
54	0xbb0a751a	-0.0021126927
55	0xbd26382d	-0.040580917
56	0x3d024d54	0.031812027
57	0xbe0311a3	-0.12799697
58	0xbd9a7540	-0.07541895
59	0xbbca4039	-0.0061722067
60	0x3e556799	0.208403
61	0x3df82dc7	0.12118106
62	0xbd862857	-0.06550663
63	0x3da16a65	0.07881621
64	0x3e34b9aa	0.1764895
65	0xbd0d0ae2	-0.034434207
66	0x3c9ee359	0.019395517
67	0xbca732bb	-0.020409932
68	0x3db4413b	0.08801504
69	0x3dc243a3	0.09485557
70	0xbc0fc2f8	-0.0087745115
71	0x3e281d1a	0.16417351
72	0x3d4b333f	0.04960942
73	0xbd4bd35b	-0.04976211
74	0xbc298e90	-0.010348931
75	0xbc8f925c	-0.017525844
76	0x3d5466eb	0.051855963
77	0xbc5a061f	-0.013307123
78	0x3bd47390	0.0064835027
79	0xbe28e49f	-0.16493462
80	0xbe4014ed	-0.18757983
81	0xbd802712	-0.06257452
82	0x3bcdfa6b	0.0062859557
83	0xbdf63259	-0.12021322
84	0x3d20e026	0.039276265
85	0xbc981ec2	-0.018569354
86	0xbe3b8cca	-0.18315426
87	0x3ccca233	0.024979686
88	0x3d3199ce	0.04335957
89	0xbd9092a1	-0.07059217
90	0x3c3bcc30	0.011462256
91	0x3df55631	0.1197933
92	0x3e51ce90	0.20488954
93	0x3e4b5c15	0.19859345
94	0x3e51a08a	0.20471397
95	0x3dff2291	0.12457765
96	0x3c078f71	0.008273945
97	0xbc056c12	-0.008143442
98	0xbe52e348	-0.20594513
99	0x3df19d4c	0.1179758
100	0xbe385213	-0.18000059
101	0x3b41af23	0.0029553853
102	0xbe167c0d	-0.14695759
103	0xbe05f1e5	-0.13080557
104	0x3cab64dd	0.020922119
105	0x3dd27cfd	0.10277746
106	0xbe2eb230	-0.1706016
107	0xbc1f67e3	-0.009729358
108	0x3d12a61d	0.03580295
109	0xbcb523b2	-0.022111747
110	0x3cc72f0c	0.024314426
111	0xbe4a9779	-0.19784345
112	0x3e23fbda	0.16014042
113	0xbe2dea46	-0.169839
114	0x3e0b42f7	0.13599764
115	0xbb94daed	-0.0045426995
116	0x3e02ccf1	0.12773491
117	0x3e36e2bb	0.17859928
118	0xbe2d1eb1	-0.16906239
119	0x3da2cf28	0.07949668
120	0x3e14d6b3	0.14535026
121	0xbd1d5032	-0.03840656
122	0x3e359776	0.17733559
123	0x3e02e8c4	0.12784106
124	0x3e5f5727	0.2181059
125	0x3c39e6b1	0.011346505
126	0x3ba046ed	0.0048912675
127	0x3e0e80be	0.13916299
128	0xbc123522	-0.008923801
129	0xbd8122d4	-0.06305471
130	0x3ba6433b	0.0050739325
131	0x3e57b335	0.21064456
132	0x3d18a8c3	0.03727032
133	0xbe1bf2af	-0.15229295
134	0xbe1b7e1f	-0.1518483
135	0x3e18ebec	0.14933747
136	0xbb317c28	-0.002708206
137	0x3db90a88	0.09035212
138	0xbb971e59	-0.004611772
139	0xbba461d4	-0.005016545
140	0xbccaa38a	-0.024736185
141	0x3d988f32	0.07449187
142	0xbe51f3e4	-0.20503193
143	0xbc2b6dbe	-0.010463176
144	0x3d5a8249	0.053346906
145	0x3e58ae48	0.21160233
146	0xbb890f24	-0.004182713
147	0x3c14bff9	0.009078973
148	0x3cb475d1	0.022028835
149	0x3e20aa67	0.15690003
150	0x3cfbf9b6	0.03075872
151	0xbc9918c0	-0.01868856
152	0x3e5315b7	0.20613752
153	0x3b4fe5ca	0.0031722658
154	0xbdb370f4	-0.087617785
155	0x3e1ffb5f	0.15623234
156	0xbceb63ee	-0.028734174
157	0xbb389cea	-0.00281697
158	0x3c4ace7b	0.01237833
159	0x3aafb5fe	0.0013405678
160	0x3de6c62a	0.112682655
161	0x3e47e5d4	0.19521266
162	0x3e24fb16	0.16111407
163	0xbbd6b0d1	-0.00655184
164	0x3e3b16ad	0.18270369
165	0xbc8873e3	-0.016656822
166	0xbbd62826	-0.006535548
167	0xbd170501	-0.036870006
168	0x3e4ac52e	0.1980178
169	0xbe0e7e75	-0.13915427
170	0xbc0e404a	-0.00868232
171	0x3d662ece	0.05619698
172	0xbd452c79	-0.048138116
173	0x3e3ff390	0.18745255
174	0x3b2b065a	0.0026096315
175	0x3ce34a73	0.027745461
176	0x3cae9da3	0.021315401
177	0x3e182665	0.14858396
178	0x3de764a7	0.11298495
179	0x3e02e3fe	0.12782285
180	0x3cc539b3	0.024075365
181	0xbdd284f3	-0.10279264
182	0xbe5755a4	-0.21028763
183	0xbe40315c	-0.18768829
184	0xbcc9cb43	-0.024633056
185	0xbe111c0f	-0.1417086
186	0x3a3f88b4	0.0007306442
187	0x3c89a9f1	0.016804667
188	0x3dda381f	0.106552355
189	0x3de95b4a	0.11394365
190	0xb8f42184	-0.000116410694
191	0x3d6516dc	0.055930004
192	0x3d0188a6	0.03162446
193	0x3d5182d8	0.051150173
194	0xbe08d7d5	-0.13363583
195	0xbc367f24	-0.011138711
196	0x3d3c4040	0.04595971
197	0xbe22560b	-0.15853135
198	0xbdde7214	-0.108616024
199	0xbe2d610c	-0.16931552
200	0x3db117e6	0.086471364
201	0x3cc430c4	0.023949035
202	0xbc51cd2b	-0.0128052635
203	0x3d3777a9	0.04479185
204	0xbe43b8ad	-0.19113417
205	0x3c4d7a11	0.01254131
206	0xbdd118be	-0.10209797
207	0xbe23b472	-0.15986803
208	0x3aaa10f8	0.0012975028
209	0x3c05695b	0.0081427945
210	0xbd119419	-0.035541628
211	0xbc6ac824	-0.014329944
212	0x3d5dad5e	0.054120414
213	0xbe462e98	-0.19353712
214	0xbe3a6555	-0.18202718
215	0xbdb5a2d4	-0.088689476
216	0x3bfbd967	0.0076858285
217	0xbd651e20	-0.055936933
218	0x3d96e39b	0.07367631
219	0x3e508aaf	0.20365404
220	0x3e1b70c9	0.15179743
221	0xbba5978e	-0.005053467
222	0xbe42c83f	-0.190217
223	0x3e440c12	0.1914523
224	0xbd836dd4	-0.064174324
225	0xbe498172	-0.19678286
226	0xbdab6957	-0.08369701
227	0x3e38fe4f	0.18065761
228	0xbd332ef9	-0.04374597
229	0x3e313d17	0.1730846
230	0x3dc3fb15	0.095693745
231	0x3e2dfe3a	0.16991511
232	0x3d777b93	0.060420584
233	0x3bb4ab0e	0.0055135554
234	0x3b2bbaa2	0.002620377
235	0x3d6e833f	0.058230635
236	0x3e53aa3f	0.20670412
237	0xbc0a5fc8	-0.008445688
238	0xbbb69ef1	-0.0055731465
239	0x3da68dba	0.08132501
240	0x3d29c647	0.041448858
241	0xbc2e8e03	-0.010653975
242	0x3dcba78b	0.09944066
243	0x3b0d8cf4	0.0021598907
244	0xbc4b6e25	-0.012416397
245	0xbde59d83	-0.112116836
246	0x3b425b84	0.0029656598
247	0x3cc06fd9	0.023490833
248	0xbe24d98b	-0.16098611
249	0x3cfde2a9	0.030991869
250	0x3dac5fa0	0.084166765
251	0x3df645ee	0.12025057
252	0xbdfa872e	-0.12232815
253	0xbb11f5ff	-0.002227187
254	0x3db75637	0.08951991
255	0xbbe095dd	-0.0068538026

bias f4 [128]
0	0xbdba42de	-0.09094785
1	0xbddd3d79	-0.108027406
2	0x3caee800	0.02135086
3	0x3cfbc5cc	0.030733965
4	0xbdbe6c03	-0.09297945
5	0x3c988521	0.018618168
6	0x3d709eb9	0.05874512
7	0xbe04211d	-0.12903257
8	0x3d1b6a50	0.037943184
9	0x3ca2366c	0.019801341
10	0x3d0ad5b8	0.033895224
11	0x3c5e75d7	0.0135779
12	0xbe2260d8	-0.15857255
13	0x3d2eac41	0.042644743
14	0x3d108ff8	0.03529355
15	0xbe08d1b3	-0.13361244
16	0x3e0911e5	0.13385732
17	0xbaf049eb	-0.0018332576
18	0x3c371532	0.011174487
19	0xbe2ffc3c	-0.17186064
20	0xbd892fc7	-0.06698566
21	0x3e326ca3	0.17424254
22	0x3d1f48a1	0.038887624
23	0x3e56ce3f	0.20977114
24	0xbd9a1feb	-0.07525619
25	0x3cc8d3f8	0.024515137
26	0x3c894391	0.016755851
27	0x3c0016f2	0.007817971
28	0xbd189ab7	-0.037256923
29	0xbcb5214c	-0.022110604
30	0x3d706795	0.058692534
31	0x3cc83895	0.024441043
32	0xbe0f5f92	-0.14001301
33	0x3cd8ed5a	0.026480366
34	0x3e5a8976	0.213415
35	0x3ce051ff	0.027382849
36	0x3ab8af12	0.0014090261
37	0x3d1e80cf	0.03869706
38	0x3c499001	0.0123024
39	0xbdbc5cb5	-0.0919737
40	0x3c0c95c3	0.008580628
41	0x3dc30416	0.09522264
42	0xbe413bd3	-0.18870477
43	0x3e318c19	0.173386
44	0x3ba4aed7	0.0050257253
45	0xbe07ca53	-0.13260774
46	0x3bfb9724	0.0076779295
47	0x3d3019c4	0.042993322
48	0x3cc2a6ab	0.023761114
49	0x3dab131b	0.083532535
50	0xbe2fd618	-0.17171514
51	0xbd5a1be5	-0.05324926
52	0x3c59a10c	0.0132830255
53	0xbe2d29ac	-0.16910428
54	0xbd6da0ff	-0.058014866
55	0x3e3d9397	0.18513332
56	0xbe16483a	-0.1467599
57	0x3c8e8533	0.017397499
58	0x3c5200e9	0.0128176
59	0xbde2af11	-0.110685475
60	0xbdeb351c	-0.11484739
61	0x3c1609c3	0.009157601
62	0x3daf3609	0.08555228
63	0x3d6936af	0.056936916
64	0xbd9ecbe0	-0.0775373
65	0xbe1068c8	-0.14102471
66	0x3e357c87	0.17723285
67	0x3db69d59	0.089167304
68	0x3d58b728	0.052909046
69	0xbe53a186	-0.20667085
70	0x3e12b0a1	0.14325191
71	0xbdb6e3c7	-0.08930164
72	0x3dcde4aa	0.1005338
73	0xbe06c171	-0.1315973
74	0x3e303850	0.17208982
75	0xbd3c8497	-0.046024885
76	0x3cd7d773	0.026347851
77	0x3ce7e6ff	0.02830839
78	0x3d11941c	0.03554164
79	0x3c94f900	0.018185139
80	0xbdd24b09	-0.10268218
81	0x3bc09a9b	0.0058778054
82	0x3d3f719a	0.0467392
83	0x3c8c461a	0.01712327
84	0x3d302836	0.0430071
85	0x3c5d21ae	0.013496799
86	0xbc922cad	-0.017843569
87	0x3ca3f90f	0.020016221
88	0x3e174864	0.14773709
89	0x3e01219d	0.12610479
90	0x3c480caa	0.012210051
91	0x3dcb4607	0.09925466
92	0xbe1814df	-0.14851712
93	0x3d79c71b	0.060980897
94	0x3e3499a8	0.1763674
95	0x3e1679a7	0.14694844
96	0x3d17eabc	0.037089095
97	0xbd3356f7	-0.043784108
98	0x3e43a482	0.19105724
99	0x3e1f6b2c	0.15568227
100	0xbc8fe422	-0.017564837
101	0x3b0ee6cb	0.0021805044
102	0x3d9886fc	0.07447621
103	0x3e41026e	0.18848583
104	0xbe307404	-0.17231756
105	0xbbd94842	-0.0066309283
106	0xbd7198af	-0.0589835
107	0x3c3036e8	0.010755278
108	0x3e0be716	0.13662371
109	0x3d60b7d2	0.054862805
110	0x3e500aab	0.2031657
111	0x3e30825c	0.17237228
112	0xbe2eefd8	-0.1708368
113	0x3c894d1a	0.016760398
114	0xbe0d1925	-0.13779123
115	0xbe561904	-0.2090798
116	0x3c368fb6	0.011142662
117	0x3db808c7	0.08986049
118	0x3de67452	0.11252655
119	0x3cb08ef0	0.021552533
120	0xbe33f7ea	-0.1757504
121	0xbcb24429	-0.021761017
122	0xbdc1eed4	-0.09469381
123	0x3c55071a	0.013002181
124	0x3d3ab6ed	0.045584608
125	0x3c3174f7	0.010831109
126	0x3dba1184	0.09085372
127	0x3d3bddbb	0.045865756

weight f4 [128, 128]
0	0xbbcba3cc	-0.0062145945
1	0xbc771139	-0.01507979
2	0x3c94acc0	0.01814878
3	0x3be912b7	0.0071128267
4	0x3bfd55dd	0.007731183
5	0x3cb1ee0a	0.021719951
6	0x3c03e543	0.008050266
7	0xbc8f37e7	-0.017482711
8	0x3b71e85f	0.0036912186
9	0xbc6346a9	-0.013871827
10	0xbc565597	-0.01308193
11	0xbc312b9d	-0.010813621
12	0x3b90a6e9	0.0044144285
13	0xbb3a2dd3	-0.002840866
14	0xbca15b46	-0.019696843
15	0xbcaa0e70	-0.020758837
16	0xbba96ffa	-0.0051708193
17	0xba9ad33e	-0.0011812223
18	0x3c9286f5	0.017886618
19	0xbbab2b05	-0.005223634
20	0x3aeefbf8	0.0018233052
21	0xbc6582c5	-0.014008229
22	0xbbe33e9c	-0.006934954
23	0xbc23c632	-0.009995984
24	0xbbe19780	-0.0068845153
25	0x3ca1870d	0.019717718
26	0xbc37a7d2	-0.011209445
27	0xbb8d7039	-0.0043163565
28	0xbbc2204a	-0.0059242593
29	0xbc944822	-0.018100802
30	0xbaf0a33b	-0.0018359193
31	0x3c8b8f3f	0.017036078
32	0xbc6b3926	-0.014356887
33	0xbc10bf7a	-0.008834714
34	0x3cdc73a6	0.026910614
35	0xbbaa3ef1	-0.0051954915
36	0x3c00793a	0.007841403
37	0x3cdef01b	0.0272141
38	0x38d4e828	0.0001015219
39	0x3b0ea83e	0.002176776
40	0x3a20308c	0.00061107497
41	0xbc95faa5	-0.018307993
42	0x3c14450c	0.009049665
43	0x3bb81c09	0.0056185764
44	0xbc096b82	-0.008387448
45	0xbbb3293b	-0.0054675615
46	0x3ca1826f	0.019715516
47	0x3ccd609e	0.025070485
48	0xbc3c7e03	-0.011504653
49	0xbbb19330	-0.0054191574
50	0x3b3e5632	0.0029043076
51	0xbbc3f238	-0.0059798025
52	0x3b353cbd	0.002765461
53	0x3a238f2f	0.00062392926
54	0x3c4ec85a	0.01262101
55	0x3c6d5c35	0.014487316
56	0xbc70c16c	-0.014694553
57	0x3b1fb41b	0.0024368826
58	0x3bbca50e	0.0057569807
59	0xba5475ef	-0.00081047317
60	0xbb80ecee	-0.003934494
61	0xbb6868f5	-0.003546295
62	0x3ce9d310	0.028543025
63	0x3c807712	0.015681777
64	0xbc5002c6	-0.012695974
65	0x3c2b13f4	0.010441769
66	0xbbebd101	-0.007196546
67	0xbce02d99	-0.027365493
68	0xbcd28b61	-0.025701227
69	0xbb8ac84b	-0.0042353026
70	0x3cc17ac2	0.023618106
71	0x3b5aa66a	0.003336335
72	0x3bcb1410	0.00619746
73	0x3b3c66ca	0.002874779
74	0x3ca6b9ad	0.020352209
75	0xbb20b993	-0.0024524673
76	0xbaaf6c80	-0.0013383776
77	0xbce01a93	-0.027356422
78	0x3cc94342	0.024568204
79	0x3c5d2532	0.013497638
80	0x3c50bef4	0.012740839
81	0x3c754b39	0.014971548
82	0x3b3f06e4	0.0029148394
83	0xbc239ae0	-0.009985656
84	0x3ca8e6cc	0.020617865
85	0xbb8996df	-0.0041988934
86	0xbc98b9b3	-0.018643236
87	0xbc688919	-0.014192843
88	0x3b8e8302	0.0043491134
89	0x3cabe945	0.020985255
90	0x3c3b2745	0.011422937
91	0xbbea57be	-0.007151573
92	0xbca66914	-0.020313777
93	0x3ca33391	0.01992205
94	0x3b74b9d0	0.0037342198
95	0x3cedeb43	0.029042846
96	0x3c95535b	0.018228224
97	0xbc7ceaa3	-0.015436801
98	0x3ba14f28	0.0049227662
99	0xbbde2821	-0.006779686
100	0x3d2a7c10	0.04162222
101	0x3b2e4afa	0.0026594982
102	0x3d57af15	0.052657206
103	0x3c04e030	0.008110091
104	0xba998341	-0.001171209
105	0xba3da0f6	-0.0007233763
106	0x3ceb7c51	0.028745802
107	0x39b16f64	0.00033843063
108	0xbbdac42d	-0.006676218
109	0x3cd83948	0.026394501
110	0x3badd260	0.0053046197
111	0x3d03d85b	0.032188755
112	0xbb3a176a	-0.0028395304
113	0x3c7c3c92	0.0153953
114	0xbb30fe44	-0.0027007023
115	0xbca603b4	-0.020265438
116	0xbc13fa9a	-0.009031916
117	0x3d3472a8	0.044054657
118	0x3b04d58a	0.002026888
119	0xbae40d07	-0.0017398902
120	0xbb8cc9e1	-0.004296527
121	0xbcda3637	-0.02663718
122	0xbcc64c0d	-0.024206186
123	0xbc5bd871	-0.013418303
124	0xbc9e427d	-0.019318813
125	0x3c426692	0.011865275
126	0x3cc68792	0.024234567
127	0xbc9b89f6	-0.018986683
128	0x3a59595e	0.000829121
129	0x3c5526ae	0.01300971
130	0xbb9168b2	-0.0044375295
131	0x3c916bf6	0.017751675
132	0x3c41726d	0.011807066
133	0x3b80daa2	0.003932313
134	0x3b1d84bf	0.0024035422
135	0xbb12ece5	-0.0022419032
136	0x3c0bacff	0.008525132
137	0x3b2416af	0.0025037935
138	0xbbd0885e	-0.0063639125
139	0xbc36d4c9	-0.01115913
140	0x3a9f8017	0.0012168911
141	0x3ccf01a9	0.025269346
142	0xbbccfc11	-0.0062556346
143	0x3c375581	0.011189819
144	0xbc6f3b61	-0.014601559
145	0xb91e25d8	-0.00015082152
146	0xba45c386	-0.0007544089
147	0x3c7b9866	0.015356159
148	0x3c8c8251	0.017151983
149	0x3c4daa62	0.012552829
150	0x3b934129	0.0044938517
151	0xbba01350	-0.0048851147
152	0x3caedfaa	0.021346886
153	0x3b8c727f	0.00428611
154	0x3c848197	0.016175075
155	0xbc189aac	-0.00931422
156	0xbc904716	-0.017612021
157	0xbc0b820c	-0.008514892
158	0xbbf6d788	-0.0075330175
159	0x3a55b6f2	0.0008152566
160	0x3b9ca29c	0.0047801267
161	0x397b55c4	0.00023969176
162	0x3cddc59e	0.02707177
163	0xbba932de	-0.0051635345
164	0x3a900310	0.0010987241
165	0x3ca1dbb3	0.019758081
166	0x39f7f96d	0.00047297348
167	0x3b8e3f73	0.00434106
168	0x3b82ca82	0.003991426
169	0x3d253baa	0.040340103
170	0x3b32720a	0.0027228617
171	0x3c3c397e	0.011488317
172	0xbc30affe	-0.010784147
173	0x3ab6be20	0.001394216
174	0x3aa20e9a	0.0012363971
175	0x3c2d6f13	0.010585564
176	0xbbc19394	-0.0059074853
177	0x3c01b24d	0.007916045
178	0xbb07c62c	-0.0020717485
179	0x3b5a49f4	0.003330824
180	0x3bfeb1a6	0.007772642
181	0xbb5e26fc	-0.0033897748
182	0xb4fe8c00	-4.741305e-07
183	0x3c175464	0.009236429
184	0xb9c4f6be	-0.0003756787
185	0xbc92ea08	-0.01793386
186	0x3a8663d9	0.0010253146
187	0xbbb06cfb	-0.0053840852
188	0x3a928b18	0.0011180369
189	0x3aec0a6f	0.001800848
190	0x3c570804	0.01312447
191	0x3c65df35	0.0140302675
192	0x3c1c8d97	0.009555242
193	0xbbd7437a	-0.006569323
194	0x3c00d608	0.007863529
195	0xbc650e5c	-0.013980474
196	0xba8737fb	-0.0010316366
197	0xbb80ea6e	-0.003934196
198	0xbad1590f	-0.0015971976
199	0x3c2773d7	0.010220489
200	0xbb1dd96e	-0.0024085897
201	0x3c019511	0.007909075
202	0xbb4a992e	-0.0030914056
203	0xbc8894bb	-0.016672483
204	0x3c19d9af	0.009390279
205	0xbbf22264	-0.0073893536
206	0xba705f91	-0.0009169514
207	0xbc62b6f9	-0.013837569
208	0xbc1a4bea	-0.009417513
209	0x3aa427ab	0.0012524029
210	0xbc517183	-0.012783411
211	0x3b14c14e	0.0022698226
212	0x3cafd433	0.02146349
213	0x39edd311	0.0004536142
214	0x3c9f756f	0.019465176
215	0x3c8808de	0.01660579
216	0x3c8f52c4	0.01749552
217	0x3a86fdd0	0.0010299031
218	0x3ae51660	0.0017477982
219	0xbcb461e8	-0.022019342
220	0xbc459193	-0.012058633
221	0xbb419d15	-0.002954309
222	0x3b4deb43	0.0031420744
223	0x3c0a27ed	0.008432371
224	0xbc654c70	-0.013995275
225	0x3c6421fc	0.013924118
226	0x3c8e3df5	0.017363528
227	0xbc89e1a8	-0.016831234
228	0x3bfe218c	0.007755464
229	0xbb84b6a9	-0.004050095
230	0x3ad19666	0.0015990257
231	0xbba05114	-0.0048924778
232	0x38b5ee78	8.675171e-05
233	0x3bcb5a9a	0.006205869
234	0x3c071f43	0.0082471995
235	0xbc14c1b0	-0.009079382
236	0x3b78c37e	0.003795832
237	0xbb31562e	-0.0027059424
238	0x3c071c91	0.008246557
239	0xbc92ff46	-0.01794399
240	0xbc002c45	-0.007823055
241	0xbc02fa2b	-0.007994215
242	0x3c9be8d9	0.019031929
243	0xbc418efb	-0.011813874
244	0x3c03feb2	0.00805633
245	0xbc328728	-0.010896482
246	0x3c879ced	0.01655432
247	0x3a968120	0.0011482574
248	0xbc16d4ea	-0.009206036
249	0x3b97df52	0.004634776
250	0xbb1b2a1f	-0.002367623
251	0x3ba67384	0.0050796885
252	0xbaaf6282	-0.0013380798
253	0x3ba754a2	0.0051065246
254	0x3c804dab	0.015662035
255	0x3b782e09	0.0037869236

bias f4 [128]
0	0x3ceecad5	0.029149452
1	0x3c2d3b32	0.010573195
2	0x3c5f72c4	0.013638202
3	0x3d519b80	0.051173687
4	0x3c2d0301	0.010559798
5	0x3c013c87	0.007887966
6	0xbbac432c	-0.005257031
7	0x3d4285b3	0.047490787
8	0x3d353f6f	0.044249948
9	0x3c44ff84	0.01202381
10	0x3cd606e9	0.026126342
11	0x3ca52e12	0.02016357
12	0x3ce5b887	0.028042091
13	0x3d84062e	0.06446491
14	0x3c1cc2d0	0.009567931
15	0xbb0c4d6d	-0.0021408454
16	0x3c0f1b7e	0.008734582
17	0x3d36f76d	0.044669557
18	0x3bdf27c5	0.006810161
19	0x3a821aa5	0.0009926154
20	0x3da5600e	0.080749616
21	0x3d5614c3	0.052265894
22	0x3d3d8295	0.04626711
23	0x3d582e73	0.052778672
24	0x3d5b5e7a	0.053556897
25	0x3cf7594d	0.03019395
26	0x3d4acc1c	0.04951106
27	0x3d538dc5	0.051648874
28	0x3cedbd61	0.029020967
29	0x3d134962	0.035958655
30	0x3ced02c4	0.028931983
31	0x3d20c18c	0.03924708
32	0x3d142607	0.03616908
33	0x3d017c48	0.031612664
34	0x3b6d24a7	0.0036185177
35	0x3cd1aa8e	0.025594022
36	0x3d4e39d5	0.05034812
37	0x3ca5f7b7	0.020259721
38	0x3945b1ec	0.00018853665
39	0x3cc9f077	0.024650795
40	0x3d0a5c62	0.03377951
41	0x3c054c60	0.008135885
42	0x3cbe4fd9	0.023231434
43	0x3d1653ce	0.036701016
44	0x3d059114	0.03260906
45	0x3d2c9d9e	0.042142503
46	0x3b94ec41	0.004544765
47	0xb9a8df67	-0.00032209905
48	0x3a078cc4	0.0005170817
49	0x3b473da7	0.0030401738
50	0x3bb0a1c6	0.0053903786
51	0x3d7c2a4a	0.061563767
52	0x3b8a15f9	0.004214045
53	0x3d0544fa	0.032536484
54	0x3c4115bc	0.011784967
55	0x3d07f80e	0.033195548
56	0x3c3cdc8e	0.011527194
57	0x3c9c8f04	0.019111164
58	0x3c27895a	0.010225618
59	0x3db362f9	0.08759112
60	0xbb7fc7c9	-0.0039028993
61	0x3d3bb79f	0.04582941
62	0x3cddc2b4	0.02707038
63	0x3d22396a	0.039605536
64	0x3cda4d0f	0.026648073
65	0x3d157ef1	0.036498014
66	0xbb12eacb	-0.002241778
67	0x3cc0a44d	0.023515845
68	0x3c0cb010	0.008586898
69	0x3d51837d	0.051150788
70	0xb9fc0731	-0.00048070544
71	0x3ca69612	0.020335231
72	0x3a6fe7d7	0.00091516733
73	0x3cc4b33a	0.024011243
74	0x3c2ff1cf	0.010738804
75	0xbbb10b39	-0.005402949
76	0x3d8402cd	0.06445847
77	0x3cd929de	0.026509222
78	0x3ce30307	0.027711404
79	0x3c8a8a18	0.016911551
80	0x3d663113	0.056199145
81	0x3c283a1b	0.01026776
82	0x3c99cf41	0.018775584
83	0x3cb1e459	0.02171533
84	0x3d4845ec	0.048894808
85	0x3c830ea2	0.015998188
86	0xbac3209c	-0.0014887038
87	0x3cd18fa8	0.025581196
88	0x3cdccd02	0.026953224
89	0x3cf46248	0.02983202
90	0x3d30a5fe	0.043127052
91	0x3c0dfff7	0.008666984
92	0x3d30d5c4	0.043172613
93	0x3d54bb91	0.05193669
94	0xbc4a3656	-0.012342056
95	0x3cc97ed8	0.024596617
96	0x3d0416fc	0.032248482
97	0x3c6afe69	0.014342883
98	0x3a0178f8	0.0004938985
99	0x3cc188c2	0.023624782
100	0x3cec2f56	0.028831165
101	0x3c00d4b2	0.0078632105
102	0x3c4aba0d	0.0123734595
103	0x3d3cea55	0.046121914
104	0x3d79d051	0.06098968
105	0x3cd0bd9e	0.025481042
106	0x3ab787c0	0.0014002249
107	0x3cd78b3b	0.026311507
108	0x3afca626	0.001927559
109	0x3c16b742	0.0091989655
110	0x3ca89c12	0.020582233
111	0x3cf5da1c	0.03001123
112	0x3d0acc5b	0.033886295
113	0x3c069303	0.008213761
114	0x3ce51550	0.027964264
115	0x3c45895a	0.012056673
116	0x3d17b59d	0.037038434
117	0x3c9728c5	0.018452058
118	0x3c472a5c	0.012156095
119	0x3c770fc5	0.015079443
120	0x3d1c0577	0.03809115
121	0x3c9ddec7	0.019271268
122	0x3c31ac3b	0.010844286
123	0x3c05af20	0.008159429
124	0x3c4d5c22	0.012534173
125	0x3d4c9aee	0.04995244
126	0x3d002211	0.03128249
127	0x3cdcefdd	0.026969844

weight f4 [8, 128]
0	0x3da03e7d	0.07824419
1	0x3ccba4b8	0.024858817
2	0x3d05b332	0.032641597
3	0xbc1e8d1f	-0.009677201
4	0xbcd9eac4	-0.026601203
5	0xbce07bab	-0.02740272
6	0x3ca06f00	0.019584179
7	0x3c81b4f4	0.015833355
8	0xbd87e4cf	-0.06635439
9	0x3c504bfe	0.01271343
10	0x3d30a1e7	0.043123152
11	0xbcd22a71	-0.025655003
12	0x3dd2aff5	0.102874674
13	0x3d938480	0.07203007
14	0xbb4e2f52	-0.003146131
15	0xbc3bacdb	-0.011454786
16	0xbd316b5c	-0.043315277
17	0x3dbd93cf	0.09256708
18	0xbda1bdab	-0.078975044
19	0xbc804969	-0.015660005
20	0x3e2e2726	0.17007121
21	0x3de62307	0.1123715
22	0x3e0718fa	0.13193122
23	0xbbb4231e	-0.0054973504
24	0xbc1471b5	-0.009060313
25	0xbd57fa76	-0.052729093
26	0x3df57341	0.119848736
27	0x3d2ad2c7	0.04170492
28	0x3d565965	0.052331347
29	0x3d11526e	0.035479
30	0xbcaa6636	-0.020800691
31	0x3cbcb028	0.023033217
32	0x3d53fdb8	0.051755637
33	0xbd9defa6	-0.07711725
34	0xbd1b6bf5	-0.037944753
35	0xbbd96a86	-0.006635013
36	0x3d33e4d9	0.043919418
37	0xbcfdb3bc	-0.030969493
38	0x3c345e10	0.011008754
39	0x3cc91a70	0.02454874
40	0x3dc3fdaa	0.09569867
41	0xbdc72c74	-0.09725276
42	0xbc0a7825	-0.008451496
43	0x3cf92fbd	0.030418271
44	0xbe1cb494	-0.1530326
45	0xbdc0f583	-0.09421828
46	0x3cb5f38c	0.022210859
47	0x39d55caa	0.00040695566
48	0x3ccfd3cb	0.025369545
49	0xbc88253d	-0.01661932
50	0x3c110f30	0.008853719
51	0x3de0d128	0.109773934
52	0x3cc4c1fa	0.024018276
53	0xbd5d91ac	-0.054094
54	0xbd3602df	-0.04443633
55	0xbd1e0263	-0.038576495
56	0xbd3e8ba3	-0.046519887
57	0x3cae8d68	0.021307662
58	0xbbd8da9c	-0.006617857
59	0x3dcd8d20	0.10036683
60	0xbc3ef711	-0.011655585
61	0xbe0500e9	-0.12988628
62	0x3d88360a	0.06650932
63	0xbda16f1d	-0.07882521
64	0xbd579069	-0.052627955
65	0xbd333c27	-0.043758538
66	0xbc23e908	-0.010004289
67	0x3c17be04	0.009261612
68	0x3d193a7b	0.037409287
69	0xbdab0bb6	-0.08351843
70	0xbd18b620	-0.037283063
71	0x3d0a412f	0.03375357
72	0x3c211eb7	0.009833983
73	0xbd832c51	-0.06404937
74	0xbcf90c89	-0.030401485
75	0x3c07f5a9	0.008298316
76	0x3deca807	0.11555486
77	0x3cd60b89	0.026128547
78	0x3d0fe9a3	0.035134923
79	0x3b1df748	0.002410369
80	0x3d5639fe	0.0523014
81	0x3cc500f2	0.024048302
82	0x3cc9e756	0.024646442
83	0x3cdd7674	0.027034022
84	0x3c1ee080	0.00969708
85	0x3bff559e	0.007792189
86	0xbc9641d2	-0.018341932
87	0x3b3f38e5	0.00291782
88	0xbdcdf78d	-0.10056982
89	0x3dc05cdd	0.09392712
90	0x3dbe93dd	0.093055464
91	0xbd22e3d7	-0.039768066
92	0x3d6b81c2	0.057496794
93	0xbde20a61	-0.11037136
94	0x3b32f574	0.0027306946
95	0xbcd745f6	-0.026278477
96	0x3cb1a433	0.021684742
97	0x3cdd7741	0.027034404
98	0xbd14c2a6	-0.036318444
99	0x3c8d9ff0	0.017288178
100	0xbcf644f7	-0.030062182
101	0xbb5a2491	-0.0033285955
102	0x3c808da6	0.015692543
103	0x3de48eaa	0.111600235
104	0x3df92644	0.12165502
105	0x3dab5edf	0.083677046
106	0x3baed2e5	0.005335199
107	0xbd91b30d	-0.07114229
108	0xbd08022b	-0.033205193
109	0xbd027d41	-0.031857733
110	0xbdc56382	-0.0963812
111	0xbc5fec58	-0.013667189
112	0xbe06b2f1	-0.13154198
113	0xbc68ef2c	-0.014217179
114	0x3db9f2ac	0.09079489
115	0x3c31af3c	0.010845002
116	0xbd7fb9e8	-0.062433153
117	0xbde3bdd4	-0.11120191
118	0x3d0e0800	0.0346756
119	0x3d1b85a4	0.037969247
120	0xbe0dc3b2	-0.13844183
121	0x3d901b8f	0.070365064
122	0xbc3ab695	-0.01139607
123	0x3c07c2f3	0.008286226
124	0xbc0d0f03	-0.008609536
125	0x3da6be86	0.08141808
126	0xbdbc5cc7	-0.091973834
127	0x3d6ae132	0.05734367
128	0x3b573fa3	0.0032844327
129	0xbd527148	-0.051377565
130	0xbc775c4a	-0.015097687
131	0x3ca0c44c	0.019624852
132	0xbd544bf6	-0.051830254
133	0x3ca2811a	0.019836951
134	0x3ae02739	0.0017101533
135	0x3d285d2f	0.04110449
136	0xbd146e3f	-0.03623795
137	0xbd4f11b8	-0.050554007
138	0xbd783f2e	-0.060607128
139	0x3cf95317	0.030435128
140	0xbca0cbbe	-0.019628402
141	0xbde29b4c	-0.11064777
142	0xbc71ae34	-0.014751006
143	0xbc832517	-0.016008897
144	0x3ba6d60d	0.005091435
145	0x3d6c0097	0.05761775
146	0xbd19c574	-0.03754182
147	0xbdd6b06d	-0.10482869
148	0x3d51bb2a	0.051203884
149	0xbd8ef06c	-0.069794506
150	0x3d62f415	0.055408556
151	0x3d13af9e	0.036056153
152	0x3d9e85c4	0.077403575
153	0x3d05bade	0.032648914
154	0x3d95da6e	0.07317053
155	0x3d946ebd	0.07247684
156	0x3d8c06eb	0.06837257
157	0xbde89580	-0.1135664
158	0x3c1f8f56	0.009738764
159	0xbdc015f0	-0.09379184
160	0xbe156209	-0.14588179
161	0xbe0edce5	-0.13951452
162	0x3c395fb9	0.011314326
163	0xbb7b149e	-0.003831185
164	0x3d95a58a	0.07306965
165	0xbdab7e1a	-0.08373661
166	0x3c226688	0.009912141
167	0x3d421380	0.047381878
168	0x3d64588d	0.05574851
169	0x3ba12dd8	0.004918795
170	0xbcf62788	-0.030048147
171	0xbdc7c824	-0.09754971
172	0xbd76bee7	-0.060240652
173	0xbd612bc3	-0.054973375
174	0x3cea5a4d	0.028607512
175	0xbc22442e	-0.009903951
176	0xb96d7d58	-0.00022648775
177	0x3bf2d827	0.0074110213
178	0x3c4489cc	0.011995744
179	0x3d0e9972	0.034814306
180	0x3ca83145	0.020531306
181	0x3d450a19	0.048105333
182	0x3c10f6d7	0.008847914
183	0x3bbb3464	0.0057130326
184	0xbcc9903c	-0.02460491
185	0x3d008412	0.031375952
186	0x3b9fff1d	0.004882707
187	0x3e0a67c2	0.13516143
188	0xbcdaae35	-0.026694397
189	0x3cca30c3	0.024681455
190	0xbd38aa7d	-0.045084465
191	0x3d94da5d	0.07268212
192	0x3d184a2f	0.037180122
193	0x3d8810cf	0.06643831
194	0x3cef0edd	0.029181892
195	0xbd98ac0d	-0.07454691
196	0x3ba73e67	0.0051038745
197	0x3ca94a4b	0.020665308
198	0xbd9135e1	-0.07090355
199	0xbc8e4293	-0.01736573
200	0x3cfbb0e0	0.030723989
201	0x3ca6dde9	0.020369487
202	0x3c4da714	0.012552042
203	0xbcd659bf	-0.026165841
204	0xbcd5c3e6	-0.026094388
205	0x3d3943a3	0.04523052
206	0x3d84fc5f	0.064934485
207	0x3d397c4d	0.045284558
208	0xbde57dbf	-0.11205625
209	0x3d288303	0.041140568
210	0x3bec1d9e	0.007205679
211	0xbdaf07f1	-0.085464366
212	0xbdd7a4d8	-0.10529488
213	0x3c8ca961	0.01717061
214	0xbc2c7dd0	-0.010528043
215	0x3d94ffac	0.07275328
216	0xbdca9e38	-0.09893459
217	0xbc495dbc	-0.012290414
218	0x3e05b836	0.13058552
219	0xbd0973d0	-0.033557713
220	0xbe1474a6	-0.14497623
221	0x3d8f6cfb	0.07003208
222	0xbccea569	-0.025225358
223	0x3cdc65e5	0.026904056
224	0xbe1cf6f0	-0.15328574
225	0xbd9220bb	-0.07135149
226	0x3b6305df	0.003464095
227	0x3d399387	0.04530671
228	0x3d0484e0	0.032353282
229	0xbcc920b7	-0.024551732
230	0xbd532eb1	-0.0515582
231	0x3d9b958e	0.07596885
232	0xbc8030b5	-0.015648225
233	0xbc5bfa33	-0.013426351
234	0x3ca0564f	0.019572405
235	0x3c6e9e52	0.014564114
236	0xbd22c1f6	-0.039735757
237	0x3bd257c2	0.006419153
238	0x3cbb3ada	0.022855211
239	0xbdf0444e	-0.11731778
240	0x3cbd9f4c	0.023147248
241	0xbbd3b705	-0.0064610266
242	0xbb02923e	-0.0019923593
243	0x3d31d03e	0.043411486
244	0x3d4a9516	0.049458586
245	0xbbcf6590	-0.006329246
246	0x3d056b78	0.032573193
247	0xbdecf682	-0.11570455
248	0x3b1eeb58	0.0024249163
249	0x3bf3e5a8	0.0074431486
250	0xbc83986b	-0.01606389
251	0x3c35da10	0.011099353
252	0xbdd6203a	-0.104553655
253	0x3cc0831c	0.023500018
254	0xbb90eb5f	-0.0044225897
255	0xbd1c7435	-0.03819676

bias f4 [8]
0	0x3e10bf30	0.14135432
1	0x3cf1c162	0.029511157
2	0xbdbd7d94	-0.09252468
3	0xbcb8583e	-0.022503015
4	0xbd609e17	-0.054838266
5	0x3d590515	0.052983362
6	0x3d76cd28	0.060254246
7	0xbda7dbc4	-0.08196214
