results/transformations/mapping_files/VAE/FMNIST_VAE_16_2>FMNIST_VAE_16_1>NeuralNetwork_50_0_noisy_128_equally.pth (torch, 88938 bytes, 6 tensors)

weight f4 [128, 16]
000000 c5 03 3f 3e a4 c6 7a 3e 3b 23 79 3e 22 18 56 be
       0.18653782 0.24489838 0.24329846 -0.20907643
000010 e0 3a 37 be c8 14 ff bd 79 e0 52 bc a7 d5 96 3d
       -0.17893553 -0.124551356 -0.012870901 0.0736497
000020 46 4a 1f be ca dc 8e be 4c e7 a5 bc 97 9f c8 bd
       -0.15555677 -0.27902824 -0.020251893 -0.09796064
000030 98 98 71 3c 48 1e 24 3e ce 35 62 3d c2 d8 6e 3d
       0.014745854 0.16027176 0.055227093 0.058312185
000040 e2 10 87 be 90 af 3a 3e 60 13 60 3e 5a 76 c9 bd
       -0.26380068 0.18231034 0.21882391 -0.09837027
000050 78 f2 26 3e 5f a4 a7 3d db 62 5f 3d 63 7e 82 3e
       0.16303432 0.08185648 0.054537635 0.2548705
000060 4b d5 8b 3c e0 3c ef 3d e9 ab 35 3d 3b 68 35 3e
       0.01706948 0.11681533 0.0443534 0.17715542
000070 d6 87 0b 3e 94 9f 73 bd 44 91 f0 3d 3b 56 51 be
       0.13626036 -0.059478357 0.11746457 -0.2044305
000080 69 55 d7 3d 54 9c e9 bc 6f 61 2d 3e 99 71 8a be
       0.105143376 -0.028516926 0.16931699 -0.27039793
000090 99 e1 04 bd 66 9c 4c 3e dd ec 8a bc 69 f0 71 3e
       -0.03244171 0.19981536 -0.016958648 0.23626865
0000a0 73 37 82 3d b4 17 0a be 91 01 69 3e 14 e0 78 3e
       0.06358232 -0.13485605 0.22754504 0.24304229
0000b0 46 c1 37 bc e4 d0 66 3e 81 54 0a be 63 bf 80 bd
       -0.011215514 0.22540623 -0.13508798 -0.06286504
0000c0 15 b8 88 be 30 28 bb bd 45 ec e3 bd 88 28 ea 3b
       -0.26702943 -0.091385245 -0.11129049 0.007145945
0000d0 fd d4 4e be 38 c5 76 3d 4d 17 25 3e 32 0d bc 3d
       -0.20198436 0.060246676 0.1612217 0.09182204
0000e0 5a 67 54 3e ce 07 82 3e 49 18 16 3d d2 ed 83 3e
       0.2074255 0.2539658 0.036644254 0.2576738
0000f0 dc 31 6d be 7e 9e a6 bd de 0e cc 3d e3 e5 2b 3e
       -0.23163551 -0.08135699 0.09963773 0.16786914
000100 e6 87 b1 3b ed 13 e7 3d 22 1a 6e bd f5 64 c8 3d
       0.0054178117 0.112830974 -0.05813039 0.09784881
000110 b0 2c 7b 3e bb 6a d4 bd 7c d3 8b 3e 6c 81 52 3e
       0.24528766 -0.1037192 0.27309787 0.20557183
000120 7e 67 49 be ce 54 9f 3d a7 6f 85 be cf 44 00 3e
       -0.19668385 0.07779847 -0.26061746 0.12526248
000130 fe 8b 40 3e eb 5d 08 bd 31 17 31 be d6 4c 92 3c
       0.18803403 -0.033292692 -0.17294003 0.017858904
000140 6a 14 8f bd 04 74 66 be 4b da 1d bd 7a 56 98 be
       -0.069863155 -0.22505194 -0.03853826 -0.29753476
000150 74 f3 55 ba a5 b9 32 bd 4b e2 98 bd a9 2f 52 be
       -0.00081615825 -0.043634076 -0.07465037 -0.20525993
000160 2e ea 9a 3e 34 27 48 3d c4 61 34 3e e4 eb c9 3d
       0.3025679 0.048865512 0.1761542 0.09859446
000170 f6 cd 35 3e 0c 74 82 be d9 61 47 be bc df 80 3e
       0.17754349 -0.25479162 -0.1947092 0.25170696
000180 a5 6d e5 3d fd 94 23 bd 3f 07 00 be 63 68 b1 bc
       0.11202554 -0.03993701 -0.12502764 -0.02165622
000190 d1 84 30 be 5f d8 1f be 15 83 69 3e f8 75 fd 3d
       -0.17238165 -0.15609883 0.2280391 0.123760164
0001a0 e8 b3 b1 3d d6 ee e0 bc 32 d8 37 be 39 83 4b be
       0.086768925 -0.027457636 -0.17953566 -0.19874276
0001b0 0e 2e 85 be d2 a4 2d 3e b0 4b 92 bd cd ce 7f 3e
       -0.260117 0.16957405 -0.071433425 0.24981232
0001c0 52 82 7f bd 9e 76 bd 3d 73 c8 53 be e2 52 7b bd
       -0.062380143 0.0925114 -0.20681934 -0.06135834
0001d0 bc f0 90 3c 42 bd b0 bd fc 2f 46 be 26 24 03 3e
       0.017692916 -0.08629848 -0.19354242 0.12806758
0001e0 bd b5 8c be 8c 1b 74 bd 5b f3 53 3e 65 22 46 3e
       -0.27482405 -0.059596583 0.20698301 0.19349058
0001f0 a8 4d 65 be 4a 4b 29 be f0 4c 22 be 85 18 84 3e
       -0.22392905 -0.16532627 -0.15849662 0.25799957
000200 c4 d0 8d 3d eb 0c 8f 3d a1 94 a5 bd d3 f5 11 3e
       0.069245845 0.06984886 -0.08084989 0.14253931
000210 d4 8c 17 bd b1 ab e6 3d 3d 43 8b 3e bc 3e ba 3d
       -0.03699954 0.11263216 0.27199736 0.09093997
000220 97 5c f9 3c 65 b5 ed 3c 06 d9 8b 3c 53 4e 9d bd
       0.030439658 0.02901716 0.017071258 -0.07680955
000230 8c e0 4b 3e aa 2b 17 be c8 91 7d 3e 1c 7b e8 3d
       0.19909877 -0.1476275 0.24762642 0.11351606
000240 21 55 0b 3e c9 13 38 3e 1b d9 97 3e 3f 7a ec 3b
       0.13606693 0.17976297 0.29657826 0.0072167213
000250 ab 0a 1a 3e 68 fa 84 bd 52 04 bf bd 48 8d 8e 3e
       0.15043132 -0.06493074 -0.09326996 0.27842164
000260 85 9f 3d 3e 00 b3 4a be 24 a3 17 3e 79 64 9a 3c
       0.18517883 -0.19794846 0.14808327 0.018846737
000270 6f e1 47 be 10 20 3e 3d 53 ab 65 be e7 3c 3e 3d
       -0.1951959 0.046417296 -0.22428636 0.0464448
000280 99 7c 80 3e de 23 25 be 47 26 84 be ee cf 3b 3e
       0.2509506 -0.16126963 -0.25810453 0.18341038
000290 c3 ab 5e bd 67 95 ba 3d 93 3e 93 3d a5 38 2b 3e
       -0.054363023 0.091105275 0.071896695 0.16720827
0002a0 61 8e 6a 3e 3d 51 67 3d ba bd 44 be 03 0a 3c 3d
       0.22905876 0.05647396 -0.19213 0.045907985
0002b0 07 7e e4 3c 8c c5 0c be a9 40 31 3e e8 af 97 3e
       0.027892126 -0.13747233 0.17309822 0.29626393
0002c0 47 82 23 3e e3 a3 d9 bc ca 03 78 3e 49 2e cc 3d
       0.15967666 -0.026567405 0.24220195 0.09969766
0002d0 c4 35 17 be d2 9b 2b be 18 2a 1f be 54 a1 1a be
       -0.14766604 -0.1675866 -0.15543401 -0.15100604
0002e0 b4 3a 6a 3d 8f 5e d8 3c d1 2d cb 3d 2b e1 14 3e
       0.05718489 0.026412277 0.09920848 0.1453902
0002f0 12 90 d4 bd e5 a6 db 3d 4e d2 4d 3d da ee d4 bd
       -0.10379042 0.10725192 0.05024939 -0.1039712
000300 b2 14 4e be 2f 7c bf 3d f6 a2 a1 3e 37 fd 34 3e
       -0.20125082 0.09349858 0.31569642 0.17674719
000310 61 1a e6 3d 8d 64 a9 3d 07 aa a0 bd a3 8d 1b be
       0.112355 0.08271132 -0.0784493 -0.15190749
000320 da a0 66 3e 42 c4 03 be 88 30 2e 3e 91 2f 2b 3d
       0.22522298 -0.12867835 0.170107 0.04179341
000330 cb 30 1b bd 03 f8 95 3c d8 13 09 bd cc 1e 8f bd
       -0.03788833 0.018306738 -0.03346619 -0.06988296
000340 79 af 22 3e e2 2f 3d 3e 1f 0b e5 bd 5f a9 09 3e
       0.1588725 0.18475297 -0.11183762 0.13443516
000350 ac e5 a8 3d 13 7b 07 3e 9d 85 c2 bd 92 bb dd 3d
       0.082469314 0.13230543 -0.09498141 0.10826792
000360 25 9b 46 be 23 e8 47 3e 5e bf 37 be a9 ba 6e be
       -0.1939512 0.19522147 -0.17944095 -0.23313393
000370 78 91 64 bd 6d 0e 95 3e 54 30 4e bd 6c 80 84 3e
       -0.055802792 0.29112568 -0.050339058 0.25879228
000380 30 d9 83 be c4 ad cd bd 62 89 40 3d 3b 38 8b be
       -0.25751638 -0.10042909 0.04700602 -0.27191338
000390 55 14 01 3e fe 1e 3c bd 44 84 09 be ef b5 3a 3e
       0.12605412 -0.045927994 -0.13429362 0.18233465
0003a0 16 4c 2d 3e 16 37 7c 3d e2 6d 41 bc fa bb 32 3e
       0.16923556 0.06157597 -0.011805983 0.1745452
0003b0 a0 aa 1d be 55 c9 5d be 9e ac f8 bd a0 21 3e 3e
       -0.1539712 -0.21658833 -0.12142299 0.18567514
0003c0 3f c3 d8 bb c6 69 61 be 6a ed 1f be 52 c0 75 be
       -0.006615072 -0.22013006 -0.1561791 -0.23999146
0003d0 67 30 37 3e 65 37 5d be ef 13 40 be c6 9b 14 3e
       0.17889558 -0.21603163 -0.18757604 0.14512548
0003e0 a5 6a dc 3d 0b 66 62 3d 76 8d 66 bc fd 66 72 3e
       0.10762528 0.055273097 -0.014071813 0.236721
0003f0 ae 32 4b be 82 01 9c bd 51 8d 35 3e f1 52 47 3e
       -0.19843552 -0.07617475 0.17729689 0.19465233

bias f4 [128]
000000 6e 49 b0 3d c7 1e 00 be b0 95 78 3e d5 a4 54 3e
       0.086077556 -0.1251174 0.24275851 0.20766003
000010 d2 ee d4 3d fd e4 01 3e 4e ad 14 be ab f9 72 bd
       0.10397114 0.12685008 -0.14519235 -0.059320133
000020 cb f3 14 be 10 26 f5 bd 7a 13 ab bc 39 dd 19 be
       -0.14546125 -0.119701505 -0.02088331 -0.15025796
000030 cf e5 22 be 29 f9 4c 3e 83 9c 36 be 30 bb 8c bd
       -0.15907978 0.20016922 -0.17833142 -0.06871641
000040 d6 cc af bc 8f da ce 3d 44 97 ef bd b7 49 5c 3e
       -0.021459978 0.101002805 -0.116987735 0.21512495
000050 75 63 86 bd a1 4a c3 3c e0 81 e7 bb a8 13 09 be
       -0.06561939 0.023839297 -0.007065043 -0.13386405
000060 4d f8 34 3e 5e af 71 3e f6 40 22 be 37 6b 21 bc
       0.17672844 0.23602054 -0.15845093 -0.009852222
000070 d3 f9 38 3d 90 5e f2 bd 41 af 51 3e 6b 0f 05 be
       0.045160126 -0.118344426 0.2047701 -0.12994163
000080 db f7 b9 3c 64 74 94 3d 7f 25 eb bc fb 26 cc bd
       0.022701195 0.07248762 -0.028704403 -0.099683724
000090 26 87 61 bd e0 1c 00 3d 21 e5 36 3e 30 7f 9f bd
       -0.05506053 0.031277537 0.17860843 -0.07787931
0000a0 ea 42 83 be 3e 31 43 3e f5 24 43 be 43 cb 29 be
       -0.2563699 0.19061753 -0.19057067 -0.16581444
0000b0 3c 3d ff bc 16 de 70 3e 70 b8 22 be 05 db 9f bb
       -0.031157129 0.23522219 -0.1589067 -0.004878404
0000c0 9b bc b9 bd f2 a9 26 3e 57 d8 bb 3d b1 aa 25 3e
       -0.09069177 0.16275766 0.09172123 0.16178395
0000d0 f8 65 0b be e6 88 b1 3d 64 d4 3d bb 0e 0e d5 3c
       -0.13613117 0.086686894 -0.0028965706 0.026007678
0000e0 59 e7 0c 3e 8c 86 ba 3d c4 2d 17 3c 4a 38 36 be
       0.13760127 0.09107694 0.00922722 -0.1779491
0000f0 d8 e3 18 be 41 98 28 3e 1d 6a 6f 3e 4d a4 99 bd
       -0.14930665 0.1646433 0.23380323 -0.07502041
000100 82 88 6e 3e 1c a7 f3 bd df c9 18 be af 4d 55 be
       0.23294261 -0.11897108 -0.14920758 -0.20830415
000110 02 59 c9 bd 32 09 22 bb f9 a1 2d be 89 96 09 3e
       -0.0983143 -0.002472472 -0.16956319 0.13436331
000120 0f 2c 56 be 6a 4d a4 bd ad 60 97 bd 77 3c 1e 3d
       -0.20915245 -0.08022578 -0.07391486 0.038631883
000130 50 82 31 bd 54 7b 16 be 13 1c 02 bc c0 52 d1 3d
       -0.043337166 -0.14695483 -0.007941264 0.102208614
000140 82 3e 23 3e 02 99 af bd 58 c6 e8 bc 04 bc 19 be
       0.15941814 -0.08574106 -0.02841489 -0.15013129
000150 be 74 37 be 43 86 26 be 7c 29 1f 3e 0f a8 b7 bd
       -0.17915627 -0.16262154 0.15543169 -0.089676015
000160 27 9c 00 3e b5 7c 5d 3e 31 25 40 be 86 80 0f 3e
       0.12559567 0.21629603 -0.18764187 0.14013872
000170 95 47 72 3e f3 7b 26 3e fb d9 66 3e 04 dc 57 be
       0.23660119 0.1625822 0.2254409 -0.21080023
000180 69 1b 94 3d e1 1d 9d bd b6 29 54 3e 52 ae 6c 3e
       0.072317906 -0.076717146 0.20719036 0.23113373
000190 b3 86 1d 3b 2c 75 41 be 3f 70 ce bb ba d2 4b 3e
       0.0024036586 -0.18892354 -0.006300002 0.19904605
0001a0 a8 48 59 be df 10 90 3d 7e b6 61 bd b0 89 04 3d
       -0.21219122 0.07034468 -0.05510568 0.03235787
0001b0 67 1f cc 3d 62 49 60 3e ec 86 00 be 92 23 68 3e
       0.09966927 0.21902993 -0.12551469 0.22669819
0001c0 e0 c3 5b 3e 82 e8 72 3e d6 c5 38 3e 99 1f 33 3e
       0.21461439 0.23721507 0.18044218 0.17492522
0001d0 ea 0d 26 be 65 1b a7 3d 88 d9 04 be c3 e7 5f 3d
       -0.16216245 0.08159522 -0.12973607 0.054664385
0001e0 4d 8e 97 bd 77 5e bc 3d c5 1e 8b 3d 06 c4 36 3e
       -0.074001886 0.09197705 0.06792978 0.17848215
0001f0 38 a9 77 be 2c 52 2c 3e b2 9e 34 be 28 8c 07 be
       -0.24185646 0.16828221 -0.17638662 -0.13237059

weight f4 [128, 128]
000000 15 06 ed bb 59 51 25 bd d7 19 29 3d 55 fa 98 bd
       -0.007233391 -0.040360782 0.04128441 -0.07469622
000010 d1 33 39 bd 65 0d bb bd a7 a6 9a bd 4d 21 0a be
       -0.04521543 -0.09133414 -0.07551318 -0.13489266
000020 6f 08 8d 3d 42 05 47 3d c8 26 b6 3d de 57 90 3d
       0.06886374 0.048589 0.08894116 0.07048009
000030 02 c0 95 3c b3 1e 4d bd f2 fc 2a bd 99 62 c4 bd
       0.018280033 -0.050078105 -0.041745134 -0.095891185
000040 a4 8a 30 bc 77 e5 ce bc 0c 54 29 bb 55 0a a7 bd
       -0.010775242 -0.025255902 -0.002583745 -0.081562676
000050 55 45 ed 3b a1 84 cd bc 34 bc 69 3d 8b 51 13 3d
       0.007240931 -0.025087656 0.05706425 0.035966437
000060 c8 25 64 bd e6 c8 87 3d 21 f6 b1 ba 3d 22 bd bc
       -0.055700094 0.06630115 -0.001357738 -0.023087615
000070 74 5e 05 3d 4d 10 19 3d d1 05 ac bc df a4 e0 3c
       0.03256078 0.03736906 -0.020998867 0.027422367
000080 cd 3c b1 3c 72 e0 fb 3c da 28 84 3d bc 8a 5b bd
       0.021635437 0.030746672 0.06453104 -0.053599104
000090 d1 49 17 bd 30 a6 ac 3c 2a 5d 52 3d b5 b4 40 3d
       -0.03693563 0.021075338 0.05135838 0.047047336
0000a0 5e a5 23 bd bd b8 87 3c 5a 75 8a 3b 0a 8e ad 3c
       -0.03995263 0.016567582 0.004225415 0.021185894
0000b0 4e 58 de 3d 2e 20 da 3d 55 31 86 3c 32 81 6d 3d
       0.108566865 0.10650669 0.016380945 0.05798454
0000c0 d4 dc 07 3c 25 e8 d6 bd d6 e0 6b 3d a9 86 d7 bd
       0.008292396 -0.10493497 0.057587467 -0.10523731
0000d0 3f 8e 40 bc b6 e4 dd bc f5 45 aa bc 58 f4 ff 3c
       -0.011752664 -0.027086597 -0.020785311 0.031244442
0000e0 a1 8d d8 bc a3 2b 8e bd 9b 10 f2 bc 6f 16 8f bb
       -0.026434721 -0.06941917 -0.029548934 -0.004366688
0000f0 86 da 26 3d ed 4c 63 bd ca f2 9c 3d ae 0a 98 bd
       0.040735744 -0.055493284 0.07663496 -0.07423912
000100 86 a4 ad 3d 0e 1a 9d bc 71 f1 1b 3d 4c 3e f0 3c
       0.08478646 -0.019177463 0.038072053 0.02932658
000110 99 f8 e5 3d 2a 81 8f 3a 19 ca 5b 3d 48 68 9f 3c
       0.11229057 0.0010948528 0.053659532 0.019458905
000120 45 8f 95 bd 03 85 63 bc 01 b0 a7 bd 01 55 fe bd
       -0.07302717 -0.013886693 -0.08187867 -0.12418557
000130 6d 52 81 bd 8e 5a 7c 3c 96 e8 cb 3d 71 59 84 bd
       -0.063145496 0.015402449 0.099564716 -0.06462372
000140 13 5f 44 bc 32 6d 28 3d 98 71 a4 bd 45 99 1a bd
       -0.011985558 0.04111976 -0.08029479 -0.037743825
000150 ff ab 04 bd 7b 30 6c 3d 9b 70 ba bc d6 c5 43 bd
       -0.03239059 0.057663422 -0.022758773 -0.047796093
000160 bf cd 9b bb 67 03 1c bd d4 8f 4a bd de f2 85 bc
       -0.0047547515 -0.038089182 -0.04945357 -0.01635116
000170 0a 7e d7 bd 09 2f 8e bc b9 a7 1f 3d 20 02 43 bd
       -0.10522087 -0.017356412 0.038978312 -0.04760945
000180 c3 f0 b6 bd 11 78 ec 3b 8d 52 31 bd 01 b2 8f 3d
       -0.089326404 0.0072164615 -0.043291617 0.070163734
000190 c0 ab 4f 3d 7f b1 09 be a6 9a 32 3d 71 07 39 3d
       0.050700903 -0.13446616 0.043604515 0.045173112
0001a0 c1 c8 73 3d 49 3f 8c bd 05 e3 c6 3d 95 85 71 3c
       0.059517626 -0.06848008 0.09711269 0.014741321
0001b0 1c ed 40 bd c2 b2 2c bd e9 68 96 bc 2c a0 8f 3c
       -0.047101125 -0.042162664 -0.018360572 0.01753243
0001c0 3c 88 08 bc eb 2b cf 3d ce c0 8b bd bd 7f c3 bc
       -0.008333262 0.101157986 -0.06823884 -0.023864621
0001d0 a2 f0 e0 3d ad 53 39 bd 43 f8 4f 3d 8a 11 1d 3c
       0.10983397 -0.045245815 0.05077387 0.009586701
0001e0 c0 cd c9 3d d3 a8 d5 bd 04 37 db bc e3 d0 44 bc
       0.09853697 -0.10432591 -0.026759632 -0.012012693
0001f0 50 e7 5c bd 7e e0 dc bd e9 1d 4a 3d 09 21 8e bd
       -0.053931534 -0.10785006 0.04934493 -0.06939895
000200 0b 61 5c bd 94 97 aa bc bc fd b4 bd 54 d8 18 3b
       -0.053803485 -0.020824231 -0.088374585 0.00233223
000210 90 af ae 38 b5 92 8e bd 38 f1 cf 3d 94 60 83 3d
       8.3296676e-05 -0.06961576 0.10153431 0.06414905
000220 b7 d6 78 bd bb 39 d6 bc 66 76 c9 bd ec e6 5d bd
       -0.060751643 -0.026150575 -0.09837036 -0.054175302
000230 78 71 70 bd 90 30 e6 bd 69 db fc 3d 5f 94 0a bd
       -0.058701962 -0.11239731 0.12346537 -0.033832904
000240 b2 9e 35 3d c6 8c 8f 3d 33 bd bf 3c 6e 81 a2 ba
       0.044340797 0.07009272 0.023405647 -0.0012398192
000250 e1 72 e3 3c bc 25 fe ba ab 2a 54 bd 81 5d d0 bd
       0.02776474 -0.0019389908 -0.051798504 -0.101740845
000260 96 d3 1c bd 9c c2 3a 3d bd a3 34 3b fc 53 a1 3d
       -0.03828772 0.04559575 0.0027563416 0.07877347
000270 4e 66 f1 bc 99 13 82 bd a5 8e d9 3d 31 f6 35 bd
       -0.029467728 -0.06351394 0.106229104 -0.04442424
000280 7e 25 03 bd 56 48 b2 bd f6 89 74 3a 6b 83 a5 3d
       -0.032018177 -0.08705203 0.0009328419 0.080817066
000290 ad 90 a9 3d f1 b6 c3 3c 48 86 f4 3d 87 5d 11 bc
       0.08279548 0.023890944 0.119396746 -0.008872396
0002a0 b8 a9 b7 3d ed a3 91 3d 61 de 09 bc d8 c6 82 bd
       0.08967918 0.071113445 -0.008414836 -0.06385583
0002b0 b9 4a 9b bd dc 8b f7 bc 27 ed 98 3d 5c 2b 09 bd
       -0.075826116 -0.030218057 0.07467108 -0.033488616
0002c0 08 2b df 3a 2d 21 c6 bc 24 79 ef 3c d8 30 5e 3a
       0.0017026374 -0.024185741 0.029232569 0.0008475906
0002d0 9e b7 da bd ed c9 9e 3d 08 52 39 ba 16 27 ab 3c
       -0.106795534 0.07753358 -0.00070694136 0.020892661
0002e0 17 bf 05 bd 90 04 93 3b 70 36 2d 3c 48 8f 4d 3d
       -0.03265294 0.004486628 0.010572061 0.05018547
0002f0 68 62 55 bd 2c 5c 82 bd aa 64 43 3d f9 8c 2f 3d
       -0.0520958 -0.06365237 0.047703423 0.04285905
000300 a2 a2 a9 3c 0f 98 c1 bd d5 95 a0 3c 2a 24 9f bc
       0.020707432 -0.09452831 0.019602695 -0.019426424
000310 ab cf 86 bd 23 bb 31 3d a7 f5 e8 3c 94 cc 63 3d
       -0.06582578 0.043391358 0.028437449 0.055615023
000320 37 f0 7e 3d a4 d6 ae bd 0f 34 d9 3d 23 14 aa bd
       0.062240805 -0.08537033 0.106056325 -0.08304622
000330 ff 22 56 bd 3b ea c3 3d 4d 5d 54 bd e7 23 d0 3d
       -0.05227947 0.0956616 -0.05184679 0.10163098
000340 a4 ba b3 bd db b9 03 3d 09 64 c8 bd 25 b9 16 3e
       -0.08775833 0.032159667 -0.09784705 0.14719065
000350 93 24 aa bd e5 0c 66 bc 97 66 9c 3d 8c 2a cf 3d
       -0.08307757 -0.01404116 0.07636755 0.10115537
000360 4a 08 83 bd 52 5c db bd 90 f4 e8 bc 7d ac f4 3d
       -0.063980654 -0.10710968 -0.028436929 0.11946962
000370 f0 ad b1 3c 03 7b 8d bc 51 7c b3 bd 32 41 9d 3d
       0.021689385 -0.01727057 -0.08763946 0.07678451
000380 61 fe 63 3d 06 89 13 3d a9 30 12 3d 62 d9 7b 3d
       0.055662517 0.036019348 0.035690937 0.06148661
000390 f5 e5 50 bd 42 05 09 3e 94 07 ee 3d f7 ad bb 3b
       -0.051000554 0.13380912 0.11622539 0.0057275253
0003a0 45 7e 89 3d fd e0 c5 3d fa a4 c8 3d 68 d4 ea 3b
       0.06713537 0.09662054 0.09797092 0.007166434
0003b0 ea 43 15 3d fc 1a 99 3d a7 55 1e bd b5 69 a9 3d
       0.03644172 0.0747585 -0.038655903 0.08272115
0003c0 db fb a6 3b cd db 3d bd 09 ec ab 3d 29 b2 8c bd
       0.0050959415 -0.046352196 0.083946295 -0.06869919
0003d0 b7 31 c1 bd 2c fe 84 bb 2e 9e ad 3b 54 39 0c 3d
       -0.094333105 -0.00405862 0.0052983975 0.03423436
0003e0 f6 17 34 bd 93 67 83 bd e5 ec 75 3d 4c 1d e1 bc
       -0.043968163 -0.064162396 0.060040373 -0.02747979
0003f0 6b 9a 11 3d 92 cc 5f 3d 3c cc 06 bd e6 63 90 bc
       0.035547655 0.054638453 -0.032909617 -0.01762576

bias f4 [128]
000000 00 53 39 3d a0 e0 ae 3c d3 f3 9c 3d 50 af 8f bd
       0.04524517 0.021347344 0.07663693 -0.0701586
000010 2c f0 01 3d d1 c7 cc 3d ba c1 9d bc 34 e5 6c 3d
       0.031723186 0.099990495 -0.019257415 0.057835773
000020 95 95 8e bc 27 81 ed bc 0b f0 8a bc 81 ec b1 3c
       -0.01740531 -0.028992249 -0.016960165 0.02171922
000030 38 60 8e 3d 86 f8 f2 3d 89 fd 35 bd 18 bf a9 bd
       0.06951946 0.11863808 -0.044431243 -0.08288401
000040 a3 77 9e bd 88 c9 94 3d 55 c5 c6 3b d8 84 54 bd
       -0.07737663 0.072650015 0.0060660043 -0.051884502
000050 0c a1 55 3d 2f a0 b4 3d a7 34 c3 3c 9c c8 0f bd
       0.05215554 0.08819615 0.023828818 -0.035103425
000060 97 c7 bc 3c 28 bd 24 bd 9a b4 b9 3d 1c 67 38 bb
       0.02304439 -0.040219456 0.0906765 -0.002813763
000070 f8 fc 03 bc 00 5b af 3d 3d fc 54 3d 7e 06 7f 3c
       -0.008055918 0.08562279 0.051998366 0.015565513
000080 61 ba 18 3d 5a aa ad bc c3 5c a3 3d 50 15 02 bd
       0.03728712 -0.021199394 0.07976677 -0.031758606
000090 02 e4 56 3d 22 3d 67 3d bd 17 97 bd 0d 9c 9c 3d
       0.05246354 0.056454785 -0.073775746 0.07646952
0000a0 d1 09 88 3d 0a e3 0e bd 11 e0 b1 3b 5d de 18 bd
       0.06642497 -0.03488449 0.005428322 -0.037321437
0000b0 c5 53 80 3b 5d 24 10 3d 16 46 94 bd d0 6b e9 3d
       0.003916236 0.03519093 -0.0723993 0.11397517
0000c0 90 ad 95 bd 26 a5 31 bd cc f3 a0 bd c8 bf 11 3c
       -0.07308495 -0.04337039 -0.078590006 0.008895822
0000d0 9b 83 a9 bd 19 a3 71 bd 1a 88 da bc 54 4d 80 3d
       -0.08277055 -0.058993433 -0.026676226 0.06264749
0000e0 6c a8 34 3d 2f 26 c6 bd 88 a6 90 bd 9e 51 fc 3d
       0.044105932 -0.09675252 -0.07063013 0.12320255
0000f0 08 ed 2b bd f4 95 87 bd ce 11 53 bc 02 6f 98 3d
       -0.041974097 -0.06620398 -0.012882663 0.07443048
000100 34 be 9c 3d 4f 66 7f 3c 74 5e 8c bd 93 01 f7 3b
       0.07653466 0.015588357 -0.06853953 0.0075380295
000110 78 e9 12 3c e1 dd 48 3d af dc 03 3d fc 48 5f 3d
       0.008966796 0.049039725 0.032192882 0.054512963
000120 bb b7 bf 3d 33 fc 44 bd 48 d9 13 3d 3e 53 b5 bc
       0.09361216 -0.04809208 0.036095887 -0.02213442
000130 c4 83 33 bb 6c 12 88 3c a2 0f be ba 7d 6f 5f 3c
       -0.002739177 0.016610347 -0.0014500509 0.013637421
000140 11 01 81 3d 51 75 95 bd 19 5e 4e 3d 81 b6 20 bd
       0.062990315 -0.07297767 0.050382707 -0.03923655
000150 e2 1b ac 3d c2 2d 86 3d 87 77 18 bd 34 57 3d bd
       0.08403756 0.06551696 -0.037223365 -0.04622574
000160 f7 20 19 3d b0 87 7a 3c 07 c9 5f 3d 31 b8 52 bd
       0.037384953 0.0152911395 0.054635074 -0.05144519
000170 79 8c 85 bd 3d 28 6b 3d ea 63 12 bc ab dc ea 3b
       -0.06520934 0.05741142 -0.008934954 0.007167419
000180 7f 8d 54 3d 3d 1d 2d 3c 95 0d 68 bd f5 f0 0d bd
       0.051892754 0.010566053 -0.056653578 -0.034653623
000190 4f 93 a7 3d 58 c6 1e 3d 48 4b ae 3d ce b8 08 bd
       0.08182394 0.038763374 0.085104525 -0.03337937
0001a0 48 9a 40 3d fb 7c 9a 3d 02 ef 82 3d d3 37 0c 3d
       0.047022134 0.075433694 0.06393243 0.034232926
0001b0 a0 f9 4d 3d 3d ba 5d bd 12 21 bb bd d9 a9 07 3d
       0.05028689 -0.05413269 -0.09137167 0.033120964
0001c0 f2 bf 4f 3d 91 2a 76 3d 8a c4 7c 3d 1d b8 14 bd
       0.050720163 0.06009919 0.06171087 -0.036308397
0001d0 96 a5 65 39 fe e5 bd bd b9 34 d6 3d f2 46 36 bd
       0.00021900827 -0.09272383 0.10459275 -0.044501252
0001e0 9e 69 0f bd d8 f8 54 bd 9e e7 8c 3c 05 95 86 3d
       -0.035012834 -0.05199513 0.017200287 0.06571392
0001f0 10 7d a9 39 e3 d5 5f 3d d0 8b 94 3d 70 8f 8e bd
       0.0003232737 0.054647338 0.072532296 -0.06960952

weight f4 [16, 128]
000000 ac ed 87 bd bd bb 76 3d 76 f5 51 bc b6 7b d9 bc
       -0.06637129 0.060237635 -0.01281487 -0.026548248
000010 8a 02 0f bd 96 3f 5f 3d cf 69 e6 3d b2 e9 a9 3d
       -0.03491453 0.054504 0.1125065 0.08296527
000020 3a 27 99 bd 08 c3 e4 bc 82 43 ce bd f8 dc 7a bd
       -0.07478185 -0.02792503 -0.1007147 -0.06124589
000030 9c b9 bc bd bc 84 c0 3d b4 30 93 bd 93 12 0b 3c
       -0.0921509 0.09400317 -0.07187024 0.008488315
000040 45 44 0c bd 04 5e d3 bd 6d 78 4c bd e6 00 0b be
       -0.034244794 -0.103206664 -0.049919534 -0.13574561
000050 2a 19 27 3d 84 2b a9 3d 79 4c da 3d cb 9a 28 3d
       0.040795483 0.08260253 0.10659117 0.041163247
000060 02 f1 20 3d 49 0b 5c 3d 72 dd 08 be 74 a0 c0 3d
       0.039292343 0.0537217 -0.13365725 0.09405604
000070 07 f0 87 bd 4c 80 97 bd 30 01 9a 3d d9 78 2b bd
       -0.066375785 -0.073975176 0.07519758 -0.041863296
000080 66 ec 52 3d d8 a5 00 be 13 d4 d8 3d 58 e3 86 bd
       0.05149498 -0.12563264 0.10587325 -0.06586331
000090 b2 77 8a bd f8 76 25 bd f5 33 8e 3d 0d d7 1c bc
       -0.06761111 -0.04039666 0.06943504 -0.0095727565
0000a0 4d 75 a0 bd 21 7d 2c bd 5d 02 90 3c 46 93 3d 3c
       -0.07834873 -0.04211152 0.017579252 0.011570757
0000b0 86 bf 05 3e d5 b0 dc bd 1e 15 7b 3d 5f 37 a2 3d
       0.13061342 -0.107759155 0.061299436 0.079207174
0000c0 3c 5d 03 3b ed 0b 70 3d 3a a1 69 bd 8b 23 04 3e
       0.0020044586 0.058605123 -0.057038523 0.12904184
0000d0 9a 40 fa 3c 85 bf 88 bd 0a fa 25 bc c0 b9 64 bd
       0.030548383 -0.066771545 -0.010130415 -0.055841208
0000e0 d6 10 b8 bd 11 14 ee 3b 4a 1d 10 bd c3 b1 a8 bd
       -0.08987586 0.0072655757 -0.035184182 -0.0823703
0000f0 d3 87 47 bb 28 73 ec bd ea 12 0a bd 5a 75 96 bd
       -0.0030445948 -0.11545402 -0.033709444 -0.07346602
000100 46 8d 22 3d df ce f1 3d d0 bc 56 3d d0 a5 b2 3d
       0.03968551 0.11807036 0.05242616 0.087230325
000110 a5 18 ad 3c 7b 2f 19 bd 90 ac 5e bc 5a 94 04 3e
       0.021129915 -0.037398797 -0.013590947 0.12947217
000120 12 b1 c7 3d 72 5e 93 bd cc 85 54 3d 48 c5 b8 39
       0.0975057 -0.071957484 0.05188541 0.000352422
000130 de ba a0 bc f8 eb 6f bc c3 11 41 3d fc 77 da 3d
       -0.019620355 -0.014643662 0.04713608 0.106674165
000140 44 df bb 3d ae 30 86 3d a8 e3 c7 3d 40 ca 80 bc
       0.09173444 0.06552254 0.09760219 -0.01572144
000150 8a 26 d2 3d f6 db 49 bd f6 d7 37 bc 95 90 2b 3d
       0.10261257 -0.049282037 -0.011220923 0.04188593
000160 55 92 50 3d 70 01 99 3d 31 6d d7 bd 70 ca 5f 3d
       0.050920803 0.07470977 -0.105188735 0.05463642
000170 60 c3 58 3c 7a 03 92 bd 2e 65 c2 3c 56 2e 5c 3c
       0.013230175 -0.07129569 0.023729887 0.013438782
000180 42 a7 cb bc d6 a1 83 bd 23 64 a6 bd 29 47 92 3d
       -0.024860028 -0.06427352 -0.08124568 0.07142479
000190 50 61 00 3c a7 35 07 bd dd 72 9d bd 0d 7a d6 3d
       0.007835701 -0.03301015 -0.07687924 0.10472498
0001a0 bc 69 30 3d 01 ac 30 bd 66 49 80 bd fa bd 67 3c
       0.043069586 -0.043132786 -0.06264 0.014144415
0001b0 2a 54 8e bc b2 c8 2a 3a 02 21 11 bd d1 67 b6 3d
       -0.017374117 0.0006514891 -0.03543187 0.0890652
0001c0 7c 3a 78 3d 85 89 07 bd 24 6e 9c bd 2c 27 51 3c
       0.06060265 -0.033090133 -0.07638195 0.012765687
0001d0 4b 62 7c 3d b8 e2 89 bd 7d f6 a6 bd 72 5e a5 bd
       0.061617177 -0.06732696 -0.08152483 -0.08074655
0001e0 1a 58 dd 3c 7f 87 ab bc d9 73 b4 bd 6e a6 86 3d
       0.02701955 -0.020938633 -0.08811159 0.06574713
0001f0 c7 a4 76 3d 68 85 da bc b9 7a 08 3d 20 42 17 bd
       0.060215738 -0.026674941 0.033320162 -0.036928296
000200 5e f6 7a bd bd d3 dd 3d ee 4a 61 bb 93 60 cc 3d
       -0.06127011 0.108314015 -0.0034376937 0.099793576
000210 6d 11 87 bd 81 c7 ff bc 21 5e 1f bc 1d 87 2b 3d
       -0.065951206 -0.03122306 -0.009727032 0.0418769
000220 0f 9e b9 3c 83 a3 3d 3d 43 30 8e bd bb df ed 3c
       0.022658376 0.046298515 -0.06942799 0.029037347
000230 80 8e cc 3d 90 31 53 3a 1d 4a 47 3d 6b b5 8d bd
       0.09988117 0.00080563966 0.048654664 -0.06919368
000240 2c c5 b6 ba 52 22 9f 3d b7 25 99 bd 16 6e a5 3d
       -0.001394426 0.07770218 -0.07477897 0.08077638
000250 c1 b7 0a bd 9e 17 5c 3c 3a 5a 8b bd 28 da ec bd
       -0.033866648 0.013433365 -0.06804319 -0.115650475
000260 4a 70 59 bc 82 7b 08 3d ee c3 7c bc 85 d9 02 be
       -0.013271401 0.03332091 -0.015427573 -0.1277829
000270 73 f6 ab bc 6d 9f 71 bd 89 37 bf bc 70 59 b1 bc
       -0.02099154 -0.05898993 -0.02334191 -0.021649092
000280 a3 5a 22 3d ad 70 b7 3d a6 7b 3f 3d 82 ab 32 bd
       0.03963722 0.08957038 0.04674878 -0.043620594
000290 89 e0 8c bd a1 45 b5 3d 0e 84 86 bd 6f a0 2b bd
       -0.06878764 0.08851171 -0.06568156 -0.04190105
0002a0 b6 62 58 bd a9 25 c6 3c 15 4c a9 3d 35 ad 1d 3c
       -0.052828513 0.02418788 0.082664646 0.009623815
0002b0 44 b9 b6 3d 36 5e 80 3d 40 49 de 3c 46 f9 d7 bd
       0.08922055 0.06267969 0.027134538 -0.10545592
0002c0 2f 65 54 bd 9a dd 0c bd c0 ce 83 bd d1 27 29 3d
       -0.05185431 -0.034391023 -0.06435919 0.041297738
0002d0 52 79 07 bd 27 57 49 3d e8 96 09 bd 34 8d 95 bd
       -0.033074684 0.04915538 -0.03359118 -0.07302323
0002e0 d3 be b2 3d be 9f 51 3c 5c 43 73 bd a6 0c 06 be
       0.08727803 0.012794433 -0.05939041 -0.13090762
0002f0 ec 2f 1e bc 58 18 08 3c 33 cc 41 3d 8b 54 e2 3d
       -0.00965498 0.008306585 0.04731388 0.110512815
000300 09 bb 48 bd 2e 15 66 3d 4c 91 5b 3d bd c5 4f bc
       -0.049006496 0.056172542 0.053605363 -0.012681422
000310 78 24 1b bc 55 32 86 3d 9e 74 a2 3d 70 f6 a9 3c
       -0.009469144 0.06552569 0.07932399 0.020747393
000320 6f 88 a9 bd dc f8 c1 bc 8a 98 6e bc 82 20 6c 3c
       -0.08277976 -0.023678236 -0.014562735 0.014412047
000330 1f 85 a9 bd e1 e1 ef 3d e8 52 c1 bc c5 d1 a4 3d
       -0.08277344 0.11713005 -0.023599103 0.08047823
000340 ee c4 c5 3c a5 d4 fb 3b 0c 42 53 bd d0 b5 03 3d
       0.024141755 0.0076852613 -0.05157666 0.03215581
000350 d2 b3 9b bd 2d 26 80 bc 4b ad ed bd 9f 09 46 bd
       -0.076026574 -0.015643204 -0.11605319 -0.04834902
000360 5c c2 01 bd 9e 5b de bc d6 83 cf 3d 70 cb 02 bd
       -0.031679496 -0.027143296 0.101325676 -0.031932294
000370 e5 cf ef bd 96 d9 a2 3d e4 5f f0 3b 64 23 2f bd
       -0.117095746 0.079516575 0.00733565 -0.04275836
000380 79 74 97 3c 51 49 63 3d d0 4b b6 b9 21 09 8b bd
       0.018488156 0.05548984 -0.0003477023 -0.067888506
000390 8e 3b 2d bc 89 2b a4 bd 02 8e a5 3d 46 dc 73 bd
       -0.010573281 -0.08016116 0.080837265 -0.05953624
0003a0 d5 9f 79 3d 43 e3 a5 3d 34 67 ff bc b5 74 cd 3b
       0.060943443 0.08099987 -0.03117714 0.006270016
0003b0 5b d1 19 bc 66 24 34 bd c6 a1 37 bc 3f 5b 6d 3d
       -0.009388293 -0.043980025 -0.011208003 0.057948347
0003c0 12 6f e7 bc 47 cc 10 3d 19 8c bc 3c 4d 02 a4 bd
       -0.028251205 0.035351064 0.023016023 -0.08008251
0003d0 49 35 91 3d 8f 53 a0 bd 14 79 0f 3c 5d 93 9f bd
       0.070902415 -0.078284375 0.008756895 -0.07791779
0003e0 8d f0 78 bc 73 c1 ca 3d cf 4f 62 bd 9e e2 14 bd
       -0.0151940705 0.09900179 -0.055251893 -0.03634893
0003f0 77 86 67 bd dc 7d bc 3c 3e c3 d5 bd 3d af 2f 3d
       -0.05652472 0.023009233 -0.1043763 0.04289173

bias f4 [16]
000000 75 23 e2 3c 40 59 80 bc 40 e3 32 3d 2e 7e 23 bc
       0.027604798 -0.015667558 0.043673754 -0.009978814
000010 c0 64 f6 bc d4 31 fb bc 58 39 15 3b 50 82 f6 3c
       -0.030077338 -0.030663408 0.0022769775 0.030091435
000020 ec 6f 31 bd 7b 79 d2 3d 1e 72 9c 3b c9 60 42 3d
       -0.043319628 0.10277077 0.004774346 0.047455583
000030 4c 4b 85 3d 21 2d 84 3d 39 b8 db 3b c5 a3 46 bd
       0.06508502 0.0645392 0.0067053107 -0.048496027
