results/transformations/mapping_files/VAE/FMNIST_VAE_8_1>FMNIST_VAE_8_2>NeuralNetwork_200_0_noisy_128_equally.pth (torch, 80736 bytes, 6 tensors)

weight f4 [128, 8]
0	0xbe4392e1	-0.19098999
1	0xbe068c79	-0.13139524
2	0xbe25b3af	-0.16181825
3	0x3eb855b6	0.36002892
4	0x3e3e6b73	0.18595676
5	0x3e865211	0.26234487
6	0x3e2c2923	0.16812567
7	0x3c625e8c	0.013816487
8	0xbcd2b98a	-0.025723238
9	0x3e1f0597	0.15529476
10	0x3ea29e02	0.31761175
11	0xbdd77ee9	-0.10522253
12	0x3e8cfe4e	0.2753777
13	0x3ec5ca58	0.3863094
14	0x3d8cb195	0.068698086
15	0xbdb023ee	-0.08600603
16	0x3df10e28	0.11770278
17	0x3e48afd0	0.19598317
18	0x3dcd9d8e	0.10039817
19	0xbe23e7aa	-0.16006342
20	0x3e2e5e14	0.17028075
21	0x3e946925	0.2898647
22	0xbe835f53	-0.25658664
23	0x3e63006d	0.22168131
24	0xbe864283	-0.2622262
25	0x3eb5f62d	0.3553938
26	0xbd070591	-0.032964293
27	0x3e127ed5	0.14306195
28	0xbecd748d	-0.40127984
29	0x3d9ee205	0.077579536
30	0xbd04a25e	-0.032381408
31	0xbe07a50b	-0.13246553
32	0xbeadeecc	-0.3397125
33	0xbcde3863	-0.027126497
34	0x3e3253b5	0.17414744
35	0x3d0f263c	0.034948573
36	0xbe6664c2	-0.22499374
37	0x3e8c2e16	0.2737891
38	0x3e6b1fae	0.22961304
39	0xbdc31561	-0.09525562
40	0xbe9aaf18	-0.3021171
41	0xbe5f9c10	-0.21836877
42	0xbef739aa	-0.48286182
43	0x3df1fc9b	0.11815759
44	0xbea90aab	-0.33015952
45	0xbe8289f2	-0.2549587
46	0x3e49171f	0.19637726
47	0xbe25b212	-0.1618121
48	0x3e672229	0.22571625
49	0x3df03e21	0.117306
50	0x3eb81965	0.35956874
51	0x3ea89cf2	0.3293224
52	0x3daf3800	0.08555603
53	0x3cb3b9ec	0.02193924
54	0x3df025cf	0.117259614
55	0x3e1b200c	0.15148944
56	0x3eb60fac	0.35558832
57	0x3ec6b808	0.3881228
58	0xbe3a0b35	-0.18168338
59	0x3e2ad4d1	0.16682746
60	0x3e28bc7e	0.16478154
61	0x3d77939a	0.0604435
62	0xbe35e9a3	-0.17764907
63	0x3dd08cff	0.10183143
64	0xbe690d89	-0.2275907
65	0x3e463441	0.19355871
66	0xbef5d34c	-0.4801277
67	0x3ecb1587	0.39664862
68	0x3e5f1f80	0.2178936
69	0x3e6c8ee6	0.23101386
70	0x3d7509d8	0.05982384
71	0x3e0c2399	0.13685454
72	0xbeaa44cb	-0.3325561
73	0x3e95d8f8	0.29267097
74	0x3de87491	0.11350358
75	0xbb936795	-0.004498432
76	0x3eaeed6a	0.34165508
77	0xbec6b400	-0.38809204
78	0xbe91046d	-0.2832369
79	0xbe62dde8	-0.22154963
80	0x3ecc20c5	0.3986875
81	0x3e4b34c9	0.19844355
82	0x3eba907d	0.3643836
83	0xbe166470	-0.14686751
84	0xbe269d2a	-0.16270891
85	0xbe963cdb	-0.29343304
86	0x3e36cdb2	0.17851904
87	0xbd8224ef	-0.06354701
88	0x3ea25085	0.31702057
89	0x3e866db3	0.2625557
90	0x3ea08823	0.31353864
91	0x3dc8d9a8	0.0980714
92	0xbe4f210d	-0.20227452
93	0x3e4b1bbf	0.19834803
94	0x3e9213c5	0.28530708
95	0xbe22e164	-0.15906292
96	0xbe4e6e34	-0.20159227
97	0xbe9b0e98	-0.30284572
98	0xbd39ebc7	-0.04539087
99	0x3e5be9e7	0.21475945
100	0x3d4c6fe6	0.049911402
101	0xbe983002	-0.29724127
102	0x3cd3c48c	0.025850557
103	0x3e8c2955	0.27375284
104	0x3e39ab6c	0.18131799
105	0xbe97c977	-0.29645893
106	0xbe8778c8	-0.26459336
107	0xbe9e977f	-0.30974957
108	0xbe392601	-0.18080904
109	0x3cb2accf	0.021810917
110	0xbeeafbfa	-0.45895368
111	0xbec0fa97	-0.37691185
112	0xbda41f85	-0.080138244
113	0x3cea7a93	0.028622901
114	0xbe0fc391	-0.14039446
115	0x3e06dc80	0.13170052
116	0xbe8a9019	-0.27063063
117	0x3ebc9d02	0.36838537
118	0xbe21184f	-0.15731929
119	0xbeda50bd	-0.42639723
120	0xbebdb19b	-0.37049565
121	0xbe67cc30	-0.22636485
122	0xbe0b4263	-0.13599543
123	0x3e141cf6	0.14464173
124	0xbe6b2b2b	-0.22965686
125	0x3e3e286d	0.18570109
126	0x3ec448c7	0.38336775
127	0x3e8fd8e6	0.28095168
128	0x3d809700	0.06278801
129	0xbe9e388e	-0.30902523
130	0xbe963701	-0.2933884
131	0x3e9f1078	0.31067252
132	0x3e7150ca	0.23565975
133	0x3e8bb25f	0.27284524
134	0x3e497b9a	0.19676057
135	0x3e224a1d	0.15848584
136	0xbd6e92bc	-0.058245406
137	0xbe059b95	-0.13047631
138	0xbd1d5774	-0.03841348
139	0xbdd1b03a	-0.10238691
140	0x3ecc9d56	0.39963788
141	0x3ea75e2a	0.3268903
142	0x3e838c84	0.25693142
143	0xbe0ef108	-0.13959134
144	0x3ec1830a	0.37795287
145	0xbde7e83d	-0.11323593
146	0x3e7c7622	0.24654439
147	0xbd30f5a4	-0.04320301
148	0x3da480e0	0.080323935
149	0x3eb39df2	0.3508144
150	0x3d0a6f35	0.03379746
151	0x3e788282	0.24268535
152	0xbdb08fb8	-0.08621162
153	0xbe8bfcc2	-0.27341276
154	0xbb0aa8cc	-0.002115774
155	0x3ea1acf6	0.3157727
156	0x3ca3f769	0.020015435
157	0x3e5af670	0.21383071
158	0x3d4c3cf9	0.049862836
159	0x3d96b7c7	0.073592715
160	0xbe203a98	-0.15647352
161	0xbed6c147	-0.41944334
162	0xbca509c4	-0.020146258
163	0xbd77297c	-0.060342297
164	0xbcc681dc	-0.024231844
165	0x3e8acefc	0.27111042
166	0xbea2561f	-0.3170633
167	0x3e04ff50	0.12988019
168	0x3e7b3436	0.24531636
169	0x3d657ef5	0.05602928
170	0x3e5fe87d	0.21866031
171	0x3eb1a80b	0.3469852
172	0xbecf045c	-0.40433013
173	0x3ebf4cbc	0.3736323
174	0xbe0e3c07	-0.13890086
175	0xbe88f00b	-0.26745638
176	0xbe092f0f	-0.13396858
177	0xbcb51b5e	-0.022107776
178	0x3ea5277e	0.32256693
179	0xbd6f1a90	-0.05837494
180	0x3dc96798	0.09834212
181	0xbdd54ae3	-0.10414674
182	0xbe30a1f3	-0.17249279
183	0xbe8a7190	-0.27039766
184	0xbe9242ed	-0.28566685
185	0x3e22fd35	0.15916903
186	0x3dff51b5	0.12466756
187	0x3eadaffb	0.33923325
188	0xbe0fddad	-0.14049406
189	0x3bc09fa0	0.005878404
190	0xbde9c6ed	-0.11414895
191	0xbd46f59e	-0.048574083
192	0xbe9d1147	-0.30677244
193	0x3e5a1361	0.21296455
194	0xbe1950e0	-0.14972258
195	0x3ea97698	0.33098292
196	0x3dd9dd97	0.10637968
197	0xbdb0c4cf	-0.08631288
198	0xbe813c09	-0.25241116
199	0x3e2391a5	0.15973528
200	0x3dbebc9d	0.09313319
201	0xbe91766e	-0.28410667
202	0x3db6edf2	0.08932103
203	0x3dbd043f	0.092293255
204	0xbead0db9	-0.33799532
205	0xbea63612	-0.32463127
206	0xbe45219d	-0.19251104
207	0x3de43b33	0.11144104
208	0x3e76355b	0.24043791
209	0xbdc29ca1	-0.09502531
210	0x3e49a12e	0.19690391
211	0xbdc725ef	-0.09724032
212	0x3e97ab89	0.29623058
213	0xbecfc359	-0.40578726
214	0x3eb64cc2	0.35605437
215	0x3e78b64b	0.24288289
216	0xbe9efa8a	-0.3105052
217	0xbb70bea7	-0.0036734731
218	0x3ec00395	0.37502733
219	0x3e99467f	0.29936597
220	0x3e02084b	0.12698476
221	0x3e8bf189	0.27332714
222	0xbead9ec4	-0.3391019
223	0xbe85d489	-0.26138714
224	0x3ed303ac	0.4121374
225	0x3e6ed062	0.23321679
226	0xbd93563b	-0.071941815
227	0x3e2533d9	0.1613306
228	0xbeab2348	-0.33425355
229	0xbe124189	-0.14282812
230	0x3cd9ab7b	0.026571026
231	0x3e835384	0.25649655
232	0x3e879a08	0.26484704
233	0x3e8a3ffa	0.27001935
234	0xbe882bb3	-0.2659584
235	0xbdaae536	-0.083445
236	0x3e24e47d	0.16102786
237	0x3ea0e0ce	0.31421512
238	0x3dbd34e7	0.09238606
239	0xbccc5406	-0.02494241
240	0x3eb5d97c	0.3551749
241	0x3d561ea4	0.052275315
242	0x3e2b4699	0.1672615
243	0xbe78aa23	-0.24283652
244	0xbdb9e6f5	-0.09077255
245	0xbdf54264	-0.11975554
246	0x3e4bf86e	0.19918987
247	0x3e367ef0	0.1782186
248	0x3e89dae2	0.26924807
249	0xbda005d2	-0.0781361
250	0xbe9722a6	-0.29518622
251	0x3ebf9574	0.3741871
252	0xbe47f396	-0.19526514
253	0xbe87c258	-0.2651546
254	0x3e30f3d9	0.1728052
255	0x3e361492	0.17781284

bias f4 [128]
0	0xbe601f7c	-0.2188701
1	0x3deedfed	0.11663804
2	0x3e8f499f	0.27985856
3	0xbe900489	-0.2812846
4	0xbdc5062d	-0.096203186
5	0xbe817065	-0.25281063
6	0xbd53b360	-0.051684737
7	0xbe80e288	-0.2517283
8	0xbd1b7b7d	-0.037959564
9	0x3e43ad8c	0.19109172
10	0x3e469a0d	0.19394703
11	0xbea922a3	-0.33034238
12	0x3ea85914	0.3288046
13	0xbe518f70	-0.20464873
14	0xbe9bb83e	-0.30414003
15	0x3e3f688f	0.1869223
16	0xbea46a9a	-0.3211258
17	0x3ecb0652	0.3965326
18	0x3e78a0ff	0.24280165
19	0xbe9b74ac	-0.3036245
20	0x3e153703	0.14571767
21	0xbd6b19d5	-0.057397682
22	0xbe0afef9	-0.13573827
23	0x3d16289d	0.036659826
24	0x3e9c9c88	0.30588174
25	0xbe75638e	-0.23963758
26	0xbdc7e997	-0.097613506
27	0x3eb3620e	0.35035747
28	0xbdfd181a	-0.12358113
29	0x3e33151d	0.17488523
30	0x3df92b89	0.12166507
31	0x3dc2a4af	0.09504067
32	0x3e91b40b	0.28457674
33	0xbe6c90f6	-0.23102173
34	0x3db5c6a6	0.0887578
35	0xbe352410	-0.17689538
36	0xbe2cf8f7	-0.16891848
37	0x3e85ff68	0.26171422
38	0xbe35bb58	-0.17747247
39	0xbe534185	-0.20630462
40	0xbe47b572	-0.1950281
41	0xbd8f2222	-0.06988932
42	0x3e04b494	0.1295951
43	0xbe9ef637	-0.31047222
44	0xbe259860	-0.16171408
45	0x3e75af5a	0.23992673
46	0xbe082546	-0.13295469
47	0x3eb65907	0.35614797
48	0x3e41e9a7	0.18936788
49	0x3d64a5ca	0.05582217
50	0xbc4bb339	-0.012432867
51	0x3ea85daf	0.32883975
52	0x3c82707a	0.015922774
53	0xbcec4953	-0.028843557
54	0x3d10e278	0.035372227
55	0x3e9722ce	0.2951874
56	0xbda634c8	-0.08115536
57	0x3e86a10d	0.26294747
58	0xbde75b0f	-0.11296665
59	0xbc622628	-0.0138030425
60	0x3ca8af2f	0.020591347
61	0xbe6fdabf	-0.23423289
62	0x3e210dde	0.15727946
63	0xbe88092b	-0.26569495
64	0x3b92b7ed	0.004477492
65	0xbe3ebbe8	-0.18626368
66	0xbd44ecc8	-0.048077375
67	0x3c774f18	0.015094541
68	0x3e56eef1	0.20989586
69	0x3e3fdab0	0.18735766
70	0x3ea6ae11	0.32554677
71	0x3e37014d	0.1787159
72	0x3d808f31	0.062773116
73	0xbe8c10ec	-0.2735666
74	0xbe71be6f	-0.23607801
75	0x3d764c1d	0.06013118
76	0x3eacca5b	0.33748135
77	0xbe8cae31	-0.27476647
78	0xbe519dfa	-0.2047042
79	0x3e5a1954	0.21298724
80	0x3e510717	0.20412861
81	0x3e8f83b7	0.28030178
82	0x3eb86766	0.36016387
83	0x3e788746	0.24270353
84	0x3d7bf2da	0.0615109
85	0xbe2f6039	-0.1712655
86	0x3eab4f2e	0.33458847
87	0x3e1cb655	0.15303929
88	0xbe4baaba	-0.19889346
89	0x3e8fced5	0.28087488
90	0x3eaeec9b	0.3416489
91	0xbb124a77	-0.0022322217
92	0x3d366473	0.04452939
93	0xbe849e6e	-0.25902122
94	0x3e5fc0d0	0.21850896
95	0xbe1ccadf	-0.15311764
96	0x3e598778	0.21243083
97	0xbd721838	-0.059105128
98	0xbcc43b2a	-0.023953993
99	0xbe394dfd	-0.18096156
100	0x3d94442a	0.07239564
101	0xbe6067ea	-0.2191464
102	0xbe6dfc55	-0.23240788
103	0x3e886e69	0.26646736
104	0xbe868308	-0.26271844
105	0xbe25bf44	-0.16186243
106	0x3e08bf47	0.13354217
107	0xbe853eab	-0.26024374
108	0x3e7ec616	0.24880251
109	0x3e9a59cd	0.30146638
110	0x3e3945ce	0.18093035
111	0x3e16f700	0.1474266
112	0x3e3e88aa	0.1860682
113	0x3e32319c	0.17401737
114	0xbe42aa29	-0.19010223
115	0x3d635da0	0.05550921
116	0xbe657aba	-0.22410098
117	0xbe478642	-0.19484809
118	0xbd4649df	-0.048410293
119	0x3e3e0c80	0.18559456
120	0xbddfbaa8	-0.10924274
121	0x3ec0fad4	0.37691367
122	0x3d320b3f	0.043467756
123	0xbe13581b	-0.14389078
124	0x3e0d3334	0.13789064
125	0xbe9af4ca	-0.30264884
126	0x3dddf381	0.1083746
127	0x3e6102d6	0.21973738

weight f4 [128, 128]
0	0x3ce35b74	0.02775357
1	0xbdf9776b	-0.1218098
2	0xbd3c9ac1	-0.046046022
3	0x3d28d104	0.041214958
4	0x3d6835fa	0.0566921
5	0x3df2aa3b	0.11848875
6	0xbdb2fa66	-0.08739166
7	0x3dc3c518	0.09559077
8	0x3dd86033	0.105652235
9	0xbbf53299	-0.0074828384
10	0xbcb97e0c	-0.022643112
11	0xbb5f1156	-0.0034037433
12	0x3dce5178	0.10074133
13	0xbc269911	-0.01016833
14	0xbdc57a04	-0.09642413
15	0x3df46882	0.11933996
16	0x3ab5751b	0.0013844104
17	0xbd7b9d4c	-0.061429307
18	0x3cba80c5	0.02276648
19	0x3d10ca0e	0.035348944
20	0x3cc3a1da	0.023880888
21	0xbceef0d1	-0.029167565
22	0xbd8e524d	-0.069492914
23	0xbd0eeb4e	-0.034892373
24	0x3dc54266	0.09631805
25	0xbd0d19b6	-0.034448348
26	0xbd318646	-0.043340944
27	0x3db89c51	0.0901419
28	0xbe41d195	-0.18927605
29	0x3c92c92e	0.017918196
30	0x3d7126a3	0.058874737
31	0xbdd19c8b	-0.10234936
32	0x3defc157	0.117067985
33	0x3d8703d8	0.0659253
34	0xbe252c4a	-0.16130176
35	0x3cc4ead2	0.024037752
36	0xbd29bc52	-0.041439362
37	0x3dd06573	0.101756
38	0xbdf438ba	-0.11924882
39	0x3cbb827c	0.022889368
40	0x3cf1afe0	0.029502809
41	0xbdbc60fb	-0.09198185
42	0x3d0d9db5	0.03457423
43	0x3d9e4968	0.07728845
44	0xbe1025f1	-0.14076973
45	0x3d89afc7	0.0672298
46	0x3d7d8f2f	0.06190413
47	0x3bfed3bf	0.007776707
48	0xbd8da592	-0.06916346
49	0x3b7c3c6e	0.0038488167
50	0xbc7a0358	-0.015259586
51	0x3d17beeb	0.037047308
52	0x3dbb47ff	0.091445915
53	0xbdb025ef	-0.08600985
54	0xbdcdaeaf	-0.10043084
55	0xbc9528b3	-0.018207883
56	0xbd40782b	-0.0469896
57	0x3dd8dc9a	0.105889514
58	0x3dd93169	0.10605127
59	0xbdb275b1	-0.08713854
60	0xbb64ed7d	-0.0034931593
61	0x3be6c331	0.0070423116
62	0x3be7cc8e	0.0070739454
63	0xbd9aaea3	-0.075528406
64	0x3da58ed1	0.08083881
65	0x3df14e34	0.11782494
66	0x3d196a34	0.0374548
67	0x3de28f78	0.11062521
68	0x3d8766c8	0.06611401
69	0xbe145b02	-0.14487842
70	0x3df491b4	0.11941853
71	0x3c34246a	0.01099501
72	0xbb9c938e	-0.004778332
73	0xbdd19258	-0.10232991
74	0xbbc7a4fd	-0.006092666
75	0xbccb2b19	-0.024800824
76	0xbe020c1d	-0.12699933
77	0xbd2b2066	-0.041778944
78	0xbc96b5e7	-0.018397285
79	0x3c267e1c	0.010161903
80	0x3d1008a5	0.035164494
81	0x3d5a07b4	0.053230003
82	0xbbd00c8d	-0.0063491524
83	0x3c3876e5	0.011258815
84	0x3d5fd765	0.054648776
85	0x3dfa0d33	0.12209549
86	0x3de87779	0.113509126
87	0x3def7140	0.116915226
88	0x3e0c40dc	0.13696617
89	0xbcc559c9	-0.024090664
90	0xbde9bcfe	-0.114130005
91	0xb95d110c	-0.00021082553
92	0xbdacbb6b	-0.08434185
93	0xbc2d8c89	-0.010592588
94	0x3c81dae4	0.015851445
95	0x3dbc9e52	0.09209885
96	0xbd3b98d3	-0.04580004
97	0x3df6a9e8	0.12044126
98	0xbd366ced	-0.044537473
99	0xbbf31fb6	-0.0074195517
100	0x3de40c1b	0.111351214
101	0xbddb1a2d	-0.10698352
102	0x3da560ce	0.08075105
103	0x3d5a8482	0.053349026
104	0x3cdff6c2	0.027339343
105	0x3d056274	0.032564595
106	0x3d2b46be	0.041815512
107	0x3da70106	0.08154492
108	0xbca2477a	-0.019809473
109	0xbd39f4f9	-0.04539964
110	0xbdd8bda8	-0.10583049
111	0xbd967c9a	-0.073479846
112	0xbbcfe452	-0.0063443566
113	0x3c801b7f	0.015638111
114	0x3e0234ac	0.12715405
115	0x3d60a598	0.054845423
116	0xbd98781d	-0.07444785
117	0xbceb8e45	-0.028754363
118	0x3cdc0431	0.026857467
119	0x3d766b74	0.06016107
120	0x3d200173	0.039063882
121	0xbaa1fccc	-0.0012358665
122	0x3d8ed5dc	0.06974384
123	0xbc607e49	-0.013701984
124	0xbaf67d18	-0.0018805591
125	0x3b370102	0.0027924185
126	0x3de13f89	0.109984465
127	0x3e184b6e	0.14872524
128	0x3cb2cb64	0.0218255
129	0xbca9203c	-0.020645253
130	0xbda1f7da	-0.07908602
131	0x3d758c67	0.05994835
132	0x3d494741	0.04914022
133	0xbce9e76e	-0.028552737
134	0xbdf82b39	-0.12117619
135	0xbd63f2b3	-0.055651378
136	0xbdd38677	-0.103283815
137	0xbdb3ae9f	-0.08773541
138	0x3e3b4db7	0.18291365
139	0x3d7aa236	0.061189853
140	0xbddebb9c	-0.108756274
141	0xbd331168	-0.04371777
142	0xbbe4d86e	-0.0069838082
143	0xbb6998ed	-0.003564413
144	0xbd949dad	-0.07256637
145	0xbd4e61a6	-0.050386094
146	0x3da25e22	0.07928111
147	0xbdf629c2	-0.120196834
148	0xbbba028a	-0.005676572
149	0x3e04dbed	0.1297452
150	0xbc6b640c	-0.014367115
151	0xbc5b303b	-0.013378198
152	0xbe32a632	-0.17446211
153	0xbb09173f	-0.0020918397
154	0x3e172152	0.14758804
155	0xbd12b4b7	-0.035816874
156	0xbd1deafc	-0.038554177
157	0xbdb78382	-0.0896063
158	0x3d87037d	0.06592462
159	0xbdca1e75	-0.098690905
160	0x3d3bc349	0.045840535
161	0x3d3c6ed6	0.04600414
162	0xbe532123	-0.2061811
163	0x3d9efd54	0.07763162
164	0xbd9f054d	-0.07764683
165	0xbd454b92	-0.048167773
166	0x3bceb75c	0.0063084792
167	0x3ad1127c	0.0015950943
168	0xbde8e426	-0.11371641
169	0xbe516890	-0.20450044
170	0xbd363282	-0.04448176
171	0xbdc1a09d	-0.09454463
172	0x3d1d13b1	0.038348857
173	0x3d2979f0	0.041376054
174	0x3c681ca1	0.014166982
175	0x3db951e0	0.090488195
176	0x3df0365f	0.117291205
177	0x3d876119	0.06610317
178	0xbdd5e4b2	-0.10444011
179	0x3c284209	0.01026965
180	0x3e154405	0.14576729
181	0xbcacce2a	-0.0210944
182	0xbdcb8b7e	-0.099387154
183	0x3dba6029	0.09100372
184	0xbc1586dd	-0.009126392
185	0x3cfbde58	0.03074567
186	0xbe217862	-0.15768579
187	0x3c3fd79a	0.011709118
188	0xbdab5c12	-0.083671704
189	0x3cf43b4d	0.029813433
190	0xbda55896	-0.08073537
191	0xbdc67040	-0.09689379
192	0xbd063b27	-0.032771256
193	0xbde7e2d9	-0.11322565
194	0x3d11cb72	0.03559441
195	0x3d001533	0.031270217
196	0xbc7c8afb	-0.015413995
197	0x3d405653	0.046957325
198	0x3cef0193	0.029175555
199	0x3e01d12f	0.12677453
200	0x3d11664e	0.035497956
201	0x3dff5e2a	0.12469132
202	0xbd35cd61	-0.044385318
203	0xbc29e36f	-0.010369166
204	0xbe34ef5b	-0.17669432
205	0xbdb40166	-0.08789329
206	0xbdccbfdf	-0.09997534
207	0xbca1b5d5	-0.019740025
208	0xbda303f1	-0.07959736
209	0xbdeec01e	-0.11657737
210	0x3db2c626	0.087292
211	0x3d0b16d5	0.03395732
212	0x3d9b915f	0.07596087
213	0x3c3d0dc6	0.011538928
214	0x3de886c8	0.113538325
215	0x3d456a2b	0.048196953
216	0x3e17fecf	0.14843296
217	0xbe2db88f	-0.16964935
218	0x3d32dcb9	0.04366753
219	0xbcfecb82	-0.0311029
220	0x3db33b97	0.087516
221	0x3dc9f2e5	0.098607816
222	0x3c4ba5b3	0.0124296425
223	0x3e256155	0.1615041
224	0x3cd57fbd	0.026061887
225	0xbc81fcfe	-0.015867706
226	0x3d7ae3a8	0.061252266
227	0x3da336ce	0.079694375
228	0x3df22cd0	0.118249536
229	0x3dbd9077	0.0925607
230	0x3d82a19c	0.06378481
231	0x3d440159	0.047852848
232	0x3d0b83ed	0.03406136
233	0x3b88230b	0.004154568
234	0xbe0f3d32	-0.13988188
235	0x3ce129d5	0.027485767
236	0xbe166b78	-0.14689434
237	0xbcd00905	-0.025394926
238	0xbe1ceb61	-0.15324165
239	0x3dfa3f4b	0.122191034
240	0xbdaa0d51	-0.08303321
241	0x3d05a231	0.03262538
242	0xbd3bca18	-0.04584703
243	0x3cfc97a9	0.030834036
244	0xbd58c63d	-0.05292343
245	0xbe0a4ef6	-0.13506684
246	0xbd2d6338	-0.04233095
247	0xbd23213c	-0.039826617
248	0xbcbb6d85	-0.022879371
249	0x3c2e97e3	0.01065633
250	0x3cdc050c	0.026857875
251	0x3e013895	0.1261924
252	0xbdd41113	-0.10354819
253	0xbca39d10	-0.019972354
254	0xbd874ca7	-0.06606417
255	0xbc57700e	-0.0131492745

bias f4 [128]
0	0x3df2dbc4	0.11858323
1	0xbd8ad2ca	-0.06778486
2	0x3b629ab7	0.003457708
3	0x3b1a899b	0.0023580554
4	0xbdd82deb	-0.10555633
5	0xbcb6370b	-0.022243043
6	0x3ccb6052	0.024826203
7	0x3cb848f5	0.022495726
8	0xbdaf63b2	-0.08563937
9	0xbd874a16	-0.06605928
10	0x3c3b5265	0.011433219
11	0xbc3452db	-0.011006082
12	0xbd1b1eb3	-0.037871074
13	0xbd6cc97a	-0.05780933
14	0xbbe9cf4b	-0.007135307
15	0xbd4c5543	-0.049886
16	0x3cde2e0e	0.02712157
17	0xbcf19608	-0.029490486
18	0xbd1dca2b	-0.03852288
19	0xbc48e6fa	-0.0122621
20	0xbb46dbbc	-0.0030343374
21	0xbd96e0d9	-0.07367105
22	0x3c093966	0.008375501
23	0xbd584a54	-0.05280526
24	0xbd8a0329	-0.06738884
25	0x3d2d5f80	0.042327404
26	0xbcf7e514	-0.0302606
27	0xbd18f905	-0.03734686
28	0x3d8e81e1	0.06958366
29	0x3c1aa72c	0.009439271
30	0xbd744110	-0.05963236
31	0xbdf58447	-0.119881205
32	0xbd9f01bf	-0.07764005
33	0xbcf62125	-0.030045101
34	0x3d2f9409	0.042865787
35	0x3d17ada5	0.037030835
36	0xbe096396	-0.13416895
37	0x3d9cf7fa	0.07664485
38	0x3d1d3769	0.03838292
39	0x3d8aff6d	0.06787
40	0xbc96aa38	-0.018391714
41	0x3daa408e	0.08313094
42	0xbd46caab	-0.048533123
43	0x3c8a7583	0.016901737
44	0x3c96dff7	0.018417342
45	0x3c955eea	0.018233735
46	0x3b1a3626	0.002353081
47	0xbce9dbff	-0.028547285
48	0x3cf1cd17	0.02951674
49	0x3c8a38c9	0.01687278
50	0xbd30d909	-0.04317573
51	0xbca6ccf9	-0.02036141
52	0x3c34eeda	0.011043275
53	0x3d951180	0.072787285
54	0xbdad778e	-0.08470069
55	0x3d8064b4	0.062692076
56	0x3b9e80c7	0.004837129
57	0x3d63b9f6	0.055597268
58	0xbd8cef13	-0.06881537
59	0xbde132b7	-0.10996001
60	0x3e21357c	0.15743059
61	0xbd55f3d2	-0.05223448
62	0xbc815468	-0.015787318
63	0x3cac4358	0.021028206
64	0x3d885860	0.06657481
65	0x3d1f4037	0.0388796
66	0xbce9c266	-0.02853508
67	0xbc9094dd	-0.017649109
68	0x3de58976	0.11207859
69	0xbcf9ea54	-0.030507244
70	0xbd61636e	-0.055026464
71	0x3dbbec02	0.09175874
72	0x3d4cb49b	0.049976926
73	0xbd4d579f	-0.05013239
74	0xbd9e8f1f	-0.07742142
75	0xbd390d79	-0.045178864
76	0x3d04d7fa	0.032432534
77	0xbbb22d06	-0.005437496
78	0x3d7ac76c	0.06122534
79	0x3d7292e7	0.05922213
80	0x3cff2f98	0.031150624
81	0xbc95a161	-0.018265428
82	0x3d0752e2	0.033038028
83	0xbd4cd17c	-0.050004467
84	0x3d86be9f	0.06579327
85	0xbb244e89	-0.0025071225
86	0xbc89d85b	-0.0168268
87	0xbd1aede0	-0.03782451
88	0x3d3a95bb	0.04555295
89	0x3bc37f72	0.0059661204
90	0x3d758268	0.05993882
91	0xbcd97418	-0.026544616
92	0xbd9ea744	-0.07746747
93	0xbdaf6805	-0.08564762
94	0xbd385eb8	-0.045012206
95	0x3d27457f	0.04083776
96	0x3db86717	0.09004038
97	0x3de6ec41	0.112755306
98	0xbdfbbf93	-0.12292399
99	0x3cfd8455	0.03094689
100	0x3dfd3267	0.12363129
101	0x3d994d73	0.074854754
102	0x3d7deef5	0.061995465
103	0x3d1714e1	0.036885146
104	0xbd18d4c4	-0.037312284
105	0x3c683053	0.014171678
106	0xbd251d98	-0.040311426
107	0x3dcccb2c	0.099996895
108	0xbdb6980e	-0.08915721
109	0xbddcbadc	-0.10777828
110	0xbdcbc553	-0.09949746
111	0xbd87b7cb	-0.066268526
112	0x3d15cf0b	0.036574405
113	0x3d7f5d0a	0.06234459
114	0x3e05d6cc	0.1307022
115	0x3d765fa6	0.06014981
116	0x3d8cd7d9	0.06877107
117	0x3d97690b	0.07393082
118	0xbd12e9a9	-0.035867367
119	0x3dcb0bf1	0.09914387
120	0xbcba209f	-0.022720633
121	0xbcda319e	-0.026634987
122	0x3d383625	0.04497351
123	0xbd345343	-0.044024717
124	0x3da2ab10	0.07942784
125	0xba8640fb	-0.0010242754
126	0x3dc97482	0.09836675
127	0x3da7b9da	0.08189745

weight f4 [8, 128]
0	0x3d92cbc3	0.07167771
1	0x3d064723	0.032782685
2	0xbcfaf86f	-0.03063604
3	0xbc83d26e	-0.016091552
4	0x3b932308	0.00449026
5	0xbd86523f	-0.06558656
6	0x3d830a52	0.06398453
7	0xbd835267	-0.064122014
8	0xbd2d4ed5	-0.04231151
9	0x3d1b6d86	0.037946247
10	0xbd900a73	-0.07033243
11	0xbd2f0461	-0.042728785
12	0xbc1113ba	-0.008854801
13	0xbd0c5a26	-0.03426566
14	0x3d30acdd	0.043133605
15	0x3d30ada8	0.04313436
16	0x3db064ba	0.08612962
17	0xbcd5d709	-0.026103513
18	0xbc646fe5	-0.013942693
19	0xbd2df8b9	-0.04247353
20	0xbd115606	-0.03548243
21	0xbd8d3697	-0.06895178
22	0xba859bce	-0.0010193528
23	0xbc18120b	-0.0092816455
24	0x3c980c66	0.0185606
25	0x3c99799e	0.01873475
26	0xbbba3204	-0.005682232
27	0x3d66af7e	0.056319706
28	0xbd8b43bf	-0.06800031
29	0x3d57ecb6	0.05271598
30	0x3cfd20ce	0.030899432
31	0xbd4fab0e	-0.05070024
32	0x3d025d16	0.031827055
33	0xbc8e8a61	-0.017399969
34	0xbd87b310	-0.0662595
35	0xbb3d3da7	-0.002887586
36	0x3cacc0ef	0.021088092
37	0xbd270508	-0.040776283
38	0x3be478a5	0.0069723898
39	0xbd215f42	-0.039397486
40	0x3d02e6c2	0.03195835
41	0xbd85eaec	-0.065389484
42	0xbcdf6fd4	-0.027275003
43	0x3dc621f3	0.09674444
44	0x3bf5606e	0.007488302
45	0xbd813b8e	-0.06310187
46	0x3c950894	0.018192567
47	0xbd780de1	-0.06056011
48	0x3cd0ec83	0.025503403
49	0x3d36aaed	0.0445966
50	0x3c911667	0.017710878
51	0x3c3d033f	0.011536418
52	0xbd366572	-0.04453034
53	0x3d286d23	0.041119706
54	0xbbf05d37	-0.007335331
55	0x3db6d2f0	0.08926952
56	0xbc7f6668	-0.01558838
57	0xbb18f094	-0.0023336755
58	0x3be470f0	0.006971471
59	0xbcba36e9	-0.022731261
60	0xbd83fb69	-0.06444437
61	0x3c658aa3	0.014010104
62	0x3b4074d3	0.0029366508
63	0x3da16ead	0.07882438
64	0x3dc2510d	0.094881155
65	0x3d29a14e	0.041413598
66	0x3dd0ca65	0.10194854
67	0xbcece349	-0.028916972
68	0x3d6e6236	0.05819913
69	0xbdc8e451	-0.09809173
70	0x3d73f89a	0.059563257
71	0xbd18b05c	-0.037277564
72	0xbc87be41	-0.016570212
73	0xbcd22ede	-0.025657114
74	0x38f48b40	0.00011660764
75	0xbdd3d3eb	-0.103431545
76	0xbdcf6d15	-0.101282276
77	0x3cf62b44	0.030049928
78	0x3d9b9506	0.07596783
79	0xbd8d03b5	-0.06885473
80	0xbceed783	-0.029155498
81	0x3db706d6	0.08936851
82	0x3c561f3a	0.013068968
83	0x3aad6bf9	0.0013231031
84	0xbca93351	-0.020654352
85	0x3b5c2660	0.003359221
86	0xbd8379b8	-0.064197004
87	0xbc8784fd	-0.016542906
88	0xbd246e4b	-0.040144246
89	0x3c1a8337	0.009430698
90	0xbd386753	-0.045020413
91	0x3c3224da	0.010873044
92	0x3d8d77fa	0.06907649
93	0x3cd3e01b	0.025863698
94	0xbd1d9ec0	-0.038481474
95	0x3da81c86	0.082085654
96	0x3d101dad	0.03518455
97	0xbc8aa1ab	-0.016922792
98	0x3d392487	0.04520085
99	0xbcb5e88b	-0.022205612
100	0xbd9725ac	-0.07380232
101	0x3c5b6165	0.01338992
102	0x3db4691a	0.08809109
103	0x3d5cccf0	0.05390638
104	0x3ca5aca5	0.020223925
105	0xbd8ba0fb	-0.06817814
106	0x3c0c39d4	0.008558709
107	0xbd01590f	-0.031579074
108	0x3d1c3a0f	0.038141306
109	0x3d2d0222	0.042238362
110	0x3d0b1a84	0.033960834
111	0x3cf1b652	0.029505882
112	0x3c6648fb	0.014055486
113	0xbd0d639e	-0.03451883
114	0xbb851482	-0.0040612826
115	0xbd2278f6	-0.03966614
116	0x3c9a22c1	0.0188154
117	0x3db0f601	0.086406715
118	0xbc0df8d6	-0.008665284
119	0x3dbfe0d3	0.09369054
120	0x3b35220c	0.0027638702
121	0xbcd312ff	-0.025765894
122	0xbd3fa3ff	-0.04678726
123	0x3c1401d6	0.009033641
124	0xbcb29f20	-0.021804392
125	0x3caad6b1	0.020854326
126	0x3d3dd34f	0.046344098
127	0xbd0885b5	-0.033330638
128	0xbd158b64	-0.036509886
129	0xbd4f1139	-0.050553534
130	0x3d9ed519	0.07755489
131	0x3c18d8f4	0.009329069
132	0x3d572b03	0.052531254
133	0x3d77d6eb	0.060507696
134	0x3d7a1ee9	0.061064634
135	0x3d1d68d0	0.038430035
136	0xbd25eec0	-0.040510893
137	0xbc7c6193	-0.015404123
138	0x3d17fa70	0.03710407
139	0xbcb5aa53	-0.022175943
140	0x3cc43883	0.023952728
141	0x3cea2028	0.028579786
142	0x3b5836a1	0.0032991546
143	0x3c63fbaa	0.013914982
144	0xbd03ee6c	-0.0322098
145	0x3d6514b5	0.05592795
146	0xbd827e3a	-0.06371732
147	0xbdb3b201	-0.08774186
148	0x3c9e04e4	0.019289441
149	0xbd4c8b57	-0.049937572
150	0xbd8c148e	-0.06839858
151	0x3d6dc612	0.058050223
152	0xbd5ad01c	-0.053421125
153	0xbda321d8	-0.079654396
154	0xbb8c5ff8	-0.0042839013
155	0x3c9ccc52	0.019140396
156	0xbc30fcd5	-0.010802467
157	0x3cb291c5	0.021798024
158	0xbcbb0284	-0.022828348
159	0x3c46b439	0.012127929
160	0xbda8529d	-0.08218882
161	0xbb8e7e30	-0.004348539
162	0x3d20ce93	0.039259505
163	0xbb10688d	-0.0022034973
164	0x3cb043b7	0.021516664
165	0xbd9282a3	-0.07153823
166	0x3d0d3d3e	0.034482233
167	0x3d2cfb65	0.042231936
168	0x3c72b502	0.014813663
169	0xbcd71ed9	-0.026259826
170	0xbcbd432b	-0.023103317
171	0xbd24d71c	-0.040244207
172	0x3cb37f70	0.021911353
173	0xbd111349	-0.035418782
174	0xbd9fa9c2	-0.077960506
175	0xbdd311cb	-0.10306128
176	0x3da0c491	0.07849992
177	0x3d08b9b7	0.033380236
178	0xbcbe9016	-0.023262065
179	0x3db96d1a	0.090540126
180	0x3ce765c5	0.02824677
181	0xbd690fa9	-0.0568997
182	0xbd3c0b97	-0.04590949
183	0x3cef971e	0.029246863
184	0x3c83f183	0.016106373
185	0x3c12fa06	0.008970743
186	0xbc12df60	-0.00896439
187	0xbd9d5637	-0.0768246
188	0xbddbe0a5	-0.10736207
189	0x3c64230c	0.013924371
190	0x3db8f774	0.09031573
191	0x3d3be78c	0.045875117
192	0xbd6ea46b	-0.05826227
193	0xbd80f4cc	-0.06296691
194	0xbd25d4fa	-0.040486313
195	0x3c5b8235	0.013397743
196	0xbdd6bad8	-0.10484856
197	0xbd0cf20e	-0.03441053
198	0xbcce022b	-0.025147518
199	0x3d89ec6c	0.06734547
200	0x3c99c252	0.018769417
201	0x3c082db0	0.008311674
202	0xbda5d2cb	-0.08096846
203	0x3d02dcf7	0.03194901
204	0x3caf3ac4	0.021390326
205	0x3da3f7c2	0.080062404
206	0x3cc3245c	0.023821048
207	0xbd44dac0	-0.04806018
208	0x3c998f4e	0.01874509
209	0x3c072026	0.008247411
210	0x3da43034	0.080170065
211	0xbc732653	-0.01484068
212	0xbde00ab6	-0.10939543
213	0x3c05e6cd	0.008172703
214	0x384e92e0	4.9251015e-05
215	0xbd96eb44	-0.07369092
216	0xbceece3d	-0.029151076
217	0xbcbf1958	-0.023327515
218	0x3c9ffa53	0.019528544
219	0x3d53b650	0.05168754
220	0xbc1094c5	-0.008824532
221	0xbcdde71a	-0.027087737
222	0xbd3aad02	-0.04557515
223	0x3d7e2a2b	0.062051933
224	0x3d63cff5	0.055618245
225	0x3c5cabd1	0.013468699
226	0x3d85c06c	0.06530842
227	0xbd29a2fc	-0.0414152
228	0x3bf7c9ae	0.007561884
229	0x3d76c0c7	0.06024244
230	0xbd6e9b99	-0.05825386
231	0x3dd7ea82	0.10542776
232	0xbd8e9817	-0.069626026
233	0x3cbdbdb3	0.023161745
234	0x3cd4d970	0.025982589
235	0x3d0d8c10	0.034557402
236	0xbd5db41e	-0.05412685
237	0xbcb564b6	-0.02214275
238	0x3ca0e85b	0.019642046
239	0x3caa3653	0.020777857
240	0xbbea339a	-0.0071472647
241	0x3d353c56	0.044246994
242	0x3da15e57	0.07879322
243	0x3c9f98d4	0.019482054
244	0x3be30e6f	0.006929211
245	0xba2d54ab	-0.0006612043
246	0x3c49bfb4	0.012313772
247	0x3dcd3234	0.10019341
248	0xbd4bbd8b	-0.04974131
249	0xbcfa85ed	-0.030581439
250	0x3c97a86e	0.01851293
251	0x3d7e54bc	0.062092528
252	0x3d5557d6	0.05208572
253	0x3c89647d	0.01677155
254	0x3d76f3ad	0.06029098
255	0xbd37e24d	-0.04489355

bias f4 [8]
0	0x3d8bdc8e	0.06829177
1	0x3d64d3b5	0.055865962
2	0xbe07a0b6	-0.132449
3	0x3cc7cd0a	0.024389762
4	0xbde9a262	-0.11407925
5	0xbcd18d0f	-0.025579957
6	0xbd90730e	-0.07053195
7	0xbd98536e	-0.07437788
