results/transformations/mapping_files/VAE/FMNIST_VAE_8_3>FMNIST_VAE_8_1>NeuralNetwork_50_0.1_nodropout_128_convex_hull.pth (torch, 81146 bytes, 6 tensors)

weight f4 [128, 8]
000000 24 0c 5d 3e 58 e7 4d 3c 83 72 90 3d 71 e7 13 bc
       0.21586663 0.012567364 0.070530914 -0.009027348
000010 c6 bd df 3c 14 d5 f7 3d a3 d5 34 3c 17 88 11 3b
       0.02731217 0.12101188 0.011037263 0.002220636
000020 bc f7 dd bd 6e 29 03 3e 45 3f 40 be 0f b0 e3 bd
       -0.10838267 0.12808773 -0.18774135 -0.11117565
000030 4a 38 c0 ba 1e a2 99 bd 6c 86 4c 3c d0 fd 09 be
       -0.0014665213 -0.075016245 0.012483221 -0.13475728
000040 6a 07 56 be c1 58 4c 3e 97 d6 c4 bb 6a 0e 57 be
       -0.20901266 0.19955732 -0.0060070264 -0.21001592
000050 7f 51 b6 3d 81 62 4a 3c 3a 82 17 be b4 85 a6 3c
       0.08902263 0.012352587 -0.14795771 0.020327426
000060 2e 33 0f be ff 16 0d 3e 28 24 9c 38 10 5f 81 bd
       -0.13984367 0.13778304 7.445394e-05 -0.0631696
000070 bb 6e 4e be 6f 37 48 3c d5 f6 c0 bb bf ae 87 3c
       -0.20159428 0.012220248 -0.0058887997 0.016562818
000080 09 88 15 bb 6f 7f 8c bd 77 c2 e0 3a 14 2b 2b 3c
       -0.002281668 -0.068602435 0.0017147799 0.010447282
000090 7b 9c bf bb 32 68 14 bd a8 2d 4a be 99 ff 4b 3c
       -0.0058475113 -0.03623218 -0.19743979 0.012451076
0000a0 14 30 e2 bc 76 a4 69 bd ec c7 2d 3a 73 5b ea bc
       -0.027610816 -0.057041608 0.0006629217 -0.02860806
0000b0 94 aa 9c bc 26 dd 2d 3d 98 69 b6 bd c6 0a 37 3e
       -0.019124307 0.04244723 -0.08906859 0.17875203
0000c0 38 97 01 bd 89 15 39 be 16 88 57 be a6 f1 8d 3d
       -0.031638354 -0.18074621 -0.21048006 0.069308564
0000d0 c9 05 84 3d 7a e9 aa 3d ab 46 56 bb 89 72 59 3d
       0.06446416 0.08345313 -0.003269593 0.053087745
0000e0 8c 99 f9 bb bd cd 1b bd 52 07 13 3e 85 84 d0 3c
       -0.007617181 -0.038038004 0.14358261 0.025453815
0000f0 b9 97 46 bc 6a 66 85 3a 9d 30 f6 3d 6c 50 c7 3d
       -0.012121134 0.0010177616 0.12020991 0.09732136
000100 08 f1 c2 bd 99 3b 75 3b 49 0a 96 bc 0c f9 29 bd
       -0.09518629 0.0037419556 -0.018315451 -0.041497275
000110 19 ab 2f 3e 3e 25 37 be a9 f5 f7 bb ce f7 45 bd
       0.17155112 -0.178853 -0.007567127 -0.048332028
000120 80 7b 53 3e 2b 9b 54 be a0 c8 87 bd ff be 7d 3e
       0.2065258 -0.20762317 -0.06630063 0.2477989
000130 b8 9f ed bd 17 07 8a ba c9 12 8b 3c 12 ba a7 bd
       -0.116027296 -0.0010530677 0.01697673 -0.08189787
000140 57 ca 8f 3d c7 0d 31 3e ed 4c 9e bd 22 cd 08 bc
       0.07021015 0.17290412 -0.07729516 -0.008349689
000150 c8 57 0d bb b4 2a 3f be d1 69 08 bb 73 c0 4b be
       -0.0021567214 -0.18668634 -0.0020815025 -0.19897632
000160 86 a9 08 bd 3f b2 0b be b5 b8 ba bd fe 02 8c bd
       -0.033364795 -0.13642214 -0.09117261 -0.06836508
000170 73 54 0a 3e 4a f8 c1 3c b6 25 17 3e 02 24 4c be
       0.13508777 0.023677964 0.1476048 -0.19935611
000180 c7 5f 42 be 9e 65 6f 3b f6 b4 22 be 5f b7 2f be
       -0.18981849 0.0036529074 -0.15889344 -0.17159794
000190 75 b8 05 be c7 8f 86 bc 38 52 4c bb d8 a6 3d bd
       -0.13058646 -0.01642598 -0.0031176936 -0.046301693
0001a0 7f 1a bf 3c 4a 05 5c be 03 f5 46 3d 84 74 f1 3d
       0.023328064 -0.21486393 0.048573505 0.11789802
0001b0 5b de 42 3c 7b 62 89 bd e1 f4 f9 3c 3a ec d3 3d
       0.011893834 -0.06708237 0.030512275 0.10347791
0001c0 18 09 80 bd 1d 35 61 bd 0d 3f 2b bd da de 07 3e
       -0.062517345 -0.054982293 -0.041808177 0.13268605
0001d0 c6 2d 22 3e 36 2e 15 bd 5b 57 b2 3c ec d0 63 39
       0.15837774 -0.036421023 0.02177017 0.00021726236
0001e0 96 f8 ce 3c 63 29 2a 3e 91 f7 19 bc c2 68 cb bc
       0.02526502 0.1661735 -0.009397403 -0.024830226
0001f0 64 89 db bd 25 f7 91 bb 9e d9 54 bd 09 e1 87 bc
       -0.107195646 -0.0044545108 -0.05196535 -0.016586797
000200 06 fe e3 3a 67 dd 48 3c a0 7f 20 bc 30 8b 1d 3c
       0.001739443 0.012259818 -0.009796053 0.009615704
000210 94 97 9d 3a f5 15 c8 ba f0 bb 7a bd cc 8c aa b9
       0.0012023323 -0.0015265333 -0.061214387 -0.0003252983
000220 b1 3e 19 be 8b da ce 3c fd 92 4e 3e 4c fc 65 3e
       -0.14965321 0.025250694 0.20173259 0.22459525
000230 67 3c 00 3c d3 a5 46 bd 71 c3 37 be bb 17 88 3b
       0.007826901 -0.048497986 -0.17945649 0.0041532195
000240 43 43 e9 3d b5 e9 bc bd 5b 63 4f 3e cf c8 54 3e
       0.11389782 -0.092242636 0.20252745 0.20779727
000250 37 4d 12 3d de e6 fa bb 60 73 99 3c 18 c9 c0 3b
       0.03571817 -0.007656916 0.018731773 0.0058833472
000260 df a0 2e be fe eb 1a 3c 5f 9c 2d bc 7a 79 51 bd
       -0.17053555 0.009455679 -0.010596364 -0.05114124
000270 3a bf 3a be 8d d7 11 3d c0 63 dc bd 74 1b 5c 3d
       -0.1823701 0.035605956 -0.10761213 0.05373712
000280 32 c3 2c 3d 8a 80 18 3d b7 a7 84 3c 0a b7 57 3c
       0.04217834 0.03723196 0.016193254 0.0131661985
000290 7f 5a 3b 3e 75 b2 4c 3e f2 3b f3 3b 1d 31 83 bd
       0.1829624 0.19989951 0.0074229175 -0.06405852
0002a0 6d ac 4d 3e a9 e8 23 3e 82 b7 13 3a cf 6f 60 3d
       0.20085306 0.16006722 0.000563495 0.05479413
0002b0 b7 24 0f 3d f3 c2 8f 3c c4 11 f5 bb 26 36 0f 3e
       0.034947123 0.017549014 -0.0074789245 0.139855
0002c0 bc 05 aa bc a5 6a 3a be 0e e3 c0 bd fc f4 66 3c
       -0.020754687 -0.18204744 -0.09418307 0.014096495
0002d0 e7 ad 46 3e 17 8e 98 bc c4 90 f2 3b f4 0f 0a bd
       0.19402276 -0.018622441 0.0074025113 -0.03370662
0002e0 f9 d0 48 be 41 aa 79 bd 69 4d 1c 3d 1a fe 06 bd
       -0.19610967 -0.060953382 0.03815976 -0.032957174
0002f0 99 dd d2 bd b5 91 da bd af 52 46 3e 9d 43 21 3e
       -0.10296173 -0.10672323 0.19367479 0.15748449
000300 4a de 3b 3d cd 79 36 3e 08 1b 0d 3c b1 4b b3 bc
       0.04586629 0.17819901 0.008612402 -0.021886678
000310 60 8b f6 3d 31 f9 cc 3d 4a 4a 57 be 79 ae 40 be
       0.120383024 0.10008467 -0.21024433 -0.18816556
000320 16 bc 52 3e a6 38 f5 3d 24 e7 36 bd 14 6c 44 be
       0.20579562 0.119736955 -0.044654027 -0.19181854
000330 20 80 3e bd b8 b4 5c 3d b5 31 53 3c 8a 05 27 be
       -0.04650891 0.053883284 0.012890269 -0.16310707
000340 0e c4 de 3d 5a ab ad 3c 39 10 04 bc e4 b9 50 bc
       0.10877238 0.02119987 -0.008060508 -0.012739632
000350 ab 2d 98 bd 03 e0 60 3a e4 4c eb 3c 89 71 1f bc
       -0.074305855 0.0008578302 0.028723188 -0.009731659
000360 a8 ca 8f bc 25 d3 3b be 2f 55 ea 3c 44 76 66 3e
       -0.017552689 -0.18342264 0.028605072 0.22506052
000370 e0 98 fc 3d 2f d5 c2 bc 36 09 95 3d 44 48 bb 3b
       0.12333846 -0.023783294 0.072771475 0.005715402
000380 f5 19 a7 3c 06 2a 18 3e 78 99 59 bc 62 08 8e 3d
       0.02039812 0.1485978 -0.013281219 0.06935193
000390 c6 03 3f 3e 48 fe 9e ba 77 c8 92 ba 3b 52 fc 3c
       0.18653783 -0.0012130225 -0.0011198659 0.03080093
0003a0 c6 ff 41 bc 4b dc 1a be 57 d0 5a 3e a7 30 e8 3d
       -0.011840766 -0.15123098 0.21368538 0.11337405
0003b0 a0 b1 0c be bc 64 33 bd 8e a0 5d bc 67 91 0c 3e
       -0.13739634 -0.04379724 -0.013527049 0.13727342
0003c0 5c d9 4d be ba d3 6b 3c de 12 22 3d 59 a9 55 be
       -0.20102447 0.014393741 0.039568774 -0.20865382
0003d0 60 05 55 bd e2 02 02 bd c3 7c 22 be b7 74 4f 3d
       -0.05200708 -0.03174103 -0.15867905 0.050648417
0003e0 52 33 12 bc 27 c4 3b bd 4b ee 01 be da 12 b2 3c
       -0.0089233685 -0.045841362 -0.12688558 0.021737505
0003f0 70 34 04 3c 6f d2 3b bd 79 e5 45 be c2 c0 07 be
       0.008069143 -0.045854982 -0.19325818 -0.13257125

bias f4 [128]
000000 d4 67 c5 3a 47 3c b5 bc 53 39 39 3d b3 38 23 be
       0.001506085 -0.022123469 0.045220684 -0.15939598
000010 a6 b4 4f bd 31 3d 57 3c da aa 2b 3d 26 b4 23 be
       -0.05070939 0.013137148 0.041910984 -0.1598669
000020 6f c4 c9 3a ff bc a0 3d 00 e9 d2 3b f6 40 71 bd
       0.0015393625 0.07848548 0.006436467 -0.058899842
000030 d9 cc d2 bd bb ef 62 3d 21 4e af 3c f4 a5 f7 bd
       -0.10292978 0.055404406 0.02139956 -0.120922
000040 d4 5b a9 bd 99 5b 54 3e c7 db 03 bd 7c fe 10 3c
       -0.08269468 0.20738067 -0.032192018 0.008849736
000050 4f 23 23 3c 6e 36 09 3d 18 05 8e 3b a8 64 40 bd
       0.009957149 0.033499174 0.0043341033 -0.046970993
000060 53 e7 19 be b5 31 ab 3d 53 db e8 bd f5 c3 27 bc
       -0.1502965 0.0835909 -0.11369958 -0.010239591
000070 8f a2 3c be 47 a5 46 3e 6a f0 fd 3c db fe 2a be
       -0.18421386 0.19398986 0.030998427 -0.16698782
000080 2a 97 82 bd f8 b8 8c 3d d5 22 26 3e 78 88 a3 3d
       -0.063764885 0.068712175 0.16224225 0.07985014
000090 d1 bd 15 3d a7 1a 28 3e 0b f8 1b be 09 81 3e 3e
       0.036557976 0.16416417 -0.1523134 0.1860391
0000a0 79 33 2e 3d 81 30 d2 3d 15 d2 cb 3d 27 be 8a 3d
       0.042529557 0.10263158 0.09952179 0.0677455
0000b0 4e 5f 41 be ec a7 e2 bd f7 cf 92 bc 71 40 92 3d
       -0.18884012 -0.11067185 -0.017921431 0.071411975
0000c0 4a 44 4b be c7 35 6e 3b 6a c9 99 bd 92 96 54 be
       -0.19850269 0.0036347972 -0.0750912 -0.20760563
0000d0 7a 9f 1e be b2 55 4c 3d ca 08 a3 3d 5a 2d 3e 3d
       -0.15490523 0.049886413 0.07960661 0.04642997
0000e0 a9 81 e9 bd 3a 26 0d 3d 46 5b 31 3d 1f 15 fd bd
       -0.11401684 0.034460284 0.043299936 -0.12357544
0000f0 f4 a1 71 3d f5 e9 ed bd d5 57 3e be 56 65 26 3e
       0.05899234 -0.116168894 -0.18588193 0.16249594
000100 99 90 58 be d5 4b 93 3d 95 39 7a 3d 8e ea 33 3e
       -0.2114891 0.07192198 0.06109007 0.17569944
000110 e3 11 04 3e 17 17 ad 3c 8c d2 77 3d b3 bb 1a bd
       0.12897448 0.021129174 0.060503528 -0.03777666
000120 35 bd 84 3c ed 2b c4 3d 13 a5 0a 3d d3 97 15 be
       0.016203502 0.09578691 0.033848833 -0.14608698
000130 1e 72 26 3d 87 b2 ce 3c e6 fc ed 3c 76 9c 2a 3d
       0.040636174 0.025231613 0.029051255 0.04165312
000140 a4 1d 01 3e 59 bd 57 3d ff c9 ed 3c 21 e2 b7 3c
       0.12608963 0.05267081 0.029026983 0.022446694
000150 02 1d 8d 3d 84 14 58 be b8 6f 09 3d 9d b8 1e be
       0.068902984 -0.21101576 0.03355381 -0.15500112
000160 f5 14 b5 bd 0f 1e 65 3d a5 a8 ac 3c ec 76 09 be
       -0.08841888 0.05593687 0.02107651 -0.13424271
000170 bb bd 82 3c 65 89 97 bd 29 73 1f 3e 32 21 97 3c
       0.015959611 -0.07399253 0.15571274 0.018448446
000180 54 41 13 3c d0 6c c9 bd 81 ac 37 3d 49 66 5c bd
       0.008987743 -0.098352075 0.044842247 -0.053808484
000190 84 2b ea 3c 91 21 51 be 95 c3 f6 3c 14 61 72 3d
       0.028585203 -0.20422961 0.030122558 0.059174612
0001a0 a7 a4 4f be 34 87 09 3e 08 fc f3 3d 48 33 44 be
       -0.20277654 0.13430482 0.119133055 -0.19160187
0001b0 89 88 57 be 98 4d 3b 3e 58 25 3c be 3c dd f8 3d
       -0.21048178 0.18291318 -0.1837362 0.12151572
0001c0 b8 7c 05 be 98 64 a2 bd 0d f9 c6 3d 22 b6 9a 3b
       -0.13035858 -0.07929343 0.097154714 0.004721419
0001d0 c4 ea 74 3c 00 84 81 bd 8b e0 79 3d 33 c3 6d 3c
       0.014948551 -0.06324005 0.061005156 0.014511871
0001e0 83 b6 39 be c1 96 1e 3e f0 26 19 be 3f 41 37 3d
       -0.18136029 0.15487196 -0.1495626 0.044739958
0001f0 20 d8 72 3c b3 d3 bc 3c c5 e9 37 3e 1d 40 fa bd
       0.014822036 0.023050165 0.1796027 -0.1221926

weight f4 [128, 128]
000000 c3 ec 48 3a ef 75 d0 ba 1c a0 65 3c c8 5b d6 bb
       0.0007664675 -0.0015904288 0.014015224 -0.006541703
000010 fc 21 50 ba 1f 54 e2 bb 6a d9 06 bb 8f 33 d2 3b
       -0.00079396344 -0.0069070007 -0.0020576366 0.0064148377
000020 8a d2 0d 3b 64 30 65 bb fa 4c 8a 3b 9c 67 5f 3c
       0.0021640384 -0.003497147 0.004220602 0.013635542
000030 93 bf a5 3a 70 2b ca bb aa 1e 5f bc 4c c4 0c bb
       0.0012645595 -0.006169729 -0.013618151 -0.0021479307
000040 aa 0a 08 3b 5c 2e 1c 3b f7 66 84 bc 48 e8 57 3c
       0.002075831 0.0023831343 -0.016162379 0.013177939
000050 ab 18 2f 3c 6d 45 6f 3b c0 7b 1f 3b 5b ee e4 3a
       0.010687034 0.0036509887 0.0024335235 0.0017466055
000060 6e 4c 55 3b a3 7c 59 3c f3 9a 35 3c 8e b7 9b bb
       0.0032546776 0.013274345 0.011084306 -0.004752106
000070 04 53 7c 3a f6 00 d4 bb 47 e2 ba 3b 65 28 0e b9
       0.00096254074 -0.006469841 0.005703244 -0.00013557223
000080 3c bb 14 bb c2 16 8c ba f1 b1 82 3b 31 06 7e bc
       -0.0022694608 -0.0010687935 0.0039884974 -0.015504406
000090 ec e3 24 ba e2 cd 1b 3c 76 95 56 bc ba 09 d9 bb
       -0.00062900665 0.0095095355 -0.013097158 -0.006623474
0000a0 a2 9c 92 bb a8 46 76 3b cb d4 02 3c 48 88 fe 38
       -0.0044742385 0.0037578736 0.007985304 0.00012137048
0000b0 a0 35 2c 3a a4 7e 07 39 25 dc 80 3b a0 e7 3e 3c
       0.000656927 0.0001292178 0.0039324933 0.011651903
0000c0 19 ba 6c bb 65 43 c8 bb 00 5f cd 38 cf bd 2b 3c
       -0.0036121665 -0.0061115497 9.792857e-05 0.010482266
0000d0 48 1e 1a 3a 63 a7 b8 bb 0a c2 e5 3a 73 60 07 3c
       0.0005879146 -0.0056351884 0.0017529142 0.008262741
0000e0 f6 95 87 3a 50 5e 92 38 9c 00 b1 bb 25 bc 9b 3b
       0.0010344374 6.9793896e-05 -0.005401684 0.004752653
0000f0 81 4e ec 3a df 1a fe bb fd 01 08 bc 9a 76 66 3c
       0.0018028767 -0.007754668 -0.008301255 0.014066363
000100 fb 0d dc 3b 21 69 fb 3a 27 c0 17 bb f8 e1 2f bc
       0.006715534 0.0019181111 -0.0023155303 -0.0107350275
000110 92 e4 a1 3b 23 8c 0d 3b ab 1a 23 3c 2e 92 3b 3b
       0.004940578 0.002159842 0.009955089 0.0028621065
000120 4d 04 1b 3c 6f de da 3a 39 9e 7b bc c2 d8 be 3a
       0.009461475 0.001669837 -0.015357547 0.0014560448
000130 ca c9 ac ba 5b 7a ab 3b cf 72 0e bc 53 ba a6 3b
       -0.0013182696 0.005233092 -0.008694365 0.0050881295
000140 fa 7a 9d bb ef ff af 3a f3 4f 41 bc 02 58 8c 3a
       -0.0048059197 0.0013427715 -0.011798847 0.0010707381
000150 58 64 d6 ba 1d 83 88 3b 6d 29 e0 3b 07 54 2d bb
       -0.0016356809 0.0041660205 0.006840876 -0.002644779
000160 3e ad 3e 3c 0c 18 7e bb 97 20 b5 3a 2d ac e0 3a
       0.011637984 -0.0038771657 0.0013818917 0.0017141156
000170 78 c4 f0 3b 56 2e 3f bc 4a 13 b1 3a c4 3a 7b 3b
       0.0073476397 -0.011668762 0.0013509777 0.0038334588
000180 45 6d 73 bb b8 39 3f 3b aa 3a 1a 3a f8 aa e6 b8
       -0.0037143987 0.002917869 0.00058833754 -0.000109991
000190 47 3b 44 3c 06 c0 96 bb 10 d7 0f 3b df 43 2c 3c
       0.011977023 -0.0046005277 0.0021948256 0.010514229
0001a0 cb 48 2a 3b b3 23 4a 3c 68 ee 0c 3c e0 fd 13 3c
       0.002598333 0.012337613 0.008601762 0.0090326965
0001b0 10 74 f4 39 98 b6 fd 3b 7c 66 a1 bb 82 fc 00 ba
       0.0004662578 0.007742714 -0.004925547 -0.0004920439
0001c0 2c f8 1f bc 95 92 a2 bb 89 bc 12 3c 80 90 27 b9
       -0.009763759 -0.0049613216 0.008956083 -0.00015980192
0001d0 a6 2b d7 b9 84 67 e7 3b 97 3c 0f ba 16 7b 16 3b
       -0.00041040516 0.0070619006 -0.00054640457 0.0022961549
0001e0 47 d7 e9 3b 2d 64 4e 3c 3c 92 db ba 74 f0 c4 ba
       0.0071362588 0.012597126 -0.0016751955 -0.0015025274
0001f0 16 69 67 ba a0 1c bb ba 72 fd cd 3b de 2c 2b bb
       -0.00088276097 -0.0014275499 0.0062863166 -0.0026119272
000200 a6 cd 82 bc 18 53 12 b9 36 9b 78 bc 9e a8 57 bb
       -0.015967201 -0.000139546 -0.015173724 -0.00329069
000210 11 78 26 bb 3e af 13 bb 13 41 12 ba 8d 0f 20 bb
       -0.0025401155 -0.0022534872 -0.0005579155 -0.0024423331
000220 e4 60 aa 3a 28 69 e9 3c 46 13 2b 3c 1a 68 c9 3b
       0.0012998846 0.028492525 0.010441607 0.006146443
000230 3b 26 57 bc 85 88 a9 3a e6 bb 08 3c 14 f6 34 bb
       -0.013131673 0.0012934363 0.00834558 -0.0027612494
000240 5e dd de b8 c2 d4 86 3c 38 f0 90 3b 19 3b d3 ba
       -0.00010627018 0.016458873 0.0044231676 -0.0016115635
000250 8b 1d 0c bc ba ca 2b bc fb af 63 3c 0e 1e 91 ba
       -0.0085519655 -0.0104853455 0.0138969375 -0.0011071579
000260 5e 60 93 bb ea 4f 5e bc 3a 80 44 bc bd 8a be 3c
       -0.004497572 -0.013568858 -0.011993462 0.023259515
000270 5d e4 49 3c ca d6 10 bc a9 0d bc ba 15 c3 50 3b
       0.012322512 -0.008840272 -0.0014347333 0.003185456
000280 ec ac 0d ba 42 3e 79 bc 3d ed c9 bb 64 ce e5 3c
       -0.00054044905 -0.015212597 -0.006162314 0.028052516
000290 1e 7e ca ba a2 e2 a6 3b dd 55 ab bb 01 7d 32 3c
       -0.0015448963 0.0050929347 -0.0052287416 0.010894061
0002a0 78 ff 28 bc de 18 05 3c 34 30 d7 bb f8 5f c3 3b
       -0.010314815 0.008123605 -0.0065670256 0.005962368
0002b0 36 b1 9d b9 91 40 8f bb 45 32 2c bc 76 5f 7f bc
       -0.00030077406 -0.0043717106 -0.010510032 -0.0155867245
0002c0 6d fe ec 3b 55 b5 b3 3b e7 77 82 3c bd b1 95 bb
       0.0072324784 0.005484263 0.015926315 -0.004568307
0002d0 ce 32 f9 3b 7a 5c b8 3b 71 7e 7d 3c 29 bd e9 bb
       0.0076049333 0.0056262584 0.0154720405 -0.0071331454
0002e0 d5 a0 96 3b 9b ea 6e bb 96 33 13 3a 8b d4 93 3a
       0.0045968094 -0.0036455754 0.0005615292 0.0011278553
0002f0 14 c8 72 bb c1 4b 4a ba 58 6c 97 b8 a8 d0 0e bc
       -0.0037045525 -0.00077169767 -7.220422e-05 -0.00871674
000300 91 76 94 3c ca 7c 29 3c fc d0 3f 3c 0f 98 c1 3c
       0.018122943 0.010344693 0.011707541 0.023632078
000310 04 4f 23 ba 57 0d 4c 3c 8e 61 e0 b6 38 46 28 bc
       -0.0006229731 0.012454352 -6.687077e-06 -0.010270648
000320 e6 28 6c 3c c2 19 c7 ba e2 7e 5d bb 28 9f da 3a
       0.014414048 -0.0015190172 -0.0033797552 0.0016679512
000330 0e 27 85 bb 9e d6 ab 3b 59 a9 ef bb 77 13 7a 3c
       -0.0040634936 0.00524409 -0.007313889 0.01526343
000340 b6 cc 57 ba 00 33 a5 bb 6f 25 16 bc b7 c9 8b 3b
       -0.00082321034 -0.00504148 -0.009164198 0.0042659896
000350 3d 96 03 bc 84 26 05 3c 64 48 89 bc c0 65 3e bb
       -0.008031425 0.008126859 -0.016758151 -0.0029052347
000360 c1 58 9c bb 23 58 00 3c ec ba c4 39 c2 21 3a 3b
       -0.0047713225 0.007833513 0.000375233 0.002840147
000370 45 d4 11 3c fd 1a f2 bb d4 0c 07 3b ae 64 76 3b
       0.008900707 -0.007388471 0.0020607011 0.003759663
000380 45 fc 61 bc 0b c5 49 3b 9f 06 d0 3b 34 c5 df 3b
       -0.013793056 0.0030787613 0.0063484455 0.0068289284
000390 26 1c 16 3b 2f f3 fb ba 12 d4 8d 3c 56 7f 4c 3c
       0.0022904961 -0.0019222255 0.017313037 0.012481531
0003a0 52 dc 09 bc dc b7 26 ba ce f0 b8 bb ec cb f8 3a
       -0.008414345 -0.00063597946 -0.0056439405 0.0018981672
0003b0 53 da 2e 3b 36 eb 4b bc 89 19 2d 3c 8d 75 99 3c
       0.0026680424 -0.012446215 0.01056517 0.01873281
0003c0 a3 e0 24 bc ea 3a d5 3b 3d 79 1f bc af 1b a2 bb
       -0.010063323 0.0065072672 -0.009733495 -0.004947148
0003d0 23 bc 50 bc 02 c2 88 bc b4 64 87 ba 7a 8f 82 3a
       -0.012740168 -0.016694073 -0.0010329694 0.0009960972
0003e0 9c 71 0f bc 00 6e a8 bb d3 8d 50 3b 7a 70 56 3b
       -0.008755114 -0.005140066 0.0031822815 0.003272085
0003f0 21 f6 f4 bb c4 57 27 bc c2 99 24 3c 30 12 df ba
       -0.00747563 -0.010213796 0.010046424 -0.001701897

bias f4 [128]
000000 51 4c 98 ba 86 e9 92 3b 7a d7 88 3c 8a c8 26 3a
       -0.0011619424 0.0044834046 0.01670431 0.000636228
000010 76 1d 89 3b 13 af 7a 3d 71 42 42 3d 69 a4 32 3d
       0.00418442 0.06120212 0.047426645 0.043613825
000020 3a ed 6e 3b 54 3d cc ba 5c 24 a3 3c a9 5e 09 3d
       0.0036457316 -0.0015582242 0.019914798 0.03353754
000030 5c 5a e6 3c 94 3d 14 3d fa 1c e2 ba 8a 92 75 3d
       0.028119259 0.036191538 -0.0017251067 0.059954204
000040 3d 4f 1c 3d 15 68 a3 3d 58 5f 23 3d 5a 15 50 3a
       0.038161505 0.079788364 0.03988585 0.0007937752
000050 90 17 0e 3d 3a f2 71 3b 0c 38 8f 3d b3 ca c7 3c
       0.03469044 0.003691806 0.06993112 0.024388647
000060 1c 14 59 3d 8e ca 25 bc 27 dd 2b 3d fd 41 d5 3c
       0.052997693 -0.010119094 0.041958954 0.026032442
000070 d3 64 a2 3c 4e da 36 3d 18 7d 69 3b 54 1e 2e 3c
       0.019823467 0.044641785 0.003562754 0.010627348
000080 0f 6d 0b bc 45 3b 0f 3d 61 b8 58 3d ba da 95 3c
       -0.008509888 0.034968633 0.052910212 0.018292774
000090 26 58 06 3d b8 3e 70 3c f2 fa 02 bc 63 79 06 3a
       0.03279891 0.014663391 -0.0079944 0.00051297824
0000a0 54 2f 96 3c 9c a3 29 3d 65 7a 8f 3c a0 6f 57 b9
       0.018333115 0.041415796 0.017514417 -0.00020545581
0000b0 51 9a 00 3c da 3f a8 3d 17 40 79 3c 1e d7 48 3b
       0.007849292 0.08215304 0.015213034 0.0030645798
0000c0 81 97 e3 3c fe 34 a3 3c a6 b7 3b b9 02 c6 1e 3c
       0.027782204 0.01992273 -0.00017902124 0.009690763
0000d0 38 ff 7a 3a d7 e6 62 3a 63 34 0c bc 20 2e c0 3b
       0.0009574774 0.00086556136 -0.008557412 0.0058648735
0000e0 50 c5 42 3d dc 2a 1e 3d 11 e0 9a 3c cd 39 d8 3b
       0.047551453 0.038615093 0.018905671 0.0065986873
0000f0 f7 6f 31 3b 48 5c f4 3c 3a dd b8 3c 80 eb 60 3c
       0.0027074793 0.02982916 0.022566427 0.013728023
000100 f3 eb 93 3b 4c 12 3a 3c 2c f2 63 3c 5e b4 3e 3d
       0.0045142113 0.011356901 0.013912719 0.04655873
000110 d8 07 f8 3b 26 8b fa bb 6e 6c 90 3d 3a 1c 81 3c
       0.0075692944 -0.0076459823 0.07051931 0.01576053
000120 5a fa 32 3a 08 92 df bb 3d 4c 27 bc 8a 35 41 3d
       0.00068274664 -0.006822828 -0.010211048 0.0471702
000130 b4 76 19 3d c6 b7 12 3c 19 74 ca 3b 39 2b bf 3c
       0.03746672 0.008954948 0.0061783907 0.02333604
000140 c3 a4 1b 3d f8 a0 f0 39 79 f1 11 3a da 77 ad 3d
       0.037998926 0.00045896298 0.0005567293 0.084701255
000150 27 5b ef 3c df 98 87 3d 99 35 1d 3d b1 05 a4 3d
       0.02921827 0.06620955 0.038381193 0.08008898
000160 94 3d 5c 3b f8 a4 14 3d 4e 56 a4 3c 3e 56 2a 3d
       0.003360604 0.03629014 0.020060685 0.041586153
000170 ca 08 f1 39 f9 1a 9b 3c de b0 24 3d 6a 35 5c 3c
       0.0004597365 0.01893376 0.040207736 0.013440469
000180 a4 f6 3f 3c d3 89 4f 3d 71 c1 5d 3d 30 e3 dd 3c
       0.011716519 0.05066855 0.05413956 0.02708587
000190 47 a9 9d 3c 0a bc 18 3d 7f ed af 3c 1a 55 c9 3c
       0.019245757 0.037288703 0.021475552 0.024576712
0001a0 57 13 2f 3d 76 da 9a ba 5e cc 74 3c 7c fc 36 3d
       0.042743053 -0.0011814374 0.014941303 0.04467438
0001b0 22 9b ff bb 25 ac 9d 3c 15 6a b1 3b 18 c3 85 3c
       -0.0078004757 0.019247124 0.0054142573 0.01632838
0001c0 40 2f 42 3c 0a cb d9 3c ef 14 97 3d 47 a0 dc 3b
       0.011852086 0.026586074 0.0737704 0.0067329737
0001d0 27 6f d7 3c d5 ea f2 3c 3c eb 02 3c 8f d0 80 3d
       0.026298119 0.029652992 0.007990655 0.062897794
0001e0 63 15 c8 3b 49 95 3a 3d a8 9e 0b 3c 93 c3 de 3d
       0.006106065 0.045552526 0.008521713 0.108771466
0001f0 09 cc 82 3c 08 12 0c 3d a3 2f d3 3c 49 3a 18 3d
       0.015966432 0.034196883 0.02577955 0.03716496

weight f4 [8, 128]
000000 ba ba 06 3d 2e 8f 5e bd 20 4c 97 bd 64 b3 41 bc
       0.03289292 -0.054335766 -0.073875666 -0.011822555
000010 a0 d6 ae 3c a0 3d 2f be 81 d5 09 3e a0 fb ef 3d
       0.021342576 -0.17113352 0.13460352 0.117179155
000020 c7 a1 10 bd 8a bc 6e bc a2 f3 6a 3d 97 bf ec bd
       -0.035310533 -0.014571318 0.057361253 -0.1155998
000030 99 f2 6c bd a0 5e 03 be 4b 7c 35 bc fb d5 69 bd
       -0.057848547 -0.12829065 -0.011076997 -0.057088833
000040 81 1a fc bd 81 a5 09 3e 0c e9 a7 3d 22 ae c6 bc
       -0.12309743 0.13442041 0.08198747 -0.024252955
000050 05 ec 48 be 1e d1 54 3c 22 1c 96 3d f2 27 7d 3d
       -0.19621284 0.012989311 0.07329585 0.061805673
000060 5d c2 34 3e b0 80 3b bb c7 c1 23 be 42 c6 46 ba
       0.17652269 -0.002861064 -0.15991889 -0.00075826433
000070 10 f5 24 be 4a b7 33 be 92 ac b1 bd 11 ae 35 bd
       -0.16109109 -0.17550388 -0.08675493 -0.044355456
000080 94 93 3a bc 1b 28 26 be 11 eb 8a 3d 9e 51 1e 3d
       -0.011387724 -0.16226237 0.067831166 0.038652055
000090 64 5c d2 bd 61 33 2c 3d 2c e1 db bc 00 a9 8b bb
       -0.10271528 0.042041186 -0.026840769 -0.0042620897
0000a0 e4 ee d2 bb ee 78 45 be 43 be 5a bd 0f 20 2c 3b
       -0.0064371694 -0.19284412 -0.053404104 0.0026264226
0000b0 09 f5 06 bd 85 bd 40 be 30 f9 87 bd 6d df f4 bd
       -0.032948527 -0.18822296 -0.066393256 -0.119566776
0000c0 ab b4 11 be 9e b6 24 3d 7f b0 47 bc a8 c6 bd bd
       -0.14229076 0.04021322 -0.012188076 -0.09266406
0000d0 bd 0b e7 3c 63 1e c4 bd 85 7e 8e bd d7 dc 36 3d
       0.02820384 -0.09576108 -0.069577254 0.044644203
0000e0 5e e5 8b 3d c5 fd 23 be c9 bf 98 3c 67 f5 26 bd
       0.06830858 -0.16014774 0.018646138 -0.040761378
0000f0 8e 17 eb bb 8b 34 a4 3d 90 b7 35 be a9 be b7 3b
       -0.007174439 0.08017834 -0.17745805 0.0056074453
000100 7e c6 6f 3c 90 d9 93 3b b7 7f ab 3c 56 9d ae 3d
       0.014634727 0.0045120195 0.020934923 0.08526103
000110 6e a6 b3 bd 25 77 88 bd 1f 6b 3b 3e 19 a8 5d bb
       -0.08771978 -0.0666335 0.18302582 -0.0033822118
000120 28 ad 4f ba 69 07 be bc 15 e0 dc bb 25 c1 84 bd
       -0.00079222256 -0.023196893 -0.00674058 -0.06482152
000130 bd 0d a0 3d e2 22 70 bd d4 46 20 3b 05 33 ce 3d
       0.0781512 -0.058627017 0.002445628 0.10068325
000140 bb c2 51 bc 85 53 7b bc 24 09 c8 bb 12 47 35 3e
       -0.012802775 -0.015339737 -0.0061046053 0.17702892
000150 2c de 6d 3c 06 db 09 3e a9 41 db 3d 15 c6 fd 3d
       0.014518302 0.13462457 0.10705883 0.12391297
000160 c5 09 7d bd 20 81 88 3d 67 f0 ba 3c 5d 3b f8 bd
       -0.061776895 0.06665254 0.02281971 -0.12120698
000170 b8 c6 30 bd 6b 24 50 3d d4 68 66 3b 60 80 8b bd
       -0.043158263 0.05081598 0.0035157697 -0.06811595
000180 dd 0d 6f ba ee 4b fe 3d 35 85 14 3e 20 89 e0 bd
       -0.0009119192 0.12416826 0.1450394 -0.109636545
000190 d4 f8 cb 3b c2 4c 6c bd 00 d5 1a 3d ac 89 33 3d
       0.006224731 -0.05769039 0.03780079 0.043832466
0001a0 e6 03 98 bd 8d 83 44 bd 89 44 b6 3d a7 a0 80 bd
       -0.074226186 -0.04797702 0.08899791 -0.06280642
0001b0 ad d4 e9 bb 4f dc 50 3b c0 47 4d 3c 2a 80 04 3d
       -0.0071359486 0.0031869595 0.012529314 0.03234879
0001c0 47 a7 ad bd e4 5d e6 3c 5c 4e 2e 3e f9 2e 4f 3c
       -0.08479171 0.028120942 0.17022079 0.0126454765
0001d0 4b 83 6a bd b7 3d aa 3d 30 c0 fd bb d4 25 75 bd
       -0.057254117 0.083125524 -0.007743858 -0.05985053
0001e0 3d 33 08 3d 0a 6e 20 be 25 d6 58 bd 36 bb 04 3e
       0.03325199 -0.15666977 -0.0529386 0.1296204
0001f0 77 cb a9 3c af 61 f4 bd 5a 7d 86 bd c3 9c 3f be
       0.020726902 -0.11932694 -0.06566878 -0.18712144
000200 a0 34 63 3b 60 9f 7e 3a 09 a7 09 bc 62 80 75 3c
       0.0034668818 0.000971308 -0.008401641 0.014984222
000210 df 60 50 bb f2 78 0f bd de bd 31 bd 15 cb 0e 3b
       -0.003179602 -0.03502745 -0.043393962 0.0021788527
000220 49 95 92 bb d8 fd 80 bb 48 dd 62 bb 43 7b da bb
       -0.0044733626 -0.0039365105 -0.0034616757 -0.006667526
000230 ff 89 b6 3c aa 2d 83 b9 2b 78 fc 3a 3d e2 b9 3c
       0.022282599 -0.0002502029 0.0019261887 0.022690887
000240 d1 b7 62 3c 9a da 32 3c f7 9f ad ba fe ec 86 3b
       0.013837771 0.0109163765 -0.0013246526 0.004117607
000250 30 be e8 bc cc 78 fc 3b dc 36 c7 3c 5a 10 84 bc
       -0.028411001 0.00770483 0.024318151 -0.016121078
000260 06 28 51 bd 0c 7f 5e 3b f7 d8 21 bc 4d cf 58 bc
       -0.05106356 0.0033950238 -0.009878389 -0.013233018
000270 bd d5 26 bd b5 f2 b7 bc 0b 25 d7 bb 51 ea a4 bb
       -0.04073118 -0.022454599 -0.006565695 -0.0050328155
000280 27 5d d6 ba 88 9d e6 bb 1d 2b 21 3d f4 66 1c 3c
       -0.0016354666 -0.007037822 0.039347757 0.00954603
000290 16 ba 9d bc d2 43 1e bb 41 8f 51 bc 8d 66 d6 3b
       -0.019253772 -0.002414931 -0.012790502 0.0065429867
0002a0 f4 62 0e bc d1 20 a1 bb e2 35 82 3c ec d3 22 3c
       -0.008690584 -0.004917242 0.015894834 0.009938221
0002b0 e5 74 cc 3b 4a c6 53 bd 9d 2d dd 3b 69 19 39 bc
       0.006239521 -0.051702775 0.0067498223 -0.011297562
0002c0 7b 65 a2 bc 71 d4 fe 3a 55 96 c7 3a 77 dd 3a bc
       -0.01982378 0.0019441975 0.0015227298 -0.01140534
0002d0 82 f0 27 3a 21 0a 2c bc d5 51 20 bb 5e 4c c6 3b
       0.0006406383 -0.010500462 -0.0024462838 0.006051584
0002e0 14 8b d1 bc b1 39 f0 bb 90 08 aa 3b 8c d3 a3 ba
       -0.025579013 -0.007331096 0.005189009 -0.0012498959
0002f0 61 a5 16 ba 86 f0 7c 3b 1c 2a 80 bd 6a a3 ca 3b
       -0.0005746689 0.0038595512 -0.06258032 0.0061840313
000300 db df 13 3c 82 47 c3 3b 02 8e a5 3c 8a ef 9b bb
       0.009025539 0.005959452 0.020209316 -0.00475878
000310 d2 68 a3 3b 31 03 1c bb 0d 56 87 bd fd cb 9b ba
       0.004986861 -0.0023805613 -0.0660821 -0.0011886355
000320 b7 b8 82 3c 81 95 03 3c cc 6e e8 bb 77 62 54 ba
       0.01595722 0.00803125 -0.007093286 -0.00081018306
000330 9c 90 b5 3a 85 17 72 3a 5f 8b 8a 3c 5e 5f 68 bb
       0.0013852301 0.0009235072 0.01691216 -0.0035457234
000340 16 40 77 3c 8d a2 13 3b 7c ee 8c 3a cb 45 24 3c
       0.015090963 0.0022527308 0.0010752226 0.010026406
000350 cc 3f 14 bc 14 3b a9 bd 87 ff 18 bc ff 92 8d 3c
       -0.0090484135 -0.082632214 -0.009338266 0.017282007
000360 60 e1 72 3a 47 dc 6e bb 8b cb 12 3b f8 12 c7 3b
       0.0009265151 -0.0036447213 0.0022399153 0.0060752593
000370 c2 55 36 ba 52 b1 84 bc 03 9c a6 3c bb b5 db 3c
       -0.0006955528 -0.016197834 0.020338064 0.026820054
000380 e7 cc 8e 3c 27 5e 93 3b c3 1f 66 bc 08 cf 99 bc
       0.01743169 0.004497308 -0.0140456585 -0.018775478
000390 1a cd 7d 3b e3 01 76 3c 70 d2 f3 bb a8 69 7d bb
       0.0038726986 0.015015098 -0.0074408576 -0.0038667712
0003a0 a8 84 23 3d ef 27 e7 3b 8e 24 bc bc 80 84 1d bd
       0.039921433 0.007054321 -0.02296665 -0.03845644
0003b0 9f a6 73 bb 42 cd a5 3c 68 fb 16 3c 6d 9e b7 3b
       -0.0037178171 0.020239476 0.009215213 0.0056036026
0003c0 d6 ef 2e ba ef 69 80 3c 10 7c d3 bd ca 97 bf 3b
       -0.00066733116 0.015675513 -0.103263974 0.005846952
0003d0 d6 1f c9 bb ba f3 08 3b 84 74 2f 3c 5c ca 00 bd
       -0.0061378283 0.0020897225 0.010708932 -0.031442985
0003e0 c6 ab a2 3a d8 7f 1f bd 6a 45 63 bb bf 97 18 3c
       0.0012410812 -0.03894028 -0.0034678825 0.009313523
0003f0 2c f1 f9 bb a3 ca 69 bc 6f a6 82 3c de 17 fe bc
       -0.007627627 -0.014269504 0.015948502 -0.03101724

bias f4 [8]
000000 f1 20 cb 3d 0e e4 3b bd 08 55 66 3d d1 43 40 3d
       0.099183924 -0.045871787 0.056233436 0.046939675
000010 0e ec 8c 3c f1 5b 27 bd d3 24 a2 bc f7 78 1a 3d
       0.017202403 -0.040859167 -0.01979295 0.037713017
