results/transformations/mapping_files/VAE/FMNIST_VAE_8_3>FMNIST_VAE_8_2>NeuralNetwork_100_0_nodropout_128_convex_hull.pth (torch, 81136 bytes, 6 tensors)

weight f4 [128, 8]
0.23128375 0.3306691 -0.08411479 -0.35194537 -0.34037718 0.14062218 0.07868003 -0.32587427
-0.14222199 0.03603586 0.2343829 0.243961 -0.3125669 -0.030536247 -0.069059916 -0.122134104
0.08904241 -0.22000204 0.3839334 0.11358728 -0.15873237 -0.29581964 -0.2974506 -0.2994614
0.09435552 -0.023488555 0.35877365 -0.34527978 0.06836357 0.15263402 0.061566375 -0.28475
-0.41246206 -0.3165395 -0.28423575 -0.028572232 0.15311682 0.23631932 0.013178975 0.26634338
-0.35251093 0.18131688 -0.1705441 -0.092664376 0.1298151 0.22745106 -0.203157 -0.021199489
0.4099641 -0.28224444 0.021037983 -0.28609335 -0.22617312 -0.2826127 0.028676815 0.26530063
-0.28835547 -0.14741492 0.1549138 0.17413753 0.24567845 0.079670444 -0.2994028 0.30004495
-0.33932936 -0.21225664 -0.16815989 -0.24121682 0.24022919 -0.11813876 -0.2715319 -0.36223796
0.043029055 -0.28798723 0.21472478 -0.16386901 -0.17819133 0.09865955 -0.10931223 0.25447965
-0.33410913 -0.033673257 0.21061783 -0.28104082 0.052978266 0.10559496 -0.19327216 -0.2411806
0.36834052 -0.32389408 -0.37481347 0.3433392 0.01407502 -0.11831272 -0.1253076 -0.07007103
-0.06573003 -0.16965628 -0.32522964 -0.029126382 -0.09922969 -0.35662878 -0.18955278 -0.15498918
-0.17920113 -0.21217461 0.01941821 0.11461861 0.16683336 -0.17331587 -0.19617657 0.086457625
-0.35815853 -0.09428737 -0.14556071 -0.26329377 0.1616721 0.15944746 -0.20779298 0.34220654
-0.33893463 -0.032868136 -0.27519158 0.30986732 -0.31693837 -0.19912802 0.26710132 -0.15320854
0.34431323 -0.38125908 0.018396001 0.07711619 0.42217052 -0.09500646 -0.16064717 0.22936559
0.2861997 0.097697 -0.34599558 -0.32653403 -0.17774117 0.078106634 0.0040988317 0.030226985
0.07514119 0.2288033 -0.069071315 0.2906387 -0.1869021 -0.22865374 0.10850841 -0.14016776
0.30572724 -0.3453808 -0.13021919 -0.12794489 -0.09706087 0.058477085 0.23215319 -0.22717309
0.19398884 -0.3102523 -0.35355824 0.34859034 -0.12372534 0.022310093 -0.21247162 0.10847835
0.19236785 0.1465055 0.36667958 0.22776392 0.32636535 -0.014676069 0.07161053 0.13216731
-0.09127262 0.35438278 0.27070773 -0.28002045 -0.34001756 0.34261212 0.22589253 -0.041927867
0.14003487 -0.11500893 0.042258944 0.2548749 -0.2714891 0.20253716 0.17513442 0.28349963
0.2789331 -0.29414934 0.22856122 0.119432285 -0.053034578 -0.15857379 0.18668173 0.13704866
-0.2626894 0.32510036 0.39342883 -0.065464206 0.29629117 0.30296478 -0.3015867 -0.3013542
0.037148368 -0.2099521 -0.10232107 0.22468756 0.13763799 -0.21043812 0.3864625 -0.12432217
-0.1589337 0.04163974 0.029361881 0.14323074 0.18090898 -0.28560466 0.07998415 0.36120555
0.25496662 -0.31747755 0.36772895 -0.002354038 0.31950703 0.1650208 0.11112815 0.007914511
-0.21845962 0.27356637 0.34724718 0.27029547 -0.25203976 -0.14195488 0.19384056 -0.024393475
-0.21108995 -0.17724824 -0.16805467 0.25149265 0.21267973 -0.1683268 0.2994748 0.112356074
-0.27119675 0.07355754 0.16543233 0.24893072 -0.2680522 -0.13959737 0.3449786 -0.2396546
00000000: a6d5 6c3e 764d a93e 6044 acbd 2f32 b4be
00000010: eb45 aebe 43ff 0f3e ff22 a13d fed8 a6be
00000020: a4a2 11be 579a 133d 1202 703e ead0 793e
00000030: c508 a0be 2727 fabc 496f 8dbd 7221 fabd
00000040: de5b b63d 3748 61be eb92 c43e 73a0 e83d
00000050: bd8a 22be ac75 97be 724b 98be 0153 99be
00000060: 783d c13d 126b c0bc 2eb1 b73e 83c8 b0be
00000070: 3302 8c3d 184c 1c3e 062d 7c3d c1ca 91be
00000080: 3a2e d3be 7711 a2be 5987 91be 5010 eabc
00000090: a8ca 1c3e b1fd 713e a1ec 573c 295e 883e
000000a0: 507c b4be 22ab 393e 1da3 2ebe d2c6 bdbd
000000b0: 40ee 043e eee8 683e 6308 50be 8daa adbc
000000c0: d1e6 d13e 5882 90be d957 ac3c d47a 92be
000000d0: ed99 67be 9db2 90be a4eb ea3c 7cd5 873e
000000e0: 54a3 93be f0f3 16be b9a1 1e3e 1c51 323e
000000f0: 2293 7b3e 422a a33d 534b 99be 7e9f 993e
00000100: 94bc adbe ce59 59be 1b32 2cbe 8b01 77be
00000110: a4fe 753e bcf2 f1bd 3b06 8bbe 4177 b9be
00000120: 3c3f 303d 1073 93be d0e0 5b3e 47cd 27be
00000130: ca77 36be 050e ca3d 17df dfbd 284b 823e
00000140: 5a10 abbe f8ec 09bd 33ac 573e 95e4 8fbe
00000150: bdff 583d 2c42 d83d 23e9 45be 0cf8 76be
00000160: 2197 bc3e 72d5 a5be 8de7 bfbe 28ca af3e
00000170: ea9a 663c f04d f2bd a350 00be 6681 8fbd
00000180: 779d 86bd 60ba 2dbe 8084 a6be 739a eebc
00000190: f038 cbbd 0c98 b6be 201a 42be 7cb5 1ebe
000001a0: 8080 37be 4d44 59be f012 9f3c 29bd ea3d
000001b0: 5dd6 2a3e b779 31be 83e2 48be b210 b13d
000001c0: 8e60 b7be bd19 c1bd de0d 15be 71ce 86be
000001d0: 5f8d 253e 3246 233e afc7 54be b235 af3e
000001e0: d788 adbe bda0 06bd e9e5 8cbe eea6 9e3e
000001f0: bf45 a2be 37e8 4bbe 81c1 883e b3e2 1cbe
00000200: d349 b03e 6434 c3be 36b3 963c 18ef 9d3d
00000210: bc26 d83e bf92 c2bd b180 24be d0de 6a3e
00000220: c488 923e 5d15 c83d 5526 b1be 782f a7be
00000230: c801 36be 5ff6 9f3d 7e4f 863b 959e f73c
00000240: a0e3 993d 6a4b 6a3e 4375 8dbd 98ce 943e
00000250: 4463 3fbe 3524 6abe a839 de3d 2388 0fbe
00000260: 4888 9c3e c1d5 b0be 2e58 05be fc03 03be
00000270: d9c7 c6bd ab85 6f3d 91b9 6d3e 10a0 68be
00000280: 03a5 463e 64d9 9ebe 9605 b5be 6f7a b23e
00000290: b663 fdbd a8c3 b63c 2992 59be e629 de3d
000002a0: 14fc 443e 8a05 163e 6dbd bb3e f23a 693e
000002b0: 5c19 a73e e573 70bc 8ba8 923d de56 073e
000002c0: 24ed babd a971 b53e 349a 8a3e d75e 8fbe
000002d0: c816 aebe db6a af3e 5f50 673e 8ebc 2bbd
000002e0: 4d65 0f3e cd89 ebbd b717 2d3d f77e 823e
000002f0: 9f00 8bbe e765 4f3e 7056 333e dd26 913e
00000300: 52d0 8e3e be9a 96be f40b 6a3e ea98 f43d
00000310: c93a 59bd 2b61 22be 7f29 3f3e 7c56 0c3e
00000320: 3a7f 86be 8e73 a63e 816f c93e 1912 86bd
00000330: 7ab3 973e 331e 9b3e 9269 9abe 194b 9abe
00000340: e328 183d affd 56be b68d d1bd 7f14 663e
00000350: f9f0 0c3e 177d 57be 6ade c53e 9f9c febd
00000360: 84bf 22be 6f8e 2a3d 5488 f03c 14ab 123e
00000370: 3440 393e c63a 92be bbce a33d efef b83e
00000380: fc8a 823e 6b8c a2be f846 bc3e 3446 1abb
00000390: 6d96 a33e 36fb 283e 2897 e33d ddab 013c
000003a0: e1b3 5fbe e410 8c3e 62ca b13e 2b64 8a3e
000003b0: 5b0b 81be 9f5c 11be 247e 463e d3d4 c7bc
000003c0: f727 58be 9080 35be 8616 2cbe a5c3 803e
000003d0: b7c8 593e dc5d 2cbe c354 993e f11a e63d
000003e0: 4dda 8abe 56a5 963d 1867 293e b2e7 7e3e
000003f0: 233e 89be 9df2 0ebe 09a1 b03e 0468 75be

bias f4 [128]
0.2922586 0.12268929 -0.12185172 0.36041287 0.27085072 0.33416077 -0.2539639 0.229788
0.27584115 -0.058893483 0.25169653 -0.25768736 -0.11235445 -0.263288 0.06587189 -0.22785348
-0.18647255 -0.13305636 -0.005862344 -0.15214202 0.260962 -0.22931674 0.21118814 0.23637804
0.30691606 0.105594605 0.115320325 -0.06073779 -0.27246386 -0.041558605 -0.26952246 0.2157468
-0.122227065 -0.07691701 -0.28166825 -0.1784284 0.2567388 0.2670891 0.09008228 0.24858709
-0.15032028 -0.1993388 -0.14105955 0.040170155 -0.19555205 0.26939827 -0.123964556 0.3145393
-0.08549478 0.11968023 0.28017473 -0.049986538 0.109567225 -0.290432 0.34309483 -0.042140633
-0.073569335 -0.2532601 0.005781106 0.26739982 -0.023571072 0.037661772 -0.09069512 -0.10513122
0.18600991 -0.09556697 -0.22284484 0.27075738 -0.14071114 0.26289704 0.09088183 -0.111058265
0.15374587 0.13119777 0.20375188 0.1883185 0.06956661 -0.019169196 -0.050260793 -0.20997034
-0.14024937 -0.1672631 0.19893155 -0.29163456 -0.11301868 0.26926672 -0.12770705 0.032557238
0.25695235 -0.3599055 0.23041186 0.22137602 0.0032822068 -0.2098823 0.1003369 0.006561346
0.2521696 0.068468 -0.113485955 -0.282838 -0.23199517 -0.24329582 -0.06298973 -0.27157348
-0.056043744 -0.19376025 -0.16363111 0.15934402 -0.2948278 -0.07699385 -0.09845463 0.10739059
-0.14139102 -0.22551481 0.15581113 0.23437002 -0.11383338 0.05795386 0.10612399 0.16971886
0.09105709 0.1042129 0.12500693 -0.20228587 0.08584875 -0.18497618 0.07022992 0.2873432
00000000: eba2 953e 8644 fb3d 658d f9bd 0988 b83e
00000010: f2ac 8a3e 1f17 ab3e 8e07 82be 8c4d 6b3e
00000020: 0d3b 8d3e 4b3a 71bd 5ede 803e 99ef 83be
00000030: 171a e6bd afcd 86be d7e7 863d 6c52 69be
00000040: a9f2 3ebe ed3f 08be e818 c0bb 1ecb 1bbe
00000050: d09c 853e 02d2 6abe b441 583e 160d 723e
00000060: 1a24 9d3e fc41 d83d 102d ec3d 30c8 78bd
00000070: 6280 8bbe 5b39 2abd d9fe 89be bbec 5c3e
00000080: 2f52 fabd aa86 9dbd d236 90be efb5 36be
00000090: 4573 833e e7bf 883e 0f7d b83d 9d8d 7e3e
000000a0: 8fed 19be 781f 4cbe ea71 10be 7689 243d
000000b0: cc3e 48be 92ee 893e 21e1 fdbd 4c0b a13e
000000c0: e317 afbd e91a f53d 1073 8f3e afbe 4cbd
000000d0: c864 e03d 81b3 94be 20aa af3e a89b 2cbd
000000e0: 85ab 96bd 4fab 81be 6f6f bd3b a1e8 883e
000000f0: 1f18 c1bc 3b43 1a3d 5dbe b9bd 094f d7bd
00000100: 6279 3e3e 9eb8 c3bd 7031 64be b6a0 8a3e
00000110: 9516 10be 719a 863e 4120 ba3d 8472 e3bd
00000120: 8f6f 1d3e b558 063e 55a4 503e 91d6 403e
00000130: f078 8e3d b808 9dbc 43de 4dbd 7702 57be
00000140: 889d 0fbe 0547 2bbe b6b4 4b3e 2051 95be
00000150: 5676 e7bd 54dd 893e a3c5 02be bd5a 053d
00000160: 428f 833e 8945 b8be 16f1 6b3e 65b0 623e
00000170: 4b1a 573b 63eb 56be 6f7d cd3d 8f00 d73b
00000180: 601c 813e f338 8c3d 536b e8bd 24d0 90be
00000190: 2490 6dbe 8a22 79be c200 81bd ae0b 8bbe
000001a0: 208e 65bd 1669 46be ea8e 27be 142b 233e
000001b0: abf3 96be f4ae 9dbd 95a2 c9bd 99ef db3d
000001c0: cfc8 10be 5bed 66be f48c 1f3e b2fe 6f3e
000001d0: 7a21 e9bd 0761 6d3d 8957 d93d c8ca 2d3e
000001e0: 247c ba3d 936d d53d d101 003e 0724 4fbe
000001f0: 78d1 af3d 656a 3dbe b4d4 8f3d a61e 933e

weight f4 [128, 128]
0.02496256 0.041882105 -0.041719474 -0.106901854 -0.120990805 0.030241115 -0.08782499 -0.11438873
-0.059578665 -0.13627194 -0.13063945 0.007903324 0.07967473 -0.024395369 0.049739312 0.11820675
-0.1408544 -0.04155957 0.06750924 -0.04041682 -0.064866066 0.034577042 -0.07008802 -0.012868669
-0.10659639 -0.13514167 0.048478477 -0.039853293 -0.014968361 -0.023656737 -0.05343563 -0.07828077
-0.06893056 0.028407605 -0.07574256 0.1187258 0.040379215 -0.029508967 -0.10126353 -0.09600593
-0.06925386 -0.0020837458 -0.13790275 -0.02443445 0.07338183 -0.019114774 -0.030818842 0.05156248
0.03256035 0.02384417 0.112952136 -0.0042795 -0.014654216 0.014319628 -0.070234984 -0.009018013
-0.029018663 0.018103044 0.07243228 0.0931555 0.0025538858 0.03626415 -0.03339338 -0.053907696
-0.044948954 -0.0013715796 -0.093687944 -0.15654431 -0.01104779 -0.12025174 -0.020096099 -0.026123026
-0.12594543 -0.048147734 -0.045982264 -0.10006184 -0.11368093 -0.12764727 -0.0005303242 0.022559064
0.0052286154 -0.08533144 -0.06896845 -0.083918855 -0.06317724 -0.016067838 0.038886216 0.062536314
-0.0963648 0.028290128 0.05565601 0.028516462 0.048214365 -0.089639224 0.06656773 0.036718372
-0.0057267053 -0.07754557 0.010889824 0.015059935 0.02383075 -0.13216859 -0.063797146 -0.14418268
-0.05049018 0.084411025 -0.012500672 0.029491536 -0.11011418 0.02664349 0.021998193 0.021046821
-0.043582674 -0.0047918754 0.023456901 0.055183165 0.11673875 -0.11979014 -0.0065133087 0.030161439
0.017701022 0.036042344 -0.124596335 -0.12829109 -0.0006118536 0.019255456 -0.011650622 0.029264543
-0.04050097 0.014818453 0.09593657 -0.009313481 0.0042049442 0.045485355 0.019552095 0.033384554
-0.035378207 0.12380152 0.048010554 0.014184276 0.06623919 0.00901174 0.07821957 -0.024955515
-0.074735925 -0.13132694 0.057941493 0.063400805 -0.105042644 -0.061764743 -0.056640547 -0.13066848
-0.0006418044 0.036630705 -0.02845486 0.008770904 -0.017079104 -0.08020887 -0.035202045 -0.107483245
-0.0674918 -0.003637804 0.11848017 -0.0903603 -0.08938588 -0.035204846 0.026244257 0.0022671095
-0.111203045 0.044123814 0.08352963 0.0056599826 -0.1347423 0.02076236 -0.022511354 -0.041478716
0.067805484 0.01128643 0.02168062 0.058373272 -0.03658334 0.04236027 -0.06791687 -0.0839463
-0.011801647 -0.14391926 -0.05442612 -0.019913677 0.046083055 0.0017136238 -0.022201903 0.114707865
0.112653844 0.02705119 -0.017262312 0.015409449 -0.10868622 0.0574373 -0.00916736 0.09616915
0.04649848 0.01575421 -0.027495202 0.04498859 -0.061453644 0.012658879 0.058110774 -0.019991923
0.056074854 -0.063895606 -0.13508788 0.13782907 0.11717079 0.069388 0.14789566 0.004669424
-0.05021967 0.050735924 0.053633813 0.08382637 -0.05799115 -0.028071105 -0.13186033 -0.047559813
0.05205318 0.07919492 0.041548833 -0.07386596 -0.06095797 -0.09179806 0.00848506 0.10615395
-0.01612518 -0.09373761 0.08221445 0.011132101 -0.02297219 -0.049243987 -0.09516419 -0.112194285
-0.048059702 0.08241433 -0.0031970823 0.021931166 0.0043285317 -0.0010928214 -0.07845317 0.022868188
0.104955964 -0.103703566 -0.015276759 0.01376714 0.06999301 0.03152018 -0.13261645 -0.032960467
00000000: 487e cc3c 928c 2b3d 0ae2 2abd 5cef dabd
00000010: 07ca f7bd 37bc f73c 97dd b3bd a344 eabd
00000020: c208 74bd df8a 0bbe 59c6 05be f27c 013c
00000030: 812c a33d ccd8 c7bc 73bb 4b3d 6116 f23d
00000040: 233c 10be 5e3a 2abd 4942 8a3d 1c8c 25bd
00000050: 80d8 84bd a8a0 0d3d 4f8a 8fbd 1cd7 52bc
00000060: 354f dabd 9462 0abe 5e91 463d 353d 23bd
00000070: db3d 75bc c6cb c1bc 52df 5abd ab51 a0bd
00000080: 772b 8dbd 11b7 e83c ea1e 9bbd 8326 f33d
00000090: ad64 253d cabc f1bc 4163 cfbd c29e c4bd
000000a0: f8d4 8dbd 748f 08bb 6136 0dbe c12a c8bc
000000b0: 3649 963d 9696 9cbc cc77 fcbc 2e33 533d
000000c0: 005e 053d d954 c33c 7353 e73d 0c3b 8cbb
000000d0: 3d18 70bc df9c 6a3c 5cd7 8fbd 4ac0 13bc
000000e0: 8cb8 edbc d64c 943c 6057 943d 50c8 be3d
000000f0: 185f 273b b889 143d 7fc7 08bd 51ce 5cbd
00000100: 651c 38bd 93c6 b3ba 77df bfbd 274d 20be
00000110: ca01 35bc 8b46 f6bd 93a0 a4bc f5ff d5bc
00000120: d7f7 00be 8f36 45bd e657 3cbd 39ed ccbd
00000130: 8cd1 e8bd f7b5 02be 7405 0bba c9cd b83c
00000140: ce54 ab3b 40c2 aebd 553f 8dbd a6dd abbd
00000150: 1263 81bd b3a0 83bc 2747 1f3d 0a13 803d
00000160: e95a c5bd b3c0 e73c 8ef7 633d 5b9b e93c
00000170: 6d7c 453d c594 b7bd a954 883d 0166 163d
00000180: 16a7 bbbb 36d0 9ebd 3b6b 323c f2bd 763c
00000190: b438 c33c 3457 07be 14a8 82bd a0a4 13be
000001a0: cace 4ebd b0df ac3d 9ecf 4cbc 3c98 f13c
000001b0: 8b83 e1bd 7343 da3c 8e35 b43c 626a ac3c
000001c0: bf83 32bd 2a05 9dbb b028 c03c be07 623d
000001d0: ba14 ef3d 8854 f5bd 986d d5bb 1f15 f73c
000001e0: bc01 913c 23a1 133d 5d2c ffbd bd5e 03be
000001f0: cd64 20ba 9ebd 9d3c 40e2 3ebc 32bc ef3c
00000200: 58e4 25bd 19c9 723c 647a c43d 9297 18bc
00000210: a1c9 893b da4e 3a3d b72b a03c 3ebe 083d
00000220: bde8 10bd a78b fd3d b7a6 443d 2a65 683c
00000230: 6aa8 873d faa5 133c 9531 a03d 826f ccbc
00000240: 260f 99bd 927a 06be 0f54 6d3d 48d8 813d
00000250: 9920 d7bd 07fd 7cbd ebff 67bd f5cd 05be
00000260: c43e 28ba 140a 163d 2b1a e9bc d6b3 0f3c
00000270: 7ae9 8bbc 8c44 a4bd 0530 10bd 2d20 dcbd
00000280: 2439 8abd 3968 6ebb bba5 f23d d20e b9bd
00000290: f20f b7bd f532 10bd 32fe d63c c993 143b
000002a0: 6cbe e3bd 2cbb 343d 9511 ab3d 6077 b93b
000002b0: e3f9 09be d315 aa3c bb69 b8bc 96e5 29bd
000002c0: 9add 8a3d b8ea 383c 8e9b b13c d018 6f3d
000002d0: 6ad8 15bd f681 2d3d 0018 8bbd 0aec abbd
000002e0: b25b 41bc 925f 13be eced 5ebd 0222 a3bc
000002f0: 96c1 3c3d ac9b e03a c4e0 b5bc f5eb ea3d
00000300: 0fb7 e63d 759a dd3c b169 8dbc ea77 7c3c
00000310: e296 debd 6043 6b3d b232 16bc 55f4 c43d
00000320: 3175 3e3d f90e 813c 9e3d e1bc f545 383d
00000330: d1b6 7bbd 3067 4f3c 9005 6e3d 1ac6 a3bc
00000340: bfae 653d b3db 82bd 7a54 0abe 1023 0d3e
00000350: 3df7 ef3d 4c1b 8e3d f671 173e f801 993b
00000360: 24b3 4dbd 79d0 4f3d 21af 5b3d 29ad ab3d
00000370: 2188 6dbd 60f5 e5bc 6506 07be 14ce 42bd
00000380: b735 553d f230 a23d 1c2f 2a3d 0947 97bd
00000390: 10af 79bd 9f00 bcbd ec04 0b3c 3e67 d93d
000003a0: f418 84bc 81f9 bfbd 0d60 a83d 6a63 363c
000003b0: 2d30 bcbc 10b4 49bd 71e5 c2bd 1ec6 e5bd
000003c0: 40da 44bd d8c8 a83d 2486 51bb fda8 b33c
000003d0: 5bd6 8d3b 003d 8fba 0eac a0bd 1156 bb3c
000003e0: 27f3 d63d 8962 d4bd 5f4b 7abc 928f 613c
000003f0: 7f58 8f3d 4e1b 013d 9bcc 07be 8e01 07bd

bias f4 [128]
-0.001477235 -0.01725114 -0.04253708 0.080863625 0.0983646 -0.08885928 0.04107223 0.020710288
0.027460571 0.10593605 0.03987861 -0.00888848 0.013560356 0.010606811 0.07232533 0.07868761
0.023299338 0.09726569 -0.060418375 -0.054338846 0.10111062 0.09895434 0.08248829 0.12503634
0.067371935 0.06070039 0.13511628 0.05184395 -0.046742048 0.07061882 0.019474145 0.02260141
-0.04263769 -0.005065275 0.04178964 -0.02850304 -0.014743397 0.048217054 -0.052963734 -0.058267627
-0.027429847 0.021740373 0.013903411 0.04964016 0.045005746 0.02315158 0.015608007 -0.009486816
-0.023348222 0.010546745 -0.05413255 0.0216482 0.0020820526 -0.124799006 0.091837086 -0.070519455
0.10227309 0.057394724 0.055527493 -0.039845277 0.034870766 -0.02699174 0.039407708 0.05811881
-0.046840303 -0.013617649 0.020885423 0.046877686 0.07801917 0.013110394 -0.044778816 -0.02396701
-0.0077233105 0.058806706 0.049704526 0.053839073 0.09206002 -0.07679411 0.0075154942 -0.1214096
0.110463694 0.066032216 0.08207326 0.09787372 0.05947077 0.015255976 0.028600745 0.08042584
0.03142853 0.031659715 0.107507266 -0.0018115315 0.07575941 0.007185915 0.07116855 0.025441283
0.09252925 0.011739372 -0.0027235644 -0.0012718921 0.036716085 -0.0095813945 0.0019799978 -0.049572844
-0.07847606 -0.045485273 -0.094309 -0.079054765 0.12021115 0.04942617 -0.078064896 0.050127726
-0.08257165 -0.06836336 0.039049305 -0.020791542 0.01480881 -0.025862025 -0.05975331 -0.010342089
0.031191127 0.101325475 -0.011852881 -0.024956405 -0.12181412 0.0672009 0.069151625 0.054373007
00000000: c89f c1ba 4352 8dbc 5c3b 2ebd d49b a53d
00000010: 6173 c93d dbfb b5bd 5b3b 283d 9fa8 a93c
00000020: fef4 e03c 00f5 d83d c157 233d fda0 11bc
00000030: 412c 5e3c 31c8 2d3c 4d1f 943d f826 a13d
00000040: 41de be3c 3c33 c73d 4279 77bd 6992 5ebd
00000050: 1613 cf3d 93a8 ca3d 9fef a83d 8709 003e
00000060: 4cfa 893d f9a0 783d ec5b 0a3e 525a 543d
00000070: 9774 3fbd 9aa0 903d 3e88 9f3c 9826 b93c
00000080: dca4 2ebd 9bfa a5bb 9d2b 2b3d 357f e9bc
00000090: 4a8e 71bc 3f7f 453d 80f0 58bd 09aa 6ebd
000000a0: 8fb4 e0bc de18 b23c 22cb 633c 7b53 4b3d
000000b0: f257 383d 62a8 bd3c bab8 7f3c 976e 1bbc
000000c0: c544 bfbc 41cc 2c3c 18ba 5dbd 9157 b13c
000000d0: 0c73 083b 9f96 ffbd 1515 bc3d 816c 90bd
000000e0: 8e74 d13d bb16 6b3d cc70 633d cd34 23bd
000000f0: a6d4 0e3d c81d ddbc fa69 213d fd0d 6e3d
00000100: 9edb 3fbd 8f1c 5fbc e817 ab3c d102 403d
00000110: 84c8 9f3d facc 563c fe69 37bd 7756 c4bc
00000120: d313 fdbb 4ddf 703d f996 4b3d 5c86 5c3d
00000130: f789 bc3d 3b46 9dbd 8944 f63b 99a5 f8bd
00000140: ca3a e23d e63b 873d 0616 a83d 0472 c83d
00000150: 9f97 733d 33f4 793c 1c4c ea3c 4eb6 a43d
00000160: 34bb 003d 9ead 013d c52c dc3d e970 edba
00000170: c027 9b3d d377 eb3b d1c0 913d 3d6a d03c
00000180: fa7f bd3d 7f56 403c d47d 32bb 9eb5 a6ba
00000190: 9b63 163d 48fb 1cbc dac2 013b e50c 4bbd
000001a0: 0eb8 a0bd c44e 3abd 1425 c1bd 77e7 a1bd
000001b0: 4331 f63d 1873 4a3d 7de0 9fbd bb52 4d3d
000001c0: 531b a9bd 1702 8cbd 2af2 1f3d 0653 aabc
000001d0: a7a0 723c 99dc d3bc e3bf 74bd de71 29bc
000001e0: 8984 ff3c bb83 cf3d 9632 42bc 6071 ccbc
000001f0: ae79 f9bd a0a0 893d 5e9f 8d3d 3bb6 5e3d

weight f4 [8, 128]
-0.06768715 0.02750098 -0.02592565 -0.025800401 0.009781679 0.06795936 -0.10931796 -0.10840963
-0.013637707 0.096585095 0.06866686 -0.10476951 -0.09754283 -0.052240375 -0.1105491 -0.02085702
-0.04158216 0.06895881 -0.08072275 0.07454998 0.10827594 -0.019889109 -0.074966446 0.088160336
0.08387642 0.04196998 0.056023076 0.0019284614 -0.09596797 0.010168646 0.047161873 0.037666455
-0.08278968 -0.046393532 -0.012346828 -0.07966493 0.014115843 -0.08934501 -0.050362006 -0.04838058
-0.027514063 0.06555055 -0.017189339 0.04269714 0.019022789 -0.018977558 0.039776657 0.09561842
0.0623744 -0.03358121 -0.033321388 -0.018743096 0.077923104 0.010970307 0.11650541 0.041322958
0.020364204 -0.028846866 -0.0708953 -0.0106865475 -0.067920335 -0.0018586011 0.048309453 0.036854967
0.033926923 0.017481843 0.049799897 0.0048156884 -0.07646304 0.008253777 -0.115626805 -0.05249765
-0.10202131 0.07831371 0.025702761 0.009824473 0.0889232 0.014366387 0.0013733316 0.026183967
-0.05825411 0.071236804 0.07304985 0.051062897 -0.07837157 0.023681985 0.07634601 0.027160635
0.058209985 -0.0679731 0.040203873 0.046335652 0.045694 -0.025224403 -0.07294072 -0.043997377
-0.06908706 -0.0326989 0.06260158 0.04413987 0.029895019 0.03602722 -0.030224338 0.06960241
-0.034209743 -0.005340956 -0.090935886 -0.042475354 -0.095484756 -0.07393201 0.023430325 -0.019297257
-0.08955192 0.08503593 0.03603475 0.073045485 -0.09183162 0.087532274 -0.056447968 0.038462237
-0.06735673 -0.07803918 -0.017507862 0.011556546 0.004855161 -0.042988215 -0.0012874315 -0.023424258
-0.057142794 -0.0779314 0.01939227 0.060839508 -0.09268384 -0.036825985 -0.06766964 -0.063157514
-0.030386567 -0.037527 0.0005279202 0.005396637 -0.015188587 -0.10911283 0.112569705 0.01411189
0.04738413 0.054723766 -0.019019818 -0.11974665 0.10123437 0.098087765 0.019117925 -0.049728177
-0.07933457 -0.014154544 0.096011445 0.083961666 -0.111088276 -0.03891086 -0.048261475 -0.022032585
0.06812878 0.07923769 -0.06708274 -0.038652875 -0.04576632 -0.017006284 0.08796361 -0.08829481
0.11913023 0.116646536 0.09542785 0.0027759364 -0.023483803 -0.028249314 0.06027354 0.07756199
0.012763976 0.09042767 -0.08439078 0.035270825 -0.049852706 0.0073278486 -0.10014949 -0.035303075
0.06152863 0.07928189 0.011710694 -0.09697432 0.057878625 -0.036275193 -0.04098977 0.017717818
-0.10132337 -0.07331 -0.11434282 -0.043610193 0.08444703 0.045436 -0.0532549 -0.0051497477
-0.12169013 0.07125479 0.029099723 0.0748531 0.018693732 0.039423924 -0.11458774 -0.008652751
-0.082318515 -0.07885299 0.014892596 0.10729914 0.009127459 0.1166071 -0.06424264 0.11333604
-0.080413215 0.053704962 -0.06982095 -0.04103417 0.08939395 0.0057591856 0.05389103 -0.06472786
-0.020433892 0.055869315 -0.0683366 0.012271948 0.05943173 0.0053297267 -0.037984207 -0.05836666
-0.0688179 0.1070932 -0.013660527 0.04037617 0.023334777 0.023955306 -0.07860415 -0.061577335
-0.029820655 0.02727322 0.02767375 -0.046042103 0.104808375 0.120033644 -0.0129865715 -0.06284498
-0.052825976 -0.014191481 0.057200186 0.11072465 -0.045377284 -0.112902865 0.008747342 -0.016921422
00000000: 8f9f 8abd bc49 e13c 0762 d4bc 5d5b d3bc
00000010: 5643 203c 472e 8b3d 18e2 dfbd de05 debd
00000020: b070 5fbc 68ce c53d 36a1 8c3d 6691 d6bd
00000030: 89c4 c7bd 01fa 55bd 9167 e2bd 57dc aabc
00000040: 0e52 2abd 473a 8d3d f851 a5bd a9ad 983d
00000050: c7bf dd3d 7cee a2bc 0288 99bd 688d b43d
00000060: 67c7 ab3d b7e8 2b3d 7478 653d 6dc4 fc3a
00000070: db8a c4bd 659a 263c cf2c 413d 2448 1a3d
00000080: a38d a9bd 2507 3ebd 5a4a 4abc 5e27 a3bd
00000090: 2346 673c 84fa b6bd 6448 4ebd b72a 46bd
000000a0: 2c65 e1bc 5e3f 863d a8d0 8cbc 32e3 2e3d
000000b0: aed5 9b3c d376 9bbc d9ec 223d 97d3 c33d
000000c0: 4d7c 7f3d 738c 09bd 027c 08bd 1f8b 99bc
000000d0: 2696 9f3d cdbc 333c 639a ee3d 4342 293d
000000e0: d5d2 a63c 4350 ecbc 8e31 91bd a116 2fbc
000000f0: d119 8bbd 4e9c f3ba 22e0 453d 3cf5 163d
00000100: f5f6 0a3d 1536 8f3c fafa 4b3d eccc 9d3b
00000110: a898 9cbd da3a 073c bfcd ecbd c707 57bd
00000120: 8cf0 d0bd f062 a03d 998e d23c d4f6 203c
00000130: 5e1d b63d ff60 6b3c 5d01 b43a c27f d63c
00000140: dd9b 6ebd 9ae4 913d 299b 953d 5427 513d
00000150: 4681 a0bd b900 c23c 4c5b 9c3d fb7f de3c
00000160: 986d 6e3d 7b35 8bbd d1ac 243d 74ca 3d3d
00000170: a229 3b3d 68a3 cebc f261 95bd 9836 34bd
00000180: 847d 8dbd 48ef 05bd 4235 803d 02cc 343d
00000190: 66e6 f43c 4791 133d 0899 f7bc b58b 8e3d
000001a0: 841f 0cbd 3003 afbb 983c babd a3fa 2dbd
000001b0: 838d c3bd aa69 97bd f4f0 bf3c 4815 9ebc
000001c0: ff66 b7bd 5127 ae3d 2d99 133d df98 953d
000001d0: 3712 bcbd 1f44 b33d fc35 67bd 948a 1d3d
000001e0: 53f2 89bd 01d3 9fbd a66c 8fbc ab57 3d3c
000001f0: 0b18 9f3b 6914 30bd 08bf a8ba 3be4 bfbc
00000200: 900e 6abd 7f9a 9fbd 8adc 9e3c d932 793d
00000210: 06d1 bdbd d8d6 16bd 6196 8abd ba58 81bd
00000220: 40ed f8bc e9b5 19bd 2064 0a3a 46d6 b03b
00000230: 8dd9 78bc 8c76 dfbd f28a e63d 8f35 673c
00000240: dd15 423d 0726 603d 73cf 9bbc bb3d f5bd
00000250: f753 cf3d 3de2 c83d 329d 9c3c c6af 4bbd
00000260: 2a7a a2bd 76e8 67bc a6a1 c43d 18f4 ab3d
00000270: 4082 e3bd fe60 1fbd d3ad 45bd ae7d b4bc
00000280: 1a87 8b3d 5f47 a23d ad62 89bd 7a52 1ebd
00000290: 7775 3bbd c350 8bbc 4426 b43d e9d3 b4bd
000002a0: 8dfa f33d 61e4 ee3d ad6f c33d 7cec 353b
000002b0: 1b61 c0bc 1b6b e7bc 63e1 763d d2d8 9e3d
000002c0: ff1f 513c 2432 b93d 13d5 acbd 2478 103d
000002d0: 5a32 4cbd 731e f03b 2d1b cdbd f599 10bd
000002e0: 7205 7c3d 8b5e a23d 36de 3f3c 799a c6bd
000002f0: 2312 6d3d 4c95 14bd e4e4 27bd f524 913c
00000300: a182 cfbd 8e23 96bd 922c eabd 9aa0 32bd
00000310: 91f2 ac3d 191b 3a3d cf21 5abd 37bf a8bb
00000320: ad38 f9bd 08ee 913d 8b62 ee3c 954c 993d
00000330: 9923 993c fb7a 213d faac eabd 45c4 0dbc
00000340: 9c96 a8bd ad7d a1bd 1300 743c a7bf db3d
00000350: 568b 153c b4cf ee3d a591 83bd ba1c e83d
00000360: afaf a4bd bcf9 5b3d 49fe 8ebd 7213 28bd
00000370: 2d14 b73d 8db7 bc3b d7bc 5c3d 0a90 84bd
00000380: fa64 a7bc 39d7 643d 0ff4 8bbd 4810 493c
00000390: b06e 733d fda4 ae3b 5495 1bbd e111 6fbd
000003a0: 66f0 8cbd ae53 db3d 67d0 5fbc 7c61 253d
000003b0: 9328 bf3c eb3d c43c 36fb a0bd 8438 7cbd
000003c0: 724a f4bc 166c df3c 0fb4 e23c a596 3cbd
000003d0: c6a5 d63d 33d4 f53d a1c5 54bc deb4 80bd
000003e0: 0d60 58bd 6383 68bc be4a 6a3d 9bc3 e23d
000003f0: 88dd 39bd 9e39 e7bd 0351 0f3c cb9e 8abc

bias f4 [8]
-0.06856676 -0.012735661 -0.056430917 0.014324214 -0.03468136 -0.06988951 0.097409755 -0.048002604
00000000: bb6c 8cbd 3ca9 50bc 1b24 67bd 1cb0 6a3c
00000010: 0b0e 0ebd 3b22 8fbd c47e c73d 619e 44bd
