results/transformations/mapping_files/VAE/FMNIST_VAE_16_2>FMNIST_VAE_16_3>Hybrid_100_0_dropout_128_convex_hull.pth (torch, 88938 bytes, 6 tensors)

weight f4 [128, 16]
-0.25201896 0.09920756 0.006557638 -0.1029458 -0.16920353 0.0068928106 0.19131261 0.09746485
-0.20369746 -0.045536343 -0.08773886 0.06258117 -0.10003864 -0.06399401 -0.19260372 -0.20523454
-0.20191292 -0.08417874 -0.04339372 0.10314088 0.25688732 -0.11142184 0.098522045 -0.25575858
0.06178336 -0.15418135 0.002339637 -0.23039359 -0.21646298 -0.009984523 0.08930729 -0.13461705
-0.02192831 0.047286563 -0.20274729 0.2301557 -0.152958 0.16199012 -0.173818 -0.095845826
-0.031899184 0.24485224 -0.087330274 -0.001004996 -0.17588484 0.041256264 0.07672418 0.1630638
0.16319986 -0.016682899 -0.067176715 0.2638106 0.26175544 -0.011807479 -0.16722643 -0.26683328
-0.053333964 0.04751727 -0.01111906 0.024612594 0.06223069 0.048604406 -0.13631721 0.06172303
-0.004448004 -0.225357 -0.22592866 -0.012756828 -0.106380224 0.05593803 -0.22466743 -0.2256671
0.20597626 -0.16676769 0.24652532 -0.16218378 -0.106892794 0.016896866 -0.14293829 -0.06276513
0.016477102 0.14282003 -0.032540035 0.20511718 -0.19882332 0.22152346 0.1736153 0.20467585
-0.16859554 -0.07828479 0.024610193 -0.21886313 0.025586303 0.027794527 0.07511149 0.15414105
0.21223879 0.007484881 0.17044473 0.25205827 0.030836787 -0.151659 -0.19595857 -0.049716905
-0.22808129 0.024365693 -0.027025022 0.1380991 0.028013015 0.20959952 0.18855165 -0.062431946
-0.002662442 0.2741226 0.26632896 0.120709434 -0.078564964 0.115699016 0.16147703 -0.1595472
0.102980696 0.07251784 -0.22950177 0.1408472 0.12678863 -0.22031827 -0.2740294 -0.17527543
-0.16874534 0.2352847 0.14635213 0.26422995 -0.1788202 0.252747 -0.2183124 0.041100577
-0.25649995 0.09281813 0.25886855 0.26914778 0.05180311 0.0602903 0.17140858 0.10495306
0.13396358 0.09919366 -0.21519415 -0.05960469 0.13942078 0.021583037 -0.054107253 0.20506284
-0.09932974 0.010516354 0.23369233 -0.11340405 -0.01606392 0.10845038 -0.019151723 -0.06443092
-0.12452324 0.20180093 -0.12076931 -0.1955495 -0.061479118 0.16478284 0.16711797 0.27747953
-0.28136024 -0.23797795 0.12366373 0.07301979 0.08742754 0.09111726 0.06614402 -0.07909295
0.096188426 -0.2088732 -0.044439744 -0.0030594035 -0.17738424 -0.14122044 0.21381103 -0.07903481
0.19417925 -0.1591204 -0.031879317 0.0069489013 -0.16261695 0.14263363 -0.2185175 -0.013120187
0.058322705 -0.2213963 0.08043312 -0.03548159 -0.120560154 -0.15492304 -0.16406982 0.1799913
0.21348874 -0.30122226 0.20549637 -0.04858638 0.22174826 0.24169147 0.2050494 -0.27310845
0.18667664 0.0013712842 -0.05058107 -0.10292547 0.16679636 0.075165726 0.037926245 -0.09851934
-0.13506098 -0.16598457 0.043225423 -0.24257441 0.17922878 0.062162705 -0.24672325 0.2823504
0.19064473 0.009384406 -0.23723589 -0.19691996 0.17176776 0.005039893 -0.09183422 -0.16420689
0.13702294 0.019181794 0.16774914 0.026003744 -0.26503542 0.009399262 0.066682555 -0.10276356
0.07149995 -0.13361473 0.28054082 0.2533967 0.11672687 0.15838303 -0.048747513 0.042229097
0.088643104 -0.064574346 0.20935638 -0.027300613 -0.124148436 0.25011823 -0.21130143 -0.27245107
00000000: a108 81be 552d cb3d 74e1 d63b 3fd5 d2bd
00000010: b143 2dbe 16dd e13b 74e7 433e a79b c73d
00000020: 1196 50be 5184 3abd 6eb0 b3bd 8e2a 803d
00000030: 0fe1 ccbd 4b0f 83bd e939 45be 0129 52be
00000040: 43c2 4ebe e765 acbd 9dbd 31bd 873b d33d
00000050: bc86 833e 2231 e4bd edc5 c93d caf2 82be
00000060: 8c10 7d3d b7e1 1dbe 9854 193b 4cec 6bbe
00000070: 79a8 5dbe 2096 23bc bee6 b63d 0dd9 09be
00000080: 00a3 b3bc 8eaf 413d fc9c 4fbe f0ad 6b3e
00000090: 06a1 1cbe bde0 253e 59fd 31be d14a c4bd
000000a0: b8a8 02bd 8cba 7a3e 37da b2bd 12ba 83ba
000000b0: 281b 34be 54fc 283d 9121 9d3d 32fa 263e
000000c0: dd1d 273e 93aa 88bc f293 89bd 2f12 873e
000000d0: cf04 863e 2874 41bc 683d 2bbe 5f9e 88be
000000e0: b774 5abd 78a1 423d b82c 36bc 5aa0 c93c
000000f0: 9ce5 7e3d 6a15 473d bd96 0bbe 4ad1 7c3d
00000100: 90c0 91bb fcc3 66be d859 67be 0402 51bc
00000110: e0dd d9bd 471f 653d 380f 66be 4715 67be
00000120: 71eb 523e 26c5 2abe 2271 7c3e 8113 26be
00000130: 9cea dabd 4c6b 8a3c 6a5e 12be 018b 80bd
00000140: fdfa 863c 6a3f 123e b348 05bd 3d0a 523e
00000150: 5798 4bbe 0cd7 623e 36c8 313e 8c96 513e
00000160: 4fa4 2cbe c753 a0bd 519b c93c a81d 60be
00000170: 5e9a d13c 59b1 e33c 0ed4 993d 27d7 1d3e
00000180: 2055 593e bc43 f53b 1089 2e3e c80d 813e
00000190: 6e9d fc3c 7f4c 1bbe 5da9 48be f4a3 4bbd
000001a0: 248e 69be 909a c73c 9463 ddbc da69 0d3e
000001b0: 8d7b e53c 42a1 563e af13 413e a4b8 7fbd
000001c0: 5d7c 2ebb cc59 8c3e 455c 883e 8236 f73d
000001d0: abe6 a0bd 9bf3 ec3d 3c5a 253e 5760 23be
000001e0: 8be7 d23d 3c84 943d 8302 6bbe 403a 103e
000001f0: e1d4 013e 1d9b 61be 954d 8cbe 677b 33be
00000200: 94cb 2cbe 79ee 703e 55dd 153e 2649 873e
00000210: a41c 37be 0e68 813e 498d 5fbe 1459 283d
00000220: f653 83be 6f17 be3d 6b8a 843e bdcd 893e
00000230: 7f2f 543d f6f2 763d bb85 2f3e a1f1 d63d
00000240: c02d 093e 0c26 cb3d db5b 5cbe 0c24 74bd
00000250: 52c4 0e3e e9ce b03c 919f 5dbd fefb 513e
00000260: 646d cbbd c94c 2c3c 0b4d 6f3e 6240 e8bd
00000270: 7b98 83bc 3c1b de3d 13e4 9cbc 5cf4 83bd
00000280: 0a06 ffbd e7a4 4e3e e655 f7bd 213e 48be
00000290: 87d1 7bbd d5bc 283e f920 2b3e cc11 8e3e
000002a0: 730e 90be 7eb0 73be 6943 fd3d 668b 953d
000002b0: 360d b33d b09b ba3d 8476 873d 7cfb a1bd
000002c0: 70fe c43d dbe2 55be 7306 36bd 4680 48bb
000002d0: 37a4 35be 179c 10be 47f1 5a3e 01dd a1bd
000002e0: edd6 463e 75f0 22be e393 02bd 9cb3 e33b
000002f0: 0f85 26be 8d0e 123e 0dc3 5fbe 0ef6 56bc
00000300: cae3 6e3d b6b5 62be 1fba a43d 2555 11bd
00000310: 3ee8 f6bd 25a4 1ebe eb01 28be a44f 383e
00000320: cb9c 5a3e ce39 9abe a46d 523e 8302 47bd
00000330: fa11 633e f87d 773e 78f8 513e dfd4 8bbe
00000340: 2928 3f3e aabc b33a 192e 4fbd 97ca d2bd
00000350: aacc 2a3e 7df0 993d 8d58 1b3d 82c4 c9bd
00000360: 6d4d 0abe dcf7 29be 240d 313d 6d65 78be
00000370: c087 373e 529e 7e3d 05a5 7cbe 3b90 903e
00000380: 5f38 433e 0dc1 193c f7ed 72be 63a5 49be
00000390: e3e3 2f3e b025 a53b 9413 bcbd da25 28be
000003a0: be4f 0c3e 2323 9d3c 6ec6 2b3e ce05 d53c
000003b0: b9b2 87be 5dff 193c dd90 883d b475 d2bd
000003c0: 916e 923d 4dd2 08be 0ca3 8f3e 36bd 813e
000003d0: 7f0e ef3d 292f 223e 79ab 47bd 6bf8 2c3d
000003e0: 848a b53d 8e3f 84bd 8561 563e 89a5 dfbc
000003f0: 8941 febd 7f0f 803e 675f 58be b57e 8bbe

bias f4 [128]
-0.043144744 0.057046443 0.06262556 -0.015440833 -0.11642983 0.014777453 0.14055446 0.02339762
-0.12923168 -0.19806062 -0.18030454 0.1288989 0.17638616 -0.059931614 0.17004222 -0.0340919
-0.081099704 0.016679043 0.08013885 -0.10579358 -0.2596456 0.026996609 -0.14029765 0.17565995
0.13215092 -0.0010916123 0.09237203 -0.09866462 -0.069026686 0.23705885 -0.076228775 0.16489115
0.06682067 0.03815503 0.03770936 0.033393044 0.080371566 -0.1417243 -0.14116758 0.1305329
0.020326858 -0.11369085 -0.090361446 0.057031002 -0.080328554 -0.12429591 -0.09835492 0.091555186
-0.17328775 -0.19575578 0.1587177 -0.010397745 0.0133973425 0.002621847 0.17879479 0.12601575
-0.083822146 -0.0570452 -0.16758312 0.24263258 -0.16797726 -0.24427696 -0.017069874 -0.12869704
-0.0604555 0.041852504 0.18664604 0.050936818 0.16317807 0.19555011 0.13876441 -0.045970246
0.12757866 0.19884118 -0.108398855 0.023649536 -0.081423685 -0.17958587 -0.02363977 0.01691044
0.013181951 0.2474536 0.0039715953 0.073062934 0.19467656 -0.19110085 0.02863514 0.13071916
-0.01612639 -0.111795604 0.0074810944 -0.16169162 0.18091564 0.20326123 0.06967013 0.18534313
-0.007279559 0.08087399 -0.080302544 0.10148952 0.07482367 -0.0728056 -0.22573316 0.048533514
-0.2241365 0.20852679 -0.09345482 -0.052246787 -0.21806332 0.22411168 0.18311457 -0.14082012
-0.076192126 0.1169374 0.17945324 -0.033210892 -0.026375217 0.06396326 -0.054683022 -0.078163706
-0.19486146 -0.09544291 -0.0035154074 0.14313066 -0.0047481423 0.03262235 -0.09247964 0.26658785
00000000: 8bb8 30bd 88a9 693d d441 803d 8cfb 7cbc
00000010: c372 eebd 211d 723c 82ed 0f3e 5eac bf3c
00000020: 4f55 04be 67d0 4abe c1a1 38be 13fe 033e
00000030: 939e 343e da7a 75bd 8c1f 2e3e f3a3 0bbd
00000040: 9a17 a6bd 7da2 883c d61f a43d 4eaa d8bd
00000050: 45f0 84be fe27 dd3c 30aa 0fbe 34e0 333e
00000060: 9252 073e 6e14 8fba 8c2d bd3d ad10 cabd
00000070: dd5d 8dbd 8ebf 723e d51d 9cbd 3ad9 283e
00000080: 47d9 883d 7348 1c3d 2175 1a3d 25c7 083d
00000090: d999 a43d 2d20 11be 3c8e 10be 6baa 053e
000000a0: 8384 a63c c0d6 e8bd 6c0f b9bd 5799 693d
000000b0: 4c83 a4bd db8e febd 4e6e c9bd 4981 bb3d
000000c0: 5872 31be 3474 48be e586 223e 4e5b 2abc
000000d0: 8780 5b3c 4bd3 2b3b fb15 373e 460a 013e
000000e0: f2aa abbd 3aa8 69bd e99a 2bbe ad74 783e
000000f0: 3b02 2cbe bd23 7abe 1fd6 8bbc 28c9 03be
00000100: 30a0 77bd 886d 2b3d 2420 3f3e 20a3 503d
00000110: 2718 273e 4a3e 483e 4218 0e3e 4c4b 3cbd
00000120: fba3 023e 069d 4b3e 3800 debd acbc c13c
00000130: 76c1 a6bd 5ce5 37be 31a8 c1bc c387 8a3c
00000140: 1cf9 573c 7a64 7d3e 2824 823b 05a2 953d
00000150: 4b59 473e f1af 43be 3e94 ea3c 3edb 053e
00000160: 7e1b 84bc 18f5 e4bd f823 f53b 7d92 25be
00000170: f341 393e b623 503e 37af 8e3d 97ca 3d3e
00000180: 5e89 eebb 43a1 a53d a975 a4bd bdd9 cf3d
00000190: 273d 993d 1a1b 95bd 9826 67be 14cb 463d
000001a0: 0a84 65be 0c88 553e 3e65 bfbd ba00 56bd
000001b0: fe4b 5fbe 887d 653e 6382 3b3e 2633 10be
000001c0: 9e0a 9cbd e07c ef3d 97c2 373e 2508 08bd
000001d0: d710 d8bc 2bff 823d 4efb 5fbd 4b14 a0bd
000001e0: c389 47be 9377 c3bd c062 66bb d890 123e
000001f0: 4e96 9bbb 039f 053d f765 bdbd 347e 883e

weight f4 [128, 128]
-0.006173114 0.029393187 -0.01126726 -0.055124473 -0.011808845 0.038468264 -0.030155748 0.01507294
-0.07645646 -0.010182297 0.12215509 -0.13583383 -0.07239125 -0.056432914 0.0022344515 0.06975977
0.12632595 0.11072332 -0.008228544 -0.13669866 0.09383801 -0.073377326 0.018187508 -0.0583639
0.0033331774 -0.079650715 0.030420711 -0.05714827 0.039699256 -0.051989373 0.0112887565 -0.08913739
-0.13044089 -0.015727326 -0.10672108 -0.1021178 0.0053208387 0.003378406 -0.03649067 -0.012658296
-0.0489809 0.05614113 0.058462083 -0.035873167 0.032983124 0.08512871 0.041466236 0.04876743
-0.041069277 0.013809285 -0.031471524 0.034491736 0.005433333 -0.08230432 -0.052897252 -0.009818004
-0.017042631 -0.066012114 0.07554218 -0.10104929 0.12162966 -0.02040498 -0.04293236 -0.01622704
-0.07116161 -0.060576357 0.052670788 0.10846435 0.11117817 -0.08202711 0.0009792289 0.024891704
-0.008600493 0.059387635 0.02549996 -0.0460279 -0.12096525 -0.08246849 -0.019975252 -0.060290642
-0.06475267 -0.0064763143 0.035262734 0.1113171 0.10524918 0.0031880657 -0.034927953 -0.014634161
0.033603538 -0.03707369 0.023372453 -0.055418108 -0.06401127 -0.0043195086 0.036039177 -0.0056548268
-0.008999126 0.08232296 -0.08835443 -0.09328235 0.031461373 0.027659187 0.03963179 -0.03608857
-0.024288246 0.09946572 -0.10940251 0.009165928 0.07760977 -0.034517597 0.1069015 -0.0010878259
-0.025439696 0.09189615 0.08223662 -0.040053464 0.009907538 0.071699075 0.09788063 -0.09190871
-0.06931228 -0.018825086 0.020056343 0.04433434 0.047569964 -0.13817087 -0.049646977 -0.011851885
0.080609605 -0.008047026 -0.014219452 -0.0015529986 0.07623084 -0.023515984 -0.015886392 -0.082542606
0.00061061664 0.0319113 0.08381352 -0.08310434 -0.03967666 0.034422584 0.019061027 -0.012768438
-0.022565605 -0.033335328 0.00092009344 -0.07059174 0.066822484 -0.05143203 0.031526063 -0.001162958
-0.066443115 -0.07898124 -0.0012939668 -0.10454733 0.0960672 -0.068759866 -0.036438297 0.025786597
-0.05399937 0.08491542 0.03940852 -0.028755624 0.083934575 -0.09172431 -0.009183372 -0.05351242
0.0052608866 0.069118895 0.09370958 -0.025618525 0.023601666 0.017407296 0.0012441124 -0.08264133
-0.0044802744 -0.015122293 -0.049784523 -0.01742924 0.025172582 -0.034848247 0.01905338 0.06019701
0.13705607 0.07387224 -0.053466573 0.07514863 0.056763247 -0.11937733 -0.042787552 -0.047517188
-0.0360267 -0.1088667 -0.038257398 -0.033157457 -0.08076174 -0.047815666 0.01189576 -0.022643315
0.114427656 0.047685187 -0.114766136 -0.0551856 0.03599389 -0.02564658 0.103402674 0.025683288
-0.040686317 -0.00876178 0.010827048 -0.06239502 0.12968475 0.090026304 0.008590493 -0.10719279
-0.004970219 0.053427026 -0.10433836 -0.06660539 0.03283852 0.06783042 0.104254864 0.05492795
0.069924876 0.09428448 0.079406105 -0.0036961513 0.062474888 0.026551254 -0.09933931 0.047355387
-0.013473676 -0.009098593 -0.003672783 -0.032566924 0.0044462546 -0.05786587 0.014614082 0.03643419
-0.061487485 -0.04029869 0.03972547 0.05178309 -0.12164082 0.010464205 -0.034810465 0.008939975
-0.1060003 -0.1342199 -0.0027197553 -0.026216539 0.009454567 0.021115838 -0.019602593 -0.048462685
00000000: d547 cabb fbc9 f03c 509a 38bc 33ca 61bd
00000010: e379 41bc e690 1d3d 3009 f7bc 7ef4 763c
00000020: 3495 9cbd a6d3 26bc 732c fa3d 0618 0bbe
00000030: dd41 94bd 3326 67bd e06f 123b 36de 8e3d
00000040: 975b 013e e8c2 e23d 04d1 06bc bcfa 0bbe
00000050: 252e c03d da46 96bd f8fd 943c fc0e 6fbd
00000060: 7071 5a3b ea1f a3bd db34 f93c 4e14 6abd
00000070: b09b 223d cff2 54bd 7af4 383c aa8d b6bd
00000080: 4c92 05be 98d6 80bc 9590 dabd 2323 d1bd
00000090: 6e5a ae3b 3f68 5d3b 3e77 15bd be64 4fbc
000000a0: 32a0 48bd 3ef4 653d f075 6f3d beef 12bd
000000b0: 5019 073d f657 ae3d 80d8 293d 5bc0 473d
000000c0: 4238 28bd 5740 623c 49e8 00bd 3547 0d3d
000000d0: 1a0a b23b 2b8f a8bd caaa 58bd b2db 20bc
000000e0: fd9c 8bbc 5c31 87bd dcb5 9a3d eef2 cebd
000000f0: f918 f93d 5828 a7bc d8d9 2fbd 92ee 84bc
00000100: 2ebd 91bd ea1e 78bd 53bd 573d 8f22 de3d
00000110: 61b1 e33d d4fd a7bd 7859 803a b0e9 cb3c
00000120: 15e9 0cbc 7340 733d 4be5 d03c c087 3cbd
00000130: a1bc f7bd 3de5 a8bd 24a3 a3bc 52f3 76bd
00000140: 0c9d 84bd 4337 d4bb a86f 103d 38fa e33d
00000150: e28c d73d deee 503b 9d10 0fbd 1fc4 6fbc
00000160: dda3 093d 95da 17bd 9677 bf3c 19fe 62bd
00000170: 5718 83bd aa8a 8dbb d19d 133d 204c b9bb
00000180: 1271 13bc f198 a83d 2bf3 b4bd d10a bfbd
00000190: a4dd 003d 8595 e23c f254 223d 9cd1 13bd
000001a0: 25f8 c6bc afb4 cb3d 6c0e e0bd b02c 163c
000001b0: dff1 9e3d 5362 0dbd 2cef da3d 6195 8eba
000001c0: e966 d0bc 0c34 bc3d ac6b a83d 1a0f 24bd
000001d0: 3a53 223c f7d6 923d a475 c83d a23a bcbd
000001e0: 99f3 8dbd 1137 9abc 334d a43c ed97 353d
000001f0: b9d8 423d aa7c 0dbe a15a 4bbd 692e 42bc
00000200: a616 a53d acd7 03bc b4f8 68bc fc8d cbba
00000210: ea1e 9c3d 98a4 c0bc 2e24 82bc 190c a9bd
00000220: ca11 203a 6cb5 023d 6ca6 ab3d 9c32 aabd
00000230: fe83 22bd b2fe 0c3d df25 9c3c b632 51bc
00000240: 81db b8bc a08a 08bd 6d32 713a 6792 90bd
00000250: 3ada 883d 64aa 52bd 7921 013d 656e 98ba
00000260: 5413 88bd ebc0 a1bd 529a a9ba e91c d6bd
00000270: e1be c43d f9d1 8cbd 5340 15bd 6a3e d33c
00000280: 722e 5dbd 23e8 ad3d d46a 213d ea90 ebbc
00000290: e4e5 ab3d f4d9 bbbd db75 16bc d72f 5bbd
000002a0: 8463 ac3b 358e 8d3d cfea bf3d f1dd d1bc
000002b0: 4858 c13c bf99 8e3c 7c11 a33a dc3f a9bd
000002c0: 44cf 92bb 7ec3 77bc dbea 4bbd c4c7 8ebc
000002d0: bb36 ce3c 09bd 0ebd d515 9c3c 2491 763d
000002e0: 6d58 0c3e 544a 973d c4ff 5abd 86e7 993d
000002f0: 9480 683d 1a7c f4bd 0042 2fbd 62a1 42bd
00000300: bc90 13bd 81f5 debd cab3 1cbd 1dd0 07bd
00000310: 6966 a5bd 5cda 43bd 6fe6 423c 797e b9bc
00000320: 0c59 ea3d 8b51 433d 820a ebbd 4c0a 62bd
00000330: 546e 133d c718 d2bc c8c4 d33d c265 d23c
00000340: b2a6 26bd 928d 0fbc ee63 313c ec91 7fbd
00000350: 14cc 043e b65f b83d 24bf 0c3c e587 dbbd
00000360: 38dd a2bb 4cd6 5a3d 5aaf d5bd 6868 88bd
00000370: af81 063d adea 8a3d 9383 d53d 21fc 603d
00000380: c634 8f3d 3918 c13d ab9f a23d 213b 72bb
00000390: abe5 7f3d 0482 d93c 6872 cbbd b9f7 413d
000003a0: b1c0 5cbc 4412 15bc 13b3 70bb e564 05bd
000003b0: e3b1 913b c304 6dbd e76f 6f3c 043c 153d
000003c0: 4dda 7bbd 3d10 25bd 2db7 223d 811a 543d
000003d0: d21e f9bd 0f72 2b3c 6b95 0ebd f978 123c
000003e0: af16 d9bd f170 09be ec3d 32bb 11c4 d6bc
000003f0: 54e7 1a3c 1ffb ac3c 9e95 a0bc cf80 46bd

bias f4 [128]
-0.011314712 0.07221075 0.0824482 0.025058538 -0.0049758535 0.07121651 0.00015659409 -0.045968726
-0.07716131 0.058686018 0.031940777 0.082364924 -0.06366033 0.09562417 0.040607974 -0.03774363
0.00073737727 0.081163876 0.0038222282 -0.013885165 -0.0419991 -0.045463037 -0.10930867 0.026897546
-0.04537517 0.09005106 0.046353806 0.029884774 -0.053429734 0.09647792 0.023870345 -0.070525855
0.09980503 0.0633115 0.07216642 0.014543088 -0.02481155 -0.06180167 -0.06445397 -0.032291416
-0.07679693 0.023996556 -0.006946077 0.05132437 -0.010009313 -0.06329068 0.011596641 -0.11451706
0.10327732 0.021608097 0.11630735 -0.06182111 -0.010940603 0.09415057 0.075880446 0.009646181
0.0469907 -0.05580058 -0.01439137 0.110649176 0.019460784 -0.008701698 0.053853273 -0.05075035
-0.061634663 -0.023899112 -0.01840368 0.040936816 0.0015555501 -0.087531775 0.05265396 0.09472165
-0.018326508 0.041827887 0.06044097 -0.011956543 -0.05216219 0.051125266 -0.06866072 0.08619921
0.09675945 0.020800585 0.034090966 -0.064516574 -0.0051902467 0.075055614 0.014239433 -0.10051559
0.05189574 0.029901363 0.0803234 0.058507003 0.114105076 -0.05850633 0.08274987 0.0923171
0.024203576 0.03900104 -0.008288337 0.060688477 -0.08008729 0.06605005 -0.10253402 0.045516204
0.04677755 0.039923403 0.019022318 -0.026367873 0.010543698 0.06926779 0.013203005 -0.008060631
0.09328704 0.021866681 -0.013116779 -0.027513808 -0.034156505 0.018757712 0.0094695715 0.06134415
-0.05809013 0.0037481864 0.06513978 -0.011135197 0.016681205 0.055898584 -0.0073480974 -0.008977864
00000000: 5861 39bc 3be3 933d 9ada a83d 9047 cd3c
00000010: 7c0c a3bb f6d9 913d 6833 2439 b449 3cbd
00000020: c006 9ebd c060 703d 55d4 023d f1ae a83d
00000030: 5960 82bd 9bd6 c33d 8c54 263d 1199 1abd
00000040: 8d4c 413a 3f39 a63d 597e 7a3b 9a7e 63bc
00000050: 4007 2cbd 7337 3abd 39dd dfbd 3e58 dc3c
00000060: 50db 39bd b16c b83d 7ddd 3d3d ead0 f43c
00000070: 23d9 5abd 3796 c53d be8b c33c dc6f 90bd
00000080: 9466 cc3d 76a9 813d fdcb 933d 2246 6e3c
00000090: 9741 cbbc bf23 7dbd 7100 84bd 0144 04bd
000000a0: b547 9dbd 6d94 c43c eb9b e3bb 8139 523d
000000b0: 1afe 23bc 8b9e 81bd d6ff 3d3c ec87 eabd
000000c0: 0f83 d33d 7703 b13c 8c32 ee3d 2238 7dbd
000000d0: 3740 33bc 04d2 c03d 3567 9b3d 040b 1e3c
000000e0: 5279 403d 268f 64bd c8c9 6bbc 099c e23d
000000f0: 396c 9f3c 9191 0ebc 4095 5c3d 99df 4fbd
00000100: a174 7cbd 12c8 c3bc 50c3 96bc 5dad 273d
00000110: 9ae3 cb3a dc43 b3bd aeab 573d 6dfd c13d
00000120: 7921 96bc b853 2b3d f390 773d 60e5 43bc
00000130: 05a8 55bd ba68 513d fe9d 8cbd 3689 b03d
00000140: d229 c63d fd65 aa3c f8a2 0b3d 4421 84bd
00000150: f212 aabb c2b6 993d 834c 693c 1edb cdbd
00000160: a190 543d b4f3 f43c 9880 a43d 0aa5 6f3d
00000170: ecaf e93d 55a4 6fbd c478 a93d bf10 bd3d
00000180: 9446 c63c 8ebf 1f3d cecb 07bc 7b94 783d
00000190: ce04 a4bd 4045 873d 5bfd d1bd 336f 3a3d
000001a0: d199 3f3d b986 233d b1d4 9b3c 7001 d8bc
000001b0: 7abf 2c3c 45dc 8d3d 6b51 583c bd10 04bc
000001c0: 470d bf3d c121 b33c c2e7 56bc a364 e1bc
000001d0: b1e7 0bbd c6a9 993c 4326 1b3c 0144 7b3d
000001e0: ebef 6dbd 22a4 753b 0168 853d 6770 36bc
000001f0: 06a7 883c eaf5 643d 4fc8 f0bb e417 13bc

weight f4 [16, 128]
-0.0063005863 0.06112857 0.06528848 -0.0660091 -0.04188337 0.049879745 -0.1441954 -0.0780956
0.0079145115 -0.08649674 0.11217583 -0.02491159 -0.053935673 0.096225955 0.0052714744 0.027845763
-0.05184118 0.014538249 0.036511514 -0.06983358 0.06805994 0.116139844 -0.09228231 -0.06242789
-0.03199533 0.033808887 0.057920296 -0.14788662 0.09094222 0.09119867 -0.014428324 0.017496418
0.016093267 0.08643342 -0.065747164 -0.13509294 -0.004511011 -0.081899 -0.10536908 -0.10890198
-0.032712415 0.12538403 -0.06314116 -0.017811757 -0.0884623 0.10902648 -0.09243075 -0.0017483879
0.042977717 -0.012041618 0.12185067 -0.078546666 0.11775217 -0.058620896 -0.057391968 0.066827744
0.049359903 0.013506947 0.027842546 -0.0071177795 -0.11596428 0.010224261 -0.02390405 0.042816512
-0.072232656 -0.09346396 -0.09095287 0.0601365 0.069497354 -0.13379171 -0.0021454077 0.083987534
-0.11873771 -0.048994463 0.06600893 -0.13121134 -0.028317142 -0.046620794 -0.008299823 -0.01589314
-0.09590413 -0.10249466 -0.0470617 0.020636411 -0.00022697847 0.034979556 0.07247302 0.004574142
-0.020556258 0.03823572 -8.951582e-06 0.024974035 -0.06153993 -0.069283314 0.021670952 0.027396949
-0.1192534 -0.03399223 -0.056168985 0.04435765 0.051558655 -0.027826233 -0.08425479 -0.053683605
-0.020576391 -0.08554741 0.031747274 0.011664245 -0.10858637 -0.030102246 -0.059964254 0.05971675
-0.10535162 0.026159529 -0.08640035 -0.10244559 -0.03616336 -0.115400344 0.13384014 -0.019030971
-0.1394521 0.055081926 0.04583698 0.07753792 -0.12602803 0.15191534 -0.08505217 -0.073842905
-0.01806248 0.00061004073 0.05285275 -0.027361514 0.06065653 0.036031604 0.0892651 0.13379021
-0.011168606 0.039425526 0.017032806 -0.03167464 -0.07686936 -0.05036799 0.025240632 0.095302045
0.008282736 -0.023145584 -0.121342696 -0.06180004 0.020292867 -0.0057095443 0.06570273 -0.024706043
-0.09367014 -0.028579175 -0.01989677 -0.023600657 0.015041069 -0.045749713 0.054673117 0.0060391384
0.11884415 0.07804432 -0.13211074 -0.08268042 -0.06231578 0.08483004 -0.09726023 -0.031976003
0.009706393 0.109810464 0.032689992 -0.023936048 -0.00070289325 -0.015402044 -0.06612242 0.07278093
0.05623835 0.11735156 -0.108339176 -0.037198924 -0.07012829 -0.045555748 -0.08517277 0.06052402
0.086093694 -0.014717845 0.091535166 -0.13146491 0.055666808 0.027364833 0.08731998 0.0068335216
0.004427079 0.022058228 -0.10887082 0.019664615 -0.02109143 -0.050606 -0.031847678 0.07394078
0.10368564 0.007948887 0.068376295 -0.10507662 -0.01304402 0.07708076 -0.123670354 0.10502255
-0.033425767 0.09659948 -0.042657886 0.06387317 0.017606888 0.004631956 0.13405874 -0.095148265
-0.037948344 -0.02570832 -0.0025224779 0.055116337 0.056438677 0.0839605 -0.02494276 -0.023326153
-0.016250212 0.04331822 0.039511863 -0.12973812 -0.017580722 -0.0032521593 -0.117796406 -0.09674806
0.017489431 0.026564648 0.043194395 -0.10781821 -0.1092155 -0.08172188 0.0069602705 -0.11572328
-0.059515584 0.009934227 -0.01088736 0.007476919 -0.0008697433 -0.00089242624 -0.015489703 0.062384773
0.0665709 -0.0038532757 -0.012781788 0.036618657 -0.05550797 -0.04433142 0.10434987 -0.039160646
00000000: 2675 cebb f461 7a3d f7b5 853d c72f 87bd
00000010: e68d 2bbd b44e 4c3d f5a7 13be 96f0 9fbd
00000020: deab 013c 3425 b1bd 71bc e53d 6413 ccbc
00000030: a7eb 5cbd 1d12 c53d 55bc ac3b cc1c e43c
00000040: 6b57 54bd d631 6e3c 198d 153d e804 8fbd
00000050: 0363 8b3d bada ed3d 82fe bcbd 63b4 7fbd
00000060: 890d 03bd 307b 0a3d d53d 6d3d 976f 17be
00000070: ea3f ba3d 5ec6 ba3d c764 6cbc a654 8f3c
00000080: 07d6 833c 0104 b13d 73a6 86bd ce55 0abe
00000090: 1ad1 93bb aaba a7bd bfcb d7bd 0008 dfbd
000000a0: 74fd 05bd ac64 003e 2750 81bd f6e9 91bc
000000b0: b92b b5bd 4649 df3d 554c bdbd 2a2a e5ba
000000c0: 6709 303d 354a 45bc d88c f93d 13dd a0bd
000000d0: 0d28 f13d 771c 70bd d713 6bbd fcdc 883d
000000e0: 9c2d 4a3d 3e4c 5d3c 0d16 e43c 433c e9bb
000000f0: ae7e edbd a983 273c 6dd2 c3bc 5e60 2f3d
00000100: b7ee 93bd 086a bfbd 8045 babd b151 763d
00000110: a154 8e3d b200 09be f899 0cbb a801 ac3d
00000120: c22c f3bd 6bae 48bd b12f 873d 445c 06be
00000130: 5af9 e7bc 72f5 3ebd fbfb 07bc 5532 82bc
00000140: 6269 c4bd b8e8 d1bd c5c3 40bd b10d a93c
00000150: 1201 6eb9 b946 0f3d bc6c 943d afe2 953b
00000160: 9965 a8bc 0f9d 1c3d c02e 16b7 5996 cc3c
00000170: 4b11 7cbd 69e4 8dbd 4887 b13c 916f e03c
00000180: 203b f4bd 703b 0bbd 7311 66bd 5eb0 353d
00000190: 2b2f 533d d7f3 e3bc c68d acbd 57e3 5bbd
000001a0: d28f a8bc 7b33 afbd 6e09 023d 641b 3f3c
000001b0: 8862 debd fc98 f6bc 149d 75bd 8d99 743d
000001c0: 97c2 d7bd 824c d63c abf2 b0bd fece d1bd
000001d0: 0820 14bd 0457 ecbd 640d 093e d7e6 9bbc
000001e0: 88cc 0ebe 969d 613d 8fbf 3b3d 33cc 9e3d
000001f0: 7e0d 01be b28f 1b3e d52f aebd f33a 97bd
00000200: c4f7 93bc 24eb 1f3a 207c 583d 4125 e0bc
00000210: fb72 783d e095 133d 9fd0 b63d 4d00 093e
00000220: 87fc 36bc a97c 213d 6288 8b3c 44bd 01bd
00000230: af6d 9dbd aa4e 4ebd 71c5 ce3c b82d c33d
00000240: 50b4 073c cf9b bdbc 8582 f8bd 0a22 7dbd
00000250: 3a3d a63c 2117 bbbb 278f 863d 5464 cabc
00000260: 21d6 bfbd e01e eabc 8dfe a2bc 2a56 c1bc
00000270: d16e 763c 0d64 3bbd ebf0 5f3d f7e3 c53b
00000280: 9064 f33d b3d5 9f3d 0a48 07be 5a54 a9bd
00000290: d53e 7fbd 5fbb ad3d 5f30 c7bd 45f9 02bd
000002a0: 9007 1f3c 4fe4 e03d f1e5 053d 8815 c4bc
000002b0: 5e42 38ba db58 7cbc 316b 87bd 2b0e 953d
000002c0: 2f5a 663d 0456 f03d eee0 ddbd e65d 18bd
000002d0: 6c9f 8fbd aa98 3abd 106f aebd 09e8 773d
000002e0: e451 b03d 1e23 71bc ca76 bb3d bd9e 06be
000002f0: e102 643d 372c e03c d1d4 b23d bceb df3b
00000300: 0811 913b 75b3 b43c aaf7 debd b017 a13c
00000310: efc7 acbc 3d48 4fbd b672 02bd 436e 973d
00000320: 2359 d43d 0c3c 023c df08 8c3d 6932 d7bd
00000330: 96b6 55bc 84dc 9d3d e246 fdbd 1016 d73d
00000340: 75e9 08bd f3d5 c53d 09ba 2ebd f0cf 823d
00000350: 523c 903c aac7 973b b246 093e 18dd c2bd
00000360: b96f 1bbd 419a d2bc 2850 25bb abc1 613d
00000370: 3e2c 673d 7cf3 ab3d c254 ccbc 7d16 bfbc
00000380: 2a1f 85bc 726e 313d 31d7 213d 12da 04be
00000390: 7205 90bc 2e22 55bb 3e3f f1bd d923 c6bd
000003a0: ff45 8f3c 1b9e d93c 9bec 303d cbcf dcbd
000003b0: 60ac dfbd cd5d a7bd fb12 e43b 5400 edbd
000003c0: 9dc6 73bd 2bc3 223c e660 32bc f100 f53b
000003d0: 7cff 63ba b6f1 69ba 86c8 7dbc 2d87 7f3d
000003e0: 5356 883d 3d87 7cbb b46a 51bc 72fd 153d
000003f0: 535c 63bd dd94 35bd 62b5 d53d ea66 20bd

bias f4 [16]
0.047617506 -0.025942694 0.01721356 -0.042193092 0.03108891 0.018189406 0.019185128 -0.07531983
0.01841052 0.047605067 0.03131245 0.014637209 0.020854376 -0.034141697 0.0068444507 -0.052912075
00000000: 930a 433d c685 d4bc 7403 8d3c aad2 2cbd
00000010: 2bae fe3c f301 953c 212a 9d3c 4841 9abd
00000020: a9d1 963c 88fd 423d 7c41 003d e7d0 6f3c
00000030: ccd6 aa3c 2ad8 0bbd 6a47 e03b 55ba 58bd
