results/transformations/mapping_files/VAE/FMNIST_VAE_8_2>FMNIST_VAE_8_3>NeuralNetwork_100_0.2_nodropout_128_convex_hull.pth (torch, 81156 bytes, 6 tensors)

weight f4 [128, 8]
000000 ea 2f 73 3e 3c ca 1c bc 54 3b 31 be a1 8d 9e 3c
       0.23748747 -0.009569701 -0.17307788 0.019354643
000010 bc 55 3d be b6 89 21 be ce e0 4a be 38 65 0b bc
       -0.18489736 -0.15775189 -0.19812319 -0.008508019
000020 ad d5 66 3c 09 06 cf bd ac 43 89 3e 62 dd 17 be
       0.01408903 -0.10108573 0.26809442 -0.14830545
000030 1f b0 4d be fd 8f 0c bc b2 d8 86 be a1 4b 61 3c
       -0.20086716 -0.008579251 -0.263372 0.0137509415
000040 4a 48 b0 3d 91 4d 02 bc 28 84 57 be d6 5f 1f bc
       0.08607538 -0.007953064 -0.21046507 -0.009727439
000050 d1 84 6d be a1 51 ea 3d 39 5f 4c be 0b 29 94 3d
       -0.23195197 0.11441351 -0.199582 0.07234391
000060 34 81 3d bd f1 aa 8d 3d c5 8e 15 bd 64 92 23 bc
       -0.046265796 0.0691737 -0.03651311 -0.009983633
000070 7a 0e 35 3e f1 fc 11 bd f3 cc 21 3e 02 af 05 3c
       0.17681304 -0.035641614 0.15800838 0.008159401
000080 62 ce 6a 3b db 07 81 bd 5b 7e 65 3e e7 ca 51 3e
       0.003582858 -0.063003264 0.22411482 0.20487557
000090 e8 85 6f 3e 71 7e 80 3b d1 97 85 3e 99 f3 66 3e
       0.23390925 0.003921323 0.2609239 0.22553863
0000a0 47 3a 11 bd e5 ac 12 3d 22 1c 7a be b4 23 73 3e
       -0.03545597 0.035809416 -0.24424794 0.23744088
0000b0 d1 a8 78 be 28 51 65 be 7d a6 e1 bd 10 23 99 bc
       -0.24283148 -0.2239424 -0.11018083 -0.018693477
0000c0 0a 78 15 bb 24 59 17 be cd 82 ee bd de 8c 42 3b
       -0.0022807145 -0.14780098 -0.11646042 0.0029686014
0000d0 7a 39 2f bb 02 6f ea bd 4b 43 82 be 78 b8 66 3c
       -0.002673714 -0.11446954 -0.25441965 0.014082067
0000e0 95 63 64 bd 49 2c 8a 3e 1c db d1 39 7c c0 8a bc
       -0.05575903 0.26986912 0.00040026836 -0.016937487
0000f0 26 9f 29 bb 50 46 05 be 2a 0c 3c 3c ae 18 e0 3c
       -0.0025882213 -0.13015103 0.0114775095 0.027355518
000100 65 4a 11 be 15 88 fd bc 8c ae 0a be e4 9f 1b 3d
       -0.14188536 -0.030948678 -0.13543147 0.03799428
000110 bc 70 b0 3b 2a 95 33 3b 30 1a 11 bd 12 93 55 bb
       0.0053845327 0.002740214 -0.035425365 -0.0032588881
000120 a9 fe 75 be b3 ce 0c bc 00 04 b0 bd 21 98 50 bc
       -0.24022926 -0.008594203 -0.08594513 -0.012731583
000130 44 42 4f bb 2b c6 59 be e3 29 88 3d 54 58 3b be
       -0.003162519 -0.21267001 0.06648614 -0.18295413
000140 ae fc 7e 3e 03 85 51 3e b0 9d 1c bc c0 3a 2d bc
       0.24901077 0.20460896 -0.00955908 -0.010573089
000150 b8 88 64 3e 2c 3f 67 3d 1d d3 83 3d b2 5e 82 be
       0.22317779 0.05645673 0.06436751 -0.25462872
000160 ea 13 f6 3b 4b 6c 00 3c 3b 6b 13 be cc 42 7d 3e
       0.007509698 0.007838319 -0.14396374 0.24732512
000170 c8 25 84 b9 ec 6e 05 bc d9 ba 91 3d b3 a1 a3 bd
       -0.0002520515 -0.008144122 0.071157165 -0.07989826
000180 0b 23 ee bd d3 68 88 be 87 0a e4 bd 20 3b 43 bd
       -0.11627778 -0.26642475 -0.111348204 -0.047663808
000190 67 b4 08 3c b6 76 bb 3b ee b6 f7 bb 87 7b a4 bd
       0.0083437925 0.0057209386 -0.0075596487 -0.080313735
0001a0 46 e6 0c be 3f c7 27 be 01 23 3d 3e 2a cc 8a be
       -0.13759717 -0.163846 0.18470384 -0.2710889
0001b0 34 ce 05 bc da 19 58 3e 28 f6 2a bb 96 44 82 3e
       -0.008166838 0.21103612 -0.0026086662 0.25442952
0001c0 86 9d 25 be 03 c5 ac 3d 15 e0 2f be 46 6d d9 3d
       -0.16173372 0.084360145 -0.17175324 0.106165454
0001d0 e4 c4 36 be 22 de 6e bb 7b db 2c be 96 99 02 3d
       -0.17848545 -0.003644832 -0.168806 0.031884752
0001e0 7d 22 b0 3d 57 5d 49 3c 0e 90 fa bd b1 ce 6d be
       0.08600328 0.01229032 -0.122345075 -0.23223378
0001f0 40 c3 18 be e2 5c c3 3d 3e ac 0c ba 35 c7 85 be
       -0.14918232 0.095392 -0.0005366242 -0.26128545
000200 96 cc 72 3d 3a e3 5f 3e 84 61 aa bc d4 7b 9c 3d
       0.05927714 0.21864024 -0.020798452 0.07640806
000210 63 e1 c2 3b 96 a9 21 bc 8a 77 3e be 42 8f 1d 3e
       0.0059472783 -0.009867093 -0.18600288 0.1538668
000220 40 09 1d 3c d5 fc a1 3d ee 38 7e be eb 79 2e bc
       0.009584725 0.07909552 -0.24826404 -0.010649185
000230 2d 92 83 3b 8e 91 11 3e 3f f8 07 be be 88 3c bb
       0.0040152282 0.14215681 -0.13278292 -0.0028768028
000240 b1 18 9b 3d 5d 52 b1 bc ae cf 66 3e ce 10 89 be
       0.07573069 -0.02164572 0.22540161 -0.26770633
000250 f9 a2 50 be e6 95 3e 3a 3c 0a 9c bc d6 8d 77 3e
       -0.20374669 0.00072702614 -0.019047849 0.241752
000260 e5 09 f2 3d fc ab 42 be 0c 76 80 3e 31 7a 21 bc
       0.118182935 -0.1901092 0.25090063 -0.009855793
000270 84 6b 6c 3e 42 d4 7c 3e 26 55 42 3e 6e a9 a2 bd
       0.23087889 0.24690345 0.18977794 -0.079424724
000280 f2 7d 09 be 31 52 5e be d5 14 51 3e 18 f3 87 be
       -0.1342695 -0.21711041 0.20418103 -0.26552653
000290 bb fe 24 be bb 32 28 3e 80 b0 38 bc 40 00 0a 3d
       -0.16112797 0.16425602 -0.01127255 0.033691645
0002a0 68 2c b9 bb 4e ea e4 3d 12 b9 71 3d c4 1d fa 39
       -0.0056510456 0.111775026 0.059014387 0.00047705893
0002b0 4e 51 80 be 1b 82 67 bb 37 00 62 3c 83 8d ec 3d
       -0.2506203 -0.0035325352 0.013793997 0.11550429
0002c0 a4 4a 9b 3d 73 89 85 3e 0c c1 c6 3c 8e 94 04 3e
       0.07582596 0.26081428 0.024261974 0.12947294
0002d0 8c 5c 79 bd e6 0d 97 3d 21 5b 20 be ed c6 71 be
       -0.060879275 0.07375698 -0.15659763 -0.2361104
0002e0 28 d0 0a bc 74 ef 2e bd d0 05 04 3d 9e e4 49 3d
       -0.00847248 -0.04270883 0.032232106 0.049290292
0002f0 04 13 9c bc 53 83 4a be 78 4a 2c 3e d7 2e 18 3e
       -0.019052036 -0.19776659 0.16825283 0.14861618
000300 78 df 31 be ac af 97 bd 52 3d f3 3b 9a a3 89 3b
       -0.17370403 -0.074065536 0.0074230814 0.004200411
000310 47 cf a8 3c 0c 25 4c be 56 f7 46 be 5b 99 0e 3e
       0.02060665 -0.19936007 -0.19430289 0.13925688
000320 cf f2 66 be ca 5f df 3b 2b 73 47 be b5 8d 84 3d
       -0.22553562 0.006816839 -0.19477527 0.06472341
000330 0c a9 bc 3d 44 49 1f 3d 23 b8 33 bc 8b e0 45 bc
       0.09211931 0.03888823 -0.010969195 -0.012077461
000340 62 aa 19 bd f1 81 ff bd d9 b5 6a be b6 74 67 be
       -0.037516005 -0.12475956 -0.22920932 -0.22603115
000350 85 8b ee bd c1 28 78 bb f3 38 9b bd 4d 42 56 3e
       -0.11647705 -0.0037866088 -0.075792216 0.20923729
000360 22 b7 04 be c1 36 5a be 92 bf 38 3c a5 5e 60 3d
       -0.12960485 -0.2130995 0.011276143 0.05477776
000370 e3 dc 15 3e 23 7e 92 3b 14 07 79 3e f5 41 2c be
       0.14635043 0.004470603 0.24319106 -0.16822036
000380 fd bb 10 bb 0a fa 16 3b d9 6b 36 3d 3e 5f 25 be
       -0.0022084706 0.0023037218 0.044536445 -0.16149613
000390 7f 47 05 3e 44 f6 ce 3d aa 6f 46 3c 9d 5b 1b bd
       0.13015555 0.10105565 0.012111584 -0.037929166
0003a0 f3 84 d6 3d 7f 3e 93 3d 02 92 67 be 23 22 16 3d
       0.10474577 0.071896546 -0.22614291 0.03665365
0003b0 f6 be 3f 3b 68 c1 88 be 2e c7 9d bd c6 5e f2 bd
       0.0029258109 -0.26710057 -0.07704006 -0.11834483
0003c0 6a 3c 2a 3b 70 5e 35 3e e3 83 6f be d0 08 36 3e
       0.002597595 0.17711806 -0.23390155 0.17776799
0003d0 40 bd 32 3b e0 19 7c be 0e ff c4 bd 1f d5 da bd
       0.0027273446 -0.24619246 -0.0961896 -0.10685181
0003e0 d7 cd 52 3e 45 5f 59 be e5 d4 c8 3d 5e b1 30 be
       0.20586334 -0.21227749 0.098062314 -0.1725516
0003f0 78 27 a4 3d 68 aa 86 b8 58 f6 d1 ba 3e 28 84 bd
       0.080153406 -6.4213586e-05 -0.0016018851 -0.06452988

bias f4 [128]
000000 61 7f 1b be f7 58 18 be 32 2d 26 bd 02 18 d7 3a
       -0.1518531 -0.14877687 -0.040570445 0.0016410353
000010 76 c3 08 be a3 4a 68 3e b0 2b 5d 3c 29 d2 16 bd
       -0.13355812 0.22684722 0.013499185 -0.036821518
000020 f6 b0 68 3d 46 72 8b bb 9b 99 cb bd e1 1c 8c 3e
       0.056809388 -0.004255566 -0.09941407 0.27365783
000030 e4 eb 15 be 20 ea 90 3c 61 b2 32 3c ff d7 69 3c
       -0.14640766 0.017689764 0.010906787 0.014272689
000040 eb dc 6a bd 5e 36 66 3b b2 2f 36 3c b2 54 23 be
       -0.05733959 0.003512762 0.01111977 -0.15950277
000050 34 6d 33 3d a2 38 8a 3d ac 74 25 be f6 10 ec bd
       0.043805316 0.06749083 -0.16157788 -0.115266725
000060 0b f2 90 bd 29 f5 31 be f7 8d 38 be 14 5b 1a 3d
       -0.07077416 -0.17378677 -0.18022905 0.037684515
000070 75 96 2b 3e ae 81 74 3e f6 24 fc 3b df 33 f9 3d
       0.16756614 0.23877594 0.007694836 0.12168097
000080 40 c4 4c 3c d6 69 d8 bc b2 c5 4c bc 0e 5c 56 3c
       0.0124979615 -0.026417654 -0.012498306 0.013083471
000090 36 43 68 3e fe 9a 31 ba 7a ec a6 bd d4 54 57 3e
       0.22681889 -0.000677511 -0.08150573 0.21028453
0000a0 44 07 00 bd c7 0b bc 3d 26 58 30 be e4 d2 ad bd
       -0.03125693 0.09181934 -0.17221126 -0.0848749
0000b0 47 92 f3 bd a3 98 1c 3e 8d d1 b5 3c df de ea 3d
       -0.118931346 0.15292601 0.022194648 0.114682905
0000c0 a1 32 54 bd df 5e 30 3c 15 a8 e3 3b 71 c7 84 bd
       -0.051806096 0.0107648065 0.006947527 -0.06483353
0000d0 d2 f7 87 be a6 b9 74 bd 82 2f 38 3e de b5 b5 3b
       -0.2655626 -0.05974736 0.17986873 0.005545362
0000e0 46 a4 cb 3d da 6c 4a be 60 2f 96 bd 41 fd f2 bd
       0.09943442 -0.19768086 -0.07333255 -0.118647106
0000f0 80 b4 b4 3d 3b 43 dc 3d cc 90 a9 3a ed a8 00 3c
       0.0882349 0.10755011 0.001293683 0.007852775
000100 12 e6 1a be 1c 5f 89 bc 3b 33 65 be f5 cc cb 3d
       -0.15126827 -0.016768984 -0.22382824 0.09951202
000110 cd 45 57 bb 5b c4 75 3d 79 f7 3c 3b 6e 0b e3 3c
       -0.0032848 0.060001712 0.0028834029 0.027715411
000120 fc 9c 1e 3e f7 e6 1b be d2 a1 c8 bd 77 21 1f be
       0.15489572 -0.15224825 -0.0979649 -0.1554011
000130 79 b6 88 3e c3 76 cd 3a 50 e1 16 be ec 97 1b bd
       0.26701716 0.0015675653 -0.14734387 -0.03798668
000140 59 59 78 be ba a7 50 be 4c a1 a3 3c 16 32 36 3e
       -0.24252833 -0.20376483 0.019974373 0.17792544
000150 51 4e c4 bd 7c ab 85 be 8b 05 8c be 85 b8 7a be
       -0.0958525 -0.26107395 -0.2734798 -0.24484451
000160 70 30 96 bc 60 c5 bc bd dd 0a 29 be 52 57 3f bb
       -0.018333644 -0.09217334 -0.1650805 -0.0029196334
000170 a8 c7 e3 3d ca 24 3c be 95 b2 d5 bd ba 96 82 3d
       0.11122066 -0.18373409 -0.104344524 0.06376405
000180 8e 00 45 3c 7a 1c 17 3e 18 c7 58 be 3d 43 4b 3e
       0.012024058 0.14756957 -0.21169698 0.19849868
000190 ab 25 15 3c 26 e4 28 3d e9 fc 4e 3e b0 4e 3e be
       0.009103219 0.041233204 0.20213665 -0.18584704
0001a0 92 74 42 be f2 13 5e be c0 a4 8e bc 23 f2 64 be
       -0.1898978 -0.21687296 -0.017412543 -0.22357993
0001b0 69 02 ec bd 40 84 c8 bc 24 6f 9f 3d bd 7d f1 3c
       -0.11523897 -0.024477124 0.0778487 0.029478902
0001c0 39 7e 78 3d 16 7e 8c be 15 b1 78 bb 96 f2 05 bd
       0.06066725 -0.27439946 -0.0037947346 -0.03270205
0001d0 c0 61 a3 ba a0 60 7c 3e b0 b8 12 3e f4 f1 8a 3e
       -0.0012465045 0.24646235 0.14328265 0.2713772
0001e0 be 28 d0 bd c9 64 23 3e 27 de 36 3e 72 2b 7a 3d
       -0.10164021 0.15956415 0.17858182 0.06107659
0001f0 d4 d4 80 3e e6 99 f8 3c e8 d2 a6 3b b3 7d 39 bc
       0.25162375 0.030346822 0.00509106 -0.011321473

weight f4 [128, 128]
000000 fc 7d 6d 3c de 6e be bb fd bd 12 bc be a5 a5 3b
       0.014495369 -0.0058115562 -0.00895643 0.0050551584
000010 7e 6a 0a bb 52 46 c5 3b 83 7f 49 3b 08 55 7d bb
       -0.0021120603 0.0060203457 0.003074617 -0.003865542
000020 f0 ca e6 ba ab 3a 9b 39 af 91 94 3b e4 f8 e1 3b
       -0.0017608088 0.00029607615 0.0045339684 0.006896125
000030 86 33 e3 ba b4 1f 84 bc ce 78 fc bb 27 50 34 ba
       -0.0017334081 -0.016128398 -0.0077048307 -0.00068783987
000040 1e 25 7d 3a 7a 50 ba bb 76 e3 3c 3c 76 81 71 bb
       0.0009656715 -0.005685863 0.01152884 -0.0036850846
000050 01 f0 24 3c 8b ba b4 bb 3d 68 87 ba 71 32 42 bc
       0.010066987 -0.0055154017 -0.0010330748 -0.0118528465
000060 37 e4 9a 3a f2 a9 4c 3c 78 01 a8 ba dd dd 15 3a
       0.0011817281 0.01249169 -0.001281782 0.0005716959
000070 a5 0c 9c bb f2 61 99 bb f4 6d 6c 38 e6 10 a5 3a
       -0.0047622495 -0.0046808654 5.6369186e-05 0.0012593537
000080 e0 a9 60 3c a4 07 5a 3c b9 ff 50 3c de a1 42 bc
       0.013712376 0.013307486 0.0127562815 -0.011879412
000090 46 82 49 3c d8 2b 64 bb 2c 89 f6 3a 09 c9 df 3b
       0.012299126 -0.0034816172 0.0018809191 0.006829385
0000a0 0d 36 20 3b 8f ca 8c 3b 1d c5 15 3c 44 62 34 3c
       0.002444628 0.004296608 0.009141234 0.0110097565
0000b0 3d 9f 0f bc 9a 98 61 3c 64 03 01 3c 75 9a ee 3a
       -0.008765993 0.013769293 0.007874344 0.0018203991
0000c0 0f 37 0d 3c f7 01 10 bc f8 f1 ed 3b c2 f1 a0 3b
       0.008619084 -0.008789531 0.007261511 0.0049116323
0000d0 ca 5f 08 bc a3 4c 10 3c e7 59 16 3c de 4b d7 ba
       -0.008323619 0.008807334 0.009176708 -0.0016425808
0000e0 ef 9e cf bb 52 70 64 bb 26 3a f6 3b 5d 69 3b 3c
       -0.006336085 -0.0034856987 0.007514256 0.011438695
0000f0 fc 7d 38 3b d6 1b 27 bc f7 fa 38 bc ce ea e8 ba
       0.0028151264 -0.010199508 -0.011290303 -0.0017770173
000100 f3 5e 0b 3b 61 9a 4d bc 50 ab d4 3b d9 28 87 bb
       0.002126631 -0.012549014 0.0064901486 -0.0041247425
000110 67 13 7e bc 15 92 63 3b 67 33 f6 bb 42 1d c5 3b
       -0.015507556 0.0034724523 -0.007513452 0.0060154507
000120 a4 84 06 bc b4 4b d0 3a f1 64 fe 3b 0d a2 85 3b
       -0.008210335 0.0015891702 0.007763498 0.004078156
000130 ca 62 22 3c 60 df f2 3b d2 48 cc 3b b4 07 8d bb
       0.009911248 0.0074118823 0.006234267 -0.004303897
000140 ff 6b 24 3c de 4b d1 bb df 7c 29 3c d4 8e ad 3b
       0.010035514 -0.006387218 0.010344713 0.0052965675
000150 be 4c e1 3a d1 1e 95 bb d5 e5 25 bb 84 05 42 3c
       0.0017189009 -0.0045507927 -0.0025313993 0.011842135
000160 4f 5b 4d bc a0 c4 85 b9 d7 60 bb bb 16 c0 c1 ba
       -0.012533977 -0.00025514234 -0.0057183313 -0.0014781978
000170 38 11 4e bc b0 a4 4d 39 18 15 db 3b 6c 22 44 3c
       -0.012577347 0.00019611674 0.006685864 0.011971097
000180 94 b2 73 3c 47 b8 ad bb 88 c3 81 bc f1 69 66 bb
       0.014874119 -0.0053015086 -0.015840307 -0.003515836
000190 05 58 37 bb ee ea 58 3c 14 9d 5e bc 4c 94 64 bc
       -0.0027976048 0.013239605 -0.013587255 -0.013951372
0001a0 b1 51 c8 3b 32 b1 b6 bb 6e 0c f9 bb f6 af e0 39
       0.006113254 -0.0055753225 -0.0076003587 0.0004285571
0001b0 48 70 00 bc f8 10 24 bb 45 10 76 bc bc c1 cc 3b
       -0.00783927 -0.0025034528 -0.015018527 0.006248681
0001c0 3c 4e 9e ba 44 8a ec 3b 31 3b ae ba c2 50 43 39
       -0.0012077759 0.007218631 -0.0013292787 0.00018626734
0001d0 7d 0d b1 3b 67 41 48 3a d0 f0 2b bc 68 6e 19 3c
       0.0054032193 0.000763914 -0.010494426 0.009364702
0001e0 ed 0b 18 bc eb f7 14 3c 7c 48 f7 3b 86 76 d4 3b
       -0.009280187 0.009092311 0.0075464826 0.0064838557
0001f0 16 98 56 3b 1c 64 e4 3a 4c f4 b0 3a 47 cb 72 bc
       0.003274446 0.0017424854 0.001350054 -0.014818973
000200 0d fd 17 3c d8 af 02 3c 00 6c 61 bb 32 88 36 ba
       0.009276641 0.007976495 -0.0034396648 -0.00069630437
000210 79 e4 57 3c fe 8c 94 3a 0f 89 31 3c 6c 5d 42 b9
       0.013177031 0.0011333523 0.0108359 -0.00018536084
000220 ac ee 7d ba 5c 82 17 3b d8 28 ba 3b 30 2b 48 bb
       -0.0009686749 0.0023118472 0.0056811385 -0.003054332
000230 6c be f4 3a ec 43 29 bc 4c 82 a8 b9 ac 95 27 3c
       0.0018672473 -0.010331135 -0.00032140536 0.010228556
000240 44 25 ab 3b ae f0 0d bb d9 fd 80 bc 7f c3 56 3c
       0.0052229483 -0.002165835 -0.015746044 0.013108133
000250 35 39 0b bb 0d 7a d8 3b 5c 66 52 3a 2a 58 4a 3a
       -0.0021243815 0.0066063465 0.0008026117 0.0007718826
000260 dc 48 2e 3b f5 37 fd 3a 1c 2d e6 bb c7 f9 93 3c
       0.002659372 0.0019319045 -0.0070244204 0.018063439
000270 1c 09 1c 3c d6 77 f3 3a c5 2d 2c bc fd 02 4e 3c
       0.009523656 0.0018575143 -0.010508959 0.012573955
000280 df 57 36 bc 62 45 eb 3a 7f 03 2e 3a 07 e1 e8 bb
       -0.011129349 0.0017949755 0.0006638094 -0.0071069035
000290 f3 fd 63 3b 13 d0 0f 3c 5f a1 30 3c c2 55 60 3c
       0.0034788817 0.008777636 0.010780661 0.013692321
0002a0 ae 82 c3 bb 8f e6 e7 ba 50 74 30 3b a1 34 56 bb
       -0.005966506 -0.0017692613 0.0026924796 -0.0032685178
0002b0 ca b5 f0 bb 60 47 c6 3b e6 21 6b bc 32 15 02 3c
       -0.0073458897 0.006050989 -0.014351344 0.007939624
0002c0 38 c5 29 bc 22 c8 4c bc 32 15 64 3b f4 ef e7 b9
       -0.010361962 -0.012498887 0.0034802672 -0.00044238532
0002d0 54 68 3b bc fc e3 1c bc 9c a7 45 3c 40 c3 75 b9
       -0.011438448 -0.00957584 0.012063887 -0.00023437757
0002e0 5b ce ac 3b c6 f4 29 bb 67 fb 43 bb 60 81 72 bb
       0.005273623 -0.002593325 -0.0029904486 -0.0037003383
0002f0 0b 32 45 ba d2 99 2b bc 9f 0d 35 3c b1 60 22 bb
       -0.00075224106 -0.010473685 0.011050611 -0.002477687
000300 e6 01 07 3b 9f 11 52 bc d0 3d 3d 3c 87 3e 13 3c
       0.0020600497 -0.012821584 0.011550382 0.008987076
000310 19 df 13 bc dc e4 e0 ba 3e fe 7d 3a 32 d2 9a bb
       -0.009025359 -0.0017158049 0.0009689069 -0.0047247643
000320 84 8a 85 39 67 1f e9 bb 90 c3 19 ba f8 e1 f2 ba
       0.0002547094 -0.007114339 -0.0005865628 -0.0018530479
000330 8d c4 97 3b 2c 6c 85 3b 16 c6 f4 39 ee 3e d3 bb
       0.004631585 0.004071733 0.00046686892 -0.006446711
000340 12 be 94 ba 4c 89 b0 b9 e1 b9 42 3b 7e cf 7b 3b
       -0.0011348149 -0.0003367163 0.0029712843 0.0038423236
000350 90 de 5e 3b 3f 18 d7 3b 66 07 cb 3b 27 a8 17 3b
       0.003400717 0.0065641697 0.0061959503 0.0023140998
000360 7a cf fe ba 50 a8 c0 bb 3b 03 35 3c 3d ed 3f 3c
       -0.0019440495 -0.0058794394 0.0110481335 0.011714277
000370 ce 8a 20 3c 6a 37 bd ba ed 00 47 3c 54 dd 69 3b
       0.009798719 -0.001443607 0.012146217 0.00356849
000380 a2 c5 80 3b de 3f 83 bc 9e e9 ce bb cc b6 41 3b
       0.0039298097 -0.016021665 -0.0063144704 0.0029558418
000390 46 b9 2c bc ce 85 0e bc 5c 62 16 bc b0 af d0 3b
       -0.0105422195 -0.008698894 -0.009178724 0.0063686
0003a0 2e 11 9b bb 2b 6c 39 3c 94 df 10 bc 8e 6b b3 bb
       -0.0047322726 0.011317293 -0.008842368 -0.005475468
0003b0 20 45 a5 b8 a1 68 8d 3b 4d 74 b3 3b dc 8d 4b ba
       -7.880689e-05 0.0043154513 0.0054765106 -0.0007764974
0003c0 9e 67 fd 3b a2 79 1d bc 5a b0 13 bb 45 27 17 bb
       0.0077332994 -0.009611519 -0.0022535534 -0.0023064178
0003d0 c9 33 18 3c 94 6c 5d 3c 9e a0 03 bb 07 20 9c bb
       0.00928969 0.013514657 -0.002008475 -0.00476456
0003e0 70 67 b5 38 6c ae 72 3c 28 e5 c2 ba 5c 8f 29 3b
       8.650019e-05 0.014812093 -0.0014869319 0.0025872802
0003f0 7f 19 7b bc 36 fd 77 3b 0e f2 ea 3b 4e c3 d0 39
       -0.015325903 0.0037840134 0.0071699684 0.00039818365

bias f4 [128]
000000 7f 99 08 bc 90 21 17 bc 05 fe 8b 3b f3 40 5b 3c
       -0.008337378 -0.0092243105 0.004272225 0.013382184
000010 a8 ec 07 3a c1 59 4f 3b 30 0c d9 bb 40 d4 cd 3b
       0.0005185106 0.003163919 -0.0066237673 0.0062814057
000020 f8 3c 41 3b b0 34 4e 3c 1b 33 07 3b 24 e6 6c 3c
       0.0029485803 0.012585804 0.0020629826 0.014459167
000030 ee 46 0b 3c 30 61 d8 3b 4c 01 de bb 2f dd 8d bb
       0.008500798 0.0066033825 -0.006775057 -0.0043293457
000040 b9 14 3c bc c2 29 8f bb c3 72 99 3c ac ea 08 3c
       -0.01147955 -0.0043689916 0.01873148 0.008356731
000050 0c 08 6e 3c e6 96 85 3c 9e ee 12 3b 9d d5 41 3c
       0.014528286 0.016307306 0.002242006 0.0118307145
000060 9b d9 01 bc 3b 64 38 3c 1f 6c 87 3c eb 59 b2 3c
       -0.007925416 0.011254366 0.016531048 0.021771392
000070 20 3b d3 3b 7a 81 83 3b be 45 26 3c 98 bf fe 3b
       0.0064462572 0.0040132375 0.010148464 0.0077743046
000080 95 be 61 3c 81 7a 59 3c 11 e6 6d 3d 58 4f 73 b9
       0.013778348 0.013273836 0.058080737 -0.00023203844
000090 e0 1a 0d bc 1c 69 f5 bb 7d 78 25 3c c0 e3 71 3c
       -0.0086123645 -0.0074893367 0.010099527 0.0147637725
0000a0 4b 44 1e ba ea 3f 5c bb e4 49 90 3c 46 28 9d bb
       -0.0006037398 -0.0033607432 0.017613359 -0.0047960607
0000b0 a8 9c 1d 3c d2 71 6e 3b 58 12 17 bc 08 a0 2c 3a
       0.009619869 0.003638376 -0.009220682 0.0006585126
0000c0 03 af 34 3c 4c 69 54 3c 4f 6e 8d 3c 8c aa b9 3b
       0.011028054 0.012964558 0.017264513 0.0056660827
0000d0 1c 6a d3 3a 6e f4 a3 bb 4c 58 7a 3b b7 22 6d 3c
       0.0016129646 -0.0050035035 0.0038199602 0.014473609
0000e0 a1 8e 2c bb 63 1e 09 3c 6b 19 30 bc fb fd be 3c
       -0.002633013 0.008369061 -0.010748248 0.023314467
0000f0 76 62 0d 3c 7c 00 43 3c 64 87 2e ba 38 3b ea 3b
       0.008629432 0.011901971 -0.0006657748 0.0071481727
000100 96 cd c6 bb 6d 2a 94 bb 9d f1 db b9 0c 14 86 3c
       -0.006066988 -0.004521659 -0.0004195095 0.016366981
000110 f9 69 40 bb af f5 6d 3b 5e 32 18 3c ef 95 10 3c
       -0.002936004 0.003630977 0.009289352 0.008824809
000120 15 92 73 3c cf b3 ca 3b b2 5c 9a 3b 73 0a 27 3c
       0.014866372 0.0061859856 0.004710757 0.010195362
000130 57 7d b9 3b 5a 44 26 3c 33 6c 4d 3b 53 4a be bb
       0.0056606936 0.010148132 0.003134501 -0.0058072
000140 fd 79 28 3c e0 b1 bd bb 93 74 08 bb 37 64 aa 3c
       0.0102829905 -0.0057890266 -0.0020821437 0.02079974
000150 d5 e8 f3 3a 70 f7 ef ba 00 1c 0a 3b 4d 4e 9e 3b
       0.0018608818 -0.0018307995 0.0021073818 0.0048311115
000160 de 87 2d 3c b5 1e 84 3b 12 ca d3 39 38 20 1f 3c
       0.010591475 0.004031981 0.0004039561 0.009712271
000170 b3 44 8b bc f8 43 b7 3b 72 63 bc bb 0b 0b e3 bb
       -0.017000532 0.0055928193 -0.0057491595 -0.0069288067
000180 16 d7 32 ba 1b fe 2b bc 7c 9f cf b9 90 ce 84 3c
       -0.00068222114 -0.010497595 -0.00039600942 0.016211778
000190 0d 34 b3 3c 28 5e ac 3b 1e 6b 0a 3c 2e df 76 bb
       0.021875406 0.0052602477 0.00844839 -0.0037669647
0001a0 8a e6 8e 3c 8c df ff bb ca 12 5a 3c 4a 29 05 3c
       0.017443914 -0.0078086313 0.013310144 0.00812752
0001b0 7e 7a c3 ba 40 a4 ab 3b 80 21 6d 3c 94 bb e9 3b
       -0.0014913825 0.005238086 0.014473319 0.0071329568
0001c0 9a 54 8f 3b 70 93 41 3c c0 7b 77 bc 11 6f cd 3c
       0.004374099 0.011814937 -0.015105188 0.025077375
0001d0 2f 87 d2 3c df af 5c 3c 60 1e 9c 3b ef 10 b8 3c
       0.025699226 0.013469665 0.004764363 0.022469012
0001e0 fb 30 1f bc 44 3c 24 bb 5d 7e 6a 3c 55 f0 22 3c
       -0.009716268 -0.0025060335 0.014312354 0.009944995
0001f0 09 95 f6 bb 4a 7c 37 3b 9c a7 7c 3b e5 2d 2c bc
       -0.0075250906 0.0027997666 0.0038552051 -0.010508989

weight f4 [8, 128]
000000 6e fa e6 3b 1b f5 35 3b 9f 37 2e bd 86 ec 39 3b
       0.0070488965 0.0027764502 -0.042533513 0.0028369739
000010 08 db 06 3d 0f 49 2d 3b 42 38 34 bc 5c 01 fb 3b
       0.03292373 0.0026441251 -0.010999741 0.007660074
000020 c6 b0 80 3c 02 5c d7 3c 7e f3 45 bc b4 4b bf bb
       0.015709292 0.02628899 -0.012081979 -0.005837882
000030 59 7e 58 bc 82 1a 61 3c 06 89 5e ba 3e d5 fc 3b
       -0.013213717 0.01373923 -0.0008489046 0.00771585
000040 a3 91 14 3d 92 a0 75 3c 59 4b 5f 3c 2b ba b2 bc
       0.036271702 0.014991896 0.013628804 -0.021817287
000050 03 2c 88 bd 4e ab b2 bb 23 96 9c bc 93 ea 0c 3c
       -0.066490196 -0.00545255 -0.01911456 0.008600849
000060 5f af 41 bb 4f fc 49 3d d2 5c b8 3c a3 a8 8e 3c
       -0.0029553992 0.049312886 0.022505198 0.017414397
000070 e8 76 96 3c b1 ff 31 3c a7 d1 ff bc 56 77 2f 3c
       0.018367246 0.010864184 -0.0312279 0.010709604
000080 57 15 43 bc 6e 38 c4 bb 5f 0e 22 be 66 fa 56 bc
       -0.011906943 -0.0059881723 -0.15825795 -0.013121223
000090 10 d0 fa 3b 46 e8 11 bc cc 54 f8 bc 9e 55 ab bc
       0.0076541975 -0.008905476 -0.030313872 -0.020914849
0000a0 b0 b1 79 3c f2 a2 41 ba d4 36 84 bd 02 b3 93 bb
       0.015240118 -0.00073866465 -0.0645577 -0.0045074234
0000b0 98 5b cb 3c 0c a0 b1 3c da 7f 55 3c dc 8a 19 bd
       0.024823949 0.021682762 0.0130309705 -0.037485942
0000c0 ad bd 5b 3d 56 dd 1a bd 14 1e 35 bd 1c 2f b0 3c
       0.053647686 -0.03780874 -0.044218138 0.021506839
0000d0 69 6c 49 3c 03 91 31 ba 86 24 c7 bc 73 69 24 3d
       0.012293913 -0.00067736226 -0.024309408 0.040139627
0000e0 56 1a 92 3c 1a e4 d8 ba 60 d4 54 3c f8 c8 f1 3c
       0.017834824 -0.0016547472 0.012990087 0.029514775
0000f0 f4 36 68 3c 7e 7e 6f 3c a8 13 81 3b f2 c7 f0 3c
       0.014173258 0.01461756 0.003939111 0.029392216
000100 f3 41 c4 bc 30 30 eb bb 2b 04 14 bd 42 64 e3 bc
       -0.023957228 -0.0071773753 -0.036136787 -0.027757768
000110 e0 b7 3c bd dc 5f 50 bd 72 e2 ce bc bd e7 01 bd
       -0.046073794 -0.05087267 -0.025254462 -0.031715143
000120 f7 1b 9f 3c e8 88 0b 3d ba ad 8d ba 1c bd 05 bd
       0.019422514 0.03406611 -0.0010809221 -0.032651052
000130 44 ab 0e 3d 35 3d 84 3b cf 25 1b bc 9d 14 aa bb
       0.0348313 0.0040356168 -0.0094694635 -0.0051904456
000140 c8 0b c5 bc f4 7e 49 bc 48 c9 1b bc 55 0b 19 3d
       -0.02405347 -0.012298334 -0.009508438 0.037364323
000150 57 b4 0a bd 77 65 c9 bb 3e 75 c5 bb 32 b3 a1 3c
       -0.03386339 -0.0061461288 -0.0060259392 0.019738767
000160 57 b1 48 3c 7c d2 00 bd e5 19 ba 3b 03 be 89 bc
       0.012249312 -0.031450734 0.0056793564 -0.016814237
000170 d8 0f 3f bd 9a 25 02 bc 02 34 d1 bb 19 34 95 bc
       -0.04664597 -0.007943535 -0.0063843736 -0.018213319
000180 0f d5 61 bd 54 56 9e bc 09 61 b3 bc bb 58 1a 3d
       -0.05513483 -0.019328274 -0.021896856 0.037682276
000190 a0 2b 9a 3b 5d 18 ed bc 09 6a 19 bd 80 c5 40 b9
       0.0047049075 -0.028942281 -0.03745464 -0.00018384121
0001a0 30 2f 86 bd 79 61 62 3b 4d 2f 9f 3c 40 30 aa bd
       -0.06551969 0.0034542962 0.019431734 -0.08309984
0001b0 1f fe 1a 3c 31 f0 ed bc 09 1a a0 3d cd a9 49 bd
       0.009460001 -0.029045196 0.07817466 -0.0492342
0001c0 fd 5d 40 bc 54 b8 b1 bc 92 6c c1 bb 1b 11 10 3d
       -0.011741159 -0.02169434 -0.005902835 0.035172563
0001d0 bd d0 11 3d e1 c4 95 b9 cc 53 fa 3b 1d cf 24 3c
       0.03559946 -0.0002856618 0.007639384 0.010059145
0001e0 83 be 75 3b 2a d6 55 bc 63 d4 01 bd 30 58 eb 39
       0.0037497587 -0.013051549 -0.03169669 0.00044888398
0001f0 39 ba f0 bc d3 b5 45 3c d4 5e dd 3c 73 11 a2 3b
       -0.029385673 0.012067276 0.027022757 0.0049459278
000200 05 42 1d bc ec c2 43 3c 09 5c e6 bc eb cd 56 3b
       -0.00959826 0.011948328 -0.028120058 0.0032776545
000210 0d fe 3a bb 36 ea a7 3c 81 d1 f6 3b 9e 12 80 3c
       -0.0028532774 0.020497423 0.007532299 0.015633877
000220 29 42 ef 3c 6a 85 a5 3b f0 88 88 ba d1 f1 42 bd
       0.029206352 0.0050513046 -0.0010416787 -0.047593895
000230 fe 24 62 3c 96 24 72 3c 9a 5d be 3b 28 9f 2e 3a
       0.013802765 0.014779231 0.005809498 0.00066612894
000240 f9 84 7c 3c c9 75 3b bc 53 44 01 3c a3 95 c0 bb
       0.0154125625 -0.011441656 0.007889825 -0.005877213
000250 00 0f 3e 3c f1 c7 f6 3a 6c 0c 18 bc 16 d1 a5 3b
       0.011600256 0.0018827898 -0.009280305 0.0050603254
000260 52 8b 96 3c 7b be e0 bb 55 00 2b bc fb e4 42 3c
       0.01837698 -0.0068586445 -0.010437091 0.0118954135
000270 d0 65 f8 39 82 8a a2 3c 31 b3 f3 3b 97 80 a2 3b
       0.00047378102 0.019841436 0.0074371328 0.0049591768
000280 ea a8 00 bc 31 50 d8 ba ce 87 a5 3c 25 8d b0 bc
       -0.007852772 -0.0016503391 0.020206358 -0.021551678
000290 49 3b 00 bc f7 82 6c bc 85 05 0a 3c 30 2b 89 3a
       -0.007826635 -0.014435521 0.0084241675 0.0010465141
0002a0 31 fb 46 3c 52 eb 12 bb f4 56 a0 bb 6d 79 56 3c
       0.01214485 -0.0022418094 -0.004893178 0.013090474
0002b0 c6 09 a7 3b 0f 90 9a bb 67 2f 10 3c 33 f1 7e bc
       0.0050976006 -0.00471688 0.008800364 -0.015560436
0002c0 a1 77 30 bc 0c 42 09 3c c2 dd 43 3c a7 8e 8b bc
       -0.010770709 0.008377563 0.011954727 -0.017035795
0002d0 16 b6 fc 3c a8 ec 27 3c 8d f9 96 3c c4 a2 36 3d
       0.030848544 0.010249294 0.018429542 0.04458882
0002e0 f7 ea 30 3c 4c e2 a3 bc 18 23 4d 3c 06 0d 09 bc
       0.0107982075 -0.020005368 0.012520574 -0.008364921
0002f0 9a dd 78 3c 24 f4 89 3c 55 05 86 bc 8c b3 21 bb
       0.015189553 0.016840048 -0.016359964 -0.0024673669
000300 f0 f7 37 3c b5 9d fc bb f1 eb 71 3c 08 cf 51 39
       0.0112285465 -0.00770923 0.0147657255 0.00020008918
000310 10 8d 37 3c 59 ce 73 3c 45 0b d4 bb 10 c4 fd bb
       0.0112030655 0.01488074 -0.00647107 -0.0077443197
000320 b2 89 95 3c 64 43 ac bb e1 f1 b7 bb 72 73 76 3c
       0.018254135 -0.005257057 -0.005613551 0.015042173
000330 97 f1 a4 bb 3a 46 20 3b 44 b7 8d 3a 90 04 11 bb
       -0.0050336826 0.002445592 0.0010812064 -0.0022127964
000340 ef 9e 8c 3c db ec 3d 3b 0c fc 65 bc 3e 33 b3 3b
       0.01716563 0.0028980288 -0.014037143 0.005468755
000350 1a af 46 3c 4f 79 2b 3c 6a 7c f9 3b 93 6e b6 3c
       0.012126708 0.010465934 0.0076137083 0.022269523
000360 7c f4 70 3c ba c7 10 3a 2a 97 84 3b 64 ad 8b 3c
       0.014706727 0.00055229256 0.0040463405 0.017050453
000370 14 d2 05 bc 00 58 98 bb 0c 9d 51 bc 3a 9d 8b 3b
       -0.008167762 -0.0046491623 -0.012793791 0.004260686
000380 e8 39 c5 bc a2 cf 78 bc 68 4a db 39 28 ab 50 3c
       -0.024075463 -0.015186222 0.00041826372 0.012736119
000390 2d 5c e6 3b 0b 9d 25 bd 4a 2d 9b 3b 50 8c 71 39
       0.007030031 -0.04043297 0.0047356235 0.00023035822
0003a0 6a 4a 26 3c 3f e9 3d bb 16 a0 58 3c 8d 74 e7 bb
       0.010149578 -0.0028978137 0.013221761 -0.0070634545
0003b0 74 e4 90 bc be 79 cc 3c 79 9b e4 3b 24 9b 58 3c
       -0.01768706 0.024960395 0.0069765416 0.013220582
0003c0 56 8f dc bc 9e e1 29 bb 68 ea 2d 3b a8 c4 e2 3b
       -0.026923817 -0.0025921832 0.0026537422 0.006920416
0003d0 98 19 60 bc dd e9 8f bc f0 27 3f 3c 15 81 e6 3c
       -0.013677977 -0.01756757 0.011667237 0.028137723
0003e0 5a b1 50 bc a7 ae ca bc ed 32 c3 3c b7 ce 55 3c
       -0.012737596 -0.024741484 0.023827994 0.013049773
0003f0 46 8b 02 3c 84 1d a7 3c 9a 1f f9 bb 72 80 4c 3c
       0.007967776 0.020399816 -0.007602644 0.012481796

bias f4 [8]
000000 0f d0 18 3d f0 5a 8a 3d a5 a7 9f bc 0a 61 be 3c
       0.037307795 0.06755626 -0.019489119 0.023239631
000010 a4 0e ac bd ef 71 08 be 38 4c 56 3c a4 35 dd bb
       -0.0840123 -0.13324712 0.013079695 -0.006750779
