results/transformations/mapping_files/VAE/FMNIST_VAE_16_1>FMNIST_VAE_16_3>NeuralNetwork_50_0_dropout_128_equally.pth (torch, 88958 bytes, 6 tensors)

weight f4 [128, 16]
00000000: fc7e c53d 6a02 41be 8be3 073e 8f78 c13d
00000010: 516d 963d 8e52 213e a746 18bc 4793 8dbe
00000020: ab58 1f3c b3d7 e5bd 9d00 403e a7f3 8f3d
00000030: 8b0b 17be 87b6 4bbe 4cdb 2c3e 97ba 7d3d
00000040: 1b01 ee3d 25d4 063e 782c 3fbe 3a37 18be
00000050: b40c ed3c 904a 533e 8f0a 25be a392 72be
00000060: 9a15 97bd cb24 ffbd f877 5ebe 8a2c 2c3e
00000070: ef79 2dbe 4bd6 4ebc 2881 67be 1602 41be
00000080: c230 7bbe 2e68 06be 36a9 6abc ce2a 2e3e
00000090: ea71 533d 3cb5 1e3e 58bb 6a3d b756 803e
000000a0: 0b59 c43c 8917 8e3d 516c 80be a5a7 a43b
000000b0: 86d6 163e 56cb 223e ee34 b83d 3ba4 1abe
000000c0: a4c1 80be ed60 25be d47b 6f3b b142 00be
000000d0: b51b 233e 3cae 0f3e 8041 3bb8 44e8 f1bd
000000e0: 02d0 30be 5ba5 513d 74ea 4e3e 9a08 51be
000000f0: 9d34 373e 0426 6abe 6fc7 42be f579 4abe
00000100: a100 233e ce8b 87be b6a4 55bd 8002 643d
00000110: c370 8ebe 15c9 b1bc 3a99 31be e9bb 52be
00000120: 787f 20be bc9c 52bd 88f9 a8bd 4956 64be
00000130: 905a db3c ad25 7a3b 8cb7 5ebe e89a 023e
00000140: 390c bfbd 6e6d a4bd 7e60 493d de3b 2bbe
00000150: 1ab8 0d3e 20d1 4cbe 8603 fdbd 0757 fd3d
00000160: 0957 6d3e d959 8fbe 5184 acbd 79f7 bc3d
00000170: 28b9 22bd 876d 1f3e 1921 f63d d586 a1bd
00000180: 8b3d 31be 82f5 063e b66a c33c b7f1 dbbd
00000190: 1c56 d5bc 2f7c 083d fa43 bfbb 0c97 1cbe
000001a0: 5e62 0e3e 8a7c 4dbe e833 683e d5e9 8b3d
000001b0: 4403 6a3e 9337 9f3d 91a8 28be be41 c43d
000001c0: 41b7 803d 208f 8a3d 349d 10be f6a3 04be
000001d0: 3a94 8dbe 8281 6c3d 10e4 023e e950 993c
000001e0: 4b2b 823d 2e38 68bc 7ce5 66be 4091 cd39
000001f0: 6595 de3d 58de 8abd 0255 213e 7c77 6dbd
00000200: d4dc e63d 66c1 acbd 348a 3dbd 8882 883d
00000210: eff3 99bd 3f3d 72bd 9aef 593e 7adf 693c
00000220: b112 873d 3aab a03d 6ed3 aabb e4a0 963e
00000230: 2ac7 1d3e 868e 2b3e c678 eebd 1374 433e
00000240: b836 513e 8d42 813e 85a9 afbd 9f18 e23d
00000250: 4b2c 8d3e 3c0e 633e 797f 853d 4d6f 17be
00000260: 0f12 363d 96b4 f03b 90f3 dbbd 77fa 1fbe
00000270: 4bee 63be 2944 683e 3842 733d 2e43 813e
00000280: 8e4e 2fbe 73cd 04be 9a95 f13d f4f5 2e3e
00000290: 4529 32be cf39 433d c789 fc3d 46e3 17be
000002a0: ffaf 213d 0ae7 26bd 9f1c 843e cf86 4dbe
000002b0: c889 f6bd b0f3 633e 352e 573e f738 7f3e
000002c0: 5394 13be 5f75 75be 3d24 9cbd 8288 363d
000002d0: cca1 1d3d 67c7 47bd 4588 3fbe 2d50 1e3c
000002e0: 78af cfbd 8cbc 8d3e cdeb 51bd fbdd 5abe
000002f0: 3089 e63d 4e56 1b3e f86f ec3d 7474 d33d
00000300: 1049 3d3e 0637 413e 1618 f93d c745 da3d
00000310: d03f 9abe 484c 20be 8325 8c3c 0e2c 0d3d
00000320: 82c9 1e3e 6d04 5c3e cef5 cf3d aff1 3dbd
00000330: c89b 4f3e 3069 7cbe a83d 9cbb ab51 39be
00000340: 53c4 49be 07b8 623e 4bcf 383e 4f3e 3c3e
00000350: eeae 893e 6604 47bb aa5a 273c ec24 1a3d
00000360: d08c 613e 58b0 82bd 6b50 91bd cdf3 583d
00000370: 1695 993d c414 51be 4550 393e bf61 6f3e
00000380: 95e6 103e 0e7e b83d c49d afbd 26c7 cabd
00000390: 2fd8 f8bd 5d74 10be 14ea 89be 40a6 20bc
000003a0: 0d73 06be 5d91 76be 0569 8d3e c498 3cbe
000003b0: a2ca 17be 8065 023d d9c9 853d d4e4 26be
000003c0: 86a6 f5bd 5292 0cbe 210d 36be e1c2 2c3e
000003d0: 49e1 433e 0940 2dbe d0d7 c23d 0032 13be
000003e0: b0ba 39be 289d f6bd 3e51 31be d04b 873c
000003f0: 0b05 2cbe b6d0 4a3e 637d 8d3c 1b6e c1bd
0.09643361 -0.18848577 0.13270395 0.09446823 0.07345069 0.15754148 -0.009294189 -0.27651426
0.00972573 -0.11222782 0.18750234 0.07028895 -0.14750497 -0.19893847 0.1688053 0.061945524
0.116213046 0.13166864 -0.18669307 -0.14864817 0.028936721 0.20633912 -0.16117309 -0.2368875
-0.07377167 -0.124581896 -0.21725452 0.16813865 -0.16941045 -0.012624334 -0.22607863 -0.18848452
-0.24530318 -0.13125679 -0.01432257 0.17008516 0.05162231 0.15498823 0.05730757 0.25066158
0.02396824 0.06938083 -0.2508264 0.0050248676 0.14730272 0.15897879 0.089944705 -0.15101711
-0.25147736 -0.16150256 0.0036542313 -0.12525441 0.15928538 0.14031309 -4.4645276e-05 -0.11811879
-0.17266849 0.051183086 0.20206624 -0.20413437 0.17891164 -0.22866064 -0.1902139 -0.19773085
0.15918209 -0.2647385 -0.052159034 0.055666447 -0.27820405 -0.021702329 -0.17343608 -0.20579495
-0.15673625 -0.051419005 -0.08250719 -0.2229854 0.026776582 0.003816943 -0.21749705 0.12754405
-0.09328503 -0.080286846 0.049164288 -0.16722056 0.1383976 -0.2000165 -0.12354188 0.12370115
0.23177733 -0.27998236 -0.08423675 0.09226889 -0.03972736 0.15569125 0.120180316 -0.07887045
-0.17308633 0.13179591 0.023854595 -0.10739463 -0.026042037 0.033321556 -0.005836961 -0.15291995
0.13904712 -0.20067039 0.2267605 0.06831709 0.22852808 0.07774272 -0.16470553 0.09582852
0.06284953 0.0676558 -0.14122468 -0.12953171 -0.2765215 0.057740696 0.12782311 0.018715339
0.06355914 -0.0141735505 -0.22548479 0.00039208867 0.108683385 -0.0678069 0.15755084 -0.057975277
0.11272588 -0.08435325 -0.04627438 0.06665522 -0.0751723 -0.05914044 0.21282807 0.014274472
0.06595362 0.07845159 -0.0052131927 0.29419625 0.15408006 0.16753587 -0.116441295 0.19087248
0.2043103 0.25246087 -0.08577255 0.11039852 0.27572855 0.22173399 0.06518454 -0.14788552
0.044450816 0.0073457463 -0.10739815 -0.15622889 -0.2225887 0.22682251 0.059389323 0.25246567
-0.1711981 -0.12968998 0.11796112 0.17086011 -0.17398556 0.047662552 0.123309664 -0.14832792
0.039474484 -0.04074768 0.25803086 -0.20070957 -0.120379984 0.22260928 0.2101372 0.24924074
-0.1441205 -0.23970555 -0.076240994 0.044563778 0.03848438 -0.04877415 -0.18704326 0.00966267
-0.1014089 0.27682912 -0.051250268 -0.21373741 0.11256635 0.15169641 0.11544794 0.10324946
0.18484902 0.18868646 0.12162797 0.1065784 -0.3012681 -0.15654099 0.01710773 0.034465842
0.15506557 0.21486063 0.101543054 -0.046373066 0.2027427 -0.24649501 -0.004768092 -0.1809756
-0.19703798 0.22140513 0.18047826 0.18383144 0.26891273 -0.0030367612 0.010214487 0.037632868
0.22026372 -0.06381291 -0.07095417 0.05296688 0.07499139 -0.20418078 0.18097027 0.23377131
0.1415046 0.09008418 -0.08575013 -0.09901266 -0.12150609 -0.14106889 -0.269364 -0.009805262
-0.13129826 -0.24078889 0.27619186 -0.1841765 -0.14823392 0.03183508 0.0653264 -0.16298229
-0.119946525 -0.13727692 -0.17778446 0.16871215 0.19128908 -0.16918959 0.09513819 -0.14374542
-0.18137622 -0.12041694 -0.17316148 0.016515642 -0.16798799 0.1980618 0.017271703 -0.09444829

bias f4 [128]
00000000: 63d5 2e3e 5f45 313e fdb2 2ebe 4e5a a63d
00000010: 5c67 583b 3329 36bd 80c2 093e eaec d3bd
00000020: 1335 edbd 3a52 573c f876 87bd b0cf f33d
00000030: ee7c bfbc 3e32 4f3d 50f8 d3bd 38bd 3cbe
00000040: b138 a0bd edd4 16be cb2f 913d bbd5 6bbd
00000050: 83d6 29be 1615 8cbd 3622 2a3e b884 26be
00000060: f16f 2bbd 23b9 493e ad39 a13d 2848 013e
00000070: f0a0 193e dcfb 46bd 4d5d db3d f195 35be
00000080: a4b4 c23d e37d ca3d de17 c03d 806b 1abe
00000090: 065b 4dbe 1f99 0e3d e827 82bd 6059 8c3d
000000a0: f66a 1b3e e354 23be be53 1bbe b6a6 cc3d
000000b0: e660 54bd ff89 1ebd 4652 d2bd c266 10be
000000c0: 60a4 46be db4d 413e d62d 13bd f135 563e
000000d0: 46b5 c43d 15f2 923d 005e 403e 2239 5e3c
000000e0: 81e8 4fbe e6ec 2b3e 46b3 26bd 96e8 b5bd
000000f0: 8bb9 99bd dfa2 ca3d a841 76bd 7ee2 4fbe
00000100: 69db aabc f83d 1bbd 44be 1d3e 3d5e b9bd
00000110: 6993 953e c193 733d 270d 21be 595d a1bd
00000120: 24ec 7f3e 301a 8abd 705e a8bb 2fe1 633e
00000130: 5b86 06be e9a6 e1bd d361 963d a943 173d
00000140: fec8 e73d 64c4 40be a962 edbc 4d09 eebd
00000150: bba1 9c3d 1625 5cbe 80e4 ac3c 3d05 d2bd
00000160: ad24 0ebb c8b8 843d af28 54bd c40b 663e
00000170: 8e93 d13d cfbf 803e 33b7 69bd 49f8 a73c
00000180: ea52 ea3d b056 053e 526b ebbc 57c2 a43d
00000190: 6218 14be c9d8 543e 974c df3d be7e b5bd
000001a0: a54e 0abe 40a9 363e 4a82 223d 26a9 15bd
000001b0: 0970 17be b495 41be 22cf 80bd af2e 603d
000001c0: 9b8a 543d 3a37 a03b d744 cdbd cdaf 0f3e
000001d0: faec 7b3b 9644 023e 7d59 573e ddd5 afbc
000001e0: ce6b f0bc 65e2 c4bd a5b8 2fbe 7a7e 5c3e
000001f0: 91cc 8bbd 9935 c03d 72a1 2c3b 47cb 4bbd
0.17073588 0.17311619 -0.17060466 0.08122693 0.0033020591 -0.044472884 0.13453102 -0.10347922
-0.11582389 0.013142163 -0.06614488 0.119048476 -0.023375 0.050585024 -0.10350096 -0.18431556
-0.07823313 -0.14729662 0.07089194 -0.057576876 -0.16585736 -0.06839959 0.16614613 -0.16261566
-0.041854803 0.1969953 0.07872329 0.12625182 0.15002799 -0.048580036 0.10711155 -0.1773298
0.09507111 0.09887292 0.09379552 -0.1508007 -0.20054254 0.034813996 -0.06355268 0.068529844
0.15177521 -0.1595035 -0.15168664 0.09992735 -0.051850222 -0.038705822 -0.10269599 -0.14101699
-0.19398642 0.18877356 -0.035932384 0.20919015 0.09604888 0.0717508 0.18785858 0.013563426
-0.20303537 0.16789588 -0.040698312 -0.08882253 -0.07506093 0.098943464 -0.06012121 -0.20301244
-0.020856576 -0.037900895 0.15404612 -0.09051178 0.29214028 0.05946708 -0.15727673 -0.07879133
0.24992424 -0.06743276 -0.005138211 0.2225387 -0.1313719 -0.11018164 0.07342877 0.03692976
0.11317633 -0.18824917 -0.028977709 -0.11622868 0.07648035 -0.21498522 0.021105051 -0.102549054
-0.002168934 0.06480557 -0.05179661 0.22465426 0.10233222 0.25146338 -0.057059478 0.020504134
0.11441596 0.1302135 -0.028737698 0.0804488 -0.14462426 0.20785822 0.1090328 -0.08862065
-0.13506563 0.17838001 0.039675035 -0.036538266 -0.14788832 -0.18904763 -0.062895074 0.05473202
0.051889997 0.004889396 -0.10022896 0.14031906 0.003844081 0.12721476 0.21030231 -0.021464283
-0.02934828 -0.09613494 -0.1716028 0.21532622 -0.06826127 0.09385223 0.0026341346 -0.049754407

weight f4 [128, 128]
00000000: 8dcf af3b 703f 143c 68ac 793d 544d 6d3d
00000010: a7f7 973d 7e94 fe3b 5c94 3bbd 3a54 0f3e
00000020: 9960 0d3d 1bc5 35bc 3a41 04be 7007 dcbd
00000030: 8dfe 0b3e 0c6c 043d a053 3cbd 767d c0bc
00000040: aff2 6a3d a5ea 3ebc e854 133d aeaf 9cbc
00000050: 79a2 5d3d 8ad0 e23d 7144 70bd b215 0fbd
00000060: e701 563a 20ef 3c3c 1d65 0c3d 2c6a 0c3d
00000070: 954a 473d 981f 95bd 28c1 8b3c 909e aa3c
00000080: 1356 31bd 2c7a 9b3d 1a3d 83bc e3ac d8bd
00000090: 1ab0 453d f8fa d9bd b283 6fbd 5c31 febc
000000a0: 456f e0bc fe79 e1ba 8baa 6abd dc2e 3abc
000000b0: 3aa3 9b3d ee60 b6bb d9ef a9bd 43dd 2ebd
000000c0: a3f2 8abd b666 01bd 482f e1bc 0564 713d
000000d0: 701b cd39 83a6 433c 06c2 953c b1ff 6bbd
000000e0: 38cf 42bd 915a 883d f195 fdbc 5be4 5c3d
000000f0: 11b0 933d 0e10 913d 5250 123e 4b58 62bc
00000100: 8bff 79bd 0012 3f3d 19dd 523d 9caa 9f3d
00000110: 1bf5 b7bd 7ba8 843d 48aa 8c3d 7768 ecbc
00000120: b0eb 503d e31e 5c3b 5090 733d 9f13 68bd
00000130: d708 20bd add1 24bd d608 a9bc f2c5 80bd
00000140: e731 d33c b95d 8cbc cfe5 a0bd a2a6 25bc
00000150: 3ba5 a7bd 3049 71bd 772a b63c b904 ecbd
00000160: cf1d 393d 0a25 0d3d 091c 57bd 3e8c 7dbd
00000170: 153f 4b3d e94b 75bd 0e70 d03c e5fb 153d
00000180: d4bf c6bd 9696 1f3d d4aa 9d3c 761d 253c
00000190: 9abb e3bc ced6 283c 501b 78bd 6c99 0e3d
000001a0: 35b3 363d bddb 0f3d f849 fbbc 8522 ce3d
000001b0: 165a 853c 0f25 cebc bd8a 8a3d e2e4 2dbd
000001c0: 6d1e 903d 0e81 56bc fff9 f03c 15bc a1bd
000001d0: 1e5d cebd 6037 81bd 9a49 993d 041a 3abd
000001e0: efcd 93bd 21a8 18bd f20e 1cbd 9da3 473d
000001f0: 3ae1 2f3d 24c2 903b b86f 183d af50 d4bc
00000200: 4d38 833c 2a1b 633d bbcc d63d 0fee 083c
00000210: 75f4 bbbd 87f1 69bd af12 bcbd 1cd9 bc3d
00000220: 6216 d63d 0966 403d b77f e63c 4c0f 6a3d
00000230: 5606 063e 76fd 02bd 2a3f c63b 43d4 f1bc
00000240: 3ee1 47bc 9592 8d3d 2a2d 98bd 25e0 48bd
00000250: 5a9a 003b 4945 0c3e 4cd3 8bbb d2a0 773c
00000260: 2f73 5ebc 7bfd 43bd 23af 553c b6cf 3a3c
00000270: caca 6d3d d971 bdbd c367 ae3c 9f17 43bc
00000280: a9e6 753d c731 d1bc ac15 003e 5414 4d3d
00000290: c8a9 0abc af3d b9ba b039 603d 2905 623d
000002a0: 77dd 05be 4d4a ae3d ea77 98bd 099c 0f3d
000002b0: 924c a53d a2f4 fbbc 6b9a a43c d1bc f63c
000002c0: 8515 7c3d d6d3 7d3d 66fe ae3d 43cc c83d
000002d0: c897 743d 1a81 193d 109b 80bd 7d51 e4bd
000002e0: 3198 8f3c a799 413c d321 babd 7ee2 113d
000002f0: 71e3 d63d dcb5 9abd 95c7 ed3c 82dd 87bc
00000300: c22e e1bc 401e 163c c593 233c ba25 7c3d
00000310: deff b23a d095 973c 9868 913d fe00 623c
00000320: 7bb7 563d ce3c 3e3d 67d1 57bd 1dd1 daba
00000330: 4d91 903d ba78 3dbd 4b60 72bd dd3c b3bc
00000340: dd0f 153d 90a5 b4bd 82fd 91bd 3384 143d
00000350: 649f 4b3c 0ba2 aa3d 1269 163e 1960 193c
00000360: f8d4 af3c 2332 67bd d1e8 933d 7c32 2abd
00000370: a86d 36bc f071 5cbc 644a ab3d 9d1b c6bd
00000380: 2f96 e2bc 59ce 46bb 3982 e4bc 811b 8b3d
00000390: 1285 153c 071a 03bd 6380 d0bd 7233 69bc
000003a0: 9dbe 90bd d3a0 003d 89db 2bbc cd9e 023e
000003b0: 20b4 acbd 73e9 ecbc fd9c 8f3c f6a5 dfbd
000003c0: cbb4 9b3b 53ae 013d 220c 7fbb 1eec c3bd
000003d0: 76ec 433b 0fc5 4c3b 7c13 8d3d c536 aabd
000003e0: 563d b03d d4a8 7b3d f407 e6bc 3837 b5bd
000003f0: ff13 af3d a0c8 acbd 9fd1 08bd b043 3c3d
0.005365318 0.009048328 0.060955435 0.057935074 0.07420283 0.0077691665 -0.045795783 0.13996974
0.03451595 -0.011094357 -0.12915507 -0.10743606 0.13671322 0.032329604 -0.04597819 -0.023497324
0.057360347 -0.011652623 0.035969645 -0.01912674 0.054110024 0.11074932 -0.05865902 -0.0349328
0.00081637356 0.011531621 0.034276117 0.03428094 0.04865511 -0.07281417 0.017059878 0.020827562
-0.043294977 0.07591662 -0.016020346 -0.105798505 0.048263647 -0.106435716 -0.058475204 -0.031029396
-0.027396807 -0.0017202494 -0.05729155 -0.011363711 0.07599492 -0.005565754 -0.082977004 -0.04269148
-0.067845605 -0.031592093 -0.027488366 0.058933277 0.0003912109 0.011941555 0.018280994 -0.057616893
-0.0475609 0.06657899 -0.030955287 0.053928714 0.072113164 0.0708314 0.14288452 -0.013814996
-0.06103472 0.046648026 0.051480386 0.07796213 -0.08982297 0.064774476 0.06868416 -0.028858406
0.05100602 0.0033587746 0.0594638 -0.056659337 -0.03907093 -0.040239025 -0.020634096 -0.06287755
0.025780631 -0.017134534 -0.078563325 -0.010110529 -0.08185812 -0.058907688 0.022237046 -0.11524338
0.045194443 0.03445915 -0.05251697 -0.061901323 0.049620707 -0.059886847 0.025444057 0.03661718
-0.09704557 0.03896197 0.019246496 0.010077825 -0.027799416 0.01030512 -0.060572922 0.034814283
0.0446045 0.035121668 -0.03067492 0.10065178 0.016278308 -0.025164155 0.067647435 -0.042454608
0.07037053 -0.0130922925 0.029416082 -0.07897202 -0.100763544 -0.0630939 0.074847415 -0.045434967
-0.07217013 -0.037269715 -0.03810019 0.04874002 0.042939402 0.0044176746 0.03721592 -0.02591738
0.016018057 0.055445828 0.10488268 0.008357539 -0.09177486 -0.057115104 -0.09183251 0.09221098
0.10453488 0.04697231 0.028137071 0.057143494 0.13088354 -0.03198 0.00605001 -0.02952016
-0.012199698 0.06912724 -0.07430489 -0.049041886 0.001962325 0.13698305 -0.004267132 0.015114026
-0.013577267 -0.04784916 0.013042244 0.011402061 0.058054723 -0.0925023 0.021289712 -0.011907487
0.060034428 -0.025536431 0.12508267 0.050068215 -0.008463331 -0.0014132763 0.054742515 0.055180702
-0.13072763 0.085102655 -0.07444747 0.035060916 0.08071245 -0.030756298 0.020093163 0.030119332
0.06154396 0.0619696 0.085446164 0.09804585 0.059715062 0.037476636 -0.06279576 -0.11148355
0.017528625 0.011816419 -0.09088483 0.03561639 0.104926 -0.07554218 0.029025832 -0.016585115
-0.027488116 0.009162486 0.0099839615 0.061559416 0.0013656577 0.018504053 0.07100028 0.013794182
0.052421074 0.046444707 -0.052689936 -0.0016694401 0.07058964 -0.046257712 -0.059173863 -0.021879608
0.03639208 -0.08820641 -0.07128431 0.036258887 0.012428138 0.083316885 0.14688519 0.00936129
0.021463856 -0.0564443 0.072221406 -0.041552052 -0.0111345425 -0.013454899 0.08363798 -0.096732356
-0.027659504 -0.0030335395 -0.027894126 0.06792355 0.009125965 -0.032007243 -0.10180738 -0.014233457
-0.070676066 0.031403374 -0.010489353 0.1275589 -0.084327936 -0.028919911 0.017530913 -0.109203264
0.004751777 0.03166039 -0.0038917144 -0.0956652 0.002989558 0.0031245386 0.06888482 -0.08311228
0.08605449 0.061440304 -0.028079964 -0.08848423 0.08548736 -0.08436704 -0.033403035 0.04596299

bias f4 [128]
00000000: 7a37 dabd bf41 d83c 5f14 d13d b8ae bd3d
00000010: 0263 183c 9ecd b3bd 3280 5bbd 4120 513c
00000020: 89b9 993d 7999 553d 0a66 93bd 9869 883c
00000030: 38ef 823d 1c7d 6b3d 3110 843d 6417 0ebd
00000040: d625 8e3c a28a 38bc ebcc 67bd 92cc 0b3d
00000050: 37ec 563a fb9f 603d e0c2 bb3c cdd0 373d
00000060: eae8 ac3d e6f4 72bc a212 6a3c 09b0 2dbd
00000070: 2b72 8b3d e42c 28bc f86e b53d 63f7 bd3c
00000080: 0137 f73c b473 12bd cf5f b43d 8d7a cc3d
00000090: 7edc d83d a8f1 b93d 15e6 20bd 129e 68bd
000000a0: b0a6 a1bc ef29 06bc 9900 423d 9866 47bd
000000b0: 0787 93bd 0a55 bebc a286 c3bc 5118 24bd
000000c0: 6b52 9b3d c308 febb a319 58bc de05 a43c
000000d0: 330e 17bd 7c10 e23c 100f 0d3c 3b58 a93c
000000e0: 7556 c3bc 797b b23d d199 453d fb37 debd
000000f0: 22a4 613d dc06 90bc cb49 17bd 15ae 02bd
00000100: 98c7 31bd 336a a3bd 02a4 0dbd e67a b7bc
00000110: 3dc8 023c 1069 dd3b 50ce 323d d556 3dbd
00000120: 72fd a8bd df41 10bd ba56 48bd 44a7 24bd
00000130: 7fbf b53d 5861 a33d d01d 36bd 1cbd 70bc
00000140: 0073 b63c c4a8 4fbd ead8 fdbc 0b40 433d
00000150: 4db7 d73d 1b51 33bd f1a2 ab3d 79ef 02bd
00000160: 3098 1dbd 41d4 5c3d 1614 95bd e4ad 963c
00000170: e17a 4fbd 081a 043b ca9e ee3c b4b4 5b3d
00000180: 86cf 3c3d 2b78 92bd ff3e 55bd 7457 8abb
00000190: 480e af3c 1efa 9b3c 2226 99bd ba24 a1bc
000001a0: b0fa ce3b 94be bfbb 1b33 ee3c 42fb 133d
000001b0: 9ff6 a8bd a178 38bd f4d6 823d fc6a ce3d
000001c0: 7fda 9b3d 963e e5bc b990 c53d 20bd 0b3d
000001d0: 837c 4e3c 5a83 cd3d 1ee0 d63d 946c a43d
000001e0: 892c 98ba 8299 963d 8117 813d 7c16 b23d
000001f0: c923 3cbd 4c46 143c 48fb 403d 7a0b b3bc
-0.106551126 0.026398538 0.102089636 0.092618406 0.009300949 -0.08779453 -0.053589053 0.012764038
0.07506091 0.052148316 -0.07197197 0.016651914 0.063932836 0.05749236 0.06448401 -0.034690276
0.017352026 -0.011263521 -0.05659191 0.03413064 0.0008198651 0.05484007 0.022920072 0.044876862
0.08442862 -0.014828896 0.014286669 -0.04240421 0.06808885 -0.010264609 0.08859056 0.023189252
0.030177595 -0.035754874 0.088073365 0.09984312 0.105889305 0.090792954 -0.039281923 -0.056791373
-0.019732803 -0.008188709 0.04736385 -0.048681825 -0.07203489 -0.02323391 -0.023867909 -0.040062252
0.07584079 -0.0077525093 -0.013189706 0.020022329 -0.036878776 0.027595751 0.008609548 0.020671954
-0.023844937 0.08714957 0.048242394 -0.10850521 0.05508817 -0.017581396 -0.03693561 -0.0319043
-0.043403238 -0.0797924 -0.03458024 -0.02239747 0.007982311 0.006756909 0.043653786 -0.046225388
-0.08251466 -0.03521907 -0.048910834 -0.04019858 0.088744156 0.07977551 -0.044462025 -0.014693525
0.022271633 -0.050698057 -0.030987222 0.047668498 0.10533009 -0.04377852 0.08380688 -0.03196666
-0.038475215 0.05391336 -0.07279222 0.018393464 -0.050654296 0.0020157117 0.02912845 0.05363913
0.046096347 -0.071518265 -0.05206203 -0.004221851 0.021369115 0.019040164 -0.074779764 -0.019670833
0.0063165054 -0.005851576 0.029077103 0.03612829 -0.08250164 -0.045036916 0.06388655 0.100789994
0.07610034 -0.027983945 0.09646744 0.03411591 0.012602928 0.10034819 0.10491966 0.08028522
-0.0011609952 0.07353498 0.06303311 0.08695695 -0.045932565 0.009049963 0.04711464 -0.021856058

weight f4 [16, 128]
00000000: c831 1cbc c39f c33c 0255 05bd ac3c 543d
00000010: ac81 85bc 6019 e13d 60d7 bc3d 5e8d d3bb
00000020: 7dc9 91bd 39e9 47bd ee3e b6bc 94e1 d1ba
00000030: ed86 1e3c 7d62 903c 90c2 16bd f63e cebc
00000040: e926 c3bd a82e 563c 60fd a7bd b1b2 233d
00000050: e1f4 2cbc 18c0 e13d 651a d0bb 96d1 87bd
00000060: 4675 8dbd 24c5 d339 a169 d73a 0a7b e53b
00000070: 9bfb 8e3d 9356 f0bc f0dc edbd f082 803d
00000080: 3ce4 3ebc 6f59 933d 8bec 013c 326f cbba
00000090: b07d 7abd 6872 f93b 85d8 23bc e72a 30bd
000000a0: 7ace 8c3d c482 c03d 1630 433b 6065 00bc
000000b0: ca25 eabc b855 ec3c f688 06be df16 343d
000000c0: 7031 873c ad24 043e a045 753d b09b a0bd
000000d0: d41f 7fbc e2f9 363d 3dca 933d a7af c93d
000000e0: ba5b 063e f482 e63d b9d2 9abd b3b1 1b3d
000000f0: 622f 0ebe 5aff 5bbd ebd9 b43d e918 4b3c
00000100: c808 933d 900e 643c 3c6c c63d 53ed a9bc
00000110: 9c3b e93b 3bdb acbd ffcb a63d d67e f8ba
00000120: d841 4c3b 00a7 2a3d f853 423d 0cfd a0bb
00000130: 3fe4 58bd e894 90bd d40e 693d cf7e cdbc
00000140: 44c4 6e3d b604 ce3b a87c 473d 3d68 4f3c
00000150: 80dc b2bd 415f 34bc 691d 123d c67e eabd
00000160: 35ef 0b3d 9124 893c 6f91 063c a7cf 63bd
00000170: 3448 2e3c 335f 763d 6f70 30bd 9223 84bd
00000180: fe71 8c3c beab 6b3b 3cdd d4bd bb6b c4bc
00000190: 1124 0c3d 4242 76bd 4837 093d eb6f 35bd
000001a0: ece2 a53d 6e05 e7bb 4a1e e63d da2e be3c
000001b0: e859 18bd 2ce2 9c3d ed30 c2bd 9ad6 a83d
000001c0: 0083 97bc 4a94 daba c630 49bd 5182 debd
000001d0: c8fc 7b3b f1ed 1a3d 3b20 a13d 7e89 18bd
000001e0: 615b b4bd b67c fa3b 2c10 383d c9dd 9ebd
000001f0: 127f bfbd 392b 443d 8a2b 05bc 2d9d 183d
00000200: 5a90 213d 1671 28bd 74c1 e4bc 9cbc a9b9
00000210: 162c 34bc b4ac 5cbc e269 aa3d 7019 e6bb
00000220: 1997 b2bd 68b4 90bd 77fc debc 8535 eebc
00000230: d83c cd3c b5ac 723d 319f 623d 948d d6bd
00000240: 2c46 0f3d 203b 8f3d 0c47 2e3d 2d6f 92bd
00000250: 5508 c1bd 2c0e 06ba 7699 16bd 9621 493d
00000260: 6cff abbb 1d07 ea3c 8cf9 d13d fddd b53d
00000270: 06ce ccbb 62aa e73d ceaf c73a 0e62 a6bc
00000280: 3c96 a23d 204f a7bb 8341 313d 64f1 bdbd
00000290: 9d60 98bd cc0a c13d 8316 48bd f0d0 0bbe
000002a0: e412 a8bd 203c a6bd 0c6a dbbb 1282 debc
000002b0: 4be0 733d 135c cebc ef6d d23d 107f dfbc
000002c0: 4e7e 193c 0eb7 92bd 7b87 a43d f49c 2f3b
000002d0: f1ed 8fbd ac91 d9bc 9ea5 79bd e6a5 8abd
000002e0: dcc4 403c 3ec4 5b3c 952c 863d 5c6d eebd
000002f0: df95 f03d 2058 eabb 9d4e 29bc 019e 3ebd
00000300: 2ab9 8bbd ff78 5fbc b977 95bd 3ada 80bd
00000310: 528f 903d 5883 7cbd 6889 ab3c 1c44 b83c
00000320: 30b6 6fbd 74ca 9fbc 58f4 e3bc 96a1 d33d
00000330: e4a6 2bbd 1783 93bd e3be 45bd 7fef 223d
00000340: 2be6 36bd a254 103c 6cf7 b23c c857 703d
00000350: 8db2 173c 8268 97bd 950b e3bd 4b74 88bd
00000360: 25eb 8d3c aa3b 95bd 87ab 3e3d 588b 0fbd
00000370: 2ca1 44bd 1a9a b13d 3c0f d93c f409 173d
00000380: 6f85 c53c b00c 203c 68f7 a3bc f201 873d
00000390: cbbb ccbd 312d 1bbd a520 0ebe a368 dfbb
000003a0: 86d5 6c3c 41d5 9a3d f0b8 81bd dfb8 c0ba
000003b0: f70a 343d 1567 85bd 26b6 0fbc 554e d33d
000003c0: 865d 51bc aeca 403d b03d 753d d832 553d
000003d0: 2c9e 003e d25d 9fbd ce80 97bc b3cf e73a
000003e0: a30a 323d 2dbb f13d 3c78 023c aacb 913d
000003f0: 1f1b 813d 14b1 98bd 882f a33d 026d ecbd
-0.009533353 0.023879891 -0.032551773 0.051815674 -0.016297184 0.10991168 0.09220767 -0.0064560613
-0.07118509 -0.048806403 -0.022246804 -0.0016012662 0.0096757235 0.017625088 -0.036806643 -0.025176506
-0.09528906 0.013072647 -0.08202624 0.039965335 -0.010556431 0.11022967 -0.0063508027 -0.06631772
-0.06907134 0.00040391937 0.0016434678 0.007003193 0.06981584 -0.029338157 -0.11614406 0.06274974
-0.011651095 0.071947925 0.007929931 -0.001552081 -0.06115502 0.0076125152 -0.010000353 -0.043009665
0.0687532 0.093999416 0.00297833 -0.00783667 -0.028582472 0.028849468 -0.13138184 0.043967124
0.016503066 0.12904616 0.059880853 -0.07842195 -0.015571553 0.0446719 0.07216308 0.09847956
0.13120928 0.11255446 -0.075597234 0.038011264 -0.13885263 -0.05371032 0.08830627 0.012396076
0.07179409 0.013919488 0.09688613 -0.020743048 0.0071177017 -0.084402524 0.08144378 -0.0018958698
0.0031167176 0.04166317 0.04744336 -0.004912978 -0.052952047 -0.070596516 0.056898907 -0.025084881
0.058292642 0.0062871827 0.048702866 0.01265913 -0.08733463 -0.011009038 0.03567258 -0.11449961
0.034163672 0.016741069 0.008213385 -0.055617955 0.010637332 0.060149383 -0.043075975 -0.06452097
0.0171442 0.003596052 -0.103937596 -0.023977151 0.034214083 -0.060121782 0.033499986 -0.044296186
0.080999225 -0.007050208 0.11236246 0.0232157 -0.037195116 0.07660326 -0.09481988 0.08244057
-0.018495083 -0.0016676274 -0.04911878 -0.108647 0.003845023 0.037824575 0.078674756 -0.037240498
-0.08806492 0.0076442612 0.044937298 -0.07757146 -0.093504086 0.047892783 -0.008128056 0.03725927
0.039444305 -0.041123472 -0.027924277 -0.00032374717 -0.010996839 -0.01346891 0.08320977 -0.0070220754
-0.08720226 -0.0706566 -0.027219994 -0.029078254 0.025053427 0.059246738 0.055327598 -0.10476223
0.03497903 0.06993699 0.042548224 -0.07150111 -0.09425417 -0.0005113806 -0.036767446 0.049104296
-0.0052489545 0.028567845 0.102526754 0.088802315 -0.006250146 0.11311795 0.0015234889 -0.020310428
0.07938811 -0.005105868 0.043275367 -0.09274557 -0.074403025 0.094258875 -0.048849594 -0.13653922
-0.08206728 -0.08116937 -0.0066959914 -0.027161632 0.059540074 -0.025190389 0.102748744 -0.027282268
0.009368492 -0.07163821 0.08033653 0.0026796432 -0.070278056 -0.02655872 -0.06094896 -0.06769924
0.011765685 0.013413487 0.06551472 -0.116419524 0.11747336 -0.0071516186 -0.010333684 -0.046537403
-0.068224266 -0.013639688 -0.07298226 -0.062916234 0.07058586 -0.061648697 0.020939544 0.022493415
-0.058523357 -0.019505717 -0.027826473 0.103335544 -0.041907206 -0.07202738 -0.048277747 0.039779183
-0.0446531 0.008809241 0.021846496 0.058677465 0.009258878 -0.0739298 -0.110861935 -0.06662806
0.01732404 -0.07286771 0.0465503 -0.035044998 -0.048005268 0.08671971 0.026496522 0.036874726
0.024111478 0.00976865 -0.020015433 0.06592168 -0.09996756 -0.037884895 -0.1387964 -0.0068178936
0.014455205 0.07560206 -0.06334102 -0.0014703533 0.04395577 -0.06513802 -0.008771455 0.10317675
-0.012778645 0.04706829 0.059873283 0.05205044 0.12560338 -0.07781567 -0.018494036 0.00176858
0.043467175 0.11803279 0.007963236 0.07118924 0.06304001 -0.0745565 0.0796805 -0.11544229

bias f4 [16]
00000000: c2f3 34bd 84c3 2a3c ba30 223d d361 eb3d
00000010: e7a5 03bd e9e4 59bd 1e68 20bb 59cd f93b
00000020: 0781 853d 5c2a ee3d b498 f1bc 2b81 7ebd
00000030: edee 1bbd 287e 08bb 520d 8ebc 0e1a 093e
-0.044177778 0.010422591 0.03959725 0.11493268 -0.03214064 -0.05319682 -0.0024476121 0.0076233563
0.06518751 0.11629173 -0.02949176 -0.062134903 -0.038069654 -0.0020827148 -0.017340336 0.13388845
