results/transformations/mapping_files/VAE/FMNIST_VAE_8_3>FMNIST_VAE_8_2>NeuralNetwork_50_0.5_dropout_16_convex_hull.pth (torch, 8604 bytes, 6 tensors)

weight f4 [16, 8]
00000000: 96a3 d0ba dd9f 8fba 7f75 0839 1236 0b38
00000010: 7b91 f6b9 ea29 5f39 8eff 833a 1c96 09ba
00000020: 1fdf da39 80e0 81b9 8be8 4d3d f4e8 4e3a
00000030: c26a f039 527d c1ba b435 0e3b 00b9 7939
00000040: 9ce0 64bc 1916 383c f48a ae38 bbeb 193d
00000050: 6886 b8b9 6628 4bbd 8ac9 b639 8b27 7eba
00000060: 8847 093b 2ff9 02bb 0f7c 9dba 3525 a539
00000070: 27a0 253a 4149 c2b9 f4d2 0e3a 578f 45ba
00000080: 9a0c d63b d8fd fc36 0221 b5b9 88e9 4e37
00000090: 2125 7abd 8b7c 5a3d c002 283a 231b 4a38
000000a0: 0e5e 703a c61d adb8 19ab 20ba 3682 acbc
000000b0: 78f9 6f3a 9a18 9a39 13a7 07bb acef 0a3b
000000c0: e115 9d3c 306a 583d 1a8f da3c 2c8b 393c
000000d0: 1991 f7ba 0276 d737 6d20 bcbc 0b67 113d
000000e0: e442 d7bc 042a 1539 d7f0 6eb9 dd30 603c
000000f0: 8bd5 fdba 57af 2f3c e83f 0f39 6da9 053d
00000100: 0126 92b9 55af 52bd f3a4 6f3a 0f27 063a
00000110: b0cd 67b8 e153 0f3b 3a43 a33c c820 75ba
00000120: 160d 48b9 7d7b 3dbc c441 08bc e252 7ebd
00000130: a848 df3a 47fd ce3c 6089 1db9 d95f b9ba
00000140: f65f 0c3d 8823 da3b bead beb8 1f84 953b
00000150: 32af fa39 8872 5c39 6564 013b 0f4f 57bc
00000160: ae34 b2b9 34a4 4a3a 5abf 36ba 68ec 31b7
00000170: 7659 15ba c84f 53bc 8acf 2bb9 f2fe 313a
00000180: 54f6 103b a271 5f3b 9a49 ebba b8f1 9cbb
00000190: 77f5 efba 324e 7e3d bc3a 733c 31e9 84ba
000001a0: 9825 4d3a eb86 a4ba 0b69 95b9 3e04 72bc
000001b0: 598c 60b8 83be 683a 1e1f 1cba c111 a039
000001c0: 2c31 f43a 6169 62bd cbf2 01bc 6f4b 1ebd
000001d0: 19b4 c039 42c2 e13b aca8 fcbc 6afb 693d
000001e0: ef05 203a 283d 0239 9a11 b73c 4b97 2439
000001f0: 7040 d0bb 7c18 95b9 7079 2fb9 ed05 84b8
-0.0015917893 -0.0010957677 0.00013013741 3.319054e-05 -0.00047029168 0.00021282551 0.0010070668 -0.00052485033
0.00041746438 -0.00024772063 0.0502706 0.0007892989 0.00045855908 -0.001476208 0.002169949 0.00023815408
-0.013969567 0.011235737 8.3228486e-05 0.037578326 -0.00035195355 -0.049599074 0.00034863903 -0.00096952234
0.0020947177 -0.001998495 -0.0012015122 0.00031498974 0.0006318115 -0.00037057142 0.00054483046 -0.0007536313
0.006532264 7.5397365e-06 -0.00034547603 1.233293e-05 -0.061070565 0.05334143 0.0006409101 4.8185826e-05
0.00091692887 -8.2548286e-05 -0.0006129011 -0.021058183 0.00091543 0.00029391499 -0.002069895 0.0021199984
0.019175472 0.052835643 0.026679564 0.011324685 -0.0018887847 2.5684949e-05 -0.02296468 0.03549866
-0.026277013 0.000142254 -0.00022787169 0.013683525 -0.0019366009 0.010722957 0.0001366135 0.03263228
-0.00027875605 -0.05143674 0.0009141706 0.00051175145 -5.5266253e-05 0.0021870064 0.019929517 -0.0009350893
-0.00019078361 -0.011565086 -0.008316461 -0.062090762 0.0017035203 0.025267256 -0.00015023863 -0.0014142945
0.034271203 0.0066570677 -9.092268e-05 0.004562869 0.00047814246 0.00021023501 0.0019743678 -0.013141408
-0.00033990055 0.00077301566 -0.00069712626 -1.0605065e-05 -0.00056972296 -0.012897439 -0.00016385145 0.0006790004
0.002211948 0.003409483 -0.0017951012 -0.0047895573 -0.0018307407 0.06208629 0.014845546 -0.0010140297
0.00078257313 -0.0012552416 -0.00028497758 -0.014771519 -5.353647e-05 0.0008878486 -0.00059555646 0.00030530806
0.0018630377 -0.05527628 -0.0079314215 -0.038646158 0.00036755277 0.0068896124 -0.030842148 0.057124533
0.00061044 0.00012420549 0.02234726 0.0001569662 -0.006355338 -0.00028437737 -0.0001673454 -6.295354e-05

bias f4 [16]
00000000: 1215 63bb 5698 09bd d41b bfba 70cb 313b
00000010: 5b76 f0bc b2ec 19bb 92d4 a0b8 6433 153d
00000020: 44c1 8c39 e64d 0ebd 7540 333d c5dc 52b9
00000030: ab17 0bb9 fab2 8cb8 e02d 523a 52ef 493a
-0.003465001 -0.033592544 -0.0014580437 0.0027129315 -0.029353311 -0.0023487029 -7.668989e-05 0.036425963
0.00026846875 -0.03474226 0.043762643 -0.00020109404 -0.0001326489 -6.709057e-05 0.00080177 0.0007703203

weight f4 [16, 16]
00000000: 2073 df38 c8f7 7fba 204c 333b a98d 57ba
00000010: 9127 05b8 8e1d 0dbb b3ff ba3a 4d31 f1ba
00000020: a1f6 eaba df55 b8ba 37d2 563a 3da5 e8ba
00000030: 2a19 9939 6955 88ba 27f3 26b9 7239 37b9
00000040: b4bb 0737 31fe 003a 59de 6538 177e 8f3a
00000050: 2f98 003b 5c38 3339 df89 53b8 3628 2cb9
00000060: a9de d3b9 31d9 09bb f1a6 f539 31fa 013b
00000070: d838 c3ba 5e2a 02bb 8531 423a 143c f93a
00000080: 6dcf 5eb9 b325 503a 7ce1 0b36 3f57 973a
00000090: ce33 b2b9 18ca 3239 3b4d c2b9 cf19 be39
000000a0: f095 8fb9 4019 dd37 49fc 8d39 2661 8f3a
000000b0: 9ede 8b3a 234f e739 6e6c 7f3a 1839 d73b
000000c0: 9a74 bdb9 7912 45ba 5619 d539 36a1 0bbb
000000d0: f932 67ba a380 8b3a 1863 353a d92d 1a3b
000000e0: f483 f73a ca87 a738 344b 453a acbb 9139
000000f0: a5c6 bd3a 7423 eb39 2d6f 5939 be1a 14b8
00000100: 2552 603a ad92 5f39 f699 0ebb 4094 f838
00000110: d61d 09bb b928 b139 9085 e6b9 3626 933a
00000120: eeaf f4ba e0c0 5ab6 b326 043b 2fc8 b4b9
00000130: 40b3 f7ba e3ee 1a3b 7ac9 a8ba 50e3 0fba
00000140: 0b51 02bb fa9c 183b b4f6 69b9 5e1d 383c
00000150: cec3 9c38 d3ba 5939 c04d 0238 1983 8db8
00000160: 383c 293a a626 8cb9 6b12 9039 1023 b6bb
00000170: 1274 113b b9b8 95b8 c41a 02ba 1019 72b9
00000180: 47b0 00ba 6ae3 a9b9 dd30 193c 4155 863a
00000190: b9e4 2db9 b6d3 4039 ae40 80ba 2aca 5dba
000001a0: 1762 6cb9 bad3 05bb d8ec f4ba 1f20 e8ba
000001b0: 66e0 5c3a 7d41 1639 c53e 5bba 6325 8938
000001c0: ef9c 05bb 2cbe c437 484b 59bb 3fce c339
000001d0: 4279 003a 4938 1739 4294 9439 3f2b d5b9
000001e0: 81ff 0dba a0c3 19ba 5de8 8bba 81f9 0cbb
000001f0: 08c2 9039 2ce5 73b9 be30 073b 69db 5b39
00000200: 8960 cd3a 55a9 463a 67cb 6138 8063 89b9
00000210: 407c 75b6 ae4b b7b9 d3bf 883a 8ff0 7bb9
00000220: 0161 fbba 6426 dbb9 62ea 2f39 02ba 4fb8
00000230: 6f4f 5bba e3a6 eb3a cd64 c838 8e1e 69b9
00000240: 62aa 413b 9de1 cd39 cb3e 29ba b349 c43a
00000250: 942f 4dba 73fa 70ba dec8 7f3a 4e32 03b9
00000260: 7c58 d4ba f17e a6b8 1309 fab9 6847 f6b9
00000270: 393b 62b8 ccd3 4b39 4bd1 3fba dcfe 893b
00000280: cf01 503a 2517 93bb 884a 7039 b6df ecba
00000290: b3fe 003b 8258 3239 2213 ddb8 d3c2 0a3b
000002a0: c4b1 043b 1627 4639 dc72 b937 4226 4f38
000002b0: da9b 5a39 c19b d5b9 c8f5 0d3b 10d0 033b
000002c0: f2a2 45b9 2eb5 f638 fc5d 26bb a320 37b8
000002d0: 269f 23b8 bcb3 c4b7 a774 063a 364d 90b9
000002e0: dafc f2ba 43b2 16bb 04f6 0339 9959 ccb8
000002f0: 80be c537 ea03 83ba f7f0 06b9 9e44 8738
00000300: 2296 93b8 7dbd 0abb bd9a 47b9 19d9 d2bb
00000310: c90e 53ba 7dfb 093b d8c6 aa3a d5ca ddbb
00000320: 3e6a 82b9 7134 edb9 117a 8539 d9e3 bc3a
00000330: d4b1 80ba 97e3 84b9 007b 50b6 3c47 7b37
00000340: 7047 88b9 ad86 70ba 9e7d 4b3a 7019 6b39
00000350: 7817 e13a 7870 05bb 6e21 143b fb1f 88b9
00000360: 0c52 c2b9 45ea 7037 fab5 03bb 51a7 ffb9
00000370: bebb dbba a5dc 6dba 3272 a5b9 097b 483a
00000380: e261 82b9 7ede 9f38 3ec6 a3bb b412 9c3a
00000390: 7df9 103a 769b 60ba c9a1 05bb 7eef 7339
000003a0: 20bf 2fb9 e645 133b 23cd 64b9 3e20 dc38
000003b0: ccb5 1838 70e9 0ebb 41e8 a2b8 458c eeba
000003c0: 7e75 8ab7 26d9 9eb9 3ccf 2a38 181d b8b8
000003d0: a38a ff38 c80d 6b38 09b4 7fba 29f9 1d39
000003e0: 02f4 8eba 5c4d 0239 2880 1d36 424f 9f39
000003f0: 781d 6ab9 ce48 d939 6fe0 2db9 8c95 3838
0.00010654912 -0.00097644003 0.0027358606 -0.0008222708 -3.174652e-05 -0.0021532509 0.0014266878 -0.0018401534
-0.0017926284 -0.0014063678 0.00081947766 -0.001774944 0.00029201183 -0.0010401431 -0.00015921575 -0.0001747364
8.09033e-06 0.000492069 5.4804932e-05 0.0010947612 0.0019621958 0.00017091766 -5.0434723e-05 -0.00016418178
-0.0004041095 -0.0021033997 0.00046854423 0.0019832964 -0.001489426 -0.0019861679 0.00074078917 0.0019015097
-0.00021248842 0.0007940188 2.0843863e-06 0.0011546387 -0.00033989403 0.00017050689 -0.00037060105 0.00036258853
-0.00027386798 2.6357011e-05 0.00027081583 0.0010938987 0.0010671203 0.00044118715 0.00097436353 0.0065680854
-0.00036135764 -0.0007517706 0.00040645403 -0.0021305806 -0.0008819546 0.0010643195 0.0006919368 0.0023525862
0.001888393 7.988473e-05 0.000752616 0.00027796382 0.0014478756 0.00044849108 0.00020736149 -3.5310855e-05
0.00085571624 0.00021321578 -0.0021759248 0.00011853175 -0.0020922325 0.00033790412 -0.0004396853 0.0011226598
-0.0018668154 -3.25968e-06 0.0020164668 -0.00034481424 -0.0018898025 0.0023640923 -0.0012877428 -0.00054888893
-0.001988473 0.0023286925 -0.00022312516 0.01123747 7.475131e-05 0.0002076433 3.1066826e-05 -6.747823e-05
0.00064558117 -0.00026731676 0.00027479543 -0.005558379 0.0022194427 -7.139281e-05 -0.0004963095 -0.00023088255
-0.000490908 -0.0003240363 0.009350029 0.0010248796 -0.00016583772 0.00018389415 -0.0009784901 -0.0008460606
-0.00022543255 -0.0020420388 -0.0018686308 -0.0017709768 0.0008425772 0.00014329511 -0.00083635404 6.539633e-05
-0.002038773 2.3453576e-05 -0.0033156443 0.00037346964 0.00049008813 0.0001442145 0.0002833922 -0.00040658747
-0.0005416796 -0.0005865637 -0.0010674108 -0.002151102 0.00027610385 -0.00023259659 0.0020628418 0.00020967204
0.0015669029 0.0007578333 5.3833613e-05 -0.0002620481 -3.6580168e-06 -0.00034960866 0.0010433145 -0.0002402684
-0.001917869 -0.00041799538 0.00016776615 -4.952588e-05 -0.00083660235 0.0017978813 9.555519e-05 -0.00022231994
0.002955102 0.00039268742 -0.0006456195 0.0014975577 -0.0007827219 -0.0009192593 0.00097574096 -0.00012511874
-0.0016200687 -7.9391415e-05 -0.00047690477 -0.00046973978 -5.3937754e-05 0.00019438489 -0.0007317259 0.00421129
0.000793484 -0.004488843 0.00022915949 -0.0018072042 0.0019683063 0.00017008375 -0.00010541665 0.0021173253
0.0020247558 0.00018897312 2.2107204e-05 4.9388276e-05 0.0002084816 -0.00040742572 0.002166139 0.0020113029
-0.00018848086 0.000117639414 -0.002538561 -4.3660995e-05 -3.9010447e-05 -2.3448716e-05 0.0005129077 -0.00027523347
-0.001853849 -0.0022994436 0.00012584782 -9.744167e-05 2.3572939e-05 -0.0009995673 -0.00012869002 6.4500826e-05
-7.037471e-05 -0.0021170073 -0.00019035763 -0.0064345715 -0.00080512144 0.002105444 0.0013029231 -0.006768564
-0.0002487469 -0.00045243234 0.00025458683 0.0014411166 -0.0009818622 -0.0002534657 -3.106601e-06 1.4977351e-05
-0.00025993166 -0.00091753417 0.0007762554 0.00022420823 0.0017173132 -0.0020361226 0.0022602933 -0.0002596377
-0.00037063693 1.435966e-05 -0.002009748 -0.0004876205 -0.0016764326 -0.0009073711 -0.00031556335 0.0007647728
-0.0002486846 7.623153e-05 -0.0049979975 0.001190743 0.0005530341 -0.00085680874 -0.002039062 0.00023263504
-0.000167605 0.0022472083 -0.00021820194 0.00010496423 3.6408936e-05 -0.002180662 -7.7680226e-05 -0.0018199763
-1.6505594e-05 -0.00030297897 4.072416e-05 -8.779223e-05 0.000121851706 5.60412e-05 -0.00097543054 0.00015065506
-0.001090646 0.00012426585 2.346942e-06 0.00030385895 -0.00022326957 0.0004144371 -0.00016582174 4.4008295e-05

bias f4 [16]
00000000: 788e 3c3a 46ec 9337 dab6 b338 4704 02bb
00000010: ebe5 273c 35e6 ee39 a5ae 4f3a e417 9fbb
00000020: 18d5 78b7 4ce8 643a f118 26bc 4770 a6bb
00000030: 8830 cc37 e4de 4a38 0924 4cbb f862 3bbb
0.00071928604 1.7633789e-05 8.569444e-05 -0.0019838975 0.010247688 0.00045566415 0.00079224474 -0.004855143
-1.4831567e-05 0.00087321247 -0.010137782 -0.0050793025 2.4341294e-05 4.8368136e-05 -0.0031149408 -0.0028592926

weight f4 [8, 16]
00000000: 10f8 943a 5c35 eeb9 3217 163a fcea 42b9
00000010: 3e8e a1b8 4cb3 a8b9 cf84 1dbb 0c87 7b39
00000020: 328a 253a 0f0a 1b3c b824 7aba e75e 93ba
00000030: 7dda 203a f860 753a d42d d8b9 792e b7ba
00000040: f5fc d8bb d8c8 513a 6e56 a939 373c e2b9
00000050: be16 dc3b 5955 a5ba 151e f338 ca96 4b39
00000060: a062 04bc c7b2 04bb 8736 3fba f01e e939
00000070: a1f1 cbb8 aa02 1bba 6dd8 8039 8f6a 8b39
00000080: 469e 09bc c335 3eb9 b955 0dbb 3d39 123a
00000090: 0cff e23a f04c f8b7 f9a4 12bc ee15 0ab9
000000a0: 4af8 e6b9 52cf 293a 9523 c5ba dcc5 41ba
000000b0: 84f4 22ba 2fee f3b8 cb5f 803a f652 3539
000000c0: eced 38ba cc63 b5b9 2411 7bb8 d835 4d39
000000d0: 04e9 28b9 f072 bd3a a1b8 9bb8 c04a 25b9
000000e0: 916b 19b9 da6b 72b9 39c5 c338 d075 2e3b
000000f0: 9477 cb39 a2c8 f238 8bc8 9fb9 96e4 003c
00000100: 2005 0fbb 71e1 2ab8 a47f 2aba 916e 0b3b
00000110: 0ba3 42ba 9d13 143a 9b6c a9b8 35b7 6c3a
00000120: a51b a039 498e bcb9 bf51 8e3a b449 e5b9
00000130: c3ec e43a 3e78 25ba dca3 adba a75f c7b9
00000140: fd34 a8b9 b064 363a 0ab6 b93a 8bcf 01bb
00000150: b8cd 4d37 eeb0 b1bb 17a9 44b9 c382 4eba
00000160: 748c 4139 8682 0bbc 9bda a3b9 3a64 153b
00000170: 93f6 383a d8a7 bcb9 1bba 423a 5680 34b9
00000180: 8abc 7d3a e164 f2b7 461c 2cb9 0849 4b39
00000190: 7e0d b2b8 1e6e 48b9 9658 11bb d0ac 5e3a
000001a0: c461 0fba 5ca8 453a 51f8 96b9 2e1e 4cba
000001b0: c83a 92bb fc7b 3f39 a5dc 7639 49f3 9139
000001c0: 3ce0 f73a 3f3c f2b9 da38 063b 20a3 8339
000001d0: 1785 d539 2549 103b 8416 1938 c18c 16ba
000001e0: 07a7 6839 1863 7a38 7b78 323b b5fb 213a
000001f0: 6207 863a 81e7 3bb8 8f82 4abb 54f8 8c3a
0.0011365432 -0.00045434653 0.0005725502 -0.0001858882 -7.703573e-05 -0.00032177044 -0.002403546 0.00023987534
0.0006314843 0.009462847 -0.00095422147 -0.0011243493 0.0006136073 0.0009360458 -0.00041232875 -0.0013975642
-0.0066219517 0.00080026453 0.00032298587 -0.00043150943 0.0067165783 -0.0012613937 0.00011592746 0.00019415762
-0.008080155 -0.002024816 -0.0007294197 0.00044464273 -9.724801e-05 -0.0005913178 0.00024575312 0.00026591538
-0.008399552 -0.0001813984 -0.0021565987 0.0005577987 0.0017318442 -2.959973e-05 -0.008950465 -0.00013168875
-0.00044054008 0.00064777315 -0.0015040511 -0.0007391849 -0.0006216245 -0.00011631508 0.0009794174 0.0001729241
-0.0007054496 -0.00034597365 -5.9859027e-05 0.00019570382 -0.00016108534 0.001445381 -7.425366e-05 -0.00015763473
-0.00014631289 -0.00023119096 9.33506e-05 0.0026620515 0.0003880827 0.0001157683 -0.0003047626 0.007866999
-0.0021823123 -4.0741117e-05 -0.0006504005 0.002127562 -0.0007424808 0.00056486746 -8.078777e-05 0.00090299855
0.00030538175 -0.00035964165 0.0010858102 -0.00043733197 0.001746558 -0.0006312168 -0.0013247686 -0.00038027504
-0.00032082936 0.00069577526 0.0014168632 -0.0019807543 1.226685e-05 -0.005422703 -0.00018755007 -0.00078777614
0.00018458237 -0.008515006 -0.00031252656 0.0022795335 0.00070557854 -0.00035983208 0.00074282446 -0.00017213947
0.00096792786 -2.8895623e-05 -0.00016413731 0.00019386795 -8.4902145e-05 -0.00019114508 -0.0022178045 0.0008494379
-0.00054695853 0.0007540041 -0.0002879524 -0.00077864795 -0.0044625737 0.00018261367 0.00023542585 0.00027837817
0.0018911432 -0.00046202724 0.0020480664 0.00025107805 0.00040725686 0.0022016254 3.6499012e-05 -0.000574302
0.00022187467 5.9696933e-05 0.0027232456 0.000617917 0.0010225589 -4.479988e-05 -0.0030900573 0.001075516

bias f4 [8]
00000000: 4a51 503c 107b e1bc 1ede 8f3d 5ae5 51bd
00000010: beb9 2ebb 480c 5d3d 2c3e 943c 02cf f1bc
0.012714693 -0.027524501 0.07024787 -0.051244117 -0.0026661004 0.05396679 0.018096052 -0.029517654
