results/transformations/mapping_files/VAE/FMNIST_VAE_8_2>FMNIST_VAE_8_3>NeuralNetwork_50_0.5_nodropout_16_convex_hull.pth (torch, 8560 bytes, 6 tensors)

weight f4 [16, 8]
-0.0011614097 2.9634855e-05 -0.0005770025 0.026030397 -0.00012648007 0.0008477899 0.00082438235 -0.0011756901
0.00045461598 0.0008141204 -0.049170706 -0.019852659 0.02380565 0.0010770896 0.016674407 -0.034030933
-0.034010693 -0.007583844 -0.000904908 -0.03608713 -0.0002555892 0.00089737715 0.0007375693 0.00025864298
-0.05296655 -0.00064919534 4.8890808e-05 0.0008166601 0.00017589319 0.020678498 -0.0015711257 0.000106953994
-0.00025814166 -0.0006808051 -0.00020850582 -0.0003439065 -0.0005131523 -0.0032747106 -0.00015062801 0.054577574
0.00015700897 0.0018761079 0.001925502 0.0017911268 -0.00039583643 9.32375e-06 -0.0015181054 -0.021376755
-0.0019213116 0.011619489 5.4594973e-05 0.00040118358 0.047533985 -0.004314339 -0.040278178 -0.00087360793
-0.0019634732 0.00185832 0.027827121 -0.012338703 -0.00041903177 -8.4059706e-05 4.387737e-06 7.796765e-06
6.182401e-05 3.3468874e-05 0.00027561781 0.0001407938 -0.00071350735 -0.0014485343 -0.032410204 -0.0011775795
0.008401086 -0.04932488 0.0015064414 -0.0288179 -0.02313553 -0.0002737957 4.054058e-06 7.727558e-06
0.03438343 0.00027934587 -0.00074869784 0.00057763496 0.032456875 -0.00016591491 -0.0018505031 -0.019382017
-0.0005422131 -0.00041622968 0.00014242332 0.001475131 0.00077268144 -0.000111315996 -0.00050707377 0.031395297
-3.097592e-05 0.05669195 0.0008701908 -0.00054191356 -0.0011996506 -0.0484586 -6.256533e-05 -0.038062204
0.0007401904 0.0018427738 -0.001463729 -0.00046856503 0.00021748255 -2.3315653e-05 -0.0019221664 -0.029287603
-4.868004e-05 -0.058570333 8.830578e-05 -0.00013097686 -0.024637185 -0.006404258 -0.00030313892 -0.013051025
0.017924026 0.0004108354 -0.00070503115 -0.038470477 -0.00034078336 -0.001566555 -0.00019626689 -0.013712064
00000000: 713a 98ba 5e98 f837 fb41 17ba b33d d53c
00000010: bc9f 04b9 383e 5e3a 5d1b 583a 9d19 9aba
00000020: 8659 ee39 b26a 553a 3967 49bd 0ba2 a2bc
00000030: 1104 c33c 212d 8d3a c498 883c 0564 0bbd
00000040: cc4e 0bbd e581 f8bb 5937 6dba 19d0 13bd
00000050: 9a00 86b9 f63d 6b3a 7059 413a 799a 8739
00000060: 74f3 58bd c32e 2aba 1b10 4d38 2215 563a
00000070: f86f 3839 f465 a93c 3bee cdba 7d4c e038
00000080: 3057 87b9 0f78 32ba 5ba2 5ab9 594e b4b9
00000090: 1185 06ba 879c 56bb e6f1 1db9 bc8c 5f3d
000000a0: c6a2 2439 bce7 f53a 2061 fc3a 3ec4 ea3a
000000b0: 4488 cfb9 346d 1c37 2afb c6ba 4e1e afbc
000000c0: 85d4 fbba ab5f 3e3c e8fc 6438 f355 d239
000000d0: ffb2 423d 4c5f 8dbb bbfa 24bd d602 65ba
000000e0: 9dad 00bb df92 f33a b4f5 e33c 4528 4abc
000000f0: 7eb1 dbb9 3649 b0b8 603a 9336 dace 0237
00000100: 83a7 8138 ee60 0c38 cc80 9039 0ca2 1339
00000110: ab0a 3bba bfdc bdba 90c0 04bd 0359 9aba
00000120: b5a4 093c e308 4abd c973 c53a 8413 ecbc
00000130: b986 bdbc 3d8c 8fb9 1808 8836 9ca5 0137
00000140: a4d5 0c3d 2b75 9239 4344 44ba 6d6c 173a
00000150: 80f1 043d 72f9 2db9 958c f2ba 09c7 9ebc
00000160: 4e23 0eba 6739 dab9 7857 1539 2f59 c13a
00000170: c68d 4a3a 5272 e9b8 25ed 04ba 5b98 003d
00000180: 24ec 01b8 d135 683d 841d 643a 340f 0eba
00000190: 983d 9dba 867c 46bd 8135 83b8 1de7 1bbd
000001a0: 5609 423a 3a89 f13a 98da bfba bca9 f5b9
000001b0: 070c 6439 fc95 c3b7 34f1 fbba 8eec efbc
000001c0: cc2d 4cb8 72e7 6fbd ce30 b938 d556 09b9
000001d0: ecd3 c9bc cfda d1bb 9eee 9eb9 f7d3 55bc
000001e0: 68d5 923c 6565 d739 d7d1 38ba 3893 1dbd
000001f0: 2bab b2b9 dd54 cdba fecc 4db9 91a8 60bc

bias f4 [16]
0.0007861214 0.00050856563 -0.00075649255 -0.020173956 0.00043954336 -1.2978791e-05 0.0015022116 -0.045569185
0.00025045592 -0.0006819821 -0.009135343 0.018258804 -0.044086583 -8.115952e-05 -7.6338496e-05 -0.001544164
00000000: b713 4e3a 4351 053a 5b4f 46ba da43 a5bc
00000010: 8372 e639 7cbf 59b7 dbe5 c43a c1a6 3abd
00000020: a04f 8339 0bc7 32ba 68ac 15bc 7d93 953c
00000030: 2294 34bd 2f34 aab8 eb17 a0b8 8c65 caba

weight f4 [16, 16]
0.0012901635 -0.0013704082 -0.001744055 0.0011533643 0.0007846562 0.0074491673 7.642391e-05 -0.0043382365
0.0054986575 0.008226159 -0.00049766205 4.9717355e-06 0.00025557718 0.00020865152 -0.0018806134 0.0017843337
-0.00028144973 -0.0018144014 -0.00026624414 -0.0010643625 0.0010822939 -0.0008814657 -2.9888768e-05 -0.00010527576
-0.0018239791 -0.00054332864 0.0017761998 0.00029968814 -8.4924955e-05 -0.0019803282 0.00088953925 -0.0021166787
0.0003450538 -0.0013087974 -0.0006705676 0.0001685508 4.1930874e-05 -0.00026534512 -0.0008429914 -0.00021195004
-0.0017828168 -0.0010681122 -5.549903e-05 -1.645305e-05 9.798101e-06 -2.4615358e-05 0.0018476858 -0.0008574275
-0.0006994802 -0.0004528518 -0.00053916866 0.00022153194 0.005165078 -0.00028668466 0.0004203618 0.00025537546
-0.00046974397 0.003047855 -0.000281193 -0.002397203 9.102448e-06 -0.006925277 -9.109634e-05 -0.0020327661
2.338373e-05 0.006335269 0.0007219264 0.0006256631 -0.0014162868 -0.0017343822 0.00010035253 -0.0018698903
-0.0015873875 -0.00011083958 -0.00055547553 -0.0036255114 0.0003732518 -7.823096e-05 0.0007033642 0.00027775276
-0.0007030814 4.0538544e-05 0.00040732985 0.0011207366 0.000933936 -0.0003602851 0.0006390149 -9.058077e-05
2.8789273e-05 -0.0007842499 -3.247976e-05 -0.00021231378 0.00015079764 -3.5647547e-05 -0.0014269634 0.0014218697
-4.503497e-05 0.0007757974 0.00046959228 0.004747897 0.0019271701 5.488415e-05 -0.0002898665 0.0007553337
-0.0025359194 0.0023568305 -0.00067105115 0.0014533504 -0.0015173227 -0.0007737038 -0.0003830625 -0.0014733844
0.0011135397 0.0048635085 0.0014190526 0.0010427717 -0.00010107637 -5.0992607e-05 -0.00022455196 -0.00048794618
0.0006093422 -0.00062727946 -8.29293e-05 0.0017305829 -0.00023959392 -0.0014058205 -0.00018096769 -0.00030205722
0.00080687564 0.0006960803 -0.0001100728 0.00057133555 5.1389317e-05 -0.00067417533 0.0003058795 -0.0006641242
-0.00028380853 -0.00072926225 0.00017473921 0.0017252308 0.00031873264 -0.0004663721 -0.0012614526 0.0004157115
-0.0003384616 -0.0006399201 0.0007826894 -0.0013402903 -0.00618637 3.2868607e-05 3.3316446e-05 0.0018898663
0.000111002744 0.00039206265 -0.0015323269 0.0014531619 0.0001518717 -0.0020217719 -0.00010365519 0.0048824237
-0.0009920291 0.00010306267 0.0009313913 -0.0016617274 -0.00061493466 0.000113064525 -0.00022966973 0.0018211927
8.5805164e-05 0.0012305196 0.000689741 -8.609705e-05 -0.00012496172 -0.00020523102 0.005038731 -0.0005985091
-0.0033105446 0.0008449743 0.00034782296 -0.00082661444 0.0002022211 -0.0017857878 -7.006289e-05 -0.003177749
-1.39105105e-05 -0.009597599 2.1449741e-05 0.00029962108 0.0002114763 -0.001011885 3.88993e-05 -0.0010878996
-8.052257e-06 0.00043269226 -0.00030912407 9.9332974e-05 0.0015296027 -0.00014913539 -2.9688219e-05 -6.901274e-05
0.00022219338 -0.00013866842 -1.367277e-05 -0.0018986107 0.00010868711 0.0016818161 0.0012365935 0.00035175894
-0.00024781912 -0.0016692437 0.00017847163 0.00066272507 1.3550707e-05 -0.004608402 -0.00028332445 1.735194e-05
0.00045600216 0.00010306375 -0.00012862249 1.7757207e-05 -0.00096779753 -0.00048148166 -8.629106e-05 -0.0006014898
0.00025657966 0.0010779509 -0.00069299276 0.00038725327 0.0016820234 -4.921796e-06 7.659244e-05 -0.0004571413
-0.000302658 -0.00015041113 -0.00014275213 0.0007059171 -0.00010884548 5.900183e-05 0.0005963706 0.00020908569
-0.0012931357 -0.0011106263 0.00018635592 0.002015189 -0.00028399305 0.0007357504 -0.00037611186 -6.810913e-06
0.00037598575 -0.0010628402 -0.00010040364 0.00010996974 0.0011698775 -8.752762e-05 2.310116e-05 -0.0014069285
00000000: b41a a93a 459f b3ba c698 e4ba 7c2c 973a
00000010: 63b1 4d3a 2518 f43b c645 a038 c427 8ebb
00000020: 152e b43b 03c7 063c 8975 02ba e2d2 a636
00000030: fdfe 8539 77c9 5a39 ea7e f6ba 4ee0 e93a
00000040: 8b8f 93b9 35d1 edba af96 8bb9 1482 8bba
00000050: c2db 8d3a 2912 67ba a4b9 fab7 7ec7 dcb8
00000060: 9512 efba 2b6e 0eba 60cf e83a 761f 9d39
00000070: bd19 b2b8 65c8 01bb f82f 693a fab7 0abb
00000080: 56e8 b439 f48b abba 08c9 2fba 03bd 3039
00000090: efde 2f38 051e 8bb9 32fc 5cba e83e 5eb9
000000a0: 68ad e9ba e6ff 8bba a1c7 68b8 a804 8ab7
000000b0: 8662 2437 147d ceb7 0c2e f23a fcc4 60ba
000000c0: 525d 37ba bd6c edb9 ff56 0dba 074b 6839
000000d0: d13f a93b 2a4e 96b9 0164 dc39 eae3 8539
000000e0: f847 f6b9 86be 473b 166d 93b9 641a 1dbb
000000f0: b7b6 1837 6fed e2bb fa0a bfb8 2838 05bb
00000100: 2e28 c437 1798 cf3b a93f 3d3a 8a03 243a
00000110: b3a2 b9ba 3654 e3ba 5b74 d238 1b17 f5ba
00000120: e30f d0ba 8c72 e8b8 559d 11ba fd99 6dbb
00000130: 02b1 c339 ed0f a4b8 f961 383a 589f 9139
00000140: fe4e 38ba ee07 2a38 e38e d539 aee5 923a
00000150: 62d3 743a a6e4 bcb9 9083 273a 2ef6 bdb8
00000160: 7e80 f137 1f96 4dba e03a 08b8 8ca0 5eb9
00000170: 6f1f 1e39 4384 15b8 f208 bbba 085e ba3a
00000180: eee3 3cb8 e25e 4b3a 9c33 f639 3f94 9b3b
00000190: 1999 fc3a 6833 6638 39f9 97b9 9601 463a
000001a0: ab31 26bb 0e75 1a3b 7be9 2fba 597e be3a
000001b0: e7e0 c6ba 62d2 4aba c7d5 c8b9 941e c1ba
000001c0: 31f4 913a 115e 9f3b 81ff b93a 9dad 883a
000001d0: f7f8 d3b8 e5e0 55b8 b575 6bb9 07d3 ffb9
000001e0: 43bc 1f3a 0370 24ba 54ea adb8 bad4 e23a
000001f0: 813b 7bb9 8243 b8ba 25c2 3db9 6f5d 9eb9
00000200: 8284 533a 2879 363a e2d6 e6b8 aec5 153a
00000210: dc8a 5738 24bb 30ba 745e a039 9f18 2eba
00000220: 23cc 94b9 f62b 3fba 333a 3739 2421 e23a
00000230: 921b a739 6783 f4b9 5357 a5ba daf3 d939
00000240: 8c73 b1b9 50c0 27ba 662d 4d3a aeac afba
00000250: 08b7 cabb 66dc 0938 43bd 0b38 64b5 f73a
00000260: 25ca e838 c28d cd39 5cd8 c8ba 0678 be3a
00000270: c03f 1f39 b47f 04bb 7561 d9b8 bdfc 9f3b
00000280: f906 82ba 5a23 d838 9d28 743a 52ce d9ba
00000290: 9133 21ba 0e1d ed38 80d3 70b9 16b5 ee3a
000002a0: 4cf2 b338 6349 a13a bccf 343a 008f b4b8
000002b0: 2808 03b9 4833 57b9 f01b a53b 44e5 1cba
000002c0: b9f5 58bb 4481 5d3a 025c b639 28b1 58ba
000002d0: 500b 5439 1811 eaba baee 92b8 c841 50bb
000002e0: 3061 69b7 3f3f 1dbc f8ee b337 7616 9d39
000002f0: bdbf 5d39 3aa1 84ba ce27 2338 da97 8eba
00000300: 2e18 07b7 f9da e239 ee11 a2b9 fc50 d038
00000310: f37c c83a 3a61 1cb9 f70a f9b7 efba 90b8
00000320: 95fc 6839 8567 11b9 1a64 65b7 ceda f8ba
00000330: f3ee e338 6270 dc3a 3115 a23a 496c b839
00000340: b8ed 81b9 86ca daba 1d24 3b39 baba 2d3a
00000350: d857 6337 1402 97bb 2a8b 94b9 028f 9137
00000360: 9313 ef39 ee23 d838 d6de 06b9 50f5 9437
00000370: cbb3 7dba 606f fcb9 29f7 b4b8 4cad 1dba
00000380: 8a85 8639 084a 8d3a f5a9 35ba 4108 cb39
00000390: 5777 dc3a e825 a5b6 41a0 a038 77ac efb9
000003a0: 12ae 9eb9 aeb7 1db9 bcaf 15b9 4b0d 393a
000003b0: f943 e4b8 bc78 7738 c155 1c3a 033e 5b39
000003c0: 6f7e a9ba 6f92 91ba 8968 4339 4311 043b
000003d0: e7e4 94b9 60df 403a e130 c5b9 4c89 e4b6
000003e0: f41f c539 004f 8bba cb8f d2b8 8e9f e638
000003f0: 9356 993a 088f b7b8 5dc9 c137 b068 b8ba

bias f4 [16]
0.00028172252 -0.0008943138 0.00016067627 -0.00033013566 0.0005649062 0.0041481787 0.0011728808 0.0021905138
-0.0011761595 -0.0048338845 -0.0011333674 0.0004224595 -0.0024198724 -0.0009674087 -0.00049388467 0.00018070439
00000000: 28b4 9339 6270 6aba 357b 2839 0f16 adb9
00000010: 3716 143a 72ed 873b 59bb 993a b98e 0f3b
00000020: 5d29 9aba 9065 9ebb 808d 94ba 8e7d dd39
00000030: b996 1ebb b399 7dba 0a78 01ba 777b 3d39

weight f4 [8, 16]
0.0006226338 -0.000523736 -4.5801586e-05 0.00056559895 0.002996938 0.0009627204 0.0006850456 -0.00025158143
0.0004828605 -0.0034258445 0.0014875742 8.85861e-05 0.0003073429 -0.00028029422 -0.00012910043 -0.00087889016
-0.0005206794 -2.0732983e-05 -0.00028710125 0.00042527154 -0.0002463886 -0.0031034113 -0.000259681 8.877751e-05
0.00079983677 1.5326128e-05 -0.00034122198 -0.0065019596 0.00030851233 0.0012030144 0.0005881206 0.0041627707
0.0049798097 0.00026508622 -0.0016017108 -0.00088008255 -0.0005054716 -3.818618e-05 -0.00013391307 -0.00013992476
-7.051901e-05 9.6988544e-05 -0.0020260748 0.00037701108 -0.00028026864 0.0002741797 0.0003792521 0.0029736494
-0.000108902044 0.0021662898 -0.00010070174 -0.00020184164 0.0056487075 0.002078106 0.0012709523 0.001744603
-4.0750885e-05 -1.9722085e-05 0.0020070628 -0.00023238992 5.4587317e-06 -6.0794606e-05 -9.9047365e-06 -0.004395979
0.00045373946 0.0015742012 -0.0019757077 -0.0076038023 0.00050750613 0.0006512022 9.153971e-05 0.00032386175
0.00032241564 -0.00064874644 -7.428214e-05 -0.00051006343 -0.0015852769 1.8420104e-05 -0.00022742606 0.0002663064
3.132441e-05 0.0036264977 -0.0001854389 -0.0017870743 -0.00019848831 -0.0013845094 0.00044481206 0.00031618288
-0.0005717313 -0.0003288502 0.0047633825 0.0020449487 0.0017968785 -0.0061410703 0.00010144951 0.00013667629
-0.00067746546 -0.00033852638 0.00069062196 1.50743435e-05 0.004032363 0.00020121603 -0.00071071426 0.0007073099
-0.005169223 -0.00061290746 -0.0001166718 -0.0019335605 1.6332331e-05 -0.0012208285 -0.00040460285 0.0005519483
0.00023004576 0.00019599235 -0.00060535455 0.005082664 -0.0003461402 -0.0024280197 0.001342592 0.002404788
0.00076217606 0.00022492858 0.00014103508 0.0004410994 3.9210438e-05 -0.004685423 0.0064765015 -0.0018013874
00000000: 3f38 233a 544b 09ba 141b 40b8 b444 143a
00000010: 4768 443b 135f 7c3a a294 333a b0e6 83b9
00000020: 7028 fd39 2284 60bb b5fa c23a 4dc7 b938
00000030: de22 a139 74f4 92b9 225f 07b9 5265 66ba
00000040: 347e 08ba beeb adb7 1486 96b9 fbf6 de39
00000050: b82d 81b9 9a62 4bbb cb25 88b9 102e ba38
00000060: 23ac 513a 9c90 8037 0ae6 b2b9 640e d5bb
00000070: d3bf a139 77ae 9d3a 1b2c 1a3a da67 883b
00000080: ac2d a33b 45fb 8a39 7ff0 d1ba 57b5 66ba
00000090: a081 04ba 192a 20b8 046b 0cb9 c4b8 12b9
000000a0: 9be3 93b8 5466 cb38 e5c7 04bb 92a9 c539
000000b0: 05f1 92b9 c7bf 8f39 5bd6 c639 8fe1 423b
000000c0: 5762 e4b8 50f8 0d3b d62f d3b8 74a5 53b9
000000d0: cb18 b93b d530 083b 1596 a63a 2aab e43a
000000e0: eeeb 2ab8 db70 a5b7 ed88 033b b2ad 73b9
000000f0: 262a b736 b6fd 7eb8 852c 26b7 250c 90bb
00000100: e1e3 ed39 6d55 ce3a e07a 01bb 5129 f9bb
00000110: 290a 053a 71b5 2a3a 02f9 bf38 fdcb a939
00000120: e509 a939 a310 2aba ecc7 9bb8 c7b5 05ba
00000130: 11c9 cfba df84 9a37 3879 6eb9 0a9f 8b39
00000140: 5462 0338 89aa 6d3b 6072 42b9 433c eaba
00000150: 4d21 50b9 6d78 b5ba aa35 e939 59c5 a539
00000160: 3de0 15ba 8769 acb9 2616 9c3b 8c04 063b
00000170: 3d85 eb3a 083b c9bb 4ac1 d438 c350 0f39
00000180: f097 31ba 3e7c b1b9 db0a 353a d0e7 7c37
00000190: ea21 843b 84fd 5239 3a4f 3aba c46a 393a
000001a0: 9662 a9bb 86ab 20ba b2ad f4b8 866f fdba
000001b0: 6a01 8937 3504 a0ba e020 d4b9 a0b0 103a
000001c0: 7038 7139 4c83 4d39 a8b0 1eba 7a8c a63b
000001d0: 277a b5b9 691f 1fbb e9f9 af3a a699 1d3b
000001e0: c5cc 473a ceda 6b39 d1e2 1339 5c43 e739
000001f0: e375 2438 2d88 99bb d538 d43b 881c ecba

bias f4 [8]
0.10726908 -0.01139186 0.040438525 0.0495819 0.06112878 0.0062218807 0.10870351 -0.06945808
00000000: e4af db3d eda4 3abc dea2 253d 6416 4b3d
00000010: 2c62 7a3d ebe0 cb3b f29f de3d 0a40 8ebd
