results/transformations/mapping_files/VAE/FMNIST_VAE_16_1>FMNIST_VAE_16_2>NeuralNetwork_50_0_nodropout_128_convex_hull.pth (torch, 89402 bytes, 6 tensors)

weight f4 [128, 16]
000000 45 20 f5 3d 1f 22 a8 bd 34 d6 ac 3d b0 fb 8b be
       0.119690455 -0.08209633 0.084392935 -0.2734046
000010 55 03 59 3e c4 59 38 bc 2e d9 98 3d 17 f9 5c 3e
       0.21192677 -0.011251871 0.07463299 0.21579395
000020 37 0c ea bd a6 12 d5 bc 93 d3 0b 3e 18 71 1d be
       -0.11428111 -0.026009869 0.13654928 -0.15375173
000030 ce 59 3f bd 9d 91 3b be 92 05 90 be 9b 58 2b 3c
       -0.046716504 -0.18317266 -0.2812925 0.010458137
000040 72 bf 88 be 37 1a a5 bc 92 d4 7a bd ec b0 8b 3c
       -0.2670856 -0.020154102 -0.06123788 0.017052136
000050 64 4a ab bc 49 ed 60 be 60 cc 87 bc a1 f2 ca 3d
       -0.020909496 -0.21965517 -0.016576946 0.09909559
000060 3f bb 07 3e 5d 38 53 3e 9d 5e e3 bd 25 98 4a 3d
       0.13255022 0.2062697 -0.111020304 0.049461503
000070 cb 90 45 3e 8c 66 38 be ce 8a 3b be fb 9c d4 3d
       0.19293515 -0.18007869 -0.18314669 0.10381504
000080 54 da 24 3e 18 bf 74 3e ca cc 61 3d 7d ce 62 3e
       0.1609891 0.23901021 0.055126943 0.22149082
000090 40 b5 b5 bd 86 c9 1d 3e 84 0e 42 3d 09 af 02 3c
       -0.08872461 0.15408906 0.047377124 0.007976302
0000a0 c8 fc 91 3e 3c 5c ad 3c e1 53 c9 bc 23 4d 8b 3d
       0.2851317 0.021162145 -0.02457613 0.06801822
0000b0 0a ea 16 be 9f b5 97 bd f1 70 c4 bd 54 df 8f be
       -0.14737716 -0.07407688 -0.09591854 -0.28100073
0000c0 74 df 77 3e 77 90 81 3e 80 83 73 be 48 a0 1d 3e
       0.24206334 0.2530553 -0.23780632 0.15393174
0000d0 10 b3 61 bd 3b ad 70 bd 6c fe ff bd 8d 63 86 be
       -0.055102408 -0.058758955 -0.12499699 -0.26247826
0000e0 6d d9 62 be 38 39 6e 3e c6 68 09 3e 00 58 72 be
       -0.22153254 0.23264015 0.13418874 -0.23666382
0000f0 28 e5 a4 3d 58 cc 13 bc 83 16 3b 3e bf e0 10 be
       0.080515206 -0.009020887 0.18270306 -0.14148234
000100 b2 c9 46 3e e7 1c 36 3c a8 4a 75 3e 4a 4e 16 be
       0.19412878 0.011115289 0.2395426 -0.14678302
000110 37 3d b1 3d fb e2 49 be 4a 81 83 3e 6e 58 5c bd
       0.08654254 -0.19715492 0.25684577 -0.05379527
000120 30 65 b7 bd 43 dc 68 3e 5e 1e 95 3d 69 45 48 be
       -0.08954847 0.22740273 0.07281183 -0.19557728
000130 02 39 e3 bd 0d 4f ea 3d 9c c9 44 be ea 2b 6d 3d
       -0.11094858 0.11440859 -0.19217533 0.057903208
000140 80 79 98 be 2f a6 f5 bd d0 ec ba bd e2 9a ae 3b
       -0.29780197 -0.11994588 -0.091272 0.005328522
000150 8e dc 4b 3e 48 e5 33 be e3 9a b0 bd 72 e8 54 be
       0.19908354 -0.17567933 -0.08623292 -0.20791796
000160 7c 9f 4b 3e ba 35 08 bd af 0d 26 be 22 b0 66 be
       0.19885057 -0.033254363 -0.16216157 -0.22528127
000170 70 c1 1b 3e 61 b4 8e be ae c9 4b be b8 8d 2e be
       0.1521051 -0.27871993 -0.19901153 -0.17046249
000180 66 f9 39 3e 6c 2c c9 3c 0b f4 d8 3c 63 02 b2 3c
       0.18161544 0.024557315 0.026483556 0.021729654
000190 6e a9 86 3b 26 49 68 3e 81 9e 54 be 0a e2 11 3c
       0.004109553 0.22684154 -0.2076359 0.00890399
0001a0 ab f3 61 be a5 ee ed 3b 8b ba 08 3e 39 32 48 3e
       -0.22065608 0.0072611147 0.1335241 0.19550408
0001b0 2e 5f 02 3e cc 6d 3e 3e 9c dc 3b 3e 2f d2 d7 3c
       0.1273162 0.18596572 0.18345875 0.02634534
0001c0 60 09 e2 3c 21 95 96 3e e2 c0 ec bd 0c d8 35 3e
       0.027592361 0.2941065 -0.11560227 0.17758197
0001d0 4a 37 c4 3d 51 39 6a 3d 2b 88 82 3e 56 0a 23 3e
       0.09580858 0.057183567 0.25494513 0.15921912
0001e0 68 d2 90 bd ac 12 39 3e 45 c5 cc bd d9 a1 04 3e
       -0.07071382 0.18073529 -0.09998564 0.12952365
0001f0 ea 67 cf bd 4a 69 5a be 92 3b da 3d 24 11 8b bd
       -0.10127242 -0.21329227 0.106558934 -0.06790379
000200 76 56 9c bd a9 44 28 be 16 0a 14 bc 48 de 0c be
       -0.076336786 -0.16432442 -0.009035608 -0.13756669
000210 7a f3 89 3e f4 f1 d1 bc 66 6e 6e be 7b 30 31 bd
       0.2694357 -0.025628068 -0.23284301 -0.043259125
000220 19 4c 15 3e 28 51 0b 3e 59 c7 56 3e 77 3a 27 3e
       0.1457981 0.13605177 0.20974483 0.16330896
000230 40 20 db bd cc 9c aa bd 69 fe bf bd 58 45 5e 3d
       -0.106995106 -0.08330688 -0.09374697 0.05426535
000240 48 6e 61 3e 4a 0b 8b 3e b4 09 65 3e b2 f7 00 be
       0.22014725 0.2715705 0.22366983 -0.12594488
000250 00 a3 60 3e ec ae b9 3d 28 91 54 3e 94 ee d0 bd
       0.2193718 0.09066567 0.20758498 -0.10201755
000260 93 2d 46 bc 08 67 c2 3b 09 cd 11 be ee 29 3e 3e
       -0.012095827 0.0059326924 -0.14238371 0.18570682
000270 cc 57 35 3d 9a 60 66 be d5 48 cb 3d 06 f7 5c be
       0.044273183 -0.22497788 0.09926001 -0.21578607
000280 ae 78 8d be 2a 15 a2 bd 8c be bb bd 41 94 1b be
       -0.27631134 -0.07914193 -0.09167203 -0.15193273
000290 68 1c 9e bd 3c ba 7c be a0 af dd 3d 0b c1 82 3d
       -0.07720262 -0.24680418 0.108245134 0.06384476
0002a0 4b ed 27 be 3c 05 a7 3c 87 ff 2b be c4 b4 f1 3b
       -0.16399114 0.020388238 -0.16796695 0.0073762853
0002b0 e6 b5 79 bd bb ed 56 3e b2 a8 20 3d 3c 51 ae 3c
       -0.060964487 0.20989124 0.03922338 0.02127897
0002c0 c4 84 5a be 68 85 3e 3e 7a 1b fa bd 4b 2f 01 be
       -0.21339709 0.18605578 -0.12212272 -0.12615697
0002d0 44 f3 bb bc 18 8e ab 3d c7 f0 e3 bd 99 45 96 be
       -0.022943147 0.083767116 -0.11129909 -0.29349974
0002e0 2c e0 81 3e d7 cc 73 be 0b d4 8c 3c 6e 3b 3e 3e
       0.25366342 -0.23808609 0.017190954 0.18577358
0002f0 a8 2a 23 3e dc 0d 73 3e 8e 24 07 3d a1 05 71 3e
       0.15934241 0.23735756 0.032993846 0.23537304
000300 20 cb 94 3d 10 9f 7b be a7 47 2d 3d 3a 22 2d 3e
       0.072653055 -0.24572396 0.04230466 0.16907588
000310 38 29 8c bd fb c4 9f bd 65 fa 38 be de 47 59 3e
       -0.06843799 -0.07801243 -0.18064268 0.21218821
000320 c0 0a bb 3d 5e 37 0a 3e 6c ba 93 be de bf 25 3e
       0.0913291 0.13497683 -0.28853166 0.16186473
000330 75 65 d2 3d 1e 1a f1 3d 69 7c 21 be 87 28 0c be
       0.10273258 0.117725596 -0.15770115 -0.13687335
000340 af 27 46 be 6d 87 1a bd 54 2c 26 3d 48 15 00 be
       -0.19351076 -0.03772681 0.04056962 -0.12508118
000350 17 7b 6e bd 7f 13 11 bd 05 e7 88 3e 58 3f 4c 3e
       -0.058222856 -0.035418984 0.26738754 0.19946039
000360 28 5f 22 3e e3 37 85 be e6 c9 08 3e 94 52 4d bd
       0.15856612 -0.260192 0.13358268 -0.05012758
000370 20 ac e1 3c 8c 25 36 3d e4 48 31 be 97 a8 81 be
       0.027547896 0.0444694 -0.17312962 -0.25323936
000380 c8 1e b4 3d 2d f1 17 3d 3e 03 1b 3c bf e6 55 3d
       0.087949336 0.037095238 0.009461222 0.05222201
000390 4a cc 09 be ab 80 0e be 57 90 0a be f3 7d bb 3d
       -0.13456836 -0.1391627 -0.13531624 0.09154882
0003a0 a0 e0 b4 bd 25 f5 83 be 99 87 0e 3e 64 f1 5f bd
       -0.08831906 -0.25772968 0.13918914 -0.054673567
0003b0 90 77 83 3c e1 48 a5 bd b1 31 ca bd 40 4c 61 3e
       0.016048223 -0.08070541 -0.09872759 0.22001743
0003c0 4e b9 9f 3d d6 3f 40 3e c9 a6 80 3d c6 c0 8c 3e
       0.07799016 0.18774351 0.06281812 0.27490824
0003d0 14 a9 00 bd 54 e5 5f 3e f1 13 65 be 4f 46 87 be
       -0.031411245 0.21864825 -0.22370888 -0.2642083
0003e0 e8 d6 80 be 33 74 80 bd c3 17 8a be 73 1e 3e be
       -0.2516396 -0.06272163 -0.26971254 -0.18566303
0003f0 9c d0 a0 be 61 ee 7b 3d 80 41 3d 3b bc 54 78 3c
       -0.31409156 0.061506633 0.0028878152 0.015156921

bias f4 [128]
000000 31 05 89 3e e5 10 e8 bd e8 18 0a 3e b8 59 85 3d
       0.26761773 -0.113313474 0.13486063 0.06511253
000010 b0 09 0b 3e 8c a0 2a 3e fd 23 64 3e 57 1c 41 3e
       0.13577914 0.16662806 0.22279353 0.18858467
000020 eb cc ff 3d 85 b4 40 3d 5d 58 f8 3d 2f b4 dd bc
       0.12490257 0.047047157 0.12126229 -0.027063457
000030 9f 36 3a 3e f6 ea 52 3e 5f 1e 5c be 1b aa 2c be
       0.18184899 0.20597443 -0.2149596 -0.16861765
000040 20 74 67 3a 03 b6 5e be 67 18 38 be 03 d1 f7 3b
       0.00088292547 -0.2174912 -0.17978059 0.007562758
000050 0c 91 0a be c9 99 e4 bd 2c 17 2e 3e d4 d2 b8 3d
       -0.13531893 -0.11162145 0.17001027 0.09024587
000060 b1 ee 24 3e 1b ff b5 bc 4b 34 07 3d 7d 23 0e 3e
       0.16106679 -0.02221637 0.033008855 0.13880725
000070 61 32 03 be 2c c0 8e 3e 1d d4 b9 3c 95 08 b1 3d
       -0.12812187 0.2788099 0.022684151 0.08644215
000080 ea bc ff 3c e7 ee 07 be 54 5e 40 bd 5d dd a9 3d
       0.031218011 -0.13274728 -0.04696496 0.08294175
000090 44 48 af bd 9d a5 c0 bd ae 23 80 be cc a3 b5 bd
       -0.085587054 -0.09406588 -0.2502722 -0.088691324
0000a0 cd e2 da 3d fc 62 34 3e 74 f5 e8 3d c6 de 73 bc
       0.1068779 0.17615885 0.113749415 -0.014884656
0000b0 11 40 bd bd 57 b2 55 3e 38 48 81 3e 81 74 b4 3d
       -0.09240735 0.20868813 0.2525041 0.08811284
0000c0 da d0 de bd 30 ce 59 39 92 ab 60 be 80 d3 1d 3e
       -0.10879679 0.00020771543 -0.21940449 0.15412712
0000d0 fb c5 53 3e ef 9a 36 3d e6 a8 b4 bd ca 88 5d be
       0.20680992 0.04458135 -0.08821277 -0.21634212
0000e0 65 9c e8 bd 66 c7 f8 3d e3 de 23 3e 5c 1e 7b 3a
       -0.11357955 0.12147407 0.16002993 0.0009579414
0000f0 91 99 34 be 21 b6 29 3e ef 27 1c be 0a a8 a6 bd
       -0.17636706 0.16573383 -0.15249608 -0.0813752
000100 ee 23 0c 3e a6 9b 19 3e 48 52 28 3e 17 ac 30 be
       0.13685581 0.15000781 0.16437638 -0.17253147
000110 4c 32 af 3d 90 5a 4b be a4 94 20 3e 0f b5 5a 3e
       0.08554515 -0.19858766 0.15681702 0.21358131
000120 db 8a 85 3e df 76 d7 3d 1c 23 1f bd 6c a1 29 be
       0.260825 0.1052072 -0.038851842 -0.16565484
000130 15 e2 10 be 83 71 30 be 43 c9 81 3e ce 56 3a be
       -0.14148743 -0.17230801 0.25348863 -0.18197176
000140 43 07 2c be 4c 60 41 be 2c cc 6d be f3 60 35 3e
       -0.16799645 -0.1888439 -0.23222417 0.17712764
000150 75 fc 04 be a2 ea 01 3d f0 f9 6d 3e af 72 46 be
       -0.1298693 0.031717904 0.23239875 -0.19379686
000160 ca dd b1 3d 49 8c fa 3d 60 22 55 be 8c 07 fb 3d
       0.08684881 0.122337885 -0.20813894 0.12257299
000170 13 48 c0 3d 9a 3a 3c 3e cd b0 6b 3d fe 85 92 bd
       0.09388747 0.1838173 0.057541657 -0.07154463
000180 77 05 27 bd fd 4a 84 be d7 50 c5 bd 90 b3 6b 3e
       -0.040776696 -0.25838462 -0.096345596 0.23017716
000190 5f f0 3a be 37 cb ba 3d 4a 0e 10 bd 30 b9 02 be
       -0.18255757 0.091207914 -0.035169877 -0.12765956
0001a0 57 91 1c 3d 2f 1e 20 be 05 5a 6b 3d 30 70 32 be
       0.038224544 -0.15636514 0.057458896 -0.17425609
0001b0 11 1e e6 bd 7a 3a f8 bd 22 2e 02 3b 8c 79 88 bc
       -0.112362035 -0.121205285 0.0019863923 -0.01665952
0001c0 04 a0 33 3e 6b a3 c7 3c 90 c6 1f 3e c6 4f ff bd
       0.1754151 0.024369916 0.1560309 -0.124663875
0001d0 10 1e fb 3d a3 38 4f 3e 0b bd 00 be 0d 47 1b 3e
       0.12261593 0.20236449 -0.12572114 0.15163822
0001e0 06 8b dd bd 90 47 92 bd 23 d0 48 3e aa 15 a4 bd
       -0.10817532 -0.07142556 0.19610648 -0.080119446
0001f0 2b 4a 83 3d a0 fd d6 bd 13 51 70 3e 3b 4a 51 be
       0.06410631 -0.10497594 0.23468427 -0.20438473

weight f4 [128, 128]
000000 82 b9 fe 3d af 9f 2e bd 37 e1 82 bd b9 e3 c3 3d
       0.124377266 -0.042632755 -0.063906126 0.09564919
000010 3d 29 a7 3d 21 7e 08 3d 08 87 91 bb 25 05 78 bd
       0.081621625 0.03332341 -0.004441146 -0.06055178
000020 f7 9e 75 3c 3e 06 c5 3a fb a0 02 be 05 18 f8 bc
       0.014991513 0.0015031768 -0.12756722 -0.03028489
000030 71 dc c9 bd 3d 4f 8e 3d 02 80 dc 3b 8b e4 9e bc
       -0.09856499 0.06948707 0.006729127 -0.019396087
000040 88 1c b2 3d 4a 27 59 3c 77 42 4f 3c e5 8d fd 3b
       0.08696848 0.013253996 0.012650124 0.0077378624
000050 fe 9a 38 3c 73 7d 56 bd 38 47 80 bb e3 f8 97 bd
       0.011267422 -0.05236573 -0.00391474 -0.07420518
000060 43 fc 1c 3d 9d 84 60 3d 54 e8 8e bb 69 b8 1d bd
       0.038326513 0.05481397 -0.0043611918 -0.038505945
000070 75 ec 4a 3d 0e 08 01 be 96 c8 1f 3d 95 e4 ed bd
       0.04954191 -0.12600729 0.039009653 -0.11615864
000080 d8 39 82 3d 3c 9b eb bd 7e 29 1c bc 17 ad f7 3b
       0.06358689 -0.11504218 -0.009531377 0.0075584757
000090 39 8a 22 3d df 9f 3b 3d 2e 2f 94 3d ea 26 e4 3c
       0.0396826 0.04580676 0.07235561 0.027850587
0000a0 cf 79 1f 3c bf 6b ef bc c8 ff c9 3d 29 a5 f9 3c
       0.009733631 -0.029226182 0.098632395 0.030474262
0000b0 f2 98 7a bd 8b 0e be bc f7 6c c0 3d 54 d5 eb bc
       -0.061181016 -0.023200294 0.093957834 -0.028788246
0000c0 b2 bb d5 bc e3 9d 28 bd fa d6 b6 3c 1f 52 a5 3d
       -0.026090477 -0.041166198 0.022319306 0.08072304
0000d0 e9 51 e3 bd f7 b1 0c 3d 64 ff b2 3d f5 e3 3c 3d
       -0.110996075 0.034349408 0.08740118 0.046115834
0000e0 4c da 8f 3d 57 6f 39 bd 1f d3 af 3b 1c fc c9 3c
       0.07024059 -0.045272198 0.005365744 0.024656348
0000f0 7d 7a ae bd c8 f4 3b bc db 3a 8c bd d0 bd 5b 3a
       -0.085194565 -0.011471935 -0.06847163 0.0008382471
000100 f6 71 13 bc 06 77 a9 bd ae a1 90 3a 5a 41 f7 3d
       -0.008999338 -0.08274655 0.0011034512 0.12073012
000110 cd 47 bb 3d f8 7f f7 3c 01 22 bc bd 65 8c 36 bd
       0.09144554 0.030212387 -0.09186173 -0.044567484
000120 4e b7 db 3d 66 14 01 bd c7 f1 ad 3c fa 60 d9 3d
       0.10728322 -0.031513594 0.021233452 0.106142
000130 02 7b a8 bb 4e ae bd 3d ee 81 81 3d a5 6e 4b bd
       -0.005141617 0.092617616 0.0632361 -0.049666066
000140 af 7c cf bc ae ac 46 bb 2e f8 17 3e 07 29 59 3d
       -0.025328008 -0.0030315327 0.14840767 0.053017642
000150 e8 f0 ff 39 92 26 00 3e 2e 47 82 bd 48 18 ab 3d
       0.0004881688 0.12514713 -0.06361233 0.08354241
000160 b0 ba b0 bc 58 2e 50 3d 18 79 7e 3d 61 97 9a 3d
       -0.021573395 0.050825447 0.062127203 0.075484045
000170 fb 73 a1 bd e4 a5 16 3d 4d d2 a4 3d cd 13 b1 3c
       -0.0788345 0.0367793 0.08047924 0.021615887
000180 5d 66 05 bd 6b bf fe 3c 12 9f 59 bd 34 a6 47 bd
       -0.032568324 0.031097135 -0.053130217 -0.048742488
000190 70 20 ff 3c 80 eb e8 3c f3 87 28 bc c8 13 7c 3c
       0.031143397 0.028432608 -0.010286319 0.015385576
0001a0 80 8c a0 bd 31 b1 31 bc 7a de 2f 3d 54 3e 59 bd
       -0.07839298 -0.010845468 0.04293678 -0.053037956
0001b0 c6 2b b3 bc e9 4e 71 bd bb 4f 85 3c c2 a5 a9 3d
       -0.021871459 -0.058913145 0.01627337 0.08283569
0001c0 22 4d 5a bd c3 d0 df 3d b2 74 a8 bd 10 a5 c9 3d
       -0.053296216 0.1092849 -0.08225383 0.09845936
0001d0 84 c2 cb 3c 5d f1 03 be a3 38 f1 3d 0c 36 47 bc
       0.024873026 -0.12885042 0.11778381 -0.012158882
0001e0 2b c8 e5 3d 6c c3 c5 3d b4 80 02 be 93 34 bf bc
       0.1121982 0.096564144 -0.12744409 -0.023340499
0001f0 65 27 f3 bd de ef 9f bd 77 27 db 3d 88 ad 53 3d
       -0.11872748 -0.07809423 0.10700887 0.051679164
000200 23 5c 35 bd c1 93 d5 3c a4 33 55 3d c6 ed 12 3c
       -0.04427732 0.026071431 0.0520512 0.008967822
000210 5a d7 ec bd 01 93 9b bb 74 86 05 3d 32 a8 10 3d
       -0.115645126 -0.004747749 0.032598928 0.035316654
000220 6e 39 f4 bb 16 9a 88 3d 27 00 2a 3d 5a 16 4b bd
       -0.007453135 0.066700146 0.04150405 -0.049581863
000230 58 c8 eb bb e6 02 42 3d 92 e1 60 3d 2a 7f 2e 3d
       -0.0071955137 0.047366045 0.05490262 0.04260174
000240 53 ca b1 bd 98 f0 16 3d 54 5a 0a 3d 38 c4 a7 bd
       -0.086811684 0.03685054 0.03377755 -0.08191723
000250 3e bf 08 bd 48 6d d8 3d c4 ee ca 3d 96 cb 1b 3d
       -0.033385508 0.10567719 0.09908822 0.03803595
000260 cb df 35 bc 88 f4 0a be a2 93 8e bc 0f 57 b7 3d
       -0.01110072 -0.13569844 -0.017404381 0.08952152
000270 94 f5 c6 bd 27 dc ed 3d 64 3e 5b 3d 3b 84 91 3d
       -0.09714809 0.11614256 0.053526297 0.07105299
000280 7c 69 c2 bd 9c 18 0a bd e8 df c0 3d 3c 19 b1 3a
       -0.09492776 -0.033714876 0.09417707 0.0013511549
000290 18 ed 80 3d ea db 7b 3d a4 0c 90 3c 25 b2 b0 bc
       0.06295222 0.061489023 0.017584153 -0.021569321
0002a0 07 9a 4a 3d 74 24 62 3d 66 0a 87 3d 41 19 01 be
       0.0494633 0.055210546 0.0659378 -0.1260729
0002b0 2c 20 52 3c 42 d7 55 3d cd 74 86 bd 5d f8 bb 3d
       0.012825053 0.05220724 -0.06565247 0.09178231
0002c0 52 26 54 3d fa 38 5a bd 94 ce ed 3d f7 d9 5e 3d
       0.051794358 -0.053276993 0.11611667 0.054407086
0002d0 bd a1 92 bd 3c 26 d6 3d 70 9e 2a 3b aa c0 23 3d
       -0.071597554 0.104565114 0.0026034378 0.03997866
0002e0 2b 56 6f bc 42 6f e0 3c 22 65 ad bd 54 b7 5f 3d
       -0.014607946 0.027396802 -0.08466555 0.054618195
0002f0 5f 3f f2 3b fc 8a 3d bd 74 92 cc 3d d5 c9 ea bc
       0.0073928083 -0.046275124 0.09988871 -0.028660694
000300 38 47 8b bd f8 d4 b7 bd 4b c1 c4 3c 0c a4 e8 bd
       -0.06800693 -0.089761674 0.02401795 -0.113594145
000310 97 72 d4 3d b9 fa 0a be 9f 5d e0 3d 41 df 34 bc
       0.10373419 -0.13572206 0.10955357 -0.011039556
000320 d6 b7 4d bd f0 03 ff 3d 94 20 b0 bc 86 44 1a bd
       -0.050224148 0.12451923 -0.02149991 -0.037663005
000330 b5 94 0a be cd 18 c8 bd 0e 59 32 3d b6 39 36 3d
       -0.1353329 -0.097703554 0.04354196 0.04448863
000340 7f ae a8 bc e4 b4 0d 3c d7 8a d9 bc 49 ce 37 3c
       -0.020591019 0.008649085 -0.026555462 0.011218616
000350 b1 1c bc 3d 73 2b 8f 3d 53 53 e6 bb f6 3a 62 bd
       0.0918516 0.06990709 -0.007028976 -0.05523201
000360 54 c6 85 bc 3d 28 69 3d 85 86 f1 bc d0 60 71 bc
       -0.016329922 0.05692314 -0.02948309 -0.014732555
000370 2e 04 c4 3d b9 85 ab 3d ed 9f e5 bd 1a 48 da 3d
       0.0957111 0.08375115 -0.11212144 0.106582835
000380 6b 15 11 3e 13 a2 e0 bd dc 09 25 bc 1f 90 26 3d
       0.14168327 -0.10968413 -0.010073151 0.04066479
000390 71 94 15 be d6 e2 20 bc b5 55 95 3d 52 6c 9b bc
       -0.14607407 -0.009819707 0.07291738 -0.01897255
0003a0 f1 2f cb 3d 84 59 0b be d2 ef 03 bd d4 11 af 3d
       0.099212535 -0.13608366 -0.032211132 0.08548322
0003b0 15 3d 5b bd 72 37 87 3d cc 8b 88 3d 1d ae 29 bc
       -0.05352505 0.06602372 0.06667289 -0.010356453
0003c0 6e 68 bd 3d bc 49 3e bd b6 23 fc 3d cf 43 41 bd
       0.09248434 -0.046457037 0.12311499 -0.047183808
0003d0 c7 ee 96 3c 3a 34 13 3e ef 01 e0 bd c8 0a a5 bc
       0.018424405 0.14375392 -0.10937869 -0.020146742
0003e0 d2 96 de bd 29 f4 da 3c 5d 5f 5a 3d ee 5e 3d bd
       -0.108686104 0.026727753 0.0533136 -0.04623311
0003f0 7f 74 81 bc 82 e0 17 bc 0c aa a0 bc 8a 09 af 3c
       -0.01580262 -0.009269835 -0.019612335 0.021366853

bias f4 [128]
000000 29 88 ab 3d a5 f0 ae 3d 71 e7 52 3d ac 18 7f 3d
       0.0837558 0.08541993 0.05149025 0.06227939
000010 d2 dc 69 bc 83 52 ca 3d a7 02 37 3c f5 71 48 3d
       -0.014273839 0.09879019 0.011170066 0.048936803
000020 96 d1 d8 bc f3 08 d8 3d 78 01 1c 3d b6 4b 0d 3b
       -0.026467126 0.10548582 0.03808734 0.002156002
000030 ad ce 57 bb 35 0b d5 3b 3c 29 f4 3d aa 18 12 3d
       -0.0032929585 0.00650158 0.11921927 0.035668053
000040 00 0b 48 bd cb 15 e9 bc 1f c0 d1 3d e4 6a 05 3d
       -0.048838615 -0.028452775 0.10241722 0.032572642
000050 33 f0 67 3d 5c 43 a9 bd 2a 77 23 bd 48 af 65 bd
       0.056625556 -0.08264801 -0.039908566 -0.056075364
000060 82 76 fd 3d 42 44 b4 3d e5 84 60 3d f7 d5 f4 3c
       0.12376119 0.08802082 0.054814238 0.029887183
000070 a8 a3 4f 3d ca 80 40 3d 64 92 a4 b9 a9 38 04 bc
       0.050693184 0.046997823 -0.00031389587 -0.008070149
000080 25 61 a3 3d 1c f4 41 3c 64 69 9e bc c8 1f fa 3c
       0.07977513 0.011837985 -0.019337364 0.030532733
000090 1e 08 b2 bc 5e a5 8b 3d 8f 0d e5 3d 82 b1 8d 3d
       -0.021732386 0.06818651 0.11184227 0.069186226
0000a0 15 6c fc 3d ec 2c a0 3d 8a af 86 3d 84 31 b5 3d
       0.123253025 0.07821068 0.0657645 0.08847335
0000b0 e4 c7 49 bc b8 51 5f bd 6b 13 9f 3d 0e 9b c0 3d
       -0.012315724 -0.054521292 0.077673756 0.09404574
0000c0 08 aa e5 bc 19 77 56 3d 7e a6 af 3d 5b 84 26 bc
       -0.028035179 0.052359674 0.08576678 -0.010163392
0000d0 fb 2b 07 3e f4 30 0a bd 8b 5f 92 bc 29 0d 74 3d
       0.13200371 -0.03373809 -0.017867824 0.059582863
0000e0 b8 bf 77 ba dc 2e 9e 3d f7 10 99 bd d8 24 df bc
       -0.00094508706 0.077237815 -0.07473939 -0.027239248
0000f0 5c 2a dc bc a6 bd 6f 3d 79 6f b7 3d 26 31 93 bd
       -0.026875667 0.058530472 0.089568086 -0.07187109
000100 37 1a be 3d fa d0 ea bb 3d 01 73 3b 73 1c 6d 3d
       0.09282344 -0.007166025 0.0037079595 0.05788846
000110 6e d1 8a 3d c4 40 3c 3c ab 6d 35 3b cc 85 db 3d
       0.06778227 0.011490051 0.0027683775 0.10718879
000120 1d 0d a8 bd 8d b0 b1 bc 33 a7 f4 3d 3d 10 69 3d
       -0.08205626 -0.021690631 0.11945953 0.05690025
000130 9a 20 89 bd 62 90 5e 3d 2a 20 81 3c 75 28 1c bd
       -0.066956714 0.054336913 0.015762407 -0.03812452
000140 22 8f 8b 3d 9e db ae bc f2 2c 92 3d cd 76 05 3e
       0.0681441 -0.021344956 0.07137479 0.130336
000150 a1 d0 d0 3d fc 85 07 3b e4 45 27 bd f4 fe 80 bd
       0.10196043 0.0020679226 -0.040838137 -0.062986284
000160 30 3c 79 3d a3 63 ab 3d a9 f3 35 bd 34 7b 05 3e
       0.060848415 0.083686136 -0.044421826 0.1303528
000170 11 ed 93 bd 7a 5f 2f 3d 4a 27 d0 3d 12 36 b9 3d
       -0.07222951 0.042815663 0.10163744 0.09043516
000180 2f 27 7e bc bd e8 f4 3d 87 50 6b 3c a0 3f fb bc
       -0.015512272 0.11958454 0.014362461 -0.030669987
000190 5b ed 02 bd 7a d4 0a bd 7f 6e a0 bc 04 2e e1 ba
       -0.03196464 -0.03389404 -0.019583939 -0.0017179851
0001a0 0b 3e 53 bc 26 46 40 3d 47 f8 d0 3d ec 4a 6d bd
       -0.01289321 0.0469419 0.10203605 -0.05793278
0001b0 58 a1 9c 3d a4 4d 3c 3c 2e 17 1a 3d 84 d9 12 bd
       0.076479614 0.01149312 0.037619762 -0.03585197
0001c0 72 4c 73 bb 38 32 08 3d 96 ed ae 3c 9d 9e dc bc
       -0.0037124422 0.033251017 0.021353524 -0.026931101
0001d0 f9 ab 1a 3c dd 8b 18 bc fd 40 92 3d ea 9d da 3a
       0.009440416 -0.00931069 0.07141302 0.0016679142
0001e0 b3 d4 96 3d a7 30 55 3d d7 f3 96 bd e7 bc 41 bd
       0.07364788 0.05204835 -0.073707275 -0.047299292
0001f0 66 d6 0d 3d bf a3 c0 3d e3 8c c6 3d fe e9 1c bd
       0.034628294 0.09406232 0.09694841 -0.03830909

weight f4 [16, 128]
000000 78 6c 65 3d 73 0b f5 3d 64 35 96 bd a6 76 51 bd
       0.056011647 0.119650744 -0.07334402 -0.051138543
000010 28 69 32 bd 08 64 08 be 43 85 8c bd 73 14 de bc
       -0.043557316 -0.13319409 -0.06861355 -0.02710936
000020 26 c1 c1 bd cd b9 b1 3d 74 06 0b 3d 58 e4 76 3d
       -0.09460668 0.08678017 0.0339417 0.06027636
000030 04 59 c4 bd f3 68 10 3d 41 4e 47 3d 1f 3a e4 3d
       -0.09587291 0.035256337 0.048658613 0.11143898
000040 a2 5c 6a bd 49 03 91 bd b8 9f a4 3d b0 15 c5 bd
       -0.057217248 -0.07080705 0.080382764 -0.09623277
000050 44 c7 3f bd 3a 5f 80 3c c0 b1 8b 3c ab a1 0e bd
       -0.046820894 0.015670408 0.017052531 -0.034822147
000060 fb 55 6c 3d 05 df d8 3d 20 76 fb bd f3 3d c5 3d
       0.057699185 0.105894126 -0.1227839 0.096309565
000070 c1 37 1e 3d e5 67 9f bd 97 35 5b 3d 58 97 b9 bd
       0.03862739 -0.07783488 0.053517904 -0.0906207
000080 32 86 42 3d 00 21 81 3c 8a b3 87 3d b1 ba 57 3c
       0.04749126 0.015762806 0.06626041 0.013167069
000090 9a cc 43 3c 91 14 d9 3c 4f 54 93 3d 1d aa 26 3d
       0.011950636 0.026499065 0.07193815 0.040689576
0000a0 bd e4 2f 3d d1 7f 8b bd a1 e7 cb bb 08 72 9f 3b
       0.04294275 -0.068114884 -0.0062226807 0.0048658885
0000b0 c1 1f 91 3d ad 76 e0 3d 91 54 c3 3d 11 18 06 3c
       0.07086135 0.109601356 0.09537614 0.008184449
0000c0 a9 e9 e5 3c 39 3d 0e be ee 03 8f 3a 1c 78 fc 3c
       0.02806552 -0.13890542 0.0010911205 0.030818991
0000d0 af 30 19 be 68 d0 1e 3d 4d 23 c7 bd 40 4c e4 bd
       -0.14959978 0.03877297 -0.0972353 -0.11147356
0000e0 4d ad 01 be 5b 78 5c 3c c4 f9 f6 bc 22 1a d0 bd
       -0.12663765 0.013456429 -0.030148394 -0.101612344
0000f0 6f 28 dd bd f3 3b 4b bd a0 69 f8 3d 07 5f 09 3d
       -0.10798728 -0.04961772 0.12129521 0.03353789
000100 a2 2d fd 3c eb 1f 5a bd e5 90 6a 3b 94 61 c5 3c
       0.030905548 -0.053253096 0.003579193 0.02409438
000110 ff de d8 3c dc 72 0b 3c 34 4e 05 be 8e 0c ff 3d
       0.02647352 0.008511271 -0.13018113 0.124535665
000120 32 2e e3 bd bc bc 51 3d 43 6f 12 3e 1e cb 96 3d
       -0.110927954 0.05120538 0.14300255 0.0736296
000130 97 ac 33 3c e5 47 28 bd b0 16 e6 bd c4 d5 15 3d
       0.010966442 -0.04108419 -0.11234796 0.036580816
000140 88 00 54 3c d0 0e 02 be f2 52 0c 3e 05 5b b0 bb
       0.01293958 -0.12700963 0.13703516 -0.005381944
000150 d8 50 c5 bd 5e 23 72 3d 8d 3f 5b bd b6 65 1d bd
       -0.0963456 0.05911576 -0.053527404 -0.038427077
000160 bc 33 ea bd 0f 9c 84 3c 64 a1 2e bd ff 0d c8 bd
       -0.11435649 0.016187696 -0.042634383 -0.097682945
000170 4b 54 38 3c a8 6b c3 bb 79 5f 53 3d 15 d7 07 bd
       0.011250566 -0.0059637614 0.05160472 -0.033164103
000180 f5 4d b7 3d c7 07 87 3d 42 12 22 3c 02 6b 87 bd
       0.08950416 0.0659328 0.009892048 -0.06612207
000190 52 16 89 3d 0f 3b 26 bd 28 bf 0c bd 95 5b 97 ba
       0.066937104 -0.040583666 -0.03436199 -0.0011547679
0001a0 d6 4a 5e 3d 61 3f 02 be 5a 51 1b 3d fc e4 06 be
       0.054270588 -0.1271949 0.03791938 -0.13173288
0001b0 1e 01 08 bb ce f6 98 bc 12 be 50 3d 5a 45 c2 3c
       -0.002075262 -0.018672373 0.050962515 0.02371471
0001c0 62 d2 80 3d 63 5e 63 3d 43 b8 b5 bd b3 85 c0 bd
       0.06290127 0.055509936 -0.08873036 -0.09400501
0001d0 5f f8 c9 bd 8c b6 bb 3c 4d 40 1c bd c2 f4 31 3c
       -0.09861826 0.022914194 -0.03814726 0.0108615775
0001e0 fa 13 6b bd 0f b8 c7 3d a9 04 3f bd 4c 5b 28 bd
       -0.057392098 0.09751903 -0.046635304 -0.041102692
0001f0 04 ae c3 3d 56 5d 81 bc 7f ac cc bd ba c3 ed bc
       0.09554675 -0.015791576 -0.099938385 -0.029023994
000200 41 51 2c bc 73 aa 96 3d 5b ed 0b 3d ec a7 3e 3d
       -0.010517419 0.07356729 0.034161907 0.04654686
000210 32 1f 42 3d 11 29 f8 bd 09 00 77 3d 18 5d 9f 3d
       0.04739303 -0.12117208 0.060302768 0.07781428
000220 6a 11 c1 3d ca 69 b1 bc 50 e7 20 3d 43 41 0b 3d
       0.094271496 -0.02165689 0.039283097 0.033997785
000230 8f e5 2e 3d 31 37 09 bd 9e 9c 6d 3d 62 df 21 bd
       0.042699393 -0.0334999 0.05801069 -0.039519675
000240 59 96 de 3d f0 52 7d bc 3e ac 90 3d 74 18 aa bd
       0.1086852 -0.015461668 0.070641026 -0.08305445
000250 c4 19 7d bd e2 c1 b1 3d ec 79 13 3d 18 8e fb 3b
       -0.06179215 0.08679558 0.036004946 0.007676851
000260 9c 7d de 3d 84 99 e1 bc 79 cd 28 bd 89 b3 c7 bd
       0.10863802 -0.027539022 -0.04121158 -0.097510405
000270 e3 eb 40 3d 6d 4f 37 3d eb 9d 72 3d 8c 2c 7f bd
       0.04709996 0.04475348 0.059232634 -0.062298343
000280 ac 3e 9f 3d ec e3 48 3a bd 04 f1 3d 43 17 fd 3d
       0.077756256 0.00076633575 0.11768482 0.123579524
000290 84 b9 8b 3c 0c ca 3d 3d db a8 e7 3c b7 4b 54 3d
       0.017056234 0.046335265 0.028278759 0.05183002
0002a0 a4 25 6b bc db 24 8b bd 1c e6 f0 3a ec 24 64 bc
       -0.014352236 -0.06794139 0.0018379125 -0.0139248185
0002b0 ec 33 86 3d c9 55 e9 bb 77 13 27 3d 2e 86 4b 3c
       0.06552872 -0.007120822 0.040790047 0.012422128
0002c0 e5 9c f5 bd d0 e0 ab bd 22 73 66 3d aa 11 b3 3d
       -0.11992816 -0.08392489 0.056262143 0.087436035
0002d0 2b 8e 38 bd e8 13 a4 3d bc a1 aa 3d 42 c2 08 3d
       -0.045057457 0.08011609 0.0833163 0.033388384
0002e0 9b 6e bd bd e2 13 b4 3d 32 f3 c5 3d 13 f6 3e bd
       -0.09249612 0.08792855 0.096655264 -0.046621393
0002f0 cf 93 f5 3d b1 cc 73 bd ea 3d 96 3d 33 02 ae bd
       0.11991083 -0.05952138 0.07336028 -0.08496513
000300 8b f8 08 be ae 49 87 3d 9d 0f 58 3b b7 e0 4a bd
       -0.13376062 0.0660585 0.003296829 -0.04953071
000310 3b 87 86 bd 2d 0a 8f bd 9c 5f 0d be 22 1b 8e bd
       -0.06568762 -0.06984363 -0.13806003 -0.06938769
000320 66 76 e4 bc 3b 8e e1 3c 9c 12 80 bd 1b 24 00 3d
       -0.027888488 0.027533641 -0.062535495 0.031284433
000330 4c 9f e6 3d c9 28 74 bd 9a 49 b9 3c f3 73 a0 bd
       0.11260852 -0.05960921 0.022618104 -0.078346156
000340 e7 57 80 bd cd 64 a1 b9 5b 5e 56 bd 42 40 86 bd
       -0.06266766 -0.00030783415 -0.052336078 -0.06555225
000350 82 8d f2 3d 39 19 a9 bd da a8 c3 3d 4d ad e9 bd
       0.11843397 -0.08256764 0.0955369 -0.114100076
000360 74 51 61 bd c4 a6 92 3d 88 a1 eb 3c 5a 78 62 3d
       -0.05500932 0.07160714 0.028763548 0.055290557
000370 fa 0f aa 3d 71 7a a2 bd 0d bc c6 bc 78 ec 90 bd
       0.083038285 -0.0793351 -0.024259591 -0.07076353
000380 55 7a c1 3d 6e df cb 3b e3 9a 78 bd 36 1f 42 3d
       0.09447161 0.0062217033 -0.060694586 0.047393046
000390 6b f6 08 3e 3a 9f 6a 3d a2 a4 fc 3d 09 a5 ff 3b
       0.13375251 0.057280757 0.12336089 0.007801656
0003a0 ab 60 fc bd 61 d5 04 be 71 9d ed bd c0 28 62 3d
       -0.123231255 -0.12972023 -0.11602295 0.055214643
0003b0 66 da ce 3d e6 c1 1d be 60 75 3d 39 a3 1c 1d bd
       0.1010025 -0.15405998 0.0001806817 -0.03835739
0003c0 6c 03 ba bc 8c 55 56 bd 5e 95 4c bd 35 10 c6 3d
       -0.02270671 -0.052327678 -0.049947135 0.0967106
0003d0 f6 7a 51 3d 22 d5 87 bd 05 a3 ca bd 00 cc 10 3d
       0.051142655 -0.06632449 -0.09894375 0.0353508
0003e0 40 53 e5 bd b0 82 8d bc a2 b8 c9 3d ea bf f4 bd
       -0.11197519 -0.01727423 0.09849669 -0.11950667
0003f0 4d d8 5c 3d ac aa 43 3c fa fc 6f 3d 3b af 01 3d
       0.053917218 0.011942547 0.058590867 0.031661253

bias f4 [16]
000000 36 d0 6e bd 04 ea 38 bd 49 f2 9b bd 5e 32 12 bc
       -0.058304034 -0.04514505 -0.076145716 -0.008923141
000010 df 6c f7 3c 23 e3 26 3d ee 27 59 bd 22 c2 8c 3a
       0.030203281 0.04074396 -0.053016596 0.0010739008
000020 80 8b 23 bd 9f 74 ae 3d 3c 09 a4 3c bf ee 73 3b
       -0.03992796 0.085183375 0.020023935 0.0037221161
000030 8c 0b 2b bd 2c 5b b9 3c cd 38 e4 bb 7f c5 81 3d
       -0.04175906 0.022626482 -0.006964779 0.063364975
