results/transformations/mapping_files/VAE/FMNIST_VAE_16_1>FMNIST_VAE_16_3>NeuralNetwork_200_0.5_dropout_16_convex_hull.pth (torch, 9722 bytes, 6 tensors)

weight f4 [16, 16]
0	0x399acaf7	0.0002952439
1	0xba042fdd	-0.00050425326
2	0xb700cd98	-7.677263e-06
3	0x39cf7fde	0.00039577385
4	0x39a8cb32	0.0003219485
5	0xba9f2010	-0.0012140293
6	0x37cc3fd5	2.434842e-05
7	0x3960cab5	0.00021437819
8	0x3a509968	0.00079574296
9	0x3aa4acf8	0.0012563756
10	0x3a82b4f5	0.0009972142
11	0x3895d4dc	7.144522e-05
12	0x3995cca8	0.00028571975
13	0xba81e6db	-0.0009910719
14	0xbbce1728	-0.0062893815
15	0xba2ad0a4	-0.0006516075
16	0xb9cc04ce	-0.00038913492
17	0xb94914f8	-0.00019176665
18	0x3a1e7a24	0.0006045422
19	0x38f693b5	0.00011757707
20	0x372d8ea6	1.03448165e-05
21	0xb81fc8bd	-3.8095506e-05
22	0x3854bd8d	5.072127e-05
23	0xba27bddd	-0.0006398836
24	0xbad61000	-0.0016331673
25	0xb86fe216	-5.71926e-05
26	0xba3352b2	-0.00068406307
27	0x37ecbff1	2.8222772e-05
28	0xb8b50875	-8.632328e-05
29	0x3a4665d3	0.00075682736
30	0xb816c921	-3.5950103e-05
31	0x3ac4ded0	0.0015020017
32	0xbbeb8f86	-0.00718874
33	0x39f433c1	0.00046577866
34	0x3983ea51	0.00025160846
35	0x3b8da2da	0.004322392
36	0x3af5ecb3	0.0018762558
37	0xbaa21741	-0.0012366549
38	0x3904e721	0.00012674603
39	0xba57ae58	-0.00082275784
40	0x399790a0	0.00028908718
41	0x3b09054a	0.0020907694
42	0xb95b9c20	-0.00020943629
43	0xb993c826	-0.00028187147
44	0x3b4bd805	0.00311041
45	0x3a42db18	0.000743316
46	0xb99bbd67	-0.0002970502
47	0x3ba897d7	0.005145054
48	0x39d5c859	0.00040775797
49	0x3a3724bb	0.0006986369
50	0xb9ff6382	-0.0004871153
51	0x3a2bd26e	0.0006554489
52	0x38bd23ae	9.018868e-05
53	0xbab142c8	-0.0013523931
54	0xb944922e	-0.00018746473
55	0xbaef464e	-0.0018255205
56	0x36b4a558	5.3836666e-06
57	0x3a17bcb6	0.0005788313
58	0xb8c48d8e	-9.372375e-05
59	0x38c6a939	9.472896e-05
60	0xba4936c7	-0.0007675704
61	0xb94f5f37	-0.00019776529
62	0xba4ff160	-0.0007932391
63	0x377ebf9f	1.5184195e-05
64	0x3b8cc4cb	0.0042959205
65	0xb913049e	-0.00014020732
66	0x39c944fe	0.0003838911
67	0xbadda68d	-0.0016910598
68	0x3892f9e0	7.008365e-05
69	0xb74c0da8	-1.2162527e-05
70	0x39438457	0.0001864595
71	0xb9c54fdf	-0.00037634277
72	0x3bc1f7c0	0.0059194267
73	0x38860b46	6.391718e-05
74	0xb982b47e	-0.0002493001
75	0x37db2756	2.6125152e-05
76	0x3a1db626	0.0006016217
77	0x37354346	1.0804104e-05
78	0xb910aae2	-0.00013796569
79	0xb96b0c4e	-0.0002241593
80	0x3a022367	0.0004964382
81	0xbadd15bd	-0.001686744
82	0x389b7a95	7.4138086e-05
83	0xb883139c	-6.250219e-05
84	0xb9b29765	-0.00034063603
85	0x39ae3312	0.00033225917
86	0x3ad3f2a9	0.0016170341
87	0xba9e3183	-0.0012069199
88	0xba2eb376	-0.0006664315
89	0x38fb61dc	0.000119868404
90	0x38121e88	3.4837547e-05
91	0xbb9d0c0f	-0.0047926973
92	0xba8508d2	-0.0010149723
93	0x3b383d58	0.0028112736
94	0xba7c25b4	-0.00096186553
95	0xb954160e	-0.00020226112
96	0x3a0c4068	0.00053501735
97	0xb99fee83	-0.00030504548
98	0x3aceddd1	0.0015782659
99	0x3a07df51	0.0005183118
100	0xbaa27c54	-0.0012396672
101	0x3a926081	0.0011167676
102	0xbaec2a8d	-0.0018018052
103	0x3b5d352f	0.0033753624
104	0x39790d0d	0.00023751352
105	0x3a0cbd20	0.0005368758
106	0x3813ab22	3.520691e-05
107	0xba333a85	-0.0006837028
108	0xb9c9062e	-0.00038342312
109	0xb9387e9f	-0.00017594777
110	0xba32200e	-0.00067949377
111	0x3992fb20	0.00028034393
112	0x3be331c6	0.0069334237
113	0x3b8c42df	0.0042804326
114	0x3a1611fa	0.00057247246
115	0xb92546b0	-0.0001576196
116	0x39841298	0.00025190855
117	0xb92151b6	-0.00015384596
118	0x3a501ca3	0.00079388375
119	0xb8fb4cb0	-0.00011982897
120	0xba2c661f	-0.00065764965
121	0xbad0a260	-0.0015917532
122	0x39f1f77d	0.00046151495
123	0x39435932	0.00018629877
124	0x3a11ec84	0.00055665546
125	0x39eb51c4	0.00044883613
126	0xb7fec0d8	-3.036896e-05
127	0xb801eabe	-3.0974617e-05
128	0xbb70fd37	-0.0036772022
129	0xb9f7936e	-0.00047221355
130	0x3ac7b784	0.0015237187
131	0x385e690a	5.302675e-05
132	0x3a2e9578	0.0006659846
133	0x3a4736ba	0.00075994025
134	0xb763dd34	-1.3581757e-05
135	0xbad7d464	-0.0016466496
136	0xb98c9c6c	-0.00026819424
137	0xbae17cfa	-0.0017203384
138	0x372dcb74	1.0358974e-05
139	0xb8a743ee	-7.9758334e-05
140	0x393792e0	0.00017506955
141	0xb8ea0518	-0.00011158938
142	0x3948d00b	0.00019150988
143	0xb8b73308	-8.735625e-05
144	0x380dd3bc	3.3814213e-05
145	0x3af783dc	0.0018883902
146	0xb9d27c2b	-0.00040146834
147	0x39e4dc3c	0.00043651636
148	0xb8a60e0f	-7.9181154e-05
149	0x3aee97c8	0.0018203193
150	0xb81fc713	-3.8093956e-05
151	0xb96ca439	-0.00022567892
152	0xbace89c3	-0.0015757609
153	0x3af411a5	0.0018620981
154	0xb803736a	-3.134032e-05
155	0x399ba9b9	0.00029690357
156	0x3ab3de17	0.0013722804
157	0x3af3901a	0.0018582374
158	0xbae816ec	-0.0017707027
159	0x39a58e96	0.00031577487
160	0xb9462aa7	-0.0001889864
161	0xb799975a	-1.83095e-05
162	0x37fe9ada	3.0351268e-05
163	0x3900cd58	0.00012283528
164	0xbad4500d	-0.0016198173
165	0x3a3c963c	0.00071940175
166	0x38c1740e	9.224574e-05
167	0xb92d916e	-0.00016552742
168	0xb9a30695	-0.00031094687
169	0xb9d22bae	-0.00040086865
170	0xb9ea9a6c	-0.0004474701
171	0x3a4e1bb5	0.0007862405
172	0x36fd3a38	7.546765e-06
173	0x38fe721f	0.000121329205
174	0x3af92da4	0.0019010794
175	0xbac1ec59	-0.0014795169
176	0xb8b44315	-8.595564e-05
177	0x39e09dd8	0.00042842212
178	0xbaf900e1	-0.0018997454
179	0x3bd443da	0.006477815
180	0x3ae11b21	0.0017174223
181	0xb8e82a20	-0.000110704685
182	0x3a734783	0.00092803704
183	0x3a5e49ad	0.00084796065
184	0xb876b743	-5.8821646e-05
185	0xbba78e94	-0.005113432
186	0xbaef04c4	-0.0018235673
187	0x38c611b0	9.44467e-05
188	0xb985fd6d	-0.00025556554
189	0xb730e620	-1.0543998e-05
190	0x3920b726	0.00015327017
191	0xb9fa4ba9	-0.00047740087
192	0x39baff53	0.00035666916
193	0x39a61a79	0.0003168171
194	0x3a97fb1e	0.0011595224
195	0xb892b551	-6.995595e-05
196	0xba063fd3	-0.0005121205
197	0xb905b4fd	-0.00012751292
198	0xb96724d9	-0.00022043604
199	0xba10873a	-0.00055133144
200	0x3a951645	0.0011374435
201	0xb9a3d11a	-0.00031245576
202	0xba3a566f	-0.00071082165
203	0xb8b1beb9	-8.4755426e-05
204	0xba3fb78d	-0.0007313423
205	0x3b0e0480	0.0021670163
206	0x39a48d5a	0.00031385833
207	0x3a624415	0.0008631361
208	0xba9dcce4	-0.0012039212
209	0x3abffa45	0.001464673
210	0xb7d5cbef	-2.5486543e-05
211	0xb8e8075d	-0.000110639936
212	0xba0ac092	-0.00052929774
213	0x38840d38	6.296713e-05
214	0x390007cc	0.00012209936
215	0xb7c87ce5	-2.3900016e-05
216	0x3844bb98	4.690475e-05
217	0xbac1a9e0	-0.0014775358
218	0xb8aeb570	-8.330762e-05
219	0xbba0c70c	-0.0049065407
220	0xb7c4f873	-2.3480714e-05
221	0xba6aadd9	-0.0008952297
222	0x3ade5dfc	0.0016965265
223	0x399a1dbd	0.00029395326
224	0x3ae03b12	0.0017107448
225	0x39fbef12	0.00048052572
226	0xb9774234	-0.00023580418
227	0x381abeb8	3.6894082e-05
228	0x3a09ccd5	0.00052566576
229	0x38166e35	3.5865425e-05
230	0x3becee7b	0.0072305775
231	0x39a80186	0.00032044592
232	0xbab24ac5	-0.0013602605
233	0xba284f5c	-0.0006420517
234	0x3abe7211	0.0014529844
235	0xb8b13b2a	-8.451038e-05
236	0x38fd15bd	0.00012068029
237	0xb9adf71c	-0.00033181242
238	0x39ab7316	0.00032701407
239	0xb908d7fc	-0.00013050431
240	0xb99095ce	-0.00027577434
241	0xbaf5a4fb	-0.0018741185
242	0xbad24baf	-0.0016044284
243	0x3b84b1bc	0.004049508
244	0x39ea3f53	0.00044679138
245	0x3a8aae28	0.0010580467
246	0xb9c80af6	-0.0003815514
247	0xb8484f38	-4.7757494e-05
248	0x3bc56d88	0.00602502
249	0xb9201a1c	-0.00015268516
250	0xb93d8c06	-0.00018076607
251	0x3af83009	0.0018935214
252	0x398a9cdf	0.0002643829
253	0x38114d21	3.4642526e-05
254	0x37560f60	1.2758974e-05
255	0x3994c2cd	0.00028373898

bias f4 [16]
0	0x3957d54a	0.00020583454
1	0x3a82adf3	0.0009970054
2	0x3b4e586b	0.0031485807
3	0x3a97d313	0.0011583291
4	0xbaf73094	-0.0018859082
5	0xb6db7fb8	-6.541577e-06
6	0x38127ca5	3.4925197e-05
7	0xbad84f5c	-0.0016503143
8	0x3adf1a14	0.0017021322
9	0x3afa5f8b	0.001910196
10	0x397e6d5f	0.00024264072
11	0xb8fea384	-0.00012142121
12	0xb98e6106	-0.0002715664
13	0xbaee149f	-0.0018164105
14	0xbb497c1c	-0.003074414
15	0xbacae7a7	-0.0015480415

weight f4 [16, 16]
0	0xbb4390a0	-0.0029840842
1	0xb6e1b7c0	-6.726914e-06
2	0xb7b38fb8	-2.1405387e-05
3	0x3905d192	0.0001276194
4	0x3ba02ef9	0.004888412
5	0xba663bc3	-0.0008782709
6	0xba96640c	-0.0011473908
7	0x3ab515e7	0.0013815732
8	0x3a514e98	0.00079844287
9	0xba0f833c	-0.00054745725
10	0xb9649981	-0.00021800959
11	0x3a2b3611	0.0006531189
12	0x393c1076	0.0001793521
13	0xb9a4bdc5	-0.00031421907
14	0xbafc3301	-0.0019241275
15	0xb9ed463f	-0.000452565
16	0x3837a8cb	4.37878e-05
17	0xb9513ccc	-0.00019954442
18	0x383f48ec	4.5605862e-05
19	0xb9f837f3	-0.00047343932
20	0xb9298af4	-0.0001616886
21	0xbaf35b01	-0.001856655
22	0xb919a4eb	-0.00014652654
23	0x3adab9f6	0.0016687501
24	0x3a22d1a6	0.00062110496
25	0xb9203580	-0.0001527872
26	0x3af2401e	0.0018482243
27	0xb8f5d88a	-0.00011722844
28	0x398967f7	0.00026208136
29	0x3a46ba6d	0.000758088
30	0x396e49a7	0.00022724886
31	0x3af32a19	0.0018551975
32	0x3af5c515	0.0018750752
33	0x3865e08a	5.4806973e-05
34	0xb91b0c2c	-0.00014786486
35	0xbb0d7ef7	-0.002159057
36	0xb61494b0	-2.2140266e-06
37	0xbbcf774e	-0.006331361
38	0xba85ed0a	-0.0010217738
39	0x3b977a97	0.004622768
40	0x39a960f1	0.0003230642
41	0x38ad75bd	8.271213e-05
42	0x39ab273e	0.000326449
43	0xb9b31c68	-0.00034162705
44	0xba3a729b	-0.00071124145
45	0x3a419b8f	0.0007385546
46	0x3ae154e8	0.0017191442
47	0xb980c356	-0.000245596
48	0xba5b8ef8	-0.0008375491
49	0x39668baf	0.00021986545
50	0x39a0a2d2	0.0003063889
51	0x39a8c918	0.00032193284
52	0x3a50c0d6	0.0007963305
53	0xb8e7f2a1	-0.000110601315
54	0xb90820db	-0.0001298221
55	0x381278fd	3.492179e-05
56	0xb9a0351b	-0.00030557145
57	0x39f75cf2	0.0004718076
58	0x37d834c3	2.5773776e-05
59	0x36843ac8	3.9407496e-06
60	0xba8fbbb4	-0.0010965974
61	0x382fb321	4.1890078e-05
62	0xbabae827	-0.0014259861
63	0xbaf7295b	-0.0018856929
64	0x3861370c	5.3695447e-05
65	0xb89f4bfa	-7.5958626e-05
66	0xbbd92f4c	-0.0066279527
67	0xba0539ec	-0.00050821784
68	0xb9ed413c	-0.00045252766
69	0xba51526d	-0.00079849997
70	0x3af74aa5	0.001886685
71	0xbb8275b3	-0.003981316
72	0x39b902c0	0.00035288
73	0xb9a5d6ca	-0.00031631283
74	0x3813d161	3.524253e-05
75	0x382473c9	3.920848e-05
76	0xb9f65858	-0.00046986598
77	0xb895b2e1	-7.1381924e-05
78	0x3b50c2f5	0.0031854485
79	0xb8c9881d	-9.60978e-05
80	0x37bf1db5	2.2782808e-05
81	0x3976546e	0.0002349184
82	0x38e5f853	0.00010965825
83	0x389e95d3	7.561934e-05
84	0xb9fd7dd1	-0.0004834966
85	0xba5d01d1	-0.00084307516
86	0xb9d3e182	-0.00040413073
87	0xb9b10045	-0.00033760272
88	0xbb761af1	-0.003755268
89	0x351a6534	5.751674e-07
90	0xb9ada844	-0.000331225
91	0xb9b029d8	-0.00033600512
92	0xbb02284b	-0.0019860442
93	0xba483b01	-0.0007638187
94	0xb8c5608e	-9.411677e-05
95	0x389498b0	7.08563e-05
96	0x3b045eac	0.002019803
97	0xb910e8ed	-0.00013819682
98	0xb9e5a394	-0.0004380016
99	0xbafc3511	-0.0019241889
100	0x39a31ab5	0.0003110968
101	0x39110820	0.00013831304
102	0x3a512ee9	0.00079797074
103	0xb8b5fec9	-8.67821e-05
104	0xba057045	-0.0005090277
105	0xb79bc4f1	-1.8569148e-05
106	0x3965001c	0.00021839183
107	0xb8cb0185	-9.680077e-05
108	0x3a83555e	0.0010019948
109	0x38203933	3.8200244e-05
110	0xb9d93f6e	-0.00041436724
111	0xb7a72a41	-1.9927627e-05
112	0x3a2f4507	0.0006686006
113	0xb848f9a3	-4.7916208e-05
114	0x3a8350c7	0.001001858
115	0x393e7714	0.00018164172
116	0x38e311de	0.000108275315
117	0xb6f1e2c0	-7.208757e-06
118	0x3aec15c7	0.0018011861
119	0x3a82615a	0.0009947226
120	0x3a1d53ba	0.0006001551
121	0xb824923a	-3.923683e-05
122	0xba4f9e78	-0.0007920037
123	0xb839204c	-4.4137516e-05
124	0x37a68340	1.984986e-05
125	0x36df8d44	6.6623634e-06
126	0x3a383fb3	0.0007028535
127	0xb9f4b55d	-0.00046674433
128	0x38343f38	4.297422e-05
129	0xba9bba70	-0.0011881124
130	0xb87e5878	-6.0640712e-05
131	0x3a650d03	0.00087375956
132	0x3972af77	0.00023144284
133	0xb9516eb0	-0.00019973028
134	0xba7fbda5	-0.0009755737
135	0x3af16cf8	0.0018419316
136	0xba5f5851	-0.0008519935
137	0xb98fd57e	-0.0002743415
138	0xbaea288e	-0.001786487
139	0x384fc229	4.953347e-05
140	0xbaa4816b	-0.0012550777
141	0x3a00068b	0.00048837875
142	0x382d6ed1	4.134962e-05
143	0x393fd9a2	0.00018296254
144	0x39b447c4	0.00034385745
145	0xbba10b15	-0.004914651
146	0x3b00d640	0.0019658953
147	0x38af3d5e	8.356081e-05
148	0xb9a15c61	-0.0003077714
149	0xb9531161	-0.00020129002
150	0x399beaa2	0.0002973872
151	0xb7cfba04	-2.4762943e-05
152	0xb909d2b7	-0.00013143836
153	0x3afca8fa	0.0019276433
154	0xb99f8bc2	-0.0003043097
155	0x3a601c9e	0.0008549186
156	0x3bcc1d77	0.0062290984
157	0xbae20924	-0.0017245156
158	0x36c11ba4	5.755066e-06
159	0x3af26dfe	0.0018495915
160	0x39a1c93c	0.00030858244
161	0xb930ec63	-0.00016872729
162	0xba170ecf	-0.00057623995
163	0x382b69f0	4.086824e-05
164	0xb9a799b2	-0.00031967234
165	0xba4811f8	-0.0007632072
166	0xb94b991e	-0.00019416629
167	0x3ad34821	0.0016119519
168	0xb9a71fca	-0.00031876407
169	0xba35bda2	-0.00069328595
170	0xbabd3639	-0.0014435715
171	0xba4f767a	-0.0007914078
172	0x39fd9339	0.0004836561
173	0xb8913e03	-6.9256894e-05
174	0x3693ef78	4.408819e-06
175	0xba00497b	-0.0004893762
176	0xb96e0899	-0.00022700652
177	0xb9f57d0e	-0.00046823215
178	0x3bbe7692	0.0058124745
179	0xba38a6ae	-0.000704388
180	0xba87a5bf	-0.0010349079
181	0x3b396214	0.002828722
182	0xb9275fdf	-0.00015962076
183	0xba57d39f	-0.0008233133
184	0xba40f443	-0.00073606166
185	0xbabade52	-0.001425693
186	0xbaf379e9	-0.0018575761
187	0x3b01fc4f	0.0019834226
188	0x3ab69a73	0.0013931528
189	0xb9856989	-0.00025446367
190	0x3816734b	3.587016e-05
191	0x3aba8052	0.0014228916
192	0xba82534e	-0.000994304
193	0xb90e3f76	-0.00013565816
194	0xb862058b	-5.388776e-05
195	0xb995018e	-0.00028420653
196	0xba4e6b26	-0.0007874243
197	0xb937bc32	-0.00017522348
198	0x39ff2003	0.0004866124
199	0x3a26d989	0.0006364813
200	0x3aa4c989	0.0012572269
201	0x3a15bc13	0.0005711924
202	0xba0eba8d	-0.00054446683
203	0xb8f2a3f3	-0.00011569997
204	0xb9a0ef5e	-0.0003069592
205	0xb9bfd527	-0.0003658917
206	0xb993c851	-0.00028187272
207	0xbaece661	-0.0018074029
208	0xb89a634f	-7.36179e-05
209	0x3bd55858	0.0065107755
210	0xbaf5284e	-0.0018704028
211	0xba882e9e	-0.001038987
212	0xb936b888	-0.00017425616
213	0xb99a9b01	-0.00029488656
214	0x3891de3f	6.955535e-05
215	0x3a32ff41	0.0006828197
216	0xba9dc834	-0.0012037815
217	0xbaa88e9d	-0.0012859885
218	0xbae3041e	-0.0017319953
219	0x3b237617	0.0024942213
220	0xba1d5620	-0.00060019083
221	0xbad9b6bb	-0.0016610244
222	0xb9183c5a	-0.00014518332
223	0xba2a6746	-0.00065003743
224	0x3a2b1d30	0.00065274816
225	0x38d99124	0.00010374401
226	0xb914c3cf	-0.00014187324
227	0x3a95dc34	0.0011433423
228	0x39985ee1	0.0002906239
229	0xbac6ff43	-0.0015182275
230	0xb81bce3e	-3.7146958e-05
231	0xb9358344	-0.00017310405
232	0xba9e4297	-0.0012074289
233	0xb69b7b0a	-4.6336836e-06
234	0x39a06428	0.000305922
235	0xb7ee8ac0	-2.8436421e-05
236	0xb9072907	-0.00012889887
237	0xb9e25ac8	-0.00043173716
238	0x3812eb86	3.502846e-05
239	0xb9d7b291	-0.00041141038
240	0x3bd032fd	0.0063537345
241	0x3b84bc45	0.004050764
242	0xbade0ffe	-0.0016942022
243	0x39d05845	0.00039738617
244	0xb8019b07	-3.0900377e-05
245	0xb95182e0	-0.00019980548
246	0x38841238	6.297644e-05
247	0x390ef45f	0.0001363321
248	0x38fc6ddc	0.00012036759
249	0xbafd84a4	-0.0019341898
250	0x3a9022e6	0.0010996729
251	0xb9a7dccc	-0.0003201723
252	0x39ff8a62	0.00048740493
253	0x3a53f0a9	0.00080848724
254	0xb99b6f88	-0.00029647
255	0xba86896c	-0.0010264344

bias f4 [16]
0	0x39d3b5e0	0.00040380564
1	0x3aad7034	0.0013232292
2	0xba971606	-0.0011526949
3	0x3a8625e9	0.0010234687
4	0x3a7ec0a6	0.0009718038
5	0x39c1f184	0.00036991772
6	0x389e6797	7.553322e-05
7	0x39558aa2	0.00020364908
8	0x3af7a116	0.0018892612
9	0xbaeec5e2	-0.0018216933
10	0xb94bf240	-0.00019449834
11	0x3a1b982b	0.00059354556
12	0x39fcd34a	0.00048222608
13	0x394a04c4	0.00019265997
14	0xbb2f94b8	-0.0026791524
15	0xbab056cd	-0.0013453603

weight f4 [16, 16]
0	0xb88e45fd	-6.784124e-05
1	0x392670b2	0.00015872976
2	0xb8fee287	-0.00012153858
3	0xb9efd564	-0.0004574462
4	0x3bc17f76	0.005905087
5	0x397199ce	0.00023040848
6	0x38a455cc	7.83611e-05
7	0x3afb0723	0.0019151907
8	0x3a29d63a	0.00064787606
9	0xbaec3d23	-0.0018023591
10	0xb8abacb4	-8.186084e-05
11	0xb851a602	-4.998409e-05
12	0xb83a50bf	-4.4421056e-05
13	0xbb6002ad	-0.0034181282
14	0x39395cbc	0.00017677521
15	0x3a01095d	0.0004922355
16	0x3a79eec5	0.00095341756
17	0x395c122b	0.00020987603
18	0x385be55a	5.242727e-05
19	0x3afc44aa	0.0019246538
20	0xb968b4dd	-0.00022192621
21	0xb97957c0	-0.0002377918
22	0x3a3a13d0	0.0007098289
23	0xb9985d07	-0.0002906101
24	0x3a5dafe6	0.0008456692
25	0x39b966d6	0.00035362568
26	0x382a87e6	4.0657724e-05
27	0x3a00c930	0.0004912792
28	0x3af200d4	0.0018463382
29	0x3928ba28	0.00016091077
30	0xb950b7c3	-0.00019904882
31	0xb99096ad	-0.00027578083
32	0x3915ec3c	0.00014297751
33	0xbadf0f08	-0.001701803
34	0x3ab39f09	0.0013704012
35	0x3a7b7fcd	0.0009593934
36	0x3a63b20c	0.0008685894
37	0x3b03f5fd	0.0020135634
38	0xb9febbb6	-0.0004858651
39	0xba2ad450	-0.00065166224
40	0x3ab8440d	0.0014058367
41	0x39c6d3c2	0.00037923275
42	0xb9de48cb	-0.00042397375
43	0x38730381	5.7938978e-05
44	0xb9920ede	-0.00027858367
45	0x394ca03c	0.00019514648
46	0xb8bf3593	-9.117569e-05
47	0xb8b951ca	-8.836722e-05
48	0x37f311f2	2.8976214e-05
49	0xbaf91bec	-0.0019005514
50	0xba9c312b	-0.0011916509
51	0x3ac4b087	0.0015006223
52	0x36510770	3.1147756e-06
53	0xb9a0225b	-0.00030543175
54	0x3992e0f9	0.00028014908
55	0x38a9938b	8.08603e-05
56	0x38bbca7d	8.954571e-05
57	0x397011e1	0.00022894844
58	0xba55e141	-0.00081588706
59	0xb9c6ec1b	-0.00037941415
60	0x3ad9068a	0.0016557735
61	0x37ff2717	3.0416571e-05
62	0x3af29951	0.0018508827
63	0x39e3c8a0	0.0004344629
64	0xb839da6d	-4.4310862e-05
65	0x3997c44b	0.00028947214
66	0x3aa3fd8a	0.0012511474
67	0x39e69106	0.0004397707
68	0x3939f4af	0.00017734127
69	0xba9b2c55	-0.0011838773
70	0x383ada92	4.4549415e-05
71	0xb92a2600	-0.0001622662
72	0xbbc6188a	-0.0060454058
73	0x379db700	1.8801074e-05
74	0xb99e7490	-0.00030222954
75	0x395746b9	0.00020530344
76	0xba5be39b	-0.0008388103
77	0xba71832d	-0.0009212967
78	0x3af1666d	0.0018417366
79	0x398383af	0.0002508438
80	0xbbf0d488	-0.0073495544
81	0xbace6620	-0.0015746988
82	0xbad0b21c	-0.0015922221
83	0xbadd8546	-0.001690068
84	0x3ad5765b	0.0016285883
85	0xb9ce808a	-0.0003938715
86	0xb9908286	-0.00027563068
87	0xb908cab7	-0.00013045488
88	0xb9667c94	-0.00021980918
89	0x3a5322b6	0.00080541836
90	0x3adff32e	0.0017086023
91	0x3accfaff	0.0015638768
92	0x3896c612	7.189451e-05
93	0xb787e9bb	-1.6202093e-05
94	0x399b27c3	0.0002959353
95	0xbaa91116	-0.0012898769
96	0xb6a05d20	-4.7792128e-06
97	0xba3e195a	-0.00072517025
98	0x3bedc3a2	0.0072559873
99	0x39d865fb	0.00041274712
100	0x3bdffeab	0.0068357787
101	0xbaea690a	-0.0017884087
102	0xba52357b	-0.00080188335
103	0x3b723e80	0.0036963522
104	0x399852f3	0.000290535
105	0x39822fdc	0.0002483119
106	0x3a88220e	0.0010386126
107	0xbada44ac	-0.0016652546
108	0xba392b61	-0.0007063654
109	0xba1fda17	-0.00060978666
110	0xba643c7f	-0.00087065244
111	0xb995e0cb	-0.00028586978
112	0xb9adfe24	-0.0003318648
113	0x3906b1f5	0.0001284553
114	0xba8beafb	-0.0010674888
115	0x397fd33b	0.00024397385
116	0xba54cb30	-0.00081174355
117	0x39310e35	0.00016885328
118	0x3a139d1e	0.0005631017
119	0xb80c0d61	-3.339106e-05
120	0xb9735644	-0.00023206422
121	0x3ab73a48	0.0013979161
122	0xbaf167f7	-0.0018417825
123	0xba2db494	-0.00066263345
124	0xbb9c4986	-0.004769507
125	0xba0cb302	-0.00053672504
126	0xbb96e88f	-0.00460536
127	0xb97f6db2	-0.0002435956
128	0x39b8204c	0.00035119278
129	0x3ac36a4d	0.0014909
130	0x395f12e5	0.00021273976
131	0x3afbe812	0.0019218943
132	0x3a20562c	0.0006116356
133	0xba17c921	-0.00057901634
134	0x39ab6e2b	0.00032697743
135	0x39ea93ea	0.00044742163
136	0xb7e46e0c	-2.7230963e-05
137	0xb883ecfe	-6.29071e-05
138	0x390168d6	0.00012341453
139	0xb9eb7275	-0.0004490797
140	0xb9d49a08	-0.00040550553
141	0xb9a0a726	-0.00030642113
142	0xb9a647d8	-0.00031715515
143	0xb94a8964	-0.00019315403
144	0x3a553556	0.0008133253
145	0xb93a36eb	-0.00017758801
146	0xb8ffd000	-0.000121980906
147	0xba122f99	-0.00055765506
148	0xb8f67f02	-0.00011753851
149	0xb99e7332	-0.00030221936
150	0xb89f5982	-7.598383e-05
151	0xbb4c7600	-0.0031198263
152	0xb9e09f44	-0.00042843272
153	0x393fac02	0.00018279257
154	0x37dac9a8	2.6081529e-05
155	0x39f5df8f	0.00046896606
156	0xbad121cc	-0.0015955507
157	0x3ae96155	0.0017805496
158	0xb92f16c6	-0.00016697784
159	0x391a238c	0.00014699827
160	0x3a03a519	0.0005021855
161	0x3adfc772	0.0017072989
162	0xbac25e68	-0.0014829161
163	0x3ad818ce	0.0016486885
164	0xbb820baf	-0.003968678
165	0x3a052be4	0.00050800876
166	0x3ab778aa	0.0013997753
167	0xb9996ae9	-0.00029262088
168	0xbafff77c	-0.0019528712
169	0x3a3d953e	0.00072320167
170	0xb923d838	-0.00015625439
171	0xb9c7e999	-0.00038130282
172	0xbb7e89fb	-0.0038839567
173	0xba9f2c5a	-0.0012143955
174	0x3bc1085a	0.005890888
175	0xb7083338	-8.118157e-06
176	0x3960b39a	0.00021429211
177	0x37bac059	2.2262497e-05
178	0x37c2c5c1	2.3218689e-05
179	0x38c1d528	9.2426606e-05
180	0xbb48b5e0	-0.0030625984
181	0xb93a3b33	-0.00017760396
182	0xbacde1a8	-0.001570751
183	0x38f53a89	0.000116934134
184	0xba03831e	-0.00050167914
185	0x383531bb	4.3200078e-05
186	0xba0f0c3d	-0.0005456841
187	0x3a421e95	0.000740507
188	0xbac7714c	-0.001521626
189	0xba307830	-0.00067317765
190	0x399cf0ac	0.00029933953
191	0xbac04fe1	-0.0014672243
192	0x3b7fa3cf	0.003900755
193	0xba4a781b	-0.00077235856
194	0x387b19c9	5.9867078e-05
195	0xb8871f70	-6.443157e-05
196	0xbaec7236	-0.0018039409
197	0xb7ad212b	-2.0638652e-05
198	0xb922bf24	-0.0001552073
199	0x385103cf	4.983303e-05
200	0x3a5d9ee1	0.0008454156
201	0xb783e4c8	-1.5722952e-05
202	0xb9f7ab3e	-0.00047239097
203	0x3aa10c95	0.0012287075
204	0xbaf74c65	-0.0018867372
205	0xba9fdc60	-0.0012196414
206	0xb844f9ab	-4.6962563e-05
207	0xbbb5a4ab	-0.0055433116
208	0x399607dc	0.00028616085
209	0xbaeea714	-0.0018207752
210	0xbb10c953	-0.0022092655
211	0xba40d372	-0.00073557266
212	0x3ad49e31	0.0016221461
213	0x3a3181bc	0.0006771346
214	0x3b021bee	0.0019853073
215	0x389b286e	7.3985066e-05
216	0x3bedcd87	0.007257167
217	0x3980ade9	0.00024543636
218	0x3b956716	0.004559408
219	0xbbd5464c	-0.006508624
220	0x3aefe597	0.0018302676
221	0xb82650ac	-3.9652616e-05
222	0xba03dc82	-0.00050301116
223	0x3a0daa16	0.0005404068
224	0xb911da09	-0.00013909502
225	0xb8819c75	-6.180342e-05
226	0x39224556	0.00015475354
227	0xba06f8fa	-0.0005148795
228	0xbaf581e2	-0.0018730725
229	0xb7e68506	-2.748008e-05
230	0xb9de5905	-0.00042409464
231	0xbb392a7d	-0.0028254085
232	0x39ac33db	0.00032845032
233	0x3ab9ca33	0.001417464
234	0xbb4250d2	-0.0029650223
235	0xbbb6985c	-0.005572362
236	0xba50a5fc	-0.0007959304
237	0xba87edf3	-0.0010370597
238	0x385705ce	5.12654e-05
239	0x391bc912	0.00014856856
240	0x387028f1	5.725859e-05
241	0x3ab63359	0.0013900801
242	0xb8d11da4	-9.9714176e-05
243	0xba47227e	-0.00075963873
244	0xb9be7ab2	-0.0003633104
245	0x3a27f37a	0.0006406825
246	0x38dc2183	0.000104966595
247	0x39782ec9	0.00023668552
248	0xb9df62d4	-0.00042607507
249	0x3715e820	8.935138e-06
250	0xba35cb38	-0.0006934884
251	0x3afca3e0	0.0019274913
252	0xb7c30f85	-2.3253038e-05
253	0xba36d189	-0.0006973972
254	0xba330911	-0.0006829659
255	0x393041f0	0.00016809232

bias f4 [16]
0	0x3b69e649	0.003569024
1	0x3bbbe31b	0.00573386
2	0x3c7fc526	0.015610969
3	0x3cb9fb83	0.022702938
4	0xbbda4764	-0.0066613425
5	0xbcf7f8aa	-0.03026994
6	0x3d0d2d2c	0.034466907
7	0x3b532388	0.0032217223
8	0xbb1f35f8	-0.0024293642
9	0x3c625da1	0.013816268
10	0xbd6976cb	-0.056998055
11	0xbcd030b1	-0.025413843
12	0x3c45f436	0.01208215
13	0x3c8e9acd	0.0174078
14	0xbbef6ec2	-0.0073069045
15	0x3d272bfc	0.04081343
