results/transformations/mapping_files/VAE/FMNIST_VAE_16_2>FMNIST_VAE_16_1>NeuralNetwork_100_0_noisy_16_convex_hull.pth (torch, 9618 bytes, 6 tensors)

weight f4 [16, 16]
0	0xbd8e89e7	-0.069598965
1	0xbe801f53	-0.25023898
2	0xbb775f78	-0.0037746113
3	0x3dd812ca	0.10550459
4	0x3e76fe6f	0.24120496
5	0xbb756eef	-0.0037450155
6	0xbdd4b66c	-0.10386357
7	0xbdc6a184	-0.096987754
8	0xbda5038e	-0.08057319
9	0x3c48ea79	0.012262934
10	0xbe209010	-0.15679955
11	0xbdf78d14	-0.120874554
12	0xbee1e7b8	-0.441221
13	0x3d18929f	0.037249204
14	0x3d933a91	0.07188905
15	0xbecd227c	-0.40065372
16	0x3e319dca	0.17345348
17	0x3e8a1a87	0.26973364
18	0x3d88bd6c	0.06676754
19	0xbe3b76ea	-0.18307081
20	0xbe0de17b	-0.13855545
21	0x3e5eb6f2	0.21749476
22	0x3dcb7ee6	0.09936313
23	0xbd6c3173	-0.057664346
24	0xbeda82bb	-0.42677864
25	0xbd218657	-0.039434757
26	0x3e0a8562	0.13527444
27	0x3e9488f0	0.29010725
28	0x3df5f6cb	0.12009963
29	0x3dc19f56	0.09454219
30	0x3e855fca	0.26049644
31	0x3ec46b4c	0.3836311
32	0xbdc0a888	-0.09407145
33	0xbdcb620e	-0.09930812
34	0xbd341920	-0.043969274
35	0xbedacf0d	-0.42736092
36	0xbe73ec74	-0.23820668
37	0x3dff2908	0.12458998
38	0x3bb3701e	0.005476012
39	0xbe378c3d	-0.1792459
40	0x3e3b408f	0.18286346
41	0xbc5b461f	-0.013383417
42	0x3dac33f9	0.084083505
43	0xbd1c56a8	-0.03816858
44	0x3e9c324d	0.30507126
45	0x3e6cce36	0.23125538
46	0xbcc0bbe8	-0.0235271
47	0x3e9f1380	0.31069565
48	0xbd17a911	-0.03702647
49	0x3de4079f	0.11134266
50	0xbe4a39a9	-0.19748558
51	0xbec2ed5a	-0.3807171
52	0x3dedb5ae	0.11606918
53	0x3eaac315	0.3335196
54	0x3bb62786	0.005558911
55	0xbd5cec8c	-0.053936526
56	0xbe81e171	-0.2536731
57	0x3e0a0d23	0.13481574
58	0xbe477dce	-0.19481584
59	0x3e70f87c	0.2353229
60	0xbe25db44	-0.16196924
61	0x3e3fc471	0.1872728
62	0xbebb0702	-0.36528784
63	0xbec4bf09	-0.38426998
64	0x3cc70d1b	0.024298241
65	0x3e077098	0.13226545
66	0xbcb0b317	-0.021569772
67	0xbe98a36c	-0.2981218
68	0x3def805b	0.11694404
69	0xbbc2133e	-0.005922704
70	0xbea1474d	-0.3149971
71	0xbe811c0f	-0.2521672
72	0x3e73806a	0.23779455
73	0x3e55ed3a	0.20891276
74	0xbe174972	-0.14774111
75	0xbdc0591e	-0.09391998
76	0x3e2a4a12	0.16629818
77	0xbe23f755	-0.16012318
78	0x3e530739	0.20608224
79	0xbd15a628	-0.036535412
80	0x3b5f8c2e	0.0034110653
81	0xbd7de278	-0.061983556
82	0x3e0c6854	0.13711673
83	0x3e9e1def	0.30882213
84	0xbd4e1c17	-0.050319757
85	0x3df4fc0e	0.11962138
86	0x3e6030f7	0.21893679
87	0xbeb40e43	-0.3516713
88	0x3ca1d4d5	0.019754807
89	0xbd481581	-0.048848633
90	0xbe2d71e0	-0.16937971
91	0xbec143be	-0.37746996
92	0xbd0410cc	-0.03224258
93	0xbdcf0367	-0.10108071
94	0x3eb70277	0.35744068
95	0xbe264821	-0.16238452
96	0xbe4535a2	-0.1925874
97	0x3d2e3e05	0.042539615
98	0xbeda153d	-0.4259433
99	0xbe63128e	-0.22175047
100	0xbe0811bf	-0.1328802
101	0x3e185c3c	0.14878935
102	0xbd470a71	-0.048593942
103	0x3ebf7116	0.37390965
104	0x3d9458be	0.07243489
105	0xbe2f2a8b	-0.17106073
106	0xbe8b83ed	-0.2724909
107	0x3d9c5ff2	0.076354876
108	0xbdd82e6f	-0.105557315
109	0xbe8c18d1	-0.27362683
110	0xbe881ce0	-0.2658453
111	0x3e45eb27	0.19327985
112	0x3ecea854	0.403628
113	0x3e69fecb	0.22851102
114	0xbe73e1f8	-0.23816669
115	0xbd75d33e	-0.06001591
116	0xbea04257	-0.31300613
117	0xbe8c6cad	-0.27426663
118	0xbd734389	-0.05939058
119	0x3e76977c	0.24081224
120	0x3ec42603	0.3831025
121	0x3df742f6	0.12073319
122	0xbdf51ac5	-0.119679965
123	0xbd93e0bb	-0.07220598
124	0xbd126e04	-0.03574945
125	0xbe2604ac	-0.1621272
126	0x3dfaf3d9	0.122535415
127	0x3c8e14db	0.017343929
128	0xbe318550	-0.17336011
129	0xbe240640	-0.16018009
130	0xbe3591a9	-0.17731346
131	0x3b0f9c3b	0.002191319
132	0xbe5b0c95	-0.21391518
133	0xbe0157b1	-0.12631108
134	0x3e483ef2	0.19555262
135	0xbe1c3dce	-0.15257952
136	0xbda49e2b	-0.08037981
137	0xbd1c46ae	-0.038153343
138	0x3c97df62	0.018539134
139	0xbdb598eb	-0.088670574
140	0x3e6205c8	0.22072518
141	0xbe0202f5	-0.1269644
142	0xbe38488a	-0.17996421
143	0xbeb71106	-0.35755175
144	0xbe8a29ba	-0.2698496
145	0xbea8ba75	-0.32954755
146	0x3e313965	0.1730705
147	0xbe978e24	-0.29600632
148	0xbeabf0f4	-0.3358227
149	0xbe6480d0	-0.22314763
150	0x3e132fb8	0.14373672
151	0x3e84d247	0.2594168
152	0x3d4301b6	0.047609054
153	0xbde18215	-0.11011139
154	0x3d665606	0.056234382
155	0xbde1d342	-0.11026622
156	0xbe987e50	-0.2978387
157	0x3de37fc3	0.11108353
158	0xbe76d5de	-0.24105021
159	0xbea28ff3	-0.3175045
160	0xbe46b541	-0.1940508
161	0x3def8bcd	0.11696587
162	0xbc61cdcc	-0.013781976
163	0x3eb7aad7	0.35872528
164	0xbe8073d8	-0.25088382
165	0xbebb7577	-0.36613056
166	0x3df9fbbf	0.1220622
167	0x3d372a15	0.044717867
168	0x3e54b785	0.20773132
169	0xbe4a1402	-0.19734195
170	0x3dd9106a	0.10598834
171	0xbeacf823	-0.33783063
172	0x3ef3cd42	0.47617537
173	0xbe8ea71e	-0.27861875
174	0x3d600e93	0.0547014
175	0xbd40552a	-0.04695622
176	0xbd4a2898	-0.04935512
177	0xbdc6b952	-0.09703316
178	0xbee17531	-0.44034722
179	0xbde51005	-0.11184696
180	0x3db347e2	0.08753945
181	0x3d6621ce	0.056184582
182	0xbda3dca3	-0.080010675
183	0xbd950f3b	-0.072782956
184	0x3df8e651	0.12153304
185	0xbecbe4f3	-0.39823112
186	0x3b759e1e	0.0037478278
187	0x3e281863	0.16415553
188	0x3eac287b	0.33624634
189	0xbd6facc6	-0.05851438
190	0x3e993044	0.29919636
191	0xbdb8d6d6	-0.09025352
192	0xbe93d210	-0.28871202
193	0xbda4a83d	-0.080399014
194	0xbe83810a	-0.25684386
195	0x3e8e801f	0.27832124
196	0x3e3d496f	0.18485044
197	0x3d15651a	0.03647337
198	0x3da86778	0.0822286
199	0xbdf8e930	-0.12153852
200	0xbe1ac60b	-0.1511461
201	0xbe39fdaf	-0.18163179
202	0xbe9f9b27	-0.3117306
203	0x3c1bcd2a	0.009509364
204	0xbea93fa1	-0.33056358
205	0xbc3ffad3	-0.011717516
206	0x3eae446d	0.3403658
207	0xbe899895	-0.26874223
208	0x3db998df	0.09062361
209	0xbe8d1231	-0.2755294
210	0xbcebacae	-0.028768864
211	0x3ef298b8	0.4738214
212	0x3e471ed5	0.19445355
213	0xbe8b592f	-0.2721648
214	0xbd34f3e8	-0.04417792
215	0x3e84e637	0.2595689
216	0xbcb5f11f	-0.022209702
217	0xbe9ce8dc	-0.30646408
218	0x3e8b0214	0.27150023
219	0xbe0711bd	-0.1319036
220	0x3e326016	0.17419466
221	0xbe1f59eb	-0.15561645
222	0xbea81f2b	-0.3283628
223	0xbe68dd92	-0.22740772
224	0x3e5c531d	0.2151608
225	0xbe985b8a	-0.2975734
226	0x3e302dc1	0.17204954
227	0xbd6f7a34	-0.05846615
228	0xbda53f13	-0.08068671
229	0xbbab4583	-0.0052267923
230	0x3da7b801	0.08189393
231	0xbd88c63b	-0.066784345
232	0x3e321a85	0.17392929
233	0x3e7998fe	0.24374768
234	0x3dea3af6	0.11437027
235	0xbe8ea545	-0.27860466
236	0xbeddf6a3	-0.4335223
237	0x3e60deba	0.21959963
238	0x3d386c3a	0.045025088
239	0x3ec7f909	0.39057186
240	0x3e1a1c83	0.15049939
241	0xbe07d02d	-0.13263007
242	0xbe541dde	-0.20714518
243	0x3e4d0d17	0.20024525
244	0x3e16a98e	0.14713117
245	0xbe809688	-0.25114846
246	0xbe33a65c	-0.1754393
247	0xbc2a14e0	-0.010380954
248	0x3ec9ddf1	0.3942714
249	0xbd043cf6	-0.0322847
250	0xbd1f2a8f	-0.038858946
251	0xbebd1462	-0.36929613
252	0xbe86585e	-0.26239294
253	0xbdfb55bd	-0.12272213
254	0xbd06b284	-0.03288509
255	0xbec9925b	-0.39369473

bias f4 [16]
0	0x3d68be05	0.05682184
1	0xbd90baa1	-0.07066847
2	0x3ea84b3e	0.32869905
3	0x3e90caf3	0.28279838
4	0xbd7cb7f1	-0.061698858
5	0x3d17667e	0.03696298
6	0x3e09c305	0.134533
7	0xbe333fc8	-0.175048
8	0x3e9bcbfb	0.30429062
9	0x3e543490	0.20723176
10	0xbd401a2f	-0.04689997
11	0xbda65e26	-0.08123426
12	0xbc2323a4	-0.009957228
13	0x3e36b9f9	0.1784438
14	0x3d5a9f82	0.053374775
15	0x3e84f914	0.25971282

weight f4 [16, 16]
0	0x3e63e02f	0.22253488
1	0xbe2482ff	-0.16065596
2	0xbe9833ef	-0.29727122
3	0x3e797bcb	0.2436363
4	0xbe372370	-0.17884612
5	0x3e091e4c	0.13390464
6	0x3e8dd286	0.2769968
7	0x3d2bc15c	0.04193245
8	0x3e88326c	0.2660097
9	0x3e36d28d	0.17853756
10	0xbe31c9bc	-0.17362112
11	0x3eafb29a	0.3431595
12	0x3e53503d	0.20636077
13	0xbe9add20	-0.3024683
14	0xbdedb18a	-0.116061285
15	0x3e163fdd	0.146728
16	0x3e5f5c5d	0.21812578
17	0xbc42a561	-0.01188025
18	0xbbdfcde7	-0.0068299654
19	0xbe833dfa	-0.25633222
20	0x3d84343b	0.06455275
21	0x3ecf912d	0.40540448
22	0xbdd5a3e8	-0.10431653
23	0xbde19b75	-0.11015979
24	0xbe18c519	-0.14918937
25	0xbe5c9551	-0.21541335
26	0xbe6c5e33	-0.23082809
27	0x3cc13cf1	0.02358863
28	0x3e8d0792	0.27544838
29	0xbe9632eb	-0.29335722
30	0x3e3c60b8	0.1839627
31	0x3e3bfb72	0.18357638
32	0x3a15ff0e	0.0005721905
33	0x3e8b1ae2	0.27168947
34	0x3e29c644	0.16579539
35	0x3ed338f6	0.41254395
36	0x3e57ce1e	0.21074721
37	0xbe0932cf	-0.13398288
38	0x3e3e9093	0.18609838
39	0xbe8ae587	-0.2712824
40	0xbd9f650d	-0.07782946
41	0xbea12769	-0.3147538
42	0xbe6817bf	-0.22665308
43	0x3d7347e4	0.059394732
44	0x3da5526a	0.0807236
45	0xbe80d989	-0.25165966
46	0xbe0aedd7	-0.13567291
47	0x3da0353b	0.07822653
48	0xbd245140	-0.04011655
49	0xbe1f1fa0	-0.15539408
50	0x3e9c7ef9	0.30565622
51	0xbeaa4a48	-0.33259797
52	0x3cc7be0a	0.02438261
53	0x3e09f392	0.13471821
54	0xbdfbca98	-0.12294501
55	0x3e59f9c6	0.21286687
56	0x3e9cfde7	0.30662462
57	0xbe97667c	-0.29570377
58	0x3ee329ae	0.44367737
59	0x3ecc9f25	0.39965168
60	0x3d75da20	0.060022473
61	0x3e71337d	0.23554797
62	0xbecb6e13	-0.39732417
63	0x3e85aea0	0.2610979
64	0xbebdc3e3	-0.37063512
65	0xbdc64739	-0.096815534
66	0x3e047dbb	0.12938587
67	0xbe33639e	-0.1751847
68	0x3d67eba8	0.056621224
69	0xbdc31e6c	-0.09527287
70	0x3e937ac5	0.28804603
71	0x3e400802	0.18753055
72	0x3e53dbba	0.20689288
73	0xbe95b4cb	-0.29239497
74	0x3ebd2e1e	0.36949247
75	0xbce7fa49	-0.028317587
76	0xbe5d0a88	-0.21586049
77	0xbdffcf73	-0.1249074
78	0xbd869394	-0.06571117
79	0x3d044f1a	0.032302
80	0xbe0caaa5	-0.1373697
81	0x3d9419fb	0.07231518
82	0x3e140223	0.1445394
83	0x3d4ce587	0.05002358
84	0x3e4447d9	0.19168033
85	0xbde62035	-0.11236612
86	0xbd93cb9c	-0.0721657
87	0x3e8132fa	0.25234205
88	0xbdaae983	-0.0834532
89	0xbd7b87bf	-0.061408754
90	0x3e33ddc8	0.17565072
91	0x3d76bdd8	0.060239643
92	0x3e43f536	0.1913651
93	0xbe80d23a	-0.2516039
94	0x3e98b70a	0.29827148
95	0x3e276a52	0.16349152
96	0x3cac9610	0.02106765
97	0xbe0d99e5	-0.13828237
98	0x3e174d4c	0.1477558
99	0x3e6b00ef	0.22949575
100	0x3da255af	0.07926499
101	0xbe91a43e	-0.2844562
102	0x3e56d8f7	0.20981203
103	0x3eab266f	0.3342776
104	0xbe025192	-0.12726429
105	0xbe002fcc	-0.12518233
106	0x3e76eb4b	0.24113195
107	0x3eb6737a	0.35634977
108	0xbdfd9564	-0.123820096
109	0xbd1cfc71	-0.038326684
110	0x3dde9647	0.10868507
111	0xbe0bdb15	-0.13657792
112	0x3e977800	0.2958374
113	0xbe708530	-0.23488307
114	0xbe9941c8	-0.29933
115	0x3e15e939	0.14639749
116	0xbebb8b3b	-0.36629662
117	0xbdaec0b0	-0.08532846
118	0xbc131a36	-0.008978417
119	0x3e4332e0	0.19062376
120	0x3c359206	0.011082178
121	0x3e1d9f79	0.15392865
122	0xbd933793	-0.07188334
123	0x3e2caaa4	0.16861969
124	0x3ed6041a	0.41800004
125	0x3dcc6809	0.09980781
126	0xbd5d68d9	-0.05405507
127	0xbca8509d	-0.020546252
128	0x3eb17ff8	0.34667945
129	0xbe3456df	-0.17611264
130	0xbe3783d1	-0.17921378
131	0x3e8fe1ac	0.2810186
132	0xbe9d11e4	-0.30677712
133	0x3df52ab9	0.11971039
134	0xbe904f34	-0.28185427
135	0x3d7c992d	0.061669517
136	0xbe0323a6	-0.12806568
137	0x3af8bfa6	0.0018978014
138	0x3de3bbd2	0.11119808
139	0xbe8979fd	-0.26850882
140	0x3e48402f	0.19555734
141	0xbc432977	-0.011911741
142	0x3e48fd80	0.19627953
143	0x3e8b4230	0.27198935
144	0xbeafb211	-0.3431554
145	0x3ebe4f60	0.37169933
146	0x3ede2072	0.4338413
147	0xbda1bc09	-0.07897193
148	0x3e87be39	0.26512316
149	0xbea8a5ab	-0.32938895
150	0x3e59627c	0.21228975
151	0x3e16fb4e	0.14744303
152	0x3e3e307d	0.18573184
153	0x3e2e0e4d	0.16997643
154	0xbe71883a	-0.23587123
155	0x3e9de5dc	0.3083943
156	0xbdedecd8	-0.1161744
157	0xbec245ba	-0.37943822
158	0xbdef2f05	-0.1167889
159	0xbe3f9694	-0.18709785
160	0xbe996174	-0.29957163
161	0x3e4d99c6	0.20078191
162	0x3eab0d24	0.33408463
163	0x3e0adff9	0.13562001
164	0xbc93664e	-0.017993119
165	0x3d1fcde0	0.039014697
166	0xbe65708e	-0.22406217
167	0x3e15208b	0.14563195
168	0x3eb0a955	0.3450419
169	0x3d9a3483	0.07529547
170	0x3e95f824	0.2929088
171	0x3ecf8ce0	0.40537167
172	0xbde68a92	-0.11256899
173	0xbda98078	-0.082764566
174	0xbe2c963c	-0.16854185
175	0xbe0951f4	-0.13410169
176	0x3e25eb0a	0.16202942
177	0xbc9c86a0	-0.019107163
178	0xbe3c416b	-0.1838433
179	0x3eb0576a	0.34441692
180	0xbe976080	-0.2956581
181	0xbdc61207	-0.09671407
182	0x3e612748	0.21987641
183	0x3e80121a	0.2501381
184	0x3e16ab9e	0.14713904
185	0x3e7a0d29	0.24419083
186	0xbe57ec86	-0.2108632
187	0x3bc6c67a	0.0060661407
188	0x3eba105f	0.36340615
189	0xbba8788c	-0.0051413234
190	0x3dfc2825	0.123123445
191	0x3dfc6a7d	0.123249985
192	0xbe0471a5	-0.12933977
193	0xbe3d1886	-0.18466386
194	0xbe10877e	-0.14114186
195	0x3d224f04	0.039626136
196	0x3c8ff927	0.01757486
197	0xbe8c4ce1	-0.27402404
198	0x3e958eb1	0.29210427
199	0x3ea52189	0.32252148
200	0x3e2ba581	0.16762353
201	0xbe851099	-0.25989226
202	0xbc989564	-0.018625923
203	0x3ddd6c09	0.10811622
204	0xbe4c86a5	-0.19973238
205	0x3e4960a9	0.19665779
206	0xbe96b835	-0.29437414
207	0x3e02018d	0.12695904
208	0x3e733bd1	0.23753287
209	0xbe947a5c	-0.28999603
210	0xbe9d408b	-0.30713305
211	0xbdcd97ac	-0.10038695
212	0xbaa60ac6	-0.0012668006
213	0x3d8a1272	0.067417994
214	0x3e1578aa	0.14596811
215	0x3e18ef09	0.14934935
216	0xbd41eadf	-0.04734313
217	0x3ea6042f	0.32425067
218	0xbe0ab7bb	-0.1354665
219	0x3e2a86d4	0.16652995
220	0xbdede26f	-0.116154544
221	0x3e370ab8	0.17875183
222	0x3e340a87	0.17582141
223	0x3ed8765c	0.422778
224	0x3e1e528e	0.1546118
225	0xbd0eeee1	-0.03489578
226	0x3e664b9a	0.22489777
227	0xbdff8840	-0.124771595
228	0xbddc89d3	-0.107684754
229	0x3c1de036	0.009635976
230	0xbdbce0af	-0.092225425
231	0xba8ff0ba	-0.0010981776
232	0xbe49435b	-0.196546
233	0x3e1c70b8	0.15277374
234	0xbd99834e	-0.074957475
235	0xbdd8d598	-0.10587615
236	0xbe318d75	-0.17339118
237	0xbe3e6f80	-0.18597221
238	0x3e8ce7c6	0.2752058
239	0xbbcf75e0	-0.0063311905
240	0x3e63c36d	0.22242518
241	0xbd7640e1	-0.060120467
242	0xbde75e53	-0.11297288
243	0xbe1e9b40	-0.1548891
244	0xbe2f1e3c	-0.17101377
245	0xbe176821	-0.14785816
246	0xbe6b6cdf	-0.2299075
247	0x3d682aba	0.056681372
248	0xbc9df8f7	-0.019283755
249	0xbd6b6e68	-0.05747834
250	0xbddbd87d	-0.10734651
251	0xbda72c20	-0.08162713
252	0xbea45bd2	-0.32101303
253	0x3cfa37a6	0.030544113
254	0xbd4156be	-0.047201864
255	0x3d6deed1	0.05808908

bias f4 [16]
0	0x3e034729	0.12820114
1	0xbe2d9188	-0.16950047
2	0xbdeec91d	-0.11659453
3	0x3e80407a	0.25049192
4	0x3cad06bf	0.02112138
5	0x3c3d8282	0.01156676
6	0xbe2f1861	-0.17099144
7	0x3e12fdfd	0.14354701
8	0x3c97e774	0.018542983
9	0x3e778469	0.24171604
10	0x3e0f1a22	0.13974813
11	0xbbec3eff	-0.007209658
12	0xbe886df1	-0.2664638
13	0xbc12757a	-0.008939141
14	0x3dd75418	0.105140865
15	0xbe5c5f9c	-0.21520847

weight f4 [16, 16]
0	0x3ea1405d	0.31494418
1	0x3e7e3c2f	0.24827646
2	0x3db07926	0.08616857
3	0xbee35bba	-0.4440592
4	0xbe5e45a1	-0.21706249
5	0x3d6944e1	0.056950454
6	0xbe183716	-0.14864764
7	0x3e5018c4	0.20321947
8	0x3e515b87	0.20445071
9	0xbdccf0d4	-0.10006872
10	0xbe9a0d3b	-0.3008822
11	0x3ea97397	0.33096
12	0xbe92a5a8	-0.2864201
13	0x3e2fbc6c	0.17161721
14	0x3e537235	0.20649035
15	0x3da96237	0.08270686
16	0xbd21f644	-0.039541498
17	0xbdd1ff09	-0.10253722
18	0xbe32c354	-0.17457324
19	0x3c6b3a24	0.0143571235
20	0x3e1140c4	0.14184862
21	0x3d58f987	0.052972343
22	0xbd40505c	-0.046951637
23	0xbd849a4b	-0.064747415
24	0x3d76382b	0.06011216
25	0x3dcf47d8	0.10121125
26	0xbd1eadc4	-0.038739935
27	0x3d8bede8	0.068324864
28	0xbcc00767	-0.02344103
29	0x3d4551f1	0.04817385
30	0xbd009842	-0.031395204
31	0xbdc55388	-0.09635073
32	0xbe26156c	-0.1621911
33	0xbe84dd0c	-0.25949895
34	0x3e124a68	0.14286196
35	0xbd9698c3	-0.07353356
36	0x3e2c43cc	0.16822737
37	0x3d7b1975	0.061303575
38	0x3e1b6766	0.15176162
39	0x3d107d29	0.035275612
40	0x3dc8add7	0.09798782
41	0x3bdc41f4	0.0067217294
42	0xbd374312	-0.044741698
43	0xbdd45f68	-0.1036976
44	0xbe07a33d	-0.13245864
45	0xbdb0e453	-0.086372994
46	0x3d92f6b7	0.07175963
47	0xbdfa06d4	-0.122083336
48	0xbe0d29b6	-0.13785443
49	0xbb836420	-0.0040097386
50	0x3dc36f8c	0.0954276
51	0x3d193c9a	0.03741131
52	0x3d66bc34	0.05633183
53	0x3d5c1fd8	0.053741306
54	0x3d1959e4	0.037439242
55	0x3ce5edd6	0.02806751
56	0xbd879998	-0.066210926
57	0xbe3bdba5	-0.18345506
58	0xbe20e4ea	-0.15712324
59	0xbcffcb10	-0.031224757
60	0x3ce24e76	0.027625304
61	0x3e7edf86	0.24889955
62	0xbe084ca5	-0.13310488
63	0x3e15ae3f	0.14617251
64	0x3d7be07c	0.06149338
65	0xbe32af3f	-0.17449664
66	0x3c37b664	0.011212919
67	0x3daf8ea5	0.08572129
68	0xbe8919e7	-0.26777574
69	0xbe417e8b	-0.18895929
70	0xbe9a5468	-0.30142522
71	0xbb8f6a3a	-0.004376677
72	0x3e74b132	0.2389572
73	0xbebaa07c	-0.36450565
74	0x3d91453e	0.07093285
75	0x3e3b5bce	0.1829674
76	0xbd9f4ae9	-0.0777796
77	0x3e2cfb64	0.16892773
78	0xbd3023bf	-0.04300284
79	0x3c617cc2	0.013762655
80	0xbda64b03	-0.08119776
81	0xbe461e3e	-0.19347474
82	0xbca1b82f	-0.019741146
83	0x3d2e1569	0.042500887
84	0x3c8283d7	0.015932007
85	0xbac08ece	-0.0014690997
86	0x3e278fb9	0.1636342
87	0x3b0efb9f	0.0021817458
88	0x3e26280f	0.16226219
89	0xbc94066a	-0.018069465
90	0xbdddc3b4	-0.10828343
91	0xbcb2fd0e	-0.021849182
92	0x3e534a15	0.20633729
93	0x3d8a3d64	0.067499906
94	0x3e122943	0.14273553
95	0x3e057444	0.13032633
96	0x3d6f4a98	0.058420748
97	0x3db87ee1	0.09008575
98	0xbcc76e55	-0.024344603
99	0x3e12eaf8	0.14347446
100	0x3e370f46	0.1787692
101	0x3d9a2489	0.075265
102	0x3c8a4db7	0.01688276
103	0x3da00173	0.078127764
104	0xbd054f8f	-0.032546576
105	0xbe8c5882	-0.27411276
106	0xbe40bd8f	-0.18822311
107	0xbdedde98	-0.11614722
108	0x3e879cda	0.26486856
109	0xbc915810	-0.017742187
110	0xbd89c0e8	-0.06726247
111	0xbe1b9ad9	-0.15195788
112	0xbe33c090	-0.17553926
113	0xbe7deb01	-0.24796678
114	0x3e75094e	0.2392933
115	0x3cebcaa8	0.028783157
116	0xbd8b89a0	-0.06813359
117	0xbdb8948f	-0.0901271
118	0x3d90831d	0.07056258
119	0xbda9648d	-0.08271132
120	0xbd65cbb1	-0.05610246
121	0x3d0216b6	0.03175994
122	0x3de25fc1	0.1105342
123	0x3db139a2	0.08653571
124	0x3a2ca988	0.00065865414
125	0x3dc27e57	0.09496754
126	0xbdc7bb2f	-0.09752499
127	0xbe0b4d58	-0.13603723
128	0xbe30c314	-0.17261916
129	0xbd89b84f	-0.06724607
130	0x3e8359ef	0.2565455
131	0xbc87b6b7	-0.016566617
132	0xbd4bf7c3	-0.04979683
133	0x3b717a04	0.0036846409
134	0xbe01787c	-0.12643617
135	0x3ca15bc8	0.019697085
136	0x3e4f7e43	0.20263009
137	0x3c67e684	0.01415408
138	0x3db15d1f	0.086603396
139	0xbd1368a6	-0.035988472
140	0xbd40ef51	-0.04710323
141	0x3dcec529	0.10096199
142	0x3d5f052d	0.054448295
143	0xbddc13df	-0.107459776
144	0x3c92a598	0.017901227
145	0xbd3431dd	-0.043992866
146	0xbea28e87	-0.31749365
147	0x3e5d9414	0.21638519
148	0xbe26d8d2	-0.16293648
149	0xbe5e41de	-0.21704814
150	0xbe7710f0	-0.24127555
151	0x3ebd4d71	0.36973146
152	0x3e3c30a1	0.18377925
153	0xbea5279c	-0.32256782
154	0xbe52081d	-0.20510907
155	0x3d966f55	0.07345454
156	0xbd610426	-0.054935597
157	0x3e695507	0.22786342
158	0xbe23627b	-0.15955536
159	0xbdcc9560	-0.099894285
160	0x3ea1554f	0.31510398
161	0x3cec5b9e	0.02885228
162	0x3d690a5f	0.056894656
163	0x3d765b92	0.060145922
164	0xbd06fe40	-0.032957315
165	0xbdb139e2	-0.086536184
166	0x3e308292	0.17237309
167	0x3e47598c	0.19467753
168	0xbe0d4032	-0.1379402
169	0x3c51d9d5	0.012808283
170	0xbd8307fa	-0.06398006
171	0x3e5cce62	0.21563104
172	0x3eba482d	0.3638319
173	0x3d10f727	0.035391953
174	0xbe39d304	-0.18146902
175	0xbdd48acb	-0.10378035
176	0x3e09c029	0.1345221
177	0xbe0c9f97	-0.13732754
178	0x3db268ca	0.08711393
179	0x3ccdaec8	0.025107756
180	0x3dab5ce0	0.08367324
181	0x3dec85ab	0.11548933
182	0x3d6ed3b2	0.058307357
183	0xbd685ef3	-0.056731176
184	0x3e00f000	0.12591553
185	0xbe1d7339	-0.15375985
186	0x3bb36305	0.0054744505
187	0xbe55de7a	-0.2088565
188	0xbd68c7cc	-0.056831166
189	0xbe118ead	-0.14214583
190	0xbe4011a9	-0.18756737
191	0xbc7a6b83	-0.015284422
192	0x3d8390be	0.06424092
193	0xbdfcb278	-0.12338728
194	0x3b7779f3	0.0037761896
195	0x3ce22d0b	0.027609369
196	0x3e0f9304	0.14020926
197	0xbe0c2486	-0.13685808
198	0xbe145731	-0.14486386
199	0x3e0e5d3f	0.13902758
200	0xbbed1635	-0.0072353133
201	0xbc6b69c6	-0.01436848
202	0x3dc53129	0.09628517
203	0x3df81d77	0.12114995
204	0x3dba1a8e	0.09087096
205	0xbd91dd2a	-0.07122262
206	0xbcf6ebca	-0.03014173
207	0x3d69dd6e	0.057095937
208	0xbe298df0	-0.16558051
209	0x3e3b5fb6	0.1829823
210	0xbe905b71	-0.28194764
211	0x3df835e3	0.12119653
212	0xbd23cb3e	-0.03998875
213	0x3e22179c	0.15829319
214	0xbbb52394	-0.005527923
215	0xbe25a5b0	-0.16176486
216	0x3e3c204f	0.183717
217	0xbc8fd71a	-0.017558623
218	0xbd76ad69	-0.06022397
219	0x3dbcbe9c	0.09216043
220	0x3dcd5090	0.10025132
221	0x3d0ec489	0.0348554
222	0x3cf94b17	0.030431313
223	0x3dbcc264	0.092167646
224	0xbe125f3d	-0.14294143
225	0xbda7d77d	-0.08195398
226	0x3e5893d0	0.21150136
227	0xbd82d763	-0.06388738
228	0x3de05fa3	0.10955741
229	0xbd0a7156	-0.03379949
230	0xbe6fe3e0	-0.23426771
231	0x3db6b633	0.089214705
232	0xbe5d93d3	-0.21638422
233	0x3e51a4fb	0.20473091
234	0xbc082b32	-0.00831108
235	0x3e0de3a6	0.13856372
236	0x3d8a7c88	0.06762034
237	0x3d1a9466	0.03773918
238	0x3d540a32	0.051767536
239	0xbe2e58b3	-0.17026024
240	0xbd47f15c	-0.048814163
241	0xbe725d74	-0.23668462
242	0xbd8bec07	-0.06832128
243	0xbe8e43a8	-0.27785993
244	0xbe60a603	-0.21938328
245	0xbe6ffdbc	-0.23436636
246	0x3e09d6f6	0.13460907
247	0x3e8d5912	0.27607018
248	0x3e8a7d6c	0.27048814
249	0x3e041c7a	0.12901488
250	0xbe410209	-0.18848433
251	0x3e3647bb	0.178008
252	0x3e2484d8	0.16066301
253	0x3e01e43b	0.1268472
254	0xbe16a592	-0.14711598
255	0x3e2252f7	0.15851961

bias f4 [16]
0	0xbe8a8cd8	-0.2706058
1	0xbe343a32	-0.17600325
2	0x3d3a23af	0.045444187
3	0x3d9bcbbe	0.0760722
4	0xbddbc573	-0.1073102
5	0xbe2569f6	-0.16153702
6	0xbc347592	-0.011014359
7	0x3dc1cba6	0.09462671
8	0xbe487555	-0.19576009
9	0x3dc49fc5	0.09600786
10	0xbea30ca5	-0.31845585
11	0x3e99117c	0.29896152
12	0xbe50353e	-0.2033281
13	0xbd901e1d	-0.07036994
14	0xbe10ecf3	-0.14152889
15	0xbe050f7e	-0.12994191
