results/transformations/mapping_files/VAE/FMNIST_VAE_8_3>FMNIST_VAE_8_1>NeuralNetwork_50_0_noisy_128_equally.pth (torch, 80726 bytes, 6 tensors)

weight f4 [128, 8]
00000000: a162 913e 0af1 a73e 36f5 b43e 224e 1c3e
00000010: 6002 b23e b3a6 2a3e f457 1e3e 1776 08be
00000020: e32f 98be cee2 633e 0518 e33d 1249 4cbe
00000030: 1f4b 053e 1d16 5cbe b1ae a1be c30e d03e
00000040: 8bcd 823e 1764 9c3e b924 abbc 55d9 bd3e
00000050: 2f87 ad3b 4305 343c bde9 d53e e117 32be
00000060: 2e8e 99be 8d2c 203e b290 bfbe 5850 503d
00000070: 6438 003e 5f92 a1bd 1e65 a63e 8380 203e
00000080: bcbe d3bc 7098 23be fc29 a0bc 72f0 cdbe
00000090: a096 323e cfcf 623e 6673 d03d 942a 963e
000000a0: d5e9 9f3e 6577 6f3c de72 87be 19c4 b13e
000000b0: df09 abbd 030c a7be 0278 223d 0eb6 eabe
000000c0: 520a bdbd 44be b5bd 4d2e b4bd 7ff0 763e
000000d0: 9c74 9ebe 7cfd a3bd 4dbd 0a3e 235e 6d3e
000000e0: 46a3 913e a611 d83d 7803 fe3d 2307 87be
000000f0: aad6 3a3d a174 47be 569f aa3d 5e43 66be
00000100: 6465 413e 403b 39be 5794 bc3e 5a15 a9be
00000110: e5b8 30be 3b97 b23d dd94 72bd ee1e eabd
00000120: 6bd0 6e3e 133a 2b3e cfeb 82be 4019 dcbd
00000130: 20db a13e 1c2a 323e f76e 123e 7a3b d3be
00000140: 5b28 10be 8ba4 b4bc 2e8d 83be 6ccc a4be
00000150: a73b 0ebe dfd3 87be 8437 673e 8317 cdbe
00000160: 9978 b43e abbf 373e 9327 10bd dd04 89bd
00000170: 718a 35be f9d7 76be b643 4fbd eae4 f0bd
00000180: bc4f 4e3e e14d 8dbe e99c a63e c3d4 343e
00000190: fb6d 59be cf35 46bd 66f4 6ebe 80ed 023e
000001a0: c314 083e 7c5c 88be d54e 52bc 9da7 243e
000001b0: f609 5dbe f326 9ebe 65ac 00be dce7 97be
000001c0: a60d c53e a62c 963e ae57 36bc 73a1 5fbe
000001d0: 9e3d 26be 913f 49be c41d 343e 7da2 e0be
000001e0: 40de 443d 933d 61bd 4b6b 95be a458 80be
000001f0: 315e 77be a708 9fbe 7155 f7bd 17a5 82be
00000200: 12be 2dbe 4931 453e 94ae 11be 31a6 bc3d
00000210: 2cd5 a13e cf81 8bbe 8758 95bd 33bb a4be
00000220: bb27 03be 40d7 62be d029 b1bd a75b 7dbd
00000230: bbbd a6be 24ce 6cbe a661 8cbd d852 b7be
00000240: a2ce 843e 1c06 0dbe e059 53bd 78fa ee3d
00000250: ba85 8ebe 518f b3be 6b74 41be a0a3 883d
00000260: b24d 8bbd c1ae d43e d26e babd c38d 283e
00000270: e516 31be 21ca 02be 61e7 ab3e ae2b 06be
00000280: 8b74 c3be 9572 32be 32fc aebe 7456 513e
00000290: 4b07 6dbd fd2a 98be 97e2 893e 8bf8 debd
000002a0: 044c 95be e906 be3e bb67 fb3c f35c 103e
000002b0: 502f a03e 60df 8e3e 2838 babd 94ec 0e3e
000002c0: 091a 9dbe ed2c b33e be18 67bd d977 3cbe
000002d0: a45d cdbc 2f1f 69bd e888 1abe 3c33 f6bd
000002e0: 3751 7ebd a41b 553e e3f3 d5be c606 16be
000002f0: 461a 9bbe e422 993e 5a61 603d 7da0 043e
00000300: 22a2 123e 7405 473d 3586 9abd 09a9 af3e
00000310: 6555 c1bd 261d cabd ac09 ab3e f2b2 753e
00000320: 9e6f 59be b3c9 993d 5afe 153e 3c5b 683e
00000330: 2501 7dbe b408 483c 3ddb 7dbe 1d67 4abd
00000340: 9ef3 b7be 708e dabd 8b84 c1be 1c9b 2dbe
00000350: 7da1 b8be d825 9abe c65e 9bbe d501 303e
00000360: 3e4e 923e 0aa7 393e 494a 93be 824c 9b3e
00000370: 5663 b63e 3abb 36be 045c c83d 04ab 1dbe
00000380: 4cdf 423d be0c 9f3e 9442 c0be 2320 debd
00000390: c455 e2bd 49ef 223e 7761 d4bd b6c8 bebe
000003a0: 46f9 b8be 8a10 afbc 9ec8 ce3e 42da 923e
000003b0: 35c4 aa3c 5faa 823e 19b2 883e 240d af3e
000003c0: 6d76 033d 1242 a43d 2cdc 023d 4eb9 0fbe
000003d0: 4578 153e 1c14 97be 63b9 2bbe 1987 d73e
000003e0: 4c9d b3bd fc3c f53d e7cb a83e 125c 303e
000003f0: 8126 55be c6bd b8be ab22 723e 4af2 b9be
0.2839556 0.32801086 0.3534333 0.1526418 0.34767437 0.16665153 0.15463239 -0.13326298
-0.29724035 0.22254488 0.11088566 -0.19949749 0.13016938 -0.2149281 -0.3157859 0.40636262
0.25547442 0.30545112 -0.020891534 0.37079874 0.005295656 0.010987583 0.4177989 -0.17391922
-0.29991287 0.15641995 -0.3741508 0.05085787 0.12521511 -0.07889246 0.3249902 0.15674023
-0.025847785 -0.15976119 -0.01955127 -0.40222508 0.17440271 0.22149585 0.101782605 0.2932936
0.31233087 0.014615868 -0.26454824 0.34719923 -0.08351492 -0.32626352 0.03966523 -0.45842022
-0.09230484 -0.08874181 -0.08797894 0.2411518 -0.3094834 -0.08007333 0.13548775 0.23180442
0.2844488 0.10550241 0.12403005 -0.26372632 0.045614876 -0.19478084 0.08331172 -0.22486636
0.18886334 -0.18089008 0.36831924 -0.33024102 -0.17258032 0.08720251 -0.059224 -0.114316806
0.23321693 0.16721372 -0.25570533 -0.107470036 0.31612492 0.17398876 0.14300142 -0.41256315
-0.14077894 -0.022051116 -0.2569365 -0.32187212 -0.13889943 -0.26528832 0.22579771 -0.40057
0.3524826 0.1794421 -0.03519399 -0.06690381 -0.17728592 -0.24105825 -0.050601684 -0.11762412
0.20147604 -0.2759848 0.32541588 0.17659287 -0.2123336 -0.04839116 -0.23335418 0.12785912
0.1328917 -0.2663306 -0.012836178 0.16079564 -0.21585831 -0.3088909 -0.12565763 -0.29669082
0.38486975 0.2933094 -0.011129303 -0.21838932 -0.16234443 -0.19653155 0.1758948 -0.4387397
0.048063517 -0.054990362 -0.2918342 -0.25067627 -0.24157025 -0.3106129 -0.120768435 -0.2551658
-0.16967037 0.19257082 -0.14226753 0.09211386 0.3160795 -0.27247474 -0.07292276 -0.32174072
-0.12808125 -0.22152424 -0.08650553 -0.061854985 -0.32566628 -0.23125511 -0.068545625 -0.35805392
0.25938898 -0.13771862 -0.051599383 0.11668867 -0.278364 -0.3507028 -0.18892066 0.06671834
-0.068019286 0.41539577 -0.091031685 0.16460328 -0.1729389 -0.12772419 0.33574966 -0.131026
-0.38174853 -0.17426522 -0.34176785 0.20443135 -0.057868283 -0.29720297 0.26930687 -0.108872496
-0.29159558 0.37114647 0.030689111 0.14097957 0.31286097 0.27904797 -0.09092742 0.13957435
-0.30683926 0.34995213 -0.05642008 -0.18405093 -0.025069065 -0.056914505 -0.15091288 -0.12021491
-0.06208917 0.20811325 -0.41787633 -0.14651021 -0.30293483 0.29909432 0.05478034 0.12951846
0.14319661 0.048589185 -0.07545129 0.3430865 -0.09440116 -0.09868841 0.33405817 0.23994043
-0.21233985 0.07509174 0.14647809 0.22691053 -0.24707468 0.012209106 -0.24790664 -0.049414743
-0.35928053 -0.10671699 -0.37796435 -0.16953701 -0.36060706 -0.30106997 -0.30345744 0.17188199
0.2857532 0.18130127 -0.28767613 0.30331808 0.35622662 -0.17844859 0.097831756 -0.15397269
0.047576234 0.3106441 -0.37550795 -0.10845973 -0.11051515 0.15911593 -0.103701524 -0.37262505
-0.3612768 -0.021370191 0.40387434 0.28682142 0.020845512 0.25520608 0.26698378 0.34189713
0.03209536 0.080204144 0.031948254 -0.14035532 0.1459666 -0.2950753 -0.16769938 0.4209526
-0.087702364 0.119745225 0.32968065 0.17222622 -0.2081547 -0.36082286 0.23646037 -0.36317664

bias f4 [128]
00000000: e085 a73e 7e5b 1bbe 1b2d 9abd 8b7b 32be
00000010: f1ea f93d f3f0 3bbd 0ad9 22be e01a 10bd
00000020: 003c e63c 22a1 ab3e d532 b2be d4a0 7c3d
00000030: 0193 963e 62b3 a1be f612 4fbe db33 42bd
00000040: 074a c33d ee11 593d e1e4 90be 2428 8d3e
00000050: fc0b d0bd 5b87 123e 043d 43be 3ec6 ad3e
00000060: 2329 d6bd 4903 28bd 2f50 36be cd52 36bd
00000070: b6cb b53e 5031 6b3e fb0e f33d c559 a9bd
00000080: 23d4 8c3c d398 8bbe da15 e4bd 0619 7e3e
00000090: 01a0 36bc f18c a23e e557 7e3e 646f 6ebe
000000a0: a4f3 3a3e 70ad a83d ecb9 71be ccce 323e
000000b0: 0bfb fc3d 5ccf a63e 8e65 b33e 1d9d 043e
000000c0: 3d2e d0bc 1f7d 8b3d 43fc b73d b94f a13e
000000d0: 1ee1 96bd acd4 10be 859c bdbd d669 5fbe
000000e0: b515 8abe 0098 97be 2b81 8abe 6351 adbe
000000f0: adfe ba3d e586 e23d 8619 08bd e75b 9e3e
00000100: 635e 99be 4c65 f0bd faf7 713e 5fb2 883e
00000110: a456 b9bd 27a7 183e 1019 71be bf51 aebe
00000120: ae42 95be bb9f ba3e 166d 55bc 012f 8bbe
00000130: d02b 80bd 5ea8 b23b 851d b83d cb2e fd3d
00000140: c833 9b3e f686 6d3e f762 38be c2aa 303d
00000150: c86f cb3d 28ad a63e dfda 6abe b338 8cbe
00000160: 6520 24be 7f09 a93e 682f 85bd 7e1f cb3c
00000170: 19bb e7bd 225e 4dbe af04 093e bb49 e03d
00000180: c344 84be fe65 65be ca5f 253e b644 25be
00000190: 6add 833e ddc2 503e 7d88 acbe 7116 7cbe
000001a0: 8629 763e 8176 e4bd 359d 4cbe d027 b43c
000001b0: e630 90be 3afe 333d c511 253e ed63 57be
000001c0: a888 bd3e d4c5 533d 74c4 023d 3da8 b8bc
000001d0: c0ab 203e 15d4 45bd d637 a8bd 1db1 16be
000001e0: 67b9 8b3c a95c 883d c733 8cbe 802a 3cbe
000001f0: 44c5 91bd a523 283d 2b73 efbd 2789 81bd
0.32719326 -0.1517162 -0.075281344 -0.1742994 0.12203015 -0.045884084 -0.15903106 -0.03518188
0.028104782 0.33521372 -0.34804407 0.061676815 0.2940903 -0.3158217 -0.20222077 -0.047412734
0.09535604 0.052995615 -0.2829962 0.27569687 -0.10158536 0.14309447 -0.19066244 0.3394031
-0.10457065 -0.041018758 -0.17804025 -0.04451256 0.35506982 0.2296803 0.11868092 -0.08269075
0.017190998 -0.27265033 -0.1113698 0.24814233 -0.011146546 0.31748155 0.24838217 -0.2328468
0.18257004 0.082362056 -0.2360608 0.17461699 0.1235257 0.32580078 0.35038418 0.12950559
-0.025412673 0.06810974 0.08983662 0.31506136 -0.073671564 -0.14143628 -0.09258369 -0.21817717
-0.26969686 -0.29608154 -0.27051672 -0.33851156 0.09130607 0.11060885 -0.033227466 0.3092949
-0.29954824 -0.11738071 0.23629752 0.26698586 -0.090497285 0.14907514 -0.23544717 -0.34046742
-0.29152435 0.3644999 -0.013026496 -0.271843 -0.062583566 0.0054522 0.089900054 0.12362441
0.30312943 0.23196015 -0.18006502 0.043131597 0.0993343 0.32553983 -0.22935055 -0.27387008
-0.16027983 0.33015057 -0.06503183 0.02479529 -0.11314983 -0.2005544 0.13380693 0.10951563
-0.2583371 -0.22402188 0.16149822 -0.16139492 0.25754863 0.20386834 -0.33697882 -0.24617936
0.24039277 -0.11155415 -0.19981845 0.02199164 -0.28162307 0.04394362 0.1612006 -0.21034212
0.37018323 0.051702335 0.031925634 -0.02254116 0.15690517 -0.04829796 -0.08213775 -0.14716001
0.01705618 0.066582985 -0.27383253 -0.18375587 -0.071177036 0.04104962 -0.116918884 -0.06324988

weight f4 [128, 128]
00000000: fc45 7e3d 28e6 6b3d 9082 08be 7588 673d
00000010: 290a 83bc a31b ca3c c53a 563c 1065 e03a
00000020: 12d3 58bd 9078 d23c 40ea cbbd 157d 68bd
00000030: eed5 0abc be1c ad3c 64ee 703d bd1f 2d3d
00000040: a74a 40bc 1548 293d 4e90 b1bd 60bd c1bd
00000050: 16d6 bdbc c4f1 aeba d717 4e3d 11ea 913d
00000060: 92de c7bd c419 62bc 4b5b 3e3c d08b bdbd
00000070: df5d e63c cd6e 7e3d b116 4c3d 3f5a 313d
00000080: a6e0 c2bc 8e9c eabc f162 50bd 1cc3 e8bc
00000090: e0a0 623d 9741 d1bb a0b0 063b eeb3 02bd
000000a0: 1cb5 00be c431 2e3d 01cd 0cbc bd49 c5bd
000000b0: 60fa e2bd 1e54 82bd 4f6b ca3c 0e9e 1dbd
000000c0: b276 b6bd 3c22 35bd 24df eabc 2bf1 d2bb
000000d0: 1d62 f23d fd18 613c 5c7c e73d 3757 10bd
000000e0: fe9a 9cbd b45f 62bb 680c 003e 400f cebd
000000f0: 0dbe b63c 0a83 54bd fa79 07bd ef55 2bbc
00000100: 4aef 213c 6ebd 84bc dbde a5bd c3e1 4d3c
00000110: e44b 353d 7a00 2e3c fc6a 06be 654a 7f3d
00000120: f9b5 f93c 270e a93d fc5e b4bd 995e 253d
00000130: cf9d 7dbd a8b7 6e3c b5ed 783d 9dac fdbd
00000140: 59ef e53b 1623 3dbd b00b ccbd 00a2 403b
00000150: b5b0 f4bc f615 203d e08f aa3d a11c 7a3d
00000160: 98c5 a5bc b4ec 94bd 3f85 d0bb 990e 5d3d
00000170: 9c17 293d 051c a83b 3832 a9bd 8cc9 573b
00000180: 6908 7a3c 9b4c c2bd c576 cdbd 5c95 ff3c
00000190: 7e53 053d 6c42 83ba 63b0 4c3d d7b2 c53d
000001a0: 0fcd 10ba b056 ae3a 29ac c43d 14ea 2dbc
000001b0: f5c4 5cba 5c96 b93c dfde b63d 0fa5 9c3c
000001c0: 0872 523d af2c ad3d 8e97 c9bd acc9 a33d
000001d0: 7537 3c3d 214a b33a 6081 07be 73b8 1fbd
000001e0: 2c01 63bb 2fa8 983c 5a79 663d 5696 b8bc
000001f0: 3bc8 69bd 5054 3ebd 6757 d6bd 4828 0b3d
00000200: 82bb f93d 2ff2 e73d 0237 e9bc 493f 9dbd
00000210: 7484 88bc 0fc1 28ba a857 00bc c5de 7d3d
00000220: 5b2a 173b b733 5a3c 87fa 013d 171a 1d3e
00000230: 0aab dbbb cdbb c23c fd90 223e 8fa5 fe3d
00000240: 7644 f63d 023a bdbc 9433 283d c09c 8dbd
00000250: 58c3 8e3c 65dc c13c b4dd be3a c68f db3d
00000260: 98b1 98bd 96f8 96bb e355 76bd 58ec d03d
00000270: 8bbb d93d 8c12 903d 2430 813d ee8e 3b3d
00000280: dbe4 4f3d 0a79 6f3d b376 ff3b 3e79 bdbb
00000290: e090 ff3d 2fb0 153d f2fc c13d b294 8f3c
000002a0: bba8 a83d c88d 8ebd a037 0abe 71c5 ec3c
000002b0: b66b d1bd d24c 993d 3768 473d 5932 66bd
000002c0: a3b2 95bd b8f9 43bd 09a7 d83c bc9a 8abc
000002d0: db9e 693d ce73 e03d b9ef 093d eabb a5bc
000002e0: 7301 903d bda4 8f3c 4a67 45ba bce0 8ebd
000002f0: d259 d1bd 1a37 23bb 95bf c13c 5f05 0e3e
00000300: fbf4 0cbe 2ff8 863d 627c d93d d7d2 f3bd
00000310: 3efe e23d b3d8 093e 6c87 6ebc d057 e1bd
00000320: bfee 8f3d 9842 9d3d 6573 843d 4488 883d
00000330: 4d9b 71bd 7dcf a4bd ed87 f73d 0d2f 6e3d
00000340: 8a1f 873d 7e1a 0b3c 5f8f 1d3c 20de 5ebd
00000350: 4047 4c3d 9cbe 2f3d d677 863c f44a 09bd
00000360: 8487 fa3d 1f77 7c3c 2bd5 703d 0dca 8fbb
00000370: 3d50 3a3d c532 f7bc 1a86 a63d e3f1 a83c
00000380: fdd5 b9bc f8f2 95bd b3d6 d3bd 588b 0c3c
00000390: 7a4c 573d c5cb d53d 4692 fcbd ced2 123d
000003a0: 9218 973d c2ff 123d 680f 0e3e 59ae 5f3b
000003b0: c589 40bd 94a1 0fbd 1422 753d f256 9b3d
000003c0: 612d b0bd b6aa 4e3d 7008 0e3d a5a0 b73d
000003d0: 2cbb 33bd 3ec1 c5bd 3c40 843d 2507 253c
000003e0: f324 143e 844c 803d 4a2e e0bd 0fe2 0e3e
000003f0: a318 48bd 0a1a 66bd 5cdf cdbb ab15 d13d
0.06207846 0.05759254 -0.13331056 0.05652662 -0.015996056 0.024671381 0.013075535 0.0017119963
-0.052935667 0.025692254 -0.09956789 -0.056759913 -0.008473856 0.02113187 0.058821097 0.042266596
-0.0117365485 0.04132851 -0.08670102 -0.094599485 -0.023173373 -0.0013347198 0.050315704 0.07124723
-0.09759249 -0.013800088 0.011618446 -0.09255183 0.028120933 0.062117387 0.049826328 0.043298956
-0.023788761 -0.028639104 -0.050875608 -0.028413348 0.055329204 -0.0063859927 0.0020552054 -0.031909876
-0.12569088 0.04252793 -0.008593799 -0.09633205 -0.110829115 -0.063637 0.024709372 -0.03848081
-0.08909358 -0.0442221 -0.028670855 -0.006437441 0.1183512 0.013738868 0.113030165 -0.035239425
-0.0764675 -0.0034541907 0.12504733 -0.100615025 0.02230742 -0.05188278 -0.03307531 -0.0104575
0.009883711 -0.016203608 -0.08099147 0.012566033 0.044261828 0.010620231 -0.13126749 0.062326808
0.03048228 0.082546525 -0.08807179 0.04037342 -0.061918076 0.014570154 0.06077357 -0.12386439
0.007017058 -0.04617604 -0.09963167 0.0029393435 -0.029869417 0.039083444 0.08328223 0.06106246
-0.020235822 -0.0727171 -0.0063635404 0.053969 0.04128228 0.0051302933 -0.082615316 0.0032926528
0.015260794 -0.094872676 -0.10032419 0.03119915 0.032550327 -0.0010014302 0.049972903 0.096532516
-0.000552372 0.0013300981 0.096031494 -0.010614891 -0.0008421683 0.022654705 0.08929228 0.019121675
0.05137828 0.08455788 -0.0984336 0.0799745 0.045951325 0.0013678708 -0.13232946 -0.038994264
-0.003463815 0.018634884 0.056268074 -0.022532623 -0.05707572 -0.046467125 -0.104658894 0.033973962
0.121939674 0.1132549 -0.028468613 -0.07678086 -0.016664721 -0.00064374594 -0.007833399 0.061980028
0.0023066017 0.013317994 0.031733062 0.15341984 -0.006703739 0.023771191 0.15875621 0.124339215
0.12024777 -0.02309895 0.041064814 -0.06914663 0.017427132 0.023664663 0.0014561922 0.10720782
-0.07455748 -0.0046072705 -0.0601405 0.10201329 0.10631474 0.070347875 0.0630801 0.045790605
0.050755363 0.05846504 0.0077961325 -0.0057822755 0.124788046 0.036544975 0.094720736 0.017526958
0.08235308 -0.069606364 -0.13497782 0.028902741 -0.10225622 0.074853554 0.04868337 -0.05620036
-0.07309463 -0.047845572 0.026446836 -0.016919486 0.057036262 0.10959588 0.033675883 -0.020231206
0.070315264 0.017534608 -0.0007530345 -0.069764584 -0.1022221 -0.002490467 0.023650924 0.13869236
-0.13765328 0.06590306 0.10619427 -0.11905449 0.11083649 0.1346157 -0.014558654 -0.11003077
0.07027959 0.076787174 0.06467322 0.066666156 -0.058985997 -0.08047388 0.12086473 0.05815034
0.065978125 0.008490203 0.009616702 -0.054411054 0.049872637 0.04290639 0.016414564 -0.033518746
0.12232879 0.01540926 0.058797043 -0.0043881 0.045486677 -0.030175576 0.081310466 0.020623153
-0.022685045 -0.07321733 -0.10343685 0.008578144 0.052563168 0.104392566 -0.12332587 0.03584557
0.07377733 0.03588844 0.13873065 0.003413102 -0.047006387 -0.035066202 0.059846953 0.07584943
-0.08602405 0.05045577 0.034676015 0.089661874 -0.043879673 -0.09655999 0.06457564 0.010072504
0.1446722 0.06264594 -0.10946329 0.13953422 -0.04885162 -0.056177177 -0.00628273 0.10209211

bias f4 [128]
00000000: 0fc4 013d d0c1 2e3d f191 84bd d1d7 3b3d
00000010: a197 7c3d da85 19bd 87be 823d 35c1 0d3d
00000020: a46f 863d 7c44 143d 4eb0 e43c 2a37 51bb
00000030: 98be f6bc de95 243d 6928 5fbd 625a 3839
00000040: 6dae 533d da67 b63c 79a3 023e f530 923d
00000050: 9642 e8bc e889 eb3c cd16 7abd 42c6 073d
00000060: 09d8 17bd 670b 0abe 0901 b33d 6b11 1b3d
00000070: cb27 05be 8cbc ec3b 6e55 373d 10a9 0bbd
00000080: e5a8 de3d cbf9 e43c f6a9 dd3d a633 aabb
00000090: d449 0ebd 37c6 cabd 908d 7c3b 2323 313c
000000a0: 810a 823c d737 033e 1471 d33c 665c e43d
000000b0: 7b86 20bd 6ab3 123d 5c4a fcbc 72e6 8a3d
000000c0: 66fd c93c 9d31 103d 5e7e b03c 1cca bfbd
000000d0: d668 943d 648a f9bc 2748 9dbd 20ff 623d
000000e0: 6264 91bd 56dc 29bd 4604 823d 40b3 983d
000000f0: 3f32 b33c bc5f 01be b9ad f9bc 4252 07bd
00000100: e06e 56bd 464c 6cbd d600 a0bd 8418 503d
00000110: 3bd6 69bd c8a4 b13b 1dca cdbc 36d7 703b
00000120: abd4 133b 7628 36bc 8adc aa3d e633 613d
00000130: 0ce2 95bd c96d 623d 719c b1bd 7555 0fbd
00000140: ed67 133d e172 b6bc c28e ec3d 8cfa 8abd
00000150: c6aa 71bc a5f7 6bbd a5c8 38bd 22ef ddbb
00000160: d4b5 9e3c 3104 c3bc d561 283c 2fcb efbc
00000170: ff22 d8bc 247d d6bc 8f96 993d 9c57 20bd
00000180: 8245 c3bd b7e9 1cbd 8790 57bc 8d46 4cbd
00000190: 33cc 4f3c ffc9 4a3c b440 4bbd b83d 833d
000001a0: f52f 8b3c 16ae 88bd 5897 03bd 3bfd 473c
000001b0: fea1 bebc 96a5 9d3d 05ab a5bc 4641 4c3c
000001c0: 4719 c83c 15f7 673d 8ae7 14bc 2829 373d
000001d0: 9a94 853d ed65 8abd 0f82 b2bb 380e 833d
000001e0: 8b6e a63d 031d 66bd 6c8d 50bc 81e5 43bd
000001f0: 5f6b 9dbd 6c1e 55bd a72c babd c2dc 983c
0.031681117 0.042665303 -0.064731486 0.045860115 0.061668042 -0.037481166 0.063839965 0.034608085
0.065642625 0.036198124 0.0279161 -0.003192375 -0.030120179 0.040181987 -0.054481898 0.00017581278
0.051680017 0.022266317 0.12757672 0.07138244 -0.028352063 0.028752282 -0.0610569 0.033148058
-0.03707126 -0.13480912 0.08740432 0.037858408 -0.13003461 0.007224625 0.044759206 -0.034096777
0.10872058 0.027951142 0.10823433 -0.0051941453 -0.034738377 -0.09901088 0.0038536526 0.0108116
0.01587415 0.1281427 0.025810756 0.11150436 -0.03919075 0.035815634 -0.030797176 0.06782235
0.024656963 0.035203565 0.021544632 -0.09364721 0.07246558 -0.030461498 -0.076797776 0.055419087
-0.070992246 -0.041469894 0.06348471 0.07456064 0.021874545 -0.12634176 -0.030478345 -0.03303743
-0.052351832 -0.057689928 -0.078126594 0.05080463 -0.05708907 0.005421255 -0.02512079 0.003674937
0.002255718 -0.011118045 0.08342846 0.054981135 -0.07318506 0.05528048 -0.08672417 -0.034993608
0.035987783 -0.022271575 0.115506664 -0.06786069 -0.014750188 -0.05760922 -0.045113225 -0.0067728916
0.019373812 -0.02380571 0.010277231 -0.02927169 -0.026383875 -0.026182719 0.0749942 -0.03914605
-0.09534742 -0.038308825 -0.013157017 -0.04987197 0.012682962 0.012377261 -0.049622253 0.06408256
0.016990641 -0.06673829 -0.032126755 0.012206371 -0.023270603 0.07697599 -0.02022315 0.012466734
0.024426116 0.05663212 -0.009088406 0.044716984 0.06522484 -0.06757722 -0.005447633 0.063991964
0.08126553 -0.05618001 -0.01272903 -0.047826294 -0.07686495 -0.052030966 -0.09090548 0.018659953

weight f4 [8, 128]
00000000: 75ca 8b3d 1010 f13d bb7e fdbd 0403 a03d
00000010: 58c6 213d 4bee 4a3d cdf3 c03d 993c de3d
00000020: 2d36 f4bc 46fd 053d 4636 e3bd 3a0e df3c
00000030: 2714 c7bc 2aeb 123d 4879 67bb fbd9 bebd
00000040: 6081 85bc 95fe 673d 335d ee3d 67c9 c93d
00000050: eea7 b43b d550 593d d947 ca3c 806d 9bbc
00000060: de97 693d 8870 25bc 23bb 05be 8a74 933d
00000070: 165b 39bd edf2 fb3c 782a b83d 4f0c a3bc
00000080: 9987 ff3b a2cc b3bd c2f0 aebd 56fa 5bbc
00000090: 3025 69bb c4d1 1d3b 682c 48bc 19d5 d2bc
000000a0: 2f8f a23c 5442 1fbe 3701 19bd b077 0c3d
000000b0: dbe5 3abb fe41 00bd be38 3cbd a75f 1dbd
000000c0: f232 053d a60f 7dbb ce5e 143c ef3f 8e3d
000000d0: 1ece 8f3d 5fe2 bebd eff4 a7bc 2fd4 61bd
000000e0: dd38 07be e7fd ba3d ef06 07be 4929 04be
000000f0: 54d1 c139 ab4a a7bd e5ca eebd 709a 48bc
00000100: faff 153d ae92 6e3d 5b4f 283d 906a bcbd
00000110: d32f b83d 4f80 a53d ec18 cdbd 9696 f0bc
00000120: fd79 e9bd 5e06 013e 09ea 9f3a 7908 d6bc
00000130: 33e5 ca3d 3a0a 843b 9df2 393d ebef 0a3e
00000140: 1b1d 023e 765e 1a3d e51d f8bd 3881 b73c
00000150: 2044 7abd ae65 92bd 0343 1fbd 79c5 33bd
00000160: b32f aa3d 0da4 4ebc 2976 bebd 639f dc3d
00000170: 208e 053d 6e21 6bbd 4e6e 2bbd 6165 8dbd
00000180: ec80 0c3c bdf9 91bd 5cf7 aebd 2098 ef3d
00000190: 18d5 02be 54bf 713d 142f 20bd 8200 543d
000001a0: b922 f5bc 83dc 6e3d cb5c 023e 0d05 a13d
000001b0: b70b b1bc 8d4f 88bd 7a49 b83d 17a7 413d
000001c0: 8059 9ebd 95ba 30bc f652 a33d e9a2 89bd
000001d0: bbc1 3abd b7ff f8bd 3954 ed3d 3bbb a5bd
000001e0: 3a47 503c 0f9d 3c3d 793b b83b 9337 983c
000001f0: e5bd d73c a8a3 b0bc c8c0 a03d e367 20bd
00000200: 7021 8b3a 4ab3 02bd 934d cbbd deb0 e43d
00000210: 2826 8f38 be21 95bd b483 f9bc b07f c7bd
00000220: d095 2dbc bfed a13d 984b 18bc 691f 163d
00000230: 3680 8c3d cf7b 3f3c 5f91 2dbd 29b8 1dbd
00000240: a103 fcbd 7810 683d 8090 8abd 5b36 cf3d
00000250: f0e6 ac3d 59ae edbd 8ab3 093d 95db 09bd
00000260: acaf 5c3d c9ac 26bd 649b 723d be1e 69bd
00000270: 52b4 a3bd 2645 db3d 87c6 083c e610 8bbd
00000280: 6933 a43c fdcb a13c d87d 3b3c b00b 08bc
00000290: 130f b7bd d808 563c ab8e 503d c568 033e
000002a0: 8b15 7c3d bb6d b03d b5f8 633d a1f8 8ebd
000002b0: c52b 09bd c194 46bd 9d70 bc3c 5322 89bd
000002c0: b970 a2bc b3e1 3abd 34d2 b7bd 1611 e1bc
000002d0: 47e3 be3d fa25 713c c2dc 673d ce9f 323d
000002e0: 511a 4e3d c412 9dbc df64 a43d aa16 823d
000002f0: b70f 10bd 5846 dcba b3b2 d63c d30b 11bd
00000300: 636d 06bd eeb2 c43c 9c23 693d af09 ac3d
00000310: b078 0d3e c13e 59bd f73c bdbd d41f 663d
00000320: 87b2 91bc 57c2 0bbd c308 e8bc 27d6 373e
00000330: bdc4 123d 292f e5bc 0e51 923d e427 d7bd
00000340: 9060 623c 9ca3 1dbd 5825 113e b4bb 48bd
00000350: 98e3 febd fc8d 5bbc f510 153d a399 483d
00000360: 6910 473d 878a 39bc 4bb3 673d b221 b2bc
00000370: 317f af3d 30dc 383d 158b 783d ab59 883d
00000380: 5152 80bc 6eba c1bd 25c2 84bd 499c 813d
00000390: cb39 f73d f196 1dbc 046e 37bd 738e 26bd
000003a0: 2b53 453d 7e26 493d c759 b8bd 3f19 4e3d
000003b0: 205c 07bc edf8 b93c 0376 c93c a75e ba3d
000003c0: 381a f2bc 7df0 13be d26b 93bd e262 b03c
000003d0: 59d2 b33d f958 cabc a423 66bb 360a 45bb
000003e0: f60a b6bd 8996 ae3d c719 09bd c9a7 923b
000003f0: 5c2a 47bd ae24 c13c 5f6a a13c 5a57 d3bc
0.06825725 0.11770642 -0.123776875 0.07813075 0.039495796 0.04954366 0.09421501 0.10851402
-0.02981099 0.032712243 -0.11094336 0.027228463 -0.024301602 0.0358688 -0.0035320092 -0.0931892
-0.016297042 0.056639273 0.1163887 0.098528676 0.005513183 0.053055603 0.024692463 -0.018973112
0.057029597 -0.01009763 -0.13059668 0.071999624 -0.045252882 0.030755484 0.08992475 -0.01990333
0.007798147 -0.08779265 -0.08542015 -0.013426384 -0.0035575144 0.002408133 -0.0122176185 -0.025736379
0.019843666 -0.15552646 -0.037354674 0.03429383 -0.0028518352 -0.031312935 -0.04595255 -0.0384213
0.03251929 -0.0038614064 0.009055806 0.06945788 0.070217356 -0.093205206 -0.020502536 -0.055133995
-0.13205285 0.09130459 -0.13186239 -0.12906374 0.0003696779 -0.08168539 -0.11659793 -0.012243852
0.03662107 0.058245353 0.041091304 -0.09200013 0.08993497 0.080811135 -0.10014519 -0.02936868
-0.114002205 0.12600085 0.0012200485 -0.026127087 0.099069975 0.0040295394 0.04539739 0.13568084
0.12706415 0.03768774 -0.12115077 0.022400483 -0.061100125 -0.071483 -0.038882267 -0.043889496
0.08309879 -0.012612355 -0.09299881 0.10772588 0.032606244 -0.057404928 -0.04185324 -0.06904102
0.008575659 -0.07127712 -0.08543274 0.116989374 -0.12776601 0.059020355 -0.039107397 0.051758297
-0.029923784 0.058315765 0.1273071 0.078622915 -0.021612031 -0.06655798 0.089983895 0.04727849
-0.077319145 -0.010786672 0.07974808 -0.06720526 -0.045594912 -0.12158149 0.1158833 -0.08092352
0.012712294 0.04604822 0.005622324 0.018581187 0.026335666 -0.021562412 0.0784927 -0.039161574
0.0010614824 -0.031909265 -0.099269055 0.11166547 6.8258785e-05 -0.072818264 -0.030458309 -0.09741151
-0.0105948 0.079066746 -0.009295367 0.03665105 0.06860392 0.011687233 -0.042374965 -0.038505707
-0.1230538 0.05665633 -0.067658424 0.10117789 0.08442485 -0.1160552 0.033618487 -0.033656675
0.05387847 -0.040692125 0.059230223 -0.056914084 -0.07993378 0.107065484 0.008348114 -0.067903325
0.020044046 0.01975059 0.011443578 -0.008303568 -0.08938422 0.013063632 0.05091731 0.12832935
0.061543982 0.086146794 0.055657107 -0.06981016 -0.033489008 -0.048481707 0.023002917 -0.06696
-0.019829141 -0.0456254 -0.0897564 -0.027473968 0.093206935 0.014718527 0.056607015 0.043609433
0.050318066 -0.019173987 0.08027052 0.06351979 -0.035171237 -0.0016805632 0.026208257 -0.035411667
-0.032819163 0.024011102 0.056918725 0.084002845 0.1381557 -0.053038362 -0.09240144 0.056182697
-0.017785324 -0.034120884 -0.02832449 0.17952786 0.035832155 -0.02797659 0.07144366 -0.105056554
0.013816968 -0.03848611 0.14174402 -0.049007133 -0.12445754 -0.013400551 0.036393125 0.048974644
0.048599634 -0.011324531 0.05656747 -0.021744583 0.08569182 0.045131862 0.060679514 0.06657728
-0.015664252 -0.09459387 -0.06482343 0.06328637 0.1207157 -0.009618507 -0.044782653 -0.040663194
0.04817502 0.049108975 -0.09001499 0.050317045 -0.00826171 0.022701705 0.024592405 0.09100085
-0.029553518 -0.14447208 -0.071982995 0.021531526 0.08780355 -0.024700629 -0.0035116458 -0.00300659
-0.088888094 0.08524806 -0.03347185 0.004475568 -0.04862438 0.02357706 0.019704042 -0.025798488

bias f4 [8]
00000000: ca5c 3b3c c5a8 3bbd 7742 74bd 3d46 1d3d
00000010: 29e2 10bb 0a2d 1fbd 3d3c 6fbd 350f 2ebc
0.011435697 -0.045815248 -0.0596337 0.038397063 -0.0022107458 -0.038861312 -0.058407057 -0.010623743
