results/transformations/mapping_files/VAE/FMNIST_VAE_8_3>FMNIST_VAE_8_1>NeuralNetwork_50_0.5_nodropout_16_equally.pth (torch, 8200 bytes, 6 tensors)

weight f4 [16, 8]
000000 69 5a 17 3c 2e e8 62 39 f4 79 e9 ba 9c 8d 01 bd
       0.009237864 0.00021639533 -0.0017812834 -0.03162919
000010 14 2e 4a b9 37 c1 8a 3d 6d 26 1f 3c 78 f5 d2 3d
       -0.00019281387 0.06775134 0.009713751 0.10300726
000020 c4 5c 88 bb 05 62 e2 bc 12 bf d7 ba 1b e6 0b bc
       -0.004161449 -0.02763463 -0.0016460142 -0.008538748
000030 4d ec 62 bd 02 ed 20 3d 45 da 02 3e 8c a0 32 3d
       -0.055401135 0.03928853 0.12778576 0.04361014
000040 4e 45 dc b9 72 61 23 3b 9e a1 55 3d 9f 65 b1 ba
       -0.00042013306 0.0024929908 0.052156083 -0.0013534314
000050 04 b0 82 bb 25 41 af 3c 9d b2 a1 bb bb b8 0d bb
       -0.003988268 0.021393368 -0.0049346224 -0.0021625
000060 f5 8e f0 b9 38 7f 1e bc dc f8 30 bd bc f5 ce 39
       -0.00045882878 -0.009673886 -0.04320608 0.00039474468
000070 ef 6d cf 39 8e 17 b3 bb ba 65 9c 3c d1 d6 77 bd
       0.00039564024 -0.0054654544 0.019091476 -0.0605076
000080 0b 6e 76 bc 57 ff 87 3d a0 4d 68 37 97 27 f6 3a
       -0.015040885 0.06640499 1.3846351e-05 0.0018780109
000090 9b 09 b0 3a a2 55 cd 3d f2 2c 5e b9 2c d4 dc b8
       0.0013430597 0.10026099 -0.00021188313 -0.000105299376
0000a0 d3 7e 8f bc a9 1d 04 bd 29 90 3e bd bb 8e a7 3a
       -0.01751653 -0.03225485 -0.0465242 0.0012783626
0000b0 ee ca 30 bc f1 90 ff 3d af 8a 67 3b 73 10 6e 3b
       -0.01079057 0.12478817 0.0035330465 0.0036325722
0000c0 39 42 c3 bd dd 3d cf bb 49 61 c3 bc cc 29 c2 b8
       -0.09534115 -0.0063245133 -0.0238501 -9.258426e-05
0000d0 a8 d1 d9 bc ea 13 3c 3c 9e 7a a0 3b d4 80 91 3b
       -0.02658923 0.011479357 0.0048974296 0.0044404063
0000e0 e0 05 28 bb 8a 43 3d 3d 58 cb d7 3c 4a f3 03 be
       -0.0025638267 0.04620699 0.026342079 -0.12885776
0000f0 3f fe 38 3c f6 43 ad 3c fd 0e 4f 3c 65 e6 af bc
       0.011291086 0.02115057 0.012637851 -0.021472165
000100 c2 61 1c 3a 85 3c 6f 3c ee b7 10 ba 91 f1 0d bb
       0.0005965495 0.014601831 -0.0005520572 -0.0021658877
000110 0b 51 2f 3d 02 b5 d1 3d 22 9f f1 3d 4d e0 24 3b
       0.042801898 0.102396026 0.1179793 0.0025158108
000120 9e 78 fe b8 08 75 70 ba 8b 7a 9f bc 4b 94 26 3a
       -0.000121341305 -0.00091727125 -0.019467613 0.0006354495
000130 1e 81 06 3c 93 e7 af bd 0b 91 95 bb 5c 02 60 bd
       0.008209495 -0.08589091 -0.0045644096 -0.05468975
000140 5a 4d 00 3e c3 2f e7 bd d6 c7 62 3a 8f c5 c4 ba
       0.12529507 -0.11288407 0.00086509937 -0.001501249
000150 9d fd dd bd 17 62 b3 3b 4b b1 52 bc 19 6b c6 3d
       -0.108393885 0.0054743397 -0.012859653 0.09688396
000160 bc 49 66 3b e4 51 d6 bd 59 b4 70 ba 31 fb ed ba
       0.0035139164 -0.10464838 -0.00091821473 -0.0018156526
000170 3b dc 18 bd 48 9c 2c bd 36 46 33 39 d2 da 77 bd
       -0.037319403 -0.04214123 0.00017096926 -0.060511418
000180 f2 47 a3 3b 5f 3a bb 3c 1c cb 1d 39 7c 83 31 bd
       0.004982942 0.022854982 0.00015048351 -0.043338284
000190 28 1c f0 3d 80 95 d8 3a 15 30 90 bb 5c 6c 04 39
       0.117241204 0.0016524047 -0.004400263 0.00012628868
0001a0 4b e8 d0 3a 2c 3a f1 ba 07 5a 4d 3c 87 0a c3 bd
       0.0015938369 -0.0018404177 0.012533671 -0.09523492
0001b0 a4 95 7c 3d 22 06 b9 3b bc 71 81 b9 11 a2 6c bc
       0.061666146 0.005646483 -0.00024689536 -0.0144429365
0001c0 c0 00 8c b6 35 40 96 bd 16 e0 b7 b9 a6 dc 9c 3d
       -4.1724124e-06 -0.07336465 -0.00035071437 0.07659273
0001d0 34 23 cf bd 81 7a 9f bd 23 a4 be bb de 3e 13 ba
       -0.10114136 -0.07787038 -0.0058179065 -0.0005616973
0001e0 4b ce 08 3b 2e 09 23 bc b7 25 97 3d 1c a8 9a bb
       0.0020874913 -0.009950919 0.073802404 -0.004719747
0001f0 d5 56 37 3b 55 1d 4e 3d fe 9f 7b 3a 09 ec 40 ba
       0.002797534 0.050320942 0.0009598731 -0.0007359391

bias f4 [16]
000000 72 59 51 3c 81 c2 f5 3c a0 d8 9b 3c 63 03 61 b9
       0.012777673 0.029999973 0.019024193 -0.00021458934
000010 31 ca 81 3d 07 83 b6 ba 0f db ed 3d da 1b 82 ba
       0.06337393 -0.0013924547 0.11614048 -0.0009926513
000020 37 23 ca 3d a1 1d f9 b9 d3 52 87 bc 23 69 58 bb
       0.09869998 -0.00047515056 -0.016518986 -0.003302165
000030 ec 76 ca 3d 7c 59 d5 39 ea 59 a7 3b 3a bd 21 3a
       0.09885964 0.00040693197 0.005107154 0.00061698596

weight f4 [16, 16]
000000 1d de d8 3a d0 ef 67 b9 ac b7 38 bb 72 1f 9d 3b
       0.0016545687 -0.00022119214 -0.002818565 0.0047950083
000010 f6 96 80 bc 0f c3 4f bc 01 c9 11 bb 08 e3 02 38
       -0.015696984 -0.012680783 -0.0022245052 3.1205855e-05
000020 37 4c 39 3b 91 41 30 3c ad 00 22 bc a7 22 8a bb
       0.0028274187 0.01075782 -0.009887856 -0.0042155567
000030 33 2a c5 b9 0d ca ff 3a 4f 08 10 3a c6 ce b5 bb
       -0.0003760621 0.0019515172 0.0005494402 -0.005548331
000040 ee d9 17 bb 03 a0 0a 3d 0b 59 36 3d 4b 8f e3 3a
       -0.0023170668 0.033844005 0.04451851 0.001736143
000050 4c 7c c7 3c 05 9a 2c bb 93 bc 92 bb 9f 08 40 3d
       0.024351262 -0.002633692 -0.004478046 0.04688322
000060 ed a8 3a 39 07 18 b0 3c 14 a7 02 ba e4 f1 bd 38
       0.00017801272 0.021495832 -0.0004984003 9.057278e-05
000070 4e c4 32 b9 fa dd 25 ba 20 c0 aa b9 7c 15 84 3b
       -0.00017048532 -0.00063273276 -0.0003256807 0.0040308814
000080 4a ec de 3b 8b 0f 49 bb 61 6d 23 3a a2 da 99 39
       0.00680307 -0.003067943 0.0006234255 0.00029345328
000090 ed 97 06 bd 79 d2 41 3b d0 19 69 bc e9 1b c2 bc
       -0.03285973 0.0029574914 -0.014227346 -0.02369495
0000a0 a8 6d 8e 3b 7c e1 80 bb 7e 41 01 38 a9 c3 99 3b
       0.004346568 -0.00393313 3.081699e-05 0.004692514
0000b0 f8 67 d7 38 1a 27 6d bb 17 86 3e bc c3 93 97 bb
       0.000102713646 -0.0036186636 -0.011628649 -0.004625769
0000c0 2a 66 d7 3b 2b f3 0c 3b d9 17 70 3b 40 f6 92 bb
       0.006573458 0.0021507244 0.0036635308 -0.0044849217
0000d0 1c 11 f6 38 22 10 a2 bb e9 4c 03 bd 16 86 92 3b
       0.00011733381 -0.004945771 -0.03205577 0.0044715507
0000e0 0b 69 49 bb 78 68 50 bc ec 95 6b b8 a2 b6 30 3b
       -0.0030732777 -0.01272022 -5.616799e-05 0.0026964326
0000f0 78 1f 17 3d 73 e6 83 3a f6 74 c9 38 e4 60 35 bb
       0.036895245 0.0010063186 9.6062126e-05 -0.002767616
000100 52 5c 6f bb a0 01 69 3a f7 50 7e 3b 00 d8 ba b5
       -0.0036523533 0.0008888487 0.0038805583 -1.3920944e-06
000110 9e d9 f2 3b d5 3e 67 3a da d0 1c bd 00 b0 41 3b
       0.007411196 0.00088213134 -0.038285114 0.0029554367
000120 b9 6f ee 39 5c cd 31 3c 56 3e 91 39 8f 0f 2f 3d
       0.00045478137 0.010852184 0.00027703 0.042739447
000130 a8 45 93 39 90 f1 40 bc 38 2b b5 3a 02 a0 33 bb
       0.00028089923 -0.011776343 0.0013822084 -0.0027408605
000140 82 6d b0 bc 63 06 a1 bb ec db 9d 38 ae ae 98 bb
       -0.021536592 -0.0049140914 7.527307e-05 -0.0046594953
000150 e4 6a 3a 37 e2 b4 58 bb cd 39 70 bc ee 70 36 39
       1.1111351e-05 -0.00330668 -0.014662218 0.00017398942
000160 b1 c2 37 38 84 d4 0f bb 60 d1 3a 3a 8c 36 ca 39
       4.381192e-05 -0.0021946738 0.0007126536 0.00038569083
000170 03 45 b3 b9 01 16 60 ba 24 44 5a bb 58 60 f8 b9
       -0.00034192958 -0.0008548201 -0.0033304775 -0.00047374028
000180 f4 45 1e bb d8 e6 37 bc 32 87 79 3a eb 59 1b bb
       -0.0024150582 -0.011224471 0.0009518742 -0.0023704718
000190 24 20 f4 3c 5b 25 ab bb e5 27 03 3b 12 8d ca 3b
       0.029800482 -0.005222959 0.0020012793 0.0061813677
0001a0 ca c6 9d ba f6 9c ad 3b 72 ab 62 ba 85 5c 9a b9
       -0.0012037393 0.005298252 -0.0008646763 -0.000294421
0001b0 52 55 8c bb b4 76 e3 bb dc 53 1b 39 74 19 2c 3b
       -0.004282632 -0.0069416407 0.00014813192 0.0026260288
0001c0 ca 6c 13 bc 65 59 14 bd 17 82 07 bd 45 a9 84 bb
       -0.008998105 -0.036218066 -0.033083048 -0.004048499
0001d0 42 41 45 bc 10 28 b5 bb c1 95 a7 3a 8f 30 5f bb
       -0.012039484 -0.0055284575 0.0012785719 -0.0034056043
0001e0 fd 42 a9 3b a8 bd d0 38 f6 00 8f bc 3a 71 47 b9
       0.0051654563 9.953539e-05 -0.017456513 -0.00019020299
0001f0 92 7c b2 ba 9a 55 22 b8 65 a6 8f 38 c2 9c af ba
       -0.0013617447 -3.8703532e-05 6.849765e-05 -0.0013398158
000200 27 e0 bb b9 1e b1 c7 bb d4 60 00 3d a2 df 57 3b
       -0.00035834426 -0.006094112 0.031342342 0.0032939692
000210 0c cc 3e b8 ea a6 33 bd 54 59 13 39 5f 82 d5 bc
       -4.5489563e-05 -0.043860354 0.0001405229 -0.026063142
000220 3b 3c 27 bb f9 af 1d bd a4 56 c6 ba ca 38 93 b9
       -0.0025518078 -0.0384979 -0.0015132022 -0.00028080336
000230 f6 8d ba b9 54 58 cd 3c 3d a9 46 ba 83 f2 94 3b
       -0.00035582454 0.025066532 -0.0007578319 0.004545511
000240 12 d7 02 bb b8 33 dd 3a 1a 11 29 3a c9 e4 26 3b
       -0.0019964618 0.0016876375 0.0006449387 0.0025465956
000250 5b fe c0 bc 1c 83 cd b9 f0 ba b5 39 02 49 da 3b
       -0.023558786 -0.0003919833 0.0003466229 0.0066615352
000260 e8 36 24 38 38 75 82 b9 1d 74 14 bb 43 03 72 3b
       3.9151782e-05 -0.00024882867 -0.0022652217 0.0036928214
000270 3e 1d 2a bb 72 7b ab 3b 45 04 88 3a 62 fd 0d 3c
       -0.002595737 0.0052332217 0.0010377249 0.008666368
000280 b5 38 2f bb 5c 15 da 3a b9 21 e2 b9 a5 11 19 3b
       -0.002673668 0.0016638446 -0.00043131204 0.0023356464
000290 2a 45 5b 3b 97 4d 08 b9 bb 04 b0 b9 86 cd a6 b9
       0.0033457973 -0.00012998875 -0.0003357286 -0.00031815114
0002a0 11 b6 1c bb ce 63 85 ba 8e d1 8a 3b 2a 43 34 3b
       -0.002391223 -0.0010176839 0.0042364066 0.0027505853
0002b0 78 3b 72 b8 52 93 fd b9 eb 14 76 bc c8 bf 04 3b
       -5.775268e-05 -0.00048365683 -0.015019636 0.0020255912
0002c0 59 23 2b bd 26 6b 16 39 ba 01 1b bb 56 3c ec ba
       -0.041781757 0.0001434503 -0.0023652152 -0.0018023353
0002d0 3a 74 36 ba 38 a9 02 bb 6e e3 87 3b 26 6d 24 bb
       -0.0006960068 -0.0019937288 0.004146985 -0.0025089472
0002e0 d8 fe 13 bb 13 8c a7 3b b3 14 72 bb 58 e3 6e bc
       -0.0022582319 0.0051131337 -0.0036938607 -0.01458057
0002f0 54 2c 26 3b d9 21 db 3b ee 6e 12 bc 74 74 b6 3a
       0.0025356011 0.0066873846 -0.0089375805 0.0013920204
000300 8e 04 f3 3a 5f 92 e8 bb 19 fd a1 b9 5e 6a dd bc
       0.0018540786 -0.007097527 -0.00030896885 -0.027028259
000310 a7 85 1f 3d 2d 24 40 3b 32 af 4d 3a 64 7b 31 bd
       0.03894582 0.0029318437 0.00078462355 -0.043330565
000320 0b 71 9a 3b 00 f2 b1 b5 60 38 33 3c f4 97 ca ba
       0.004713183 -1.3257959e-06 0.010938734 -0.0015456663
000330 70 f7 bb 3b 61 e2 4e bb fd e9 a2 ba e8 a6 17 ba
       0.005736284 -0.0031568038 -0.0012429353 -0.0005785064
000340 d9 1d 45 3c 13 a8 ce 3c 49 7f 1b bc 22 37 e3 b9
       0.012031042 0.025226628 -0.009490796 -0.0004333789
000350 fd 72 85 ba 4c 30 7c 3b d3 c4 14 3d 88 97 1e 3c
       -0.0010181364 0.0038480936 0.03632052 0.009679683
000360 04 7a 01 3b e8 e8 c0 38 d8 d4 b8 bb 3e 9e 45 ba
       0.0019756565 9.1986556e-05 -0.0056406073 -0.00075385335
000370 6e 19 09 ba d3 5b 08 bc 89 44 c1 3b a4 0c 8b b9
       -0.00052299246 -0.008322674 0.0058980626 -0.00026521564
000380 4f 5b 90 3b 8e 96 03 bc 5b 49 2d 3b f5 3e 0d bc
       0.004405416 -0.0080315005 0.0026441428 -0.008620967
000390 06 69 92 bc 14 46 7b 39 4b fa 27 3a 80 0f 8a 3a
       -0.017872345 0.00023963331 0.0006407841 0.0010533184
0003a0 e1 96 c8 bb 35 5b 5b 3a 66 f5 8f 3b 30 56 1b ba
       -0.006121502 0.0008367778 0.0043932674 -0.00059256237
0003b0 20 4f 9f 3a b5 52 d2 ba 4e 46 a2 b9 f1 a6 a3 3b
       0.0012154318 -0.0016046377 -0.0003095143 0.004994266
0003c0 38 49 f4 3a 84 b4 9d b9 4a 5e 14 3b d2 0a 89 3a
       0.0018637544 -0.00030079868 0.0022639208 0.0010455495
0003d0 4c 06 c0 39 18 f1 d0 bc cc 0b 9a 3a 0d a6 7b 3a
       0.00036625785 -0.025505587 0.0011752783 0.00095996336
0003e0 7c 08 89 bc 86 67 04 ba bf e4 72 3a 2c 2a 02 bb
       -0.016727678 -0.00050508266 0.0009265653 -0.0019861562
0003f0 a1 c4 87 b9 56 4d 11 3b 05 22 cf bb b2 6e 8e 3a
       -0.00025895706 0.002217134 -0.006321194 0.001086673

bias f4 [16]
000000 5d a4 ee 39 c7 13 b5 3a 00 98 73 bb 05 52 30 3b
       0.00045517358 0.0013815098 -0.0037169456 0.0026904356
000010 6c 3e bf bb 99 b7 d2 b9 c7 80 9c 3b 31 76 41 ba
       -0.0058362987 -0.00040191112 0.0047760936 -0.00073799776
000020 39 85 26 bb 0a ae 4e 3b 9c af 32 3b 09 19 51 3b
       -0.0025408997 0.003153684 0.0027265316 0.0031905791
000030 c0 10 a4 b9 f4 57 46 3d 5c 1c 3a ba 85 62 b9 38
       -0.00031292997 0.048423722 -0.0007099563 8.839838e-05

weight f4 [8, 16]
000000 cd b0 84 3b f5 80 99 b9 45 48 0b 3d 81 74 bf ba
       0.0040493966 -0.00029278515 0.03400447 -0.0014606864
000010 24 df 08 bc 85 5d 6b ba 9f 3c 48 3a 2f ca e9 ba
       -0.008353982 -0.0008978474 0.0007638428 -0.0017836745
000020 90 f6 19 bb 2e 4d df 3c 9d 71 ea 3c fe 3c 0e 38
       -0.002349291 0.027258482 0.028618628 3.391224e-05
000030 26 ff e9 3a b2 61 65 bc 59 b5 aa 3c e2 83 b3 3a
       0.0017852529 -0.014000343 0.020838426 0.001369592
000040 5f d5 94 3b a4 23 ab bc ac 82 71 3a 14 2f 3c 3c
       0.0045420374 -0.020891018 0.0009212892 0.011485834
000050 a4 87 4d bb ae 82 af bc 42 bb 56 ba 70 b1 af bb
       -0.0031361366 -0.021424618 -0.0008191356 -0.0053617284
000060 c1 16 24 3b 78 c5 ec b7 11 4c 8c bb 25 ba fb 38
       0.0025037976 -2.8225346e-05 -0.0042815288 0.00012003285
000070 d2 35 89 bc 99 99 2b 3a d7 d1 7d 3b 34 d2 24 3b
       -0.016749296 0.000654602 0.003872981 0.0025149705
000080 9a 65 b2 3b 64 25 0b b8 10 18 9c 3b 49 de 99 b9
       0.0054442408 -3.3175005e-05 0.0047636107 -0.0002934805
000090 73 38 16 3a 28 08 80 bc 5c 96 6c b8 06 23 c4 ba
       0.00057304575 -0.01562889 -5.6406818e-05 -0.0014964051
0000a0 d6 28 a1 3b 21 73 b0 3b fb eb 8d 3c e5 9f 7e bc
       0.004918198 0.005384818 0.017324438 -0.0155410515
0000b0 86 29 4c bc e5 e3 e9 3c 9a d8 b2 3a 4f f9 77 3b
       -0.012461072 0.028551051 0.0013644875 0.0037837808
0000c0 0d 3e b9 3b 4e 13 5b bb 9e ec f0 bb d1 9f c0 bb
       0.005653149 -0.0033428255 -0.0073524257 -0.0058784266
0000d0 16 8c aa 38 cf e0 6f 3b af be 5c bc 2c e0 5f ba
       8.132325e-05 0.0036602502 -0.013473197 -0.0008540179
0000e0 04 2a 41 3b 14 63 30 3b 0d 34 83 bb 46 86 7d 39
       0.0029474506 0.0026914524 -0.0040040077 0.00024177981
0000f0 04 f2 48 3a fe b9 2b bb 77 f7 be bc a8 30 15 ba
       0.00076654577 -0.002620339 -0.02331136 -0.0005691149
000100 5a 67 f7 bb 2a d2 a7 3c 40 04 a2 3b 63 ba 74 bb
       -0.0075501623 0.020485956 0.0049443543 -0.003734254
000110 7e 1f d2 ba 6a 32 1e b9 a4 3f ff ba a4 46 9e 3a
       -0.0016031114 -0.00015086835 -0.0019473922 0.0012075496
000120 7d a4 a0 3c ff 32 cc ba 02 04 e8 3a 38 c1 2b bd
       0.019609684 -0.0015579163 0.001770139 -0.041932315
000130 fd 23 2b 3a d2 e5 b5 3a 46 f2 13 ba 3e 05 fb 3c
       0.0006528495 0.0013877696 -0.00056437065 0.030642148
000140 04 1a 28 3a 0b 57 c1 3b 20 57 17 bd 19 68 aa 3a
       0.0006412568 0.005900269 -0.036948323 0.0013000994
000150 50 32 02 3a 52 4b cb bc 36 71 a9 3a a6 ec e8 b9
       0.00049666036 -0.024816189 0.0012927416 -0.00044426805
000160 a2 b8 7c ba b0 6d de b8 59 5c 24 3b 25 e4 cf 3b
       -0.00096405495 -0.00010606216 0.0025079458 0.0063443356
000170 86 31 29 bb a3 06 c2 bc b8 e1 ac bb 4a 92 4f bb
       -0.0025816872 -0.023684805 -0.005275931 -0.0031672888
000180 80 48 bc bb 8f 85 80 3b 67 4c a2 3b a2 a2 65 bc
       -0.0057459474 0.0039221714 0.0049529555 -0.014015825
000190 81 83 2c 3b b6 64 53 39 a5 42 15 ba 22 ec 11 ba
       0.00263235 0.00020160046 -0.000569383 -0.00055664976
0001a0 68 eb b5 3c a5 ae 74 bb b9 cd b1 bc c2 77 05 bb
       0.022206977 -0.0037335542 -0.021704542 -0.002036557
0001b0 ed ab d5 b9 34 77 73 bb f8 ba 08 ba c5 4b aa 3c
       -0.0004075462 -0.0037149908 -0.0005215849 0.020788083
0001c0 f2 6a d2 3a 09 fc a4 3b 7b 47 06 3b 85 21 ea 3c
       0.0016053601 0.0050349277 0.0020489383 0.028580436
0001d0 7b 4f db b9 e6 cb b0 3a 7e 24 ad b8 2e 76 8a 3b
       -0.00041830153 0.0013488501 -8.25608e-05 0.004225514
0001e0 17 7b fd ba 88 ae 26 3b 1f d4 ff bb a9 8b a0 3b
       -0.0019339052 0.0025433619 -0.007807269 0.0048994613
0001f0 51 e2 57 39 ce b9 01 3b e1 b3 17 3b c8 b8 a5 bb
       0.00020588307 0.0019794586 0.0023147988 -0.005057428

bias f4 [8]
000000 f3 d1 53 3d 23 ac dd bb fd 3c 08 3d 3b 4a f3 3c
       0.051713895 -0.006764905 0.033261288 0.029698482
000010 c4 0d 71 3d d2 34 6e 3d 64 ef bf bd d2 83 f8 bc
       0.05885102 0.058155842 -0.09371832 -0.030336294
