results/transformations/mapping_files/PCKTAE/FMNIST_PCKTAE_10_3>FMNIST_PCKTAE_10_1>NeuralNetwork_200_0_noisy_16_equally.pth (torch, 8806 bytes, 6 tensors)

weight f4 [16, 10]
-0.1750972 0.668712 0.33978203 0.5419624 0.3555914 -0.3995612 -0.27549928 0.48931375
-0.3003039 -0.22320195 0.5633175 -0.16846496 0.09726295 0.34914324 0.53135854 -0.31090912
-0.47302434 -0.45087355 -0.1884441 0.28900948 -0.26674324 -0.06823755 0.6184881 0.17299475
0.3809293 -0.14090405 -0.5824125 -0.027275212 0.107275814 -0.46091717 0.38059026 -0.23448545
-0.5023357 0.32462212 -0.27534956 -0.0386184 -0.068706654 -0.10778164 0.36538345 0.38572696
0.090227224 0.52426994 -0.609385 -0.309134 0.26648661 0.033113144 -0.13569966 -0.23510312
0.3807344 -0.43765387 0.103079036 -0.53614867 -0.21802555 0.3496067 0.26918343 -0.16757637
-0.42792818 -0.4297125 -0.009598186 -0.19786927 -0.07140646 0.020419711 -0.15207408 0.29876623
0.07545335 0.40705582 0.40169623 0.5124991 0.2879936 0.21595454 0.037906617 -0.04308165
0.53133786 -0.6114129 -0.3442635 0.036806084 -0.084797285 -0.25192288 -0.19947688 0.43815604
-0.2895909 0.5794699 0.07600432 -0.20428477 0.4523009 -0.091178074 -0.2404709 0.40160856
0.0956705 -0.5646472 -0.07005949 0.12613678 -0.29873848 -0.042178735 0.034586087 0.55450016
-0.22798634 0.043253332 0.22750936 0.584432 0.42494765 0.5701609 -0.599746 0.055462036
0.27015123 -0.17369685 0.5559285 -0.67855024 -0.43055874 -0.29045212 -0.34041524 -0.05409802
0.1300383 0.08736031 0.14746378 0.44138288 -0.56963664 0.12222483 0.09557788 0.2911943
0.35393608 0.20232785 -0.26652274 -0.31047133 0.3340705 0.32373834 -0.16171512 0.27003753
0.06543579 0.015980508 -0.2633116 -0.62275434 -0.28939468 -0.3704742 0.0695459 -0.54199874
-0.28117225 -0.15011907 -0.45363423 -0.47686994 0.0379843 0.32943192 -0.07790013 -0.20329998
-0.06822197 0.26091248 -0.552047 -0.5046591 -0.0062949974 0.6375755 0.107325114 0.29794905
0.20869228 -0.447793 0.42854655 0.21792819 -0.35132805 0.015263799 0.27173245 0.036883403
00000000: ae4c 33be b630 2b3f e9f7 ad3e 0cbe 0a3f
00000010: 1310 b63e 4993 ccbe 3e0e 8dbe 5587 fa3e
00000020: 6fc1 99be 0d8f 64be 9335 103f 1482 2cbe
00000030: cc31 c73d e7c2 b23e 1d07 083f 7b2f 9fbe
00000040: 3f30 f2be e6d8 e6be 7df7 40be 0df9 933e
00000050: 9292 88be 21c0 8bbd 3c55 1e3f 8925 313e
00000060: 2a09 c33e 2749 10be fc18 15bf 4470 dfbc
00000070: 6cb3 db3d 56fd ebbe badc c23e f41c 70be
00000080: 1399 00bf df34 a63e 9efa 8cbe 542e 1ebd
00000090: 13b6 8cbd 9fbc dcbd 8a13 bb3e 017e c53e
000000a0: 0dc9 b83d 8e36 063f a800 1cbf d046 9ebe
000000b0: ef70 883e a6a1 073d daf4 0abe dfbe 70be
000000c0: 9fef c23e 2b14 e0be 1a1b d33d 0a41 09bf
000000d0: 1742 5fbe a6ff b23e 69d2 893e 2499 2bbe
000000e0: 6719 dbbe 4703 dcbe b641 1dbc 3e9e 4abe
000000f0: 8d3d 92bd 3d47 a73c 4fb9 1bbe e3f7 983e
00000100: 4987 9a3d 9f69 d03e 21ab cd3e 2433 033f
00000110: e673 933e 3023 5d3e f843 1b3d 6276 30bd
00000120: c205 083f 8e85 1cbf 4e43 b0be fac1 163d
00000130: 33aa adbd 09fc 80be ab43 4cbe fd55 e03e
00000140: 4245 94be 2458 143f 27a8 9b3d 0730 51be
00000150: fc93 e73e 92bb babd 013e 76be a39f cd3e
00000160: e5ee c33d b88c 10bf 5a7b 8fbd 002a 013e
00000170: 40f4 98be 9cc3 2cbd 24aa 0d3d b9f3 0d3f
00000180: 4075 69be 682a 313d 37f8 683e 569d 153f
00000190: bd92 d93e 11f6 113f f488 19bf 292c 633d
000001a0: 4351 8a3e 96dd 31be 5551 0e3f 78b5 2dbf
000001b0: 3272 dcbe 24b6 94be e84a aebe e395 5dbd
000001c0: c328 053e f6e9 b23d bf00 173e f0fc e13e
000001d0: b5d3 11bf 0351 fa3d 56be c33d 6b17 953e
000001e0: 1c37 b53e 082f 4f3e ab75 88be 19f6 9ebe
000001f0: 4a0b ab3e 08c1 a53e a698 25be 5c42 8a3e
00000200: 3303 863d 8ee9 823c c7d0 86be d46c 1fbf
00000210: 8a2b 94be cbae bdbe 156e 8e3d 6ec0 0abf
00000220: cff5 8fbe d0b8 19be bf42 e8be 4c28 f4be
00000230: 6d95 1b3d 4dab a83e 1a8a 9fbd df2d 50be
00000240: f6b7 8bbd 5296 853e f452 0dbf 5731 01bf
00000250: 4446 cebb 2638 233f 45cd db3d c78c 983e
00000260: 6eb3 553e 2045 e5be 746a db3e 9128 5f3e
00000270: 45e1 b3be 0315 7a3c 8420 8b3e 0d13 173d

bias f4 [16]
0.10813322 0.21096165 -0.011436159 -0.037639413 0.038055252 0.34534398 0.5103967 0.18996476
0.3911847 0.34358612 0.06106572 0.47174543 -0.038708813 0.43982503 0.08659968 0.29025555
00000000: f374 dd3d 5506 583e ba5e 3bbc c92b 1abd
00000010: d3df 1b3d edd0 b03e 5ca9 023f 1f86 423e
00000020: 5c49 c83e 85ea af3e 0c20 7a3d 9e88 f13e
00000030: 228d 1ebd bf30 e13e 2c5b b13d 609c 943e

weight f4 [16, 16]
-0.07617386 0.52055067 0.123708226 0.18071647 -0.13422194 0.39410928 -0.5640167 -0.06075955
-0.13954052 -0.16407901 0.029197626 0.06939842 -0.079791754 -0.038346235 0.1280362 -0.09549546
-0.40794855 -0.27731505 0.046032876 0.04817065 0.16567323 -0.13517544 0.09694284 -0.29406944
0.20404294 -0.29020756 -0.09201213 -0.46287096 0.12895247 0.28468618 -0.24131191 0.23747963
-0.07035445 0.29503375 0.2688285 0.26530886 -0.18900764 0.22267799 -0.1835014 0.15481512
-0.26251885 0.28529358 -0.24018858 0.36698356 0.089425065 0.20805399 0.34480548 0.3269726
0.5205277 -0.030977542 0.252209 -0.04483996 -0.0129015995 -0.17558885 0.12797977 -0.008517753
0.4380608 -0.2919566 0.0837452 -0.06826374 -0.05898442 -0.3142629 -0.09367506 0.041817233
0.030101633 -0.25118595 0.055368908 -0.23208432 -0.34969166 -0.10059018 -0.2651056 0.27389014
-0.023848634 -0.23593655 -0.36452132 -0.23254187 -0.29494658 0.30943507 0.09131194 0.05745039
-0.13229667 0.31745234 -0.47360018 0.3432722 0.19918169 0.1969925 0.06356396 -0.29260543
-0.20853567 0.10602276 0.5513206 -0.20733719 -0.18641064 -0.024149846 0.102949165 -0.2090354
-0.12715395 -0.15416135 -0.42837214 0.5101978 -0.028547214 -0.058815036 0.43761593 -0.039397195
-0.05959277 0.13373128 -0.01761556 0.1743485 0.050417766 -0.25617754 0.07562199 -0.21415533
0.27469936 -0.1168594 -0.14650758 -0.19777001 -0.36394522 0.12089704 -0.05729104 -0.017336434
0.2187902 -0.22466063 -0.14339218 0.26498437 0.053273775 -0.18533038 -0.13699433 0.15898311
-0.26943195 0.0673636 0.11475157 -0.019824892 -0.26897147 -0.29296678 -0.17316772 0.452352
-0.14589779 0.19424039 -0.079089805 0.081933975 -0.12600192 -0.121177115 0.38546652 0.022291496
0.03827185 -0.11829451 -0.12479797 -0.21863076 0.2805309 -0.0018967758 0.10803006 -0.14099672
-0.048425663 0.12834647 0.08726306 -0.2926741 -0.016761128 -0.23586574 0.062185664 -0.276712
-0.13314793 -0.20382123 -0.2804365 -0.11916264 0.49352345 -0.35545576 -0.15895993 0.16552666
0.3364295 0.2986581 0.21283446 0.19591586 0.40504727 -0.22681572 0.3250579 0.44278565
-0.48251888 -0.11561754 -0.4607681 -0.22040103 -0.24349707 -0.12219779 -0.18294553 0.3064259
-0.21759766 0.048452884 -0.03036456 -0.12612887 -0.0063222265 0.5445411 -0.16956468 -0.1036956
-0.19425882 -0.20785783 -0.27816117 0.42982155 -0.06359007 -0.028243737 0.22738203 0.15711474
-0.39239025 0.08592469 -0.29291 -0.09097992 -0.037945013 -0.32776734 0.05859795 0.19882098
0.47023466 0.014355784 0.4473016 -0.16325545 0.27718017 0.34969592 -0.216479 -0.55809134
0.2914949 -0.365595 -0.07363283 -0.11356392 -0.1346297 0.34541735 -0.39796665 -0.08750136
-0.018950019 -0.061681006 -0.3836806 -0.023104424 0.17019975 -0.14384389 -0.15298139 -0.070309155
-0.30632782 0.17473003 0.13925847 0.16518964 0.01561296 0.08576923 -0.14696208 -0.26157025
-0.47961262 -0.2543914 -0.049379997 -0.02857121 0.29934284 -0.06576552 -0.4058383 0.42171288
0.25695148 -0.34534326 0.21291569 -0.258789 0.08224304 0.4623216 -0.09292455 0.23518191
00000000: 0a01 9cbd cf42 053f bd5a fd3d bd0d 393e
00000010: 7a71 09be b1c8 c93e 6663 10bf 02df 78bd
00000020: b6e3 0ebe 5404 28be dc2f ef3c c220 8e3d
00000030: dc69 a3bd f110 1dbd ec1b 033e 2093 c3bd
00000040: a2de d0be 3dfc 8dbe f88c 3c3d 964e 453d
00000050: 3ea6 293e 6e6b 0abe f889 c63d 4590 96be
00000060: a2f0 503e 1696 94be db70 bcbd 6cfd ecbe
00000070: 1e0c 043e 63c2 913e 781a 77be dc2d 733e
00000080: fe15 90bd aa0e 973e e4a3 893e 90d6 873e
00000090: 388b 41be b305 643e cae7 3bbe db87 1e3e
000000a0: df68 86be 0012 923e fff3 75be 45e5 bb3e
000000b0: 7d24 b73d 1b0c 553e 588a b03e f468 a73e
000000c0: 4e41 053f 9dc4 fdbc 8a21 813e 1baa 37bd
000000d0: 3b61 53bc 90cd 33be 210d 033e 0c8e 0bbc
000000e0: 8149 e03e 567b 95be 9a82 ab3d dccd 8bbd
000000f0: a699 71bd 11e7 a0be b6d8 bfbd 8c48 2b3d
00000100: b397 f63c 729b 80be 82ca 623d 83a7 6dbe
00000110: c90a b3be 3902 cebd ecbb 87be 543b 8c3e
00000120: 365e c3bc 5a99 71be 8aa2 babe 751f 6ebe
00000130: 3d03 97be 466e 9e3e c101 bb3d 1a51 6b3d
00000140: c778 07be 1d89 a23e b97b f2be 60c1 af3e
00000150: 49f6 4b3e 67b8 493e d22d 823d 61d0 95be
00000160: 608a 55be 7622 d93d 5923 0d3f 3350 54be
00000170: 6ee2 3ebe e6d5 c5bc 03d7 d23d 600d 56be
00000180: a534 02be 79dc 1dbe 9853 dbbe 539c 023f
00000190: d9db e9bc 09e8 70bd 320f e03e f45e 21bd
000001a0: 8c17 74bd daf0 083e 824e 90bc 6a88 323e
000001b0: dc82 4e3d b429 83be b4df 9a3d 894b 5bbe
000001c0: 65a5 8c3e fb53 efbd 1506 16be 3984 4abe
000001d0: 0757 babe de98 f73d 02aa 6abd 2305 8ebc
000001e0: 8a0a 603e 700d 66be 66d5 12be 08ac 873e
000001f0: 9a35 5a3d 3fc7 3dbe 3e48 0cbe 78cc 223e
00000200: fcf2 89be edf5 893d df02 eb3d d067 a2bc
00000210: a1b6 89be beff 95be e152 31be ae9a e73e
00000220: 3b66 15be f4e6 463e d6f9 a1bd 00cd a73d
00000230: a606 01be b52b f8bd de5b c53e a89c b63c
00000240: f2c2 1c3d 6444 f2bd 1496 ffbd bee0 5fbe
00000250: bfa1 8f3e 3c9d f8ba dd3e dd3d 7261 10be
00000260: fd59 46bd 426d 033e fab6 b23d 61d9 95be
00000270: a24e 89bc ca86 71be 65b6 7e3d 32ad 8dbe
00000280: ee57 08be 83b6 50be 5f95 8fbe 8b0b f4bd
00000290: 1baf fc3e 4cfe b5be 64c6 22be d27f 293e
000002a0: 7d40 ac3e b7e9 983e 47f1 593e 2b9e 483e
000002b0: 5b62 cf3e 6142 68be fd6d a63e cdb4 e23e
000002c0: b70c f7be e4c8 ecbd cce9 ebbe cfb0 61be
000002d0: 4c57 79be d642 fabd 1356 3bbe dbe3 9c3e
000002e0: ecd1 5ebe 8876 463d 19bf f8bc ed27 01be
000002f0: ae2a cfbb 0c67 0b3f 5da2 2dbe 5c5e d4bd
00000300: c9eb 46be afd8 54be 246b 8ebe 9211 dc3e
00000310: 833b 82bd 695f e7bc d6d6 683e b0e2 203e
00000320: 60e7 c8be 49f9 af3d 4df8 95be ae53 babd
00000330: 3b6c 1bbd 1fd1 a7be 6704 703d ba97 4b3e
00000340: 99c2 f03e 8634 6b3c b704 e53e 702c 27be
00000350: 8fea 8d3e 580b b33e acac 5dbe 13df 0ebf
00000360: d23e 953e 452f bbbe cfcc 96bd 3394 e8bd
00000370: 5edc 09be 8bda b03e 49c2 cbbe ea33 b3bd
00000380: 123d 9bbc 39a5 7cbd c971 c4be 7d45 bdbc
00000390: d848 2e3e d04b 13be 27a7 1cbe 3ffe 8fbd
000003a0: 00d7 9cbe 6eec 323e c699 0e3e 7927 293e
000003b0: 80cd 7f3c c7a7 af3d 3a7d 16be 89ec 85be
000003c0: c98f f5be 973f 82be ae42 4abd 2c0e eabc
000003d0: 7743 993e 13b0 86bd 0aca cfbe c0ea d73e
000003e0: 258f 833e d5d0 b0be 9206 5a3e fe7f 84be
000003f0: 0a6f a83d 6bb5 ec3e 3a4f bebd 87d3 703e

bias f4 [16]
0.11511413 -0.1828921 0.029462982 -0.09243452 0.15589413 0.33730635 0.098508105 -0.17465614
0.12011947 -0.15852419 0.18780479 0.2299814 0.036659352 0.051143557 0.0112418495 0.26126918
00000000: f5c0 eb3d 1148 3bbe 5a5c f13c 4f4e bdbd
00000010: b6a2 1f3e 6bb3 ac3e 9ebe c93d 0fd9 32be
00000020: 3201 f63d 2a54 22be e64f 403e 3e80 6b3e
00000030: 1e28 163d e87b 513d bc2f 383c 13c5 853e

weight f4 [10, 16]
0.135127 -0.21438035 0.07379829 0.24015234 0.099396855 -0.079172164 -0.15684125 -0.024473567
0.033843376 -0.037128925 -0.0108928345 -0.20540635 -0.09715453 0.30657387 -0.13382615 -0.080801964
0.16129133 -0.053805932 0.014318964 -0.10055249 0.025539042 0.18466978 -0.01771677 -0.17219014
0.04444234 0.11398852 -0.0044822874 -0.033457175 -0.06252747 -0.11095696 -0.031921886 0.113471806
0.06152356 0.070928805 0.025848845 -0.17477554 0.26441196 0.0005740473 -0.05370161 -0.014943379
-0.045066975 -0.054753132 -0.25488532 0.31695062 -0.011221652 0.13999458 -0.06850427 0.261244
-0.07627955 -0.06352623 -0.09605824 0.24229991 0.17581631 -0.019068304 -0.09880792 0.22051968
0.15622962 0.00059365155 0.0067552505 0.02888436 0.017770706 -0.11633757 -0.10551824 -0.06065649
0.0115650045 -0.2722129 0.02789721 0.08409884 0.1431602 -0.1547948 -0.23729515 0.20134614
0.08307126 -0.12193858 -0.060555015 0.062616356 -0.21231405 -0.06458222 0.09462463 0.07859659
-0.24043964 -0.0055667893 -0.054112338 0.115057 0.13990498 -0.16803586 0.20979439 0.11182614
0.07142943 0.123699054 -0.02713231 0.06872741 0.1277268 0.020857885 0.060352243 -0.08531964
0.08692317 -0.06012808 0.20549546 -0.038905527 0.082103096 -0.20435299 -0.012816907 0.0028407474
0.2968581 -0.15204212 0.15668133 0.24167062 0.1604241 -0.20601605 0.022429187 -0.009754378
-0.117003195 -0.111884944 -0.13441543 0.1318671 0.0028483116 0.28355977 0.17003413 -0.07933722
-0.06656945 0.26325196 0.014489344 0.13064022 0.034943603 -0.0676283 0.20455615 -0.019654518
-0.13170806 0.09362265 -0.15794954 0.036407422 0.0072250674 -0.16242254 -0.172845 -0.11821365
-0.012652172 0.032516934 0.27347717 -0.0648869 -0.06505658 0.06434576 -0.05909485 0.3918188
0.13648824 -0.116493076 0.00077133207 0.21052286 0.087017715 -0.011988488 0.014248687 0.1414175
0.02575152 0.046553817 0.029075956 -0.07117824 0.043032147 -0.22173645 -0.05841138 0.0032405034
00000000: bb5e 0a3e 8686 5bbe 8f23 973d 7fea 753e
00000010: 9490 cb3d 0425 a2bd fe9a 20be ca7c c8bc
00000020: 5a9f 0a3d 8014 18bd dc77 32bc 0b56 52be
00000030: f4f8 c6bd 40f7 9c3e b909 09be 807b a5bd
00000040: 8e29 253e 9c63 5cbd 179a 6a3c 77ee cdbd
00000050: 4137 d13c 131a 3d3e c222 91bc 9d52 30be
00000060: 2c09 363d d072 e93d 27e0 92bb 640a 09bd
00000070: 670e 80bd 673d e3bd 86c0 02bd e863 e83d
00000080: 2100 7c3d 1f43 913d f5c0 d33c 5cf8 32be
00000090: 0161 873e aa7b 163a 38f6 5bbd 13d5 74bc
000000a0: 2698 38bd d244 60bd 5480 82be 5a47 a23e
000000b0: 05db 37bc bd5a 0f3e f74b 8cbd c6c1 853e
000000c0: 7438 9cbd 0a1a 82bd 2fba c4bd 781d 783e
000000d0: 3109 343e 2235 9cbc cf5b cabd e9cf 613e
000000e0: a8fa 1f3e 489f 1b3a 265b dd3b e59e ec3c
000000f0: df93 913c 6442 eebd f219 d8bd f172 78bd
00000100: 257b 3d3c 7d5f 8bbe b188 e43c 033c ac3d
00000110: 9698 123e 8782 1ebe 80fd 72be af2d 4e3e
00000120: 4421 aa3d efba f9bd 8908 78bd 013d 803d
00000130: db68 59be af43 84bd 8fca c13d 40f7 a03d
00000140: cf35 76be 9d69 b6bb e6a4 5dbd 01a3 eb3d
00000150: 4043 0f3e 9811 2cbe 57d4 563e 1a05 e53d
00000160: 9849 923d ee55 fd3d 9444 debc f5c0 8c3d
00000170: d0ca 023e 28de aa3c ea33 773d 10bc aebd
00000180: c604 b23d dd48 76bd 676d 523e 675b 1fbd
00000190: ab25 a83d e941 51be 01fe 51bc d52b 3a3b
000001a0: c9fd 973e eeb0 1bbe 1271 203e 8178 773e
000001b0: 3746 243e dff5 52be 6abd b73c d4d0 1fbc
000001c0: 5f9f efbd ef23 e5bd 33a4 09be 2b08 073e
000001d0: bdaa 3a3b bf2e 913e 6d1d 2e3e 8d7b a2bd
000001e0: 9055 88bd f6c8 863e b764 6d3c 8dc6 053e
000001f0: 0621 0f3d b580 8abd 2b77 513e 8302 a1bc
00000200: 7ade 06be 3bbd bf3d 86bd 21be f31f 153d
00000210: 42c0 ec3b 1852 26be 48fe 30be 001a f2bd
00000220: 0e4b 4fbc 7a30 053d 3305 8c3e 6ce3 84bd
00000230: 623c 85bd b6c7 833d 710d 72bd 799c c83e
00000240: 93c3 0b3e ec93 eebd 3833 4a3a 4e93 573e
00000250: 5836 b23d 5d6b 44bc 5373 693c c0cf 103e
00000260: daf4 d23c 37af 3e3d b330 ee3c e6c5 91bd
00000270: 7a42 303d e10e 63be c540 6fbd a05e 543b

bias f4 [10]
0.026470765 -0.0853322 -0.007419352 0.047317374 0.04202998 0.024430094 -0.12843587 -0.061879613
-0.1697704 -0.0409432
00000000: 38d9 d83c a6c2 aebd 091e f3bb ddcf 413d
00000010: a127 2c3d 9f21 c83c b184 03be 7a75 7dbd
00000020: 4bd8 2dbe 0fb4 27bd
