results/transformations/mapping_files/PCKTAE/FMNIST_PCKTAE_10_2>FMNIST_PCKTAE_10_3>NeuralNetwork_50_0_nodropout_128_equally.pth (torch, 83214 bytes, 6 tensors)

weight f4 [128, 10]
000000 23 9c 63 3e ac ea 8d bd 7a b1 54 be 12 d3 57 3d
       0.2222753 -0.06929526 -0.20770827 0.052691527
000010 1a e8 3a 3e f6 37 23 3e c1 1b 08 be 3f d2 c1 bd
       0.18252602 0.15939316 -0.13291837 -0.094639294
000020 fc 0a 4c be a6 fd a9 3e cd 2a 8c 3e 76 49 86 be
       -0.19926065 0.3320133 0.27376404 -0.2622792
000030 49 84 ab 3d b1 7a 68 3e e9 a7 23 3e 87 8c 6a bb
       0.08374841 0.22703053 0.15982021 -0.0035789327
000040 07 60 2c be f0 9e 3b be 45 5e 3d 3d 25 3a 9a 3c
       -0.16833507 -0.18322349 0.04623248 0.018826554
000050 d8 19 81 3e 03 50 4b 3e 6a 4e 0b be 23 ae 1a 3e
       0.2521503 0.19854741 -0.13604131 0.1510549
000060 01 45 45 bd 72 60 25 3d 9b 4e bc bd a8 ab 40 be
       -0.04816151 0.04037518 -0.0919468 -0.18815482
000070 20 46 cd bd 33 26 15 3e a4 cd 8b bd 8f 75 08 3b
       -0.10023141 0.14565353 -0.06826332 0.0020822024
000080 ce 16 03 3e 30 37 35 3e 68 e3 82 bd d9 6c 15 3e
       0.12801668 0.17696834 -0.063910306 0.14592303
000090 39 9f 0d be 2c 1c 00 3e ac 0b bb 3e 51 70 a6 3d
       -0.1383027 0.12510747 0.36532342 0.081268914
0000a0 34 17 33 bd 3e 3d c4 3b 5e 47 88 3e dd 24 52 be
       -0.0437233 0.005988746 0.2661695 -0.20521875
0000b0 63 49 95 bd c6 a0 67 3e cc 98 98 bd 1d 59 27 be
       -0.07289388 0.22619924 -0.07451019 -0.16342588
0000c0 40 ab 47 be dc c9 85 bd 27 bf 1e be 2a 43 8e 3d
       -0.1949892 -0.06532642 -0.15502606 0.06946404
0000d0 3a a0 7b be fb 57 de 3d 4e 4d 5c 3e e9 90 75 3e
       -0.2457284 0.10856625 0.21513864 0.2398106
0000e0 0a 17 8c be ad d9 cb 3c f6 f0 46 be 94 c2 b3 3c
       -0.27361327 0.02488407 -0.19427857 0.021943368
0000f0 46 e0 a9 3e ad 0b ab 3e 5d 4a 90 3d 6d e7 0f be
       0.3317892 0.33407345 0.07045434 -0.14053126
000100 cb de 62 bd f0 9c 71 be eb 38 29 3e 20 fa ff 3b
       -0.055388253 -0.23595023 0.16525619 0.0078117996
000110 83 54 48 bd 4d 1a 48 3e 9f 8d c7 3d c4 a2 3e be
       -0.04890872 0.19541283 0.09743809 -0.18616778
000120 19 df cd 3c 60 92 ef 3d 8d d0 30 be 44 6a 7e 3e
       0.025130795 0.11697841 -0.17267056 0.24845225
000130 89 b7 d7 bd 18 1b 60 3e 04 f9 01 ba 36 87 f4 bd
       -0.105330534 0.21885335 -0.00049580657 -0.11939852
000140 1f 61 15 3e a0 59 b5 be 24 45 d0 3d 63 d8 22 be
       0.1458783 -0.3541994 0.101694375 -0.15902857
000150 0c 13 9e 3d 16 5e 48 3e 54 ac 25 be c6 93 f9 bd
       0.07718477 0.19567141 -0.16179019 -0.12186389
000160 fa f7 80 3e d7 57 1a be fc 6e a2 3e e5 21 83 be
       0.2518919 -0.1507257 0.317253 -0.25611797
000170 45 6d 9a 3e 94 de 0f bd d8 e3 6c bd 35 3c 89 be
       0.3016149 -0.035124376 -0.057834476 -0.26803747
000180 8a ac 1f bd f6 25 c2 3e ac a9 92 3e 73 cf 39 3c
       -0.038982905 0.37919587 0.28645074 0.011340964
000190 8a 19 96 be f6 2d 84 3d d1 08 e6 bc 04 61 47 3e
       -0.2931636 0.06454079 -0.028080376 0.19470602
0001a0 47 63 2c be 30 d1 a0 be 6e 46 49 be 9e db 36 be
       -0.16834746 -0.31409597 -0.19655773 -0.17857215
0001b0 36 b7 56 be ef 36 26 3d fc da 39 3b 9c dd 6e 3e
       -0.20968327 0.040579733 0.0028359285 0.23326725
0001c0 72 c6 f9 bd e8 07 06 3e f6 3d b4 b9 73 15 56 3d
       -0.121960536 0.13088953 -0.0003437844 0.05226655
0001d0 b9 0d 33 be b5 d1 41 3e 46 d9 a4 3c 68 66 5e 3e
       -0.17485704 0.18927653 0.020123135 0.21718752
0001e0 fe 24 66 3e 45 06 b1 be 68 59 89 3e bb 29 ac be
       0.22475049 -0.34575096 0.26826024 -0.33625588
0001f0 87 36 3c 3e 4c c6 61 3d bf a6 f5 3d ad 48 98 3d
       0.18380176 0.05512075 0.11994695 0.07435737
000200 94 3c 0c bd 10 fa 96 bd e9 29 a0 be 81 ea 71 be
       -0.03423746 -0.073719144 -0.31281975 -0.23624612
000210 aa 21 d8 bb f5 db ab 3e b4 74 fa 3c 3d 24 8d 3d
       -0.00659581 0.3356625 0.030573227 0.068916775
000220 2f b1 1a be 32 49 d5 bd c6 a4 a0 be 26 94 f5 3c
       -0.15106653 -0.104143515 -0.31375712 0.02997787
000230 85 18 07 be 30 64 44 be e3 32 b3 bd 0d 6d 86 be
       -0.13192947 -0.19178843 -0.0874994 -0.26255074
000240 4b d6 0b be 49 36 16 be 7b fe 30 be e9 7f 5a 3e
       -0.13655965 -0.14669146 -0.17284577 0.21337856
000250 c8 0e 42 be 70 00 ab be cf 0c 18 3d d1 49 e5 3d
       -0.18950951 -0.3339877 0.03712159 0.1119572
000260 02 32 9a be d7 9f 51 3e 9c 46 b2 3d ec 11 60 3d
       -0.30116278 0.2047113 0.08704874 0.05470459
000270 12 18 4c 3d 4d 88 59 be ff bc 2f 3d d2 0a a3 be
       0.049827643 -0.21243401 0.04290485 -0.31844193
000280 a6 a4 1c 3d 1d f2 1d 3e ea ce 34 bd a1 79 1d bd
       0.03824296 0.1542439 -0.04414264 -0.038446072
000290 b5 5e 09 be b6 f1 b0 bd cb c2 47 3e 29 5d 89 3e
       -0.13415034 -0.08639853 0.19507901 0.26828888
0002a0 40 33 55 bd 0a de 50 be 68 49 73 3e 7b d3 0d 3e
       -0.05205083 -0.20397201 0.23758471 0.13850205
0002b0 4f 4b 8c 3e 31 86 3d be 97 eb 98 bd 47 2e 83 be
       0.27401206 -0.18508221 -0.0746681 -0.25621244
0002c0 3d ce 9a 3e 36 b1 16 be 2a 34 90 3d 80 b9 87 3e
       0.30235472 -0.14716038 0.070411995 0.26508713
0002d0 a5 55 e7 3d 6b 6f a8 bd 5c 2c 61 be 8a 2e aa 3e
       0.11295632 -0.08224376 -0.21989578 0.3323863
0002e0 60 2e 01 be c4 2a a0 be 74 d4 95 be a9 0d c8 3e
       -0.12615347 -0.31282628 -0.2926365 0.39072922
0002f0 8f b2 40 3e be c5 97 3e 95 3b 24 be 6d 54 98 3d
       0.18818115 0.29643053 -0.16038354 0.07437978
000300 c1 17 81 be b8 2d 96 be 97 37 3b 3e 8b 1b 99 3d
       -0.25213435 -0.29331756 0.18282925 0.074759565
000310 3e 8c c9 3d eb 41 bb 3e 55 0f fe bd d9 68 d0 3e
       0.09841202 0.3657373 -0.12405268 0.40704992
000320 31 02 07 3e 6b ea 90 3e cb 5f 3b 3d c2 ab 9e be
       0.1318443 0.28303847 0.045745652 -0.30990416
000330 d7 c1 e2 bd 45 a4 a4 ba c2 51 a6 bd 16 bc 34 3d
       -0.11072128 -0.0012561163 -0.08121063 0.044124685
000340 3d 56 a6 3d a6 60 1a be 57 2e 98 be 52 7b 83 3e
       0.081219174 -0.15075931 -0.29722854 0.25680023
000350 2d e7 83 bd 29 e4 a3 be a4 6d 08 be 70 54 0a 3e
       -0.06440578 -0.3201001 -0.13323075 0.13508773
000360 38 b7 74 be 51 5e d9 3d 9e 3a 5c bd 8c 56 11 3c
       -0.23898017 0.106136926 -0.05376684 0.008870732
000370 d8 35 b6 3d a4 81 21 be 25 23 80 3e 2a 16 d0 3d
       0.08896989 -0.1577211 0.25026813 0.101604775
000380 1a 9b 78 3e 42 6d c5 3d 1a 96 13 3e 0f e9 6e 3e
       0.24277917 0.0963998 0.14412728 0.23331092
000390 e7 f6 0e be 00 b0 89 be 24 09 87 3e cd e2 75 be
       -0.13961373 -0.2689209 0.2637416 -0.24012299
0003a0 c7 be a1 be 10 ab 11 be b8 ff 9f be 77 b7 20 3d
       -0.31590864 -0.14225411 -0.31249785 0.039237466
0003b0 ff db 8c 3c eb 05 08 3e af 18 f9 bd 6a 12 84 3d
       0.017194746 0.13283508 -0.12162911 0.06448825
0003c0 6a 8e 31 bc a8 13 1c 3d 5c d5 99 be eb 1b 6b be
       -0.010837177 0.038104683 -0.30045593 -0.22959869
0003d0 4f 3a 69 be 28 ab 36 bc f2 62 a5 3e 8f 16 91 bc
       -0.22776149 -0.011149205 0.32302052 -0.017710952
0003e0 11 bd 81 3e ec ad 32 be 64 96 9b 3c ef 5e 65 3e
       0.2533956 -0.17449158 0.01899261 0.22399496
0003f0 6f 38 5b bd a3 cb 9e 3e be 8b 96 3e 30 4c 56 3e
       -0.053520616 0.31014737 0.2940349 0.209275

bias f4 [128]
000000 e4 76 30 bd d5 1b f9 3c 31 bf 3c 3e 96 75 81 3e
       -0.043082133 0.03040878 0.18432309 0.25285023
000010 62 f2 76 3e bd 66 14 bc 08 e7 4c be 7f 86 08 be
       0.24115899 -0.009057698 -0.20010006 -0.13332556
000020 e0 d3 67 be 2b 36 f0 3c 50 2b b5 bd 5d 2e 35 be
       -0.22639418 0.029322704 -0.08846152 -0.17693467
000030 f1 54 b1 bd ba 90 9b 3e 6e 1b c2 bd 65 1e 85 be
       -0.086587794 0.30383855 -0.09477888 -0.25999752
000040 e6 50 03 bd ab 9b d2 bc 61 f3 8d be 08 15 c1 bd
       -0.032059573 -0.025708994 -0.27724746 -0.094278395
000050 06 dd 01 be ca c2 8a 3e 62 c6 8c 3d cf 38 2d 3e
       -0.1268197 0.27101737 0.06873776 0.16916202
000060 c3 8f 8c 3d e3 ca f2 3d 18 bf 63 3e 73 0e b9 3c
       0.06863358 0.11855104 0.22240865 0.022589898
000070 95 d2 81 be 0e 13 8e 3e e3 2b e6 bd 37 cd 1f be
       -0.25355974 0.27748913 -0.112388395 -0.15605627
000080 75 b7 ad bd d0 ef fb bd 63 ff 77 3e 7d 86 21 be
       -0.08482257 -0.123016 0.24218516 -0.1577396
000090 37 2c 8c bd 85 5d 2b be fb e6 8e be d2 f9 55 3d
       -0.06844371 -0.16734894 -0.279106 0.0522402
0000a0 57 80 be 3d 02 f9 e0 bc a1 e2 a7 be 2a e3 16 3e
       0.09301823 -0.027462486 -0.32790092 0.14735094
0000b0 54 05 a4 be ba b5 e0 bd 95 21 96 be 1c cc 73 3e
       -0.32035315 -0.109721616 -0.29322496 0.2380833
0000c0 7e 41 73 3e 73 88 b1 3d 20 e0 0a 3d 9f 4a a7 bd
       0.23755452 0.08668604 0.03390515 -0.0816853
0000d0 b4 85 89 be ff db 64 be 9d de 89 be f0 54 19 3e
       -0.2685982 -0.22349547 -0.26927653 0.14973807
0000e0 67 9a 8b be c4 a0 71 3e a4 88 20 3e 36 64 0d 3e
       -0.27266237 0.23596483 0.15677124 0.13807759
0000f0 4b 3e 0f be e4 07 6c bd 87 59 76 be b9 20 3e 3d
       -0.13988607 -0.057624713 -0.2405759 0.046417926
000100 72 a6 0b bd 19 89 9d 3e bd cf 8e 3e 88 4b 90 3e
       -0.03409428 0.3076866 0.27892867 0.28182626
000110 24 0f 13 bd 79 eb 54 3d dd 88 12 3e e1 52 c9 3d
       -0.03590311 0.051982377 0.14310022 0.09830261
000120 c0 be f5 bd e4 0d 8a 3e 9c 5e eb bc 07 73 bc be
       -0.11999273 0.26963723 -0.028731637 -0.3680651
000130 f0 e0 88 be 09 70 1a 3d d0 44 42 3e 9e 3a 03 3e
       -0.26734114 0.0377045 0.18971562 0.1281533
000140 bc bb 84 be 0e 63 37 3e 26 c8 ae 3e 48 f1 91 3d
       -0.2592448 0.1790888 0.34137076 0.07126099
000150 2d 77 8e be b9 b1 42 3e fb ef 79 3e b9 e8 3a be
       -0.278253 0.19013108 0.24407952 -0.18252839
000160 2a 42 0a be 59 e8 0a 3e d2 8f 86 be 68 d1 75 3e
       -0.13501802 0.13565196 -0.262816 0.24005663
000170 75 82 9b be 19 9f 45 bb f7 e3 8e be 12 54 63 be
       -0.30372968 -0.0030154644 -0.27908298 -0.22200039
000180 28 f6 92 3d cd c6 9a 3b 49 af 7a bd 40 53 93 3e
       0.07175857 0.004723406 -0.06120232 0.28774452
000190 5f fa 9d bd d4 b6 60 3d f4 a7 07 3e 83 ef 88 bd
       -0.0771377 0.05486186 0.13247663 -0.06686308
0001a0 8b ea 23 bd 7f f9 51 3d 81 80 ec 3d fc 64 11 be
       -0.0400186 0.05126333 0.11547948 -0.14198679
0001b0 6a ca b4 bd 25 19 57 be e5 9b 82 3c 43 2f 2c 3e
       -0.0882767 -0.21005686 0.015943477 0.16814904
0001c0 10 c3 9b be 6b b4 f8 3d fd b0 81 3e b6 20 97 be
       -0.30422258 0.12143787 0.25330344 -0.29517144
0001d0 28 f6 a0 3e cf 08 66 3e 7a 9d 64 3e fe e8 09 3e
       0.31437802 0.22464298 0.22325698 0.13467786
0001e0 7f 12 3f 3e cc 1d 95 bc 42 d9 97 be 78 df 57 be
       0.186594 -0.018202685 -0.29657942 -0.2108134
0001f0 74 8a 9a 3d 40 d0 86 be a5 c9 48 3e ac dc a1 be
       0.07545939 -0.26330757 0.19608171 -0.31613672

weight f4 [128, 128]
000000 f6 7e 4d 3d 68 ae 78 bc c4 6c f6 3d 36 9e 38 be
       0.050169908 -0.0151783 0.12032464 -0.18029103
000010 d3 fa dd 3b 48 a6 25 3d a4 86 11 3d 5e 4c d7 3a
       0.0067742853 0.04044178 0.035528794 0.0016425957
000020 d3 02 dd bd b8 fd a0 bd 49 19 f2 bc 15 95 ad bd
       -0.10791554 -0.07860893 -0.029553073 -0.08475701
000030 18 7c 32 bd 97 a3 32 3d 1e a7 13 bc f1 f9 c2 3d
       -0.043575376 0.043613043 -0.009012012 0.09520329
000040 58 40 d6 bc e3 2d 16 bd fa 98 94 bd c3 37 5d 3d
       -0.026153728 -0.036664855 -0.072557405 0.054008257
000050 e1 ab 03 be 15 f4 87 bd e0 17 c8 bc 8c 98 a0 3d
       -0.12858535 -0.06638352 -0.024425447 0.07841596
000060 82 06 4f bd 80 96 2c 3e db 1b 9c bd ec 37 87 bd
       -0.050543316 0.16854286 -0.076225005 -0.06602463
000070 72 c5 a4 3c 4b 48 01 3e 50 54 ac 3d fc b3 95 3d
       0.02011368 0.12625234 0.08414519 0.0730972
000080 ba ea d0 3d 20 a4 43 3a bf 5b 8a bd 7b cc 41 bd
       0.102010205 0.0007463116 -0.067557804 -0.04731415
000090 10 1f 34 bd 74 1c 90 bd 40 53 0a 3d 32 8b 13 3d
       -0.043974936 -0.07036677 0.0337708 0.03602142
0000a0 e3 85 d2 bd f1 45 00 be 78 b2 da 3d 48 de b3 3d
       -0.10279443 -0.1252668 0.106785715 0.08782631
0000b0 fe a5 9f 3d e1 aa b1 3d 85 39 b4 bd 50 60 4b 3d
       0.07795332 0.08675171 -0.088000335 0.049652398
0000c0 c1 ff d6 3d 91 d1 e0 bc e9 cc 17 be a7 e0 07 bd
       0.10498 -0.027443679 -0.14824261 -0.03317323
0000d0 a1 d8 c4 3b 94 bb e5 3c 71 bb 84 bc 97 be 49 bd
       0.0060072695 0.028043546 -0.01620266 -0.049254026
0000e0 88 07 8a bc d9 30 18 3b 6a 4c da bc 35 a0 47 bd
       -0.016849294 0.0023222475 -0.026647765 -0.04873677
0000f0 8f 6b 0b 3c 4f f0 a6 3c ff 49 f0 bd 73 a1 25 3d
       0.008509531 0.02037826 -0.11732864 0.040437173
000100 9d c0 87 3a 3b 55 38 3d 3f ac ee 3d ae 99 71 3c
       0.0010357086 0.045003157 0.11653947 0.014746113
000110 c3 76 69 3c 56 62 53 3d fd 52 c6 bd 31 37 b5 3d
       0.014249506 0.051607452 -0.096837975 0.088484176
000120 a1 87 f3 3d 35 43 df 3c 59 bc b1 bd 3e 8f 33 bb
       0.118911035 0.027253726 -0.086785026 -0.0027398611
000130 f6 d5 aa bb 70 34 9d 3d 65 49 ac 3a 98 5d a2 3d
       -0.0052134944 0.07676017 0.0013144432 0.07928008
000140 14 ee 8e 3d 0c 31 98 3d 96 5f 3a 3d 8a c6 ba 3d
       0.069790035 0.0743123 0.045501314 0.091198996
000150 10 43 27 38 9e 2a c3 3d c6 10 72 3c 30 e0 28 3d
       3.987836e-05 0.09529613 0.014774507 0.041229427
000160 dd b1 43 bd 92 b6 fb 3c ff 62 a8 3d 2a 41 e2 bd
       -0.047777046 0.030726705 0.08222007 -0.11047585
000170 a6 dc 08 be 7a b1 d3 3d 42 99 3d 3a 57 93 44 3d
       -0.1336542 0.10336585 0.0007232615 0.047992077
000180 63 1b 56 bd 14 98 05 be b1 4c 7f 3c c7 77 e0 3d
       -0.05227221 -0.13046294 0.0155822495 0.10960346
000190 d6 dd 80 ba 8b d6 ef bd 3d 89 c2 bc 24 51 31 3c
       -0.0009831737 -0.11710843 -0.023747081 0.010822568
0001a0 a3 35 ae 3b 07 f2 c1 3b 0e d3 bc 3c ac 66 cf bd
       0.0053164526 0.0059187445 0.023049857 -0.10127005
0001b0 38 c9 21 be 21 9a b3 bc b1 69 ea 3d b7 d5 b1 bd
       -0.15799415 -0.02192408 0.1144594 -0.08683341
0001c0 d1 74 a4 bd 06 0e dd bc 80 14 16 3c f6 45 9d 3d
       -0.080300935 -0.026984226 0.009160161 0.076793596
0001d0 37 ef 99 3c 73 4b a5 3d d9 2b 8a 3d 6c 2c ce 3c
       0.018790824 0.080710314 0.067466445 0.025167666
0001e0 9c f6 42 bd 15 e0 8d 3c 8a 60 2f 3c e6 47 0f 3c
       -0.047598466 0.017318765 0.010704169 0.008745169
0001f0 e4 45 f7 3d 3a 22 3e 3d f4 48 cc bc e7 6f 80 bd
       0.120738775 0.04641936 -0.02493713 -0.06271344
000200 8e 3b 78 bd bf ff b9 bb a2 29 14 3c aa 6d 4d bd
       -0.06060367 -0.0056762393 0.009043129 -0.050153412
000210 55 63 d5 bd 0e 19 54 bd 31 2d bb bc 93 b0 4d bc
       -0.10419337 -0.051781707 -0.022848697 -0.012554306
000220 b1 92 9a bc e0 15 da bd cd 3d 88 bd 6c 7c 9b 3b
       -0.018868776 -0.106487036 -0.066524126 0.004745057
000230 bb 51 85 bd 99 86 7f 3c d2 47 f3 bd 00 77 19 bd
       -0.065097295 0.015596055 -0.11878933 -0.037467003
000240 07 24 d8 3d 0d 7e c6 bd 96 8a 90 bd c3 01 be 3d
       0.10553747 -0.09692011 -0.07057683 0.0927768
000250 cf ba 8f bd 3d 7b 39 bd 93 81 85 3c 1d 8a 14 3b
       -0.07018053 -0.045283545 0.016297137 0.002266533
000260 55 d3 3e 3d af b1 e7 bc b9 76 fe 3d ff 63 cd bc
       0.04658826 -0.028282968 0.12424988 -0.025072096
000270 95 be 2e bd 08 5e db 3d 2b 58 b0 bb d1 62 1c be
       -0.042662222 0.107112944 -0.005381604 -0.1527207
000280 bf a4 b1 3d 84 d8 15 bd 19 e7 5b 3b 7e e2 b5 bc
       0.08674001 -0.03658344 0.0033554493 -0.022202726
000290 15 4a a4 bd 00 ef c0 3d 68 5e b5 bd 4d 94 e3 3d
       -0.080219425 0.09420586 -0.08855897 0.111122705
0002a0 26 28 14 3d 4b 23 e6 3c 90 39 c7 3b 7e 87 8e 3d
       0.0361711 0.028093 0.00607986 0.06959437
0002b0 6d fb 0b be 02 fe 5e bd ca db f2 bd d8 c3 18 bd
       -0.1367013 -0.05444146 -0.11858328 -0.037296146
0002c0 93 6a 90 3d 1c af d3 bd 51 71 a4 bc 27 49 2a 3e
       0.070515774 -0.10336134 -0.020073565 0.16629468
0002d0 a6 b8 b0 bc 84 d1 31 bd 63 af 1c 3b 29 a2 72 bd
       -0.021572422 -0.0434127 0.002390825 -0.05923668
0002e0 fb d7 09 be ec c2 70 3d 7d df 83 3d 6d e1 f4 3d
       -0.13461296 0.058779642 0.064391114 0.11957059
0002f0 2d ea b7 bc eb 90 2d 3d ea 0e 7a bd 0d a9 e1 3d
       -0.02245053 0.042374533 -0.06104938 0.11018572
000300 65 1c 92 3d c7 9c 5f bd 56 f8 e3 bd d9 b2 14 3c
       0.07134322 -0.054592874 -0.11131351 0.009075844
000310 ce 24 1e bd db d0 3c 3d 5d 53 0c 3d 18 d6 81 3d
       -0.03860932 0.046097618 0.03425919 0.06339663
000320 3e 23 23 bd 79 bc 5c 3d d8 77 14 3d c8 0a 22 bd
       -0.03982853 0.05389068 0.036247104 -0.039561063
000330 99 ec 83 bd a0 6a d6 bc 21 ec 0e be 62 fc 24 bc
       -0.06441612 -0.02617389 -0.13957264 -0.010069938
000340 05 96 2e bc 72 48 bf 3d c2 7f 5b bc 42 10 ef bd
       -0.010655885 0.0933999 -0.013397159 -0.11673023
000350 23 6a 8f bd 4f c4 ad bd 42 2f b6 3d 2e 3e a6 bb
       -0.07002666 -0.084847085 0.088957325 -0.0050733304
000360 c3 de e7 bd 4d e1 ef 3d 24 dc 0a bd aa c6 a3 3c
       -0.11321785 0.117128946 -0.03390135 0.019992191
000370 f8 23 96 3a ba c7 17 3d 62 7a eb 3c dc 99 0d 3e
       0.0011454811 0.03705571 0.02874488 0.13828224
000380 df 47 68 bd 63 e7 98 3d 74 76 54 bd cd 20 04 3d
       -0.056709167 0.074660085 -0.05187078 0.032257844
000390 7f d1 87 3b 41 a9 52 bc a8 63 2e bd cd 46 0c bc
       0.004144847 -0.012857736 -0.04257551 -0.008561802
0003a0 52 9a 09 bd 51 9e 15 be a4 02 b5 3c ac dd 3e 3d
       -0.033594437 -0.14611174 0.022095986 0.04659812
0003b0 c4 78 2b bd 6e b8 5d bd d8 58 a0 bc 67 73 15 3e
       -0.041863218 -0.054130964 -0.019573614 0.14594804
0003c0 39 69 5c 3c cc 9e 3b 3d b9 ed 01 3e 55 2f 63 bd
       0.013452821 0.045805737 0.1268834 -0.05546506
0003d0 5d 2a 0b bd 61 8f d0 bd 26 e8 1a bc 9e 31 ae 3d
       -0.033975948 -0.10183597 -0.009454763 0.085055575
0003e0 8f e2 24 bb 46 f8 e9 bd e3 00 ae 3c 52 8f 80 bd
       -0.0025159454 -0.114243075 0.021240657 -0.06277336
0003f0 dc d4 a1 3d 4d 29 b6 3d 46 cc 86 bd ee 7f f7 bb
       0.07901928 0.08894596 -0.06581931 -0.007553092

bias f4 [128]
000000 a3 f2 f9 bb 85 e1 a9 3d 7f 32 cb bc f0 e6 91 bb
       -0.0076278015 0.082949676 -0.024804352 -0.0044525787
000010 0b 06 05 3d 38 fb ce 3c 43 4c ce 3c bf 1e 82 3d
       0.032476466 0.025266275 0.025182849 0.063535206
000020 78 c1 84 3d b2 88 d7 bb 90 46 d2 3d 8f df d0 3c
       0.06482214 -0.0065775746 0.10267365 0.025497226
000030 55 b0 5d 3d 0f 39 ac 3d 8b 91 96 bc e2 a9 42 3d
       0.05412324 0.084093206 -0.018379947 0.047525294
000040 04 fc 07 bd db 6c a3 3d ee c1 33 3b a9 31 1c bd
       -0.033199325 0.07979747 0.0027428824 -0.038133297
000050 eb 2f 38 bc f6 cf 35 bd b1 bc 4a 3c 73 49 8a 3d
       -0.011241893 -0.04438778 0.012374089 0.067522906
000060 ea 7f 97 bc ef 97 1f 3d 1e ca b9 bd bc 56 0a bd
       -0.018493611 0.038963255 -0.09071754 -0.033774123
000070 ef f3 15 bc 76 24 7e 3d 92 4f 1c 3d d1 e0 6d 3b
       -0.009152397 0.06204649 0.03816182 0.003629733
000080 ee 8d 20 3d 80 57 95 3d 0b 8a d5 3d de 7d 1f bd
       0.039197855 0.0729208 0.1042672 -0.038938396
000090 75 61 75 3c 25 83 42 3d 3c a4 eb 3c 31 cf 13 3c
       0.014976849 0.04748835 0.028764836 0.009021566
0000a0 59 ac 5b bd 95 02 33 3b 55 70 92 bd f9 be 4d bd
       -0.05363116 0.0027314771 -0.07150332 -0.050230954
0000b0 64 e0 6d 3d 2c af 3b 3c d3 7c c1 3d 0f 8c aa bc
       0.058075324 0.011455338 0.094476365 -0.020818738
0000c0 b0 b5 0b 3c f2 85 3d 3d dd d3 eb 3d 96 cb 87 3c
       0.008527204 0.04627032 0.11515019 0.01657657
0000d0 95 be ce bd 2d 21 83 bd a1 b7 5b bd cb 89 41 bd
       -0.100949444 -0.06402812 -0.05364192 -0.04725055
0000e0 f3 ad 9c 3c 1e 44 8c 3d 9e fd 8e 3d bf c3 84 3c
       0.019125914 0.0684893 0.069819674 0.01620662
0000f0 f6 25 86 3d c0 c2 87 3d 6e 4c 2c bd 68 23 85 3d
       0.06550209 0.066289425 -0.042065077 0.06500894
000100 34 38 98 bd d5 02 84 bd 17 ea 71 bd 37 bd 56 bc
       -0.07432595 -0.06445853 -0.059061136 -0.013106636
000110 21 46 b8 bd 93 7a 2b 3c 44 bb 17 3d 4a 38 93 3c
       -0.08997751 0.010466236 0.037043825 0.017971177
000120 9b 32 44 3d e0 b8 7d bd e8 fe 3f 3d 60 14 0e 3d
       0.047899824 -0.06194389 0.046873957 0.0346874
000130 a9 fa e1 3c d3 59 7f bc ce 66 b0 3d 75 e0 dd bc
       0.027585344 -0.015585381 0.086133584 -0.027084569
000140 24 04 88 bb 74 ff 79 bd 4f 4d c8 3c 9a 03 a1 ba
       -0.004150884 -0.061034635 0.024450926 -0.0012284399
000150 bc 9b 51 bd 62 37 26 3d ef 93 4b 3d 3b 5f 6f bd
       -0.05117391 0.04058016 0.049701627 -0.05844043
000160 ee 8c 92 bd ec 0a 1d 3d c9 2d d4 3c 38 73 84 bd
       -0.071557865 0.038340494 0.025900738 -0.06467289
000170 a2 f2 49 bd f0 19 02 3d 65 09 2f bb 8c 81 64 3d
       -0.04930366 0.031763017 -0.002670848 0.055787608
000180 6b ce cb 3d 97 92 69 bd c2 f1 b9 3d a3 8d 8d 3d
       0.099514805 -0.057024565 0.09079315 0.06911781
000190 c8 f1 83 bd 2f eb 45 bd 4b 13 82 3d 25 10 e0 bb
       -0.064426005 -0.04831999 0.06351336 -0.006837862
0001a0 a0 45 dd bc 29 1e fa 3c 8d c7 b1 bd 39 52 30 3c
       -0.027010739 0.03053196 -0.086806394 0.010761791
0001b0 a8 d4 83 3d ea 16 94 bd fb 73 eb bc 5d e3 b1 bb
       0.06437045 -0.07230933 -0.028741827 -0.005428715
0001c0 f3 30 83 bc 08 de 23 3d f3 22 62 3c 37 14 59 bd
       -0.016014552 0.040006667 0.013802278 -0.052997794
0001d0 da d0 15 bd c6 3d 8f 3d b8 9c c6 bc 87 38 87 bc
       -0.03657613 0.06994204 -0.024244651 -0.016506447
0001e0 dd d5 89 3c c1 dc 42 3d 09 cb 11 3d 85 0b a9 bd
       0.01682561 0.04757381 0.03559402 -0.0825415
0001f0 d8 c3 95 bd 43 49 a6 3d f7 d2 4d bc 5f 12 14 3d
       -0.07312745 0.08119442 -0.012562505 0.036150333

weight f4 [10, 128]
000000 ff 62 d6 3c f9 fe 84 bc dc 30 c8 bc 94 b8 c5 3b
       0.026170252 -0.016234862 -0.02443736 0.0060339663
000010 2b d4 ae bd 77 35 3c ba 47 ea f4 bd 9c 7b cf bd
       -0.085365616 -0.0007179598 -0.11958747 -0.101309985
000020 89 d0 55 3d cf f4 48 bd fc 09 16 bd b0 57 02 3d
       0.052200828 -0.049061593 -0.036630616 0.031821907
000030 b8 d3 2f bd ac bb 97 3b d5 5f cb bd cf 4a f6 bd
       -0.04292652 0.0046305265 -0.09930388 -0.12025987
000040 d7 17 a6 3c 61 df 0d bd 6c 34 d8 3c cd c8 fb 3d
       0.02027504 -0.03463686 0.026392184 0.12294159
000050 16 31 ed 3d 82 ea ad bc da 7d a1 3c ea ed 91 3d
       0.11581628 -0.021229986 0.019713331 0.07125457
000060 19 0b f4 3c f3 fc f8 3c 2c 26 29 3d 81 27 74 bc
       0.029790448 0.030394053 0.04129617 -0.014901997
000070 69 a9 aa bd 97 4f e1 3c 0a f4 f1 bc c2 02 62 bc
       -0.08333094 0.027503772 -0.029535312 -0.013794603
000080 03 bf 3b bd 1b 31 ff 3c 13 21 a0 bd dd 88 92 bb
       -0.04583646 0.031151345 -0.078188084 -0.004471882
000090 e4 fc 1b bd c3 be 07 be d8 98 a2 3c bc b3 7a b9
       -0.038082972 -0.13256364 0.019848272 -0.00023908814
0000a0 9f 19 f8 bc 43 c1 b8 bb c0 14 4f bd 22 90 de bb
       -0.030285655 -0.005638273 -0.050556898 -0.0067920843
0000b0 0f 5b e1 3b f4 64 e6 3c d3 33 fe bd 10 8b 32 bd
       0.00687731 0.02812431 -0.124122284 -0.04358965
0000c0 68 82 39 3d 98 fd b1 bc 6c 96 ad 3b 92 3e 5d bd
       0.04529038 -0.021727368 0.0052974727 -0.05401475
0000d0 6e 7f c0 3c fb 55 19 3e bc da 45 3c 3f 39 83 3d
       0.023498263 0.14974205 0.012076076 0.06407403
0000e0 8f 40 79 3d 0e 0a 94 3c 93 98 f7 3d 9f 88 1a 3d
       0.060852583 0.0180712 0.12089648 0.03772795
0000f0 bc 79 2a 3b be f8 62 3d e4 a9 d5 3d b1 d4 c0 3d
       0.00260125 0.055413 0.10432795 0.09415568
000100 56 a6 0b 3d 3d 5f 12 be 14 5f 58 3d 00 7d 56 3d
       0.034094177 -0.14294143 0.05282505 0.052365303
000110 c8 fa 2f bd 54 18 87 ba 45 db f3 bd d9 c9 da bc
       -0.042963773 -0.0010306933 -0.11907057 -0.026707577
000120 06 f7 ba bd ad d3 a3 bd db c9 b4 bd 75 b1 58 bd
       -0.09129147 -0.07999358 -0.088275634 -0.05290361
000130 da f5 83 bd a0 91 37 3c 5f 4f de 3d 6e 50 a1 bd
       -0.06443377 0.011204153 0.108549826 -0.07876669
000140 2c 4b 3a 3d 3e b5 8c bd c6 74 db bd 6d d2 07 3d
       0.045481846 -0.06870507 -0.10715632 0.033159662
000150 6f ca 50 3c 99 dc 21 3d ad c0 2d 3d 00 63 ad 3d
       0.012743576 0.03951702 0.042420078 0.084661484
000160 d1 bb f9 3c 3b ec 90 bd cc 86 79 3d 06 8e e4 bc
       0.030485066 -0.070763074 0.060919568 -0.027899753
000170 e1 7e ff 3b d0 13 ad bd 59 29 68 bd 40 9b a3 bc
       0.0077971076 -0.084510446 -0.056680057 -0.01997149
000180 53 80 63 bd 43 fb f5 3b 0e fd 3b 3d 01 61 0b 3e
       -0.0555423 0.0075067594 0.04589563 0.13611223
000190 0c 38 1a bd 24 65 a5 bd f3 c6 85 3d 72 53 b0 bd
       -0.037651107 -0.08075932 0.06532087 -0.08609666
0001a0 54 5e b3 3b b0 a1 56 bd d6 f2 86 bb 79 9c c8 3b
       0.0054738913 -0.05240029 -0.004118304 0.0061221686
0001b0 0f ce 04 be 06 9b 19 be 28 51 58 3b 42 94 4e 3d
       -0.1296923 -0.15000543 0.0033007357 0.05043436
0001c0 e9 05 d5 3b 68 60 56 3d e9 79 cd 3d 9e 30 6f 3d
       0.0065009487 0.052338034 0.10033018 0.058395974
0001d0 7a 21 ef 3b bc eb ea bd 95 4c 56 3d 70 4e a9 bd
       0.007297692 -0.11470744 0.052319128 -0.08266914
0001e0 2a 9b 86 bd 87 a1 08 be 18 bf c3 3d 57 71 4d bd
       -0.06572564 -0.13342868 0.095579326 -0.050156917
0001f0 23 9c ea bd 07 22 c7 3d 39 c1 bd bd 01 5b 62 3d
       -0.11455562 0.09723287 -0.0926537 0.05526257
000200 3e 1a 16 bc 11 a0 c6 bd e9 ad d5 3d bd db 19 3d
       -0.00916153 -0.09698499 0.10433561 0.037563074
000210 01 24 61 bd 98 5f ce bd 6d 9e d4 3d b0 64 ce 3d
       -0.054965977 -0.10076827 0.1038178 0.10077798
000220 e3 86 85 3c 5b 38 fc bd 6d 19 a2 3d 27 7f 2b bd
       0.01629967 -0.123154365 0.07915006 -0.04186931
000230 99 ae d1 3d a2 d1 66 3d 22 80 0d be 23 92 29 3d
       0.1023838 0.056352265 -0.1381841 0.041399132
000240 3b 08 96 bc 49 b7 b0 3b 90 76 bd 3b c7 9b 18 bd
       -0.018314471 0.005392943 0.005781956 -0.037257936
000250 c5 00 91 bd b3 1b 21 3d f3 28 96 bd 33 32 c0 3d
       -0.07080225 0.039333057 -0.07332029 0.09384575
000260 30 c3 d0 bd 1d 5a 71 3d ae 5c b9 3d 9e 5a 3a bd
       -0.10193479 0.05892383 0.0905088 -0.045496576
000270 3f 25 e0 3d cc 58 d0 bd 65 0d ba bd 8c 19 f1 bc
       0.10944604 -0.10173187 -0.09084586 -0.029431127
000280 38 a9 97 3c d5 11 dd 3b f5 82 70 3d 43 7d 00 3c
       0.018513307 0.0067465105 0.05871864 0.007842365
000290 c1 a3 03 bd aa fc 95 3d 3c 40 ba bd 41 2d ae 3c
       -0.03213859 0.073235825 -0.09094283 0.021261813
0002a0 8f dc cf 3d 63 38 85 bd 0b dc 61 bd cd 1a 5b bc
       0.1014949 -0.065048955 -0.05514149 -0.013373089
0002b0 4c 3e dd 3c 8f 1e 8d bd 86 39 87 bd a4 a2 62 3d
       0.027007245 -0.06890594 -0.066027686 0.055330887
0002c0 9c 7e ba bc ce 39 5d 3d 0f cc e4 bd 90 e6 b5 bd
       -0.02276545 0.054010205 -0.111717336 -0.08881867
0002d0 39 30 54 3c 01 8b ba bb 6f fc f0 3c 27 2a 12 3c
       0.01295095 -0.00569284 0.029417245 0.008921183
0002e0 02 99 55 3d 57 a6 8b bc 11 35 87 3c 82 c8 f3 3c
       0.052147873 -0.01704709 0.016504796 0.029758696
0002f0 08 68 28 3d b6 3b 70 3d 7d 30 5c bd 51 0d 3f bd
       0.041114837 0.058650695 -0.05375718 -0.04664356
000300 0a 8e c3 bc 71 70 5c 3c 8c 80 d7 bb 39 87 76 3d
       -0.02387144 0.0134545425 -0.0065766033 0.060187552
000310 27 d5 3a bd cd 0a bc 3d c2 43 ed 3d a4 87 03 bd
       -0.045613434 0.091817476 0.115851894 -0.03211178
000320 b4 25 0a bd c7 ed 5e 3d 70 4a 79 bb e5 b2 a9 3d
       -0.033727363 0.05442598 -0.0038038753 0.082860745
000330 19 4b 21 3d 0b 2e 98 bc b4 d9 ca 3d ac e1 73 bb
       0.03937826 -0.018576642 0.09904805 -0.0037213368
000340 9f ae a0 bd 40 4c a1 3c 8d 72 ce bd 7f 29 c5 3d
       -0.07845806 0.01968968 -0.100804426 0.096270554
000350 1e 76 8d bc 36 d5 d4 3c d6 f1 99 3d 1e 63 a5 3d
       -0.017268237 0.025980573 0.0751683 0.08075546
000360 2d 3c b5 3c a1 1b b5 bc 9b 39 f2 3d 71 ec 75 bd
       0.02212342 -0.022107901 0.118273936 -0.06003994
000370 4c 55 22 3d 1a 15 43 3d df a2 fa 3d 2c 32 27 3d
       0.039632127 0.047627546 0.122380964 0.040819332
000380 25 08 c3 3d b3 ba 08 3d 03 87 af bd 70 47 b0 3d
       0.09523038 0.033381175 -0.08570673 0.086073756
000390 e4 d3 b1 3d 52 81 96 bd 0f 53 a8 bd 3b c6 f3 3d
       0.08682993 -0.07348885 -0.08218967 0.11903044
0003a0 f7 46 73 3c b2 1a e9 3c 7e e9 76 3c b9 d8 4f bc
       0.014848462 0.028455112 0.015070317 -0.012685948
0003b0 3d 2d 04 be 0a 1c c4 3c fe 8c fe bd 66 d4 e7 3d
       -0.12907882 0.023939151 -0.12429236 0.11319809
0003c0 50 c2 85 3d 4d 23 4a bd 5b 60 12 bd a8 3e 50 3d
       0.06531203 -0.04935007 -0.035736423 0.050841004
0003d0 51 d9 f0 bc d1 d1 a7 3d 7d bf f0 bd 4a 97 86 3d
       -0.0294005 0.08194316 -0.117552735 0.06571825
0003e0 81 f3 44 bd 2c 94 60 3d 58 0e 75 bd c9 f2 f1 3d
       -0.048083786 0.054828808 -0.059828132 0.11813886
0003f0 8a 84 6b 3d bf 1b d1 bd c4 eb 8e 3d 31 7f b2 3b
       0.057499446 -0.1021037 0.069785625 0.0054472913

bias f4 [10]
000000 fa 31 bd 3c 2f ce 51 bb 4f c6 90 bb fe 24 52 bd
       0.02309512 -0.0032013764 -0.0044181715 -0.05130481
000010 cc f3 a4 3b 79 13 c1 bc a3 91 9c bd 56 ad ec bc
       0.0050339457 -0.023568856 -0.076449655 -0.028891247
000020 48 b1 85 bb 30 9c da 3d
       -0.0040799715 0.10674322
