results/transformations/mapping_files/PCKTAE/FMNIST_PCKTAE_30_3>FMNIST_PCKTAE_30_2>NeuralNetwork_100_0_noisy_16_equally.pth (torch, 11430 bytes, 6 tensors)

weight f4 [16, 30]
000000 cd ec 87 3e 1c 79 a3 bd d0 14 3e bd b3 7e a8 3d
       0.26547852 -0.07982084 -0.046406567 0.08227291
000010 f5 b1 0a 3e 3f cd 82 3e e3 fa 19 be c5 cd e1 bd
       0.13544448 0.25547215 -0.15037112 -0.110255755
000020 7b 86 a0 bd 93 0a 5e be 71 d9 c2 3e 6d 92 bf 3e
       -0.0783815 -0.21683721 0.3805652 0.37416402
000030 48 c5 0c 3e 82 97 cb 3d 33 d3 78 3e 8b 7f 64 3e
       0.13747132 0.09941007 0.24299316 0.22314279
000040 e6 63 79 be 1c f1 d8 be 78 38 b8 3e 07 28 dd 3c
       -0.24354514 -0.42371452 0.35980582 0.026996626
000050 96 36 5c 3e 82 4f cf 3c ec 51 26 3e 73 3e c5 bd
       0.21505198 0.025306467 0.16242188 -0.09631052
000060 29 c4 27 3d 7c f0 e8 bd 60 7d 00 3f 84 56 78 3d
       0.040958557 -0.11373994 0.5019131 0.060629383
000070 6b 29 9e 3e e9 e1 d4 bd 98 5b 28 be 0a 6e 00 be
       0.30890974 -0.103946514 -0.1644119 -0.12541977
000080 69 a5 13 bc 41 db ad 3b 5c cf 2d 3d 52 84 00 39
       -0.009011605 0.005305678 0.04243408 0.00012256324
000090 cb b4 2d bd ea 4e a8 be 37 43 5a bd f2 5c 70 be
       -0.042408746 -0.32872707 -0.053286757 -0.23472956
0000a0 cb 90 22 be 0d 3f 98 3d ee a0 ed 3c 98 86 93 3d
       -0.15875547 0.07433901 0.029007401 0.07203406
0000b0 cc c0 39 bd 7d 44 97 3e 42 c2 9e bd cc 50 95 3e
       -0.04534988 0.2954444 -0.077518955 0.29163206
0000c0 68 1d fc bd 5b 8f 75 3d af 40 d7 bd f9 f0 81 3d
       -0.12310296 0.059951168 -0.10510384 0.0634479
0000d0 93 9a 19 be 65 98 01 3d 80 3c c3 bd 9b 78 a3 3d
       -0.15000372 0.031639475 -0.09533024 0.07981988
0000e0 ad b7 56 3e 9e b2 66 3e a5 a9 4f 3e e5 12 5a 3d
       0.20968504 0.22529075 0.20279558 0.053240675
0000f0 b0 47 86 be 05 1b 23 be c8 e7 f3 bb 1c 25 8b be
       -0.26226568 -0.15928276 -0.007443402 -0.2717675
000100 69 e9 9b be 50 d0 32 be 11 f2 79 3d b4 7c 8a 3d
       -0.30451515 -0.17462277 0.06102187 0.067620665
000110 7a 4e 35 be 7c 91 52 3e 80 48 70 3e ce 56 66 3c
       -0.17705718 0.2056331 0.23465157 0.014058782
000120 98 14 23 3e 22 9e 99 be 42 e4 20 be 15 33 7e 3c
       0.15925825 -0.30003458 -0.15712073 0.015515109
000130 ab dc 22 bd df 5d cc 3e 59 45 86 be 5a dc 01 3e
       -0.039761227 0.39915368 -0.26224783 0.12681714
000140 5c 01 22 be 75 2f 58 3e 07 71 e0 bd 60 eb cb be
       -0.15820831 0.21111853 -0.10959058 -0.39828014
000150 e2 95 8f bd c0 f7 06 bc 1e 43 ab be cd 46 0a bd
       -0.0701101 -0.008237779 -0.33449644 -0.033758927
000160 d8 19 37 3e 24 47 7e 3e 5a d4 c9 bd ba dc e7 3d
       0.17880952 0.24831825 -0.09854956 0.11321397
000170 d1 2c 44 bd 50 e0 1a be 33 71 30 bd 87 fb 7a 3d
       -0.047894303 -0.15124631 -0.043076705 0.06127503
000180 00 46 58 3d 36 12 1a bd 10 f3 5b be 65 12 0b 3e
       0.052801132 -0.037615024 -0.2147944 0.13581236
000190 8e 79 b2 bd a0 8a 25 3d 83 b9 52 3e 7f d9 4b bd
       -0.08714591 0.040415406 0.2057858 -0.049767967
0001a0 1f 04 2b be fa 33 e1 bd f1 6e 8e 3d 18 b0 36 3e
       -0.16700791 -0.10996242 0.06954754 0.17840612
0001b0 38 95 b4 be 66 a2 0b be 38 e4 af be 64 83 7c 3e
       -0.35270095 -0.13636169 -0.34353805 0.24659497
0001c0 e5 4b 54 bd 91 73 b5 be 5d 62 81 3e 2b 64 14 3e
       -0.05183019 -0.35439733 0.25270358 0.14491336
0001d0 94 76 12 3e 7f b5 63 3d 14 66 57 3a 4a 30 76 3e
       0.14303046 0.05559301 0.000821681 0.24041858
0001e0 c7 71 9c be ff 97 6b be dd 71 1f be ad bb c3 3e
       -0.30555555 -0.230072 -0.15570779 0.38229123
0001f0 fa f8 5c 3a 37 75 27 be c7 aa e3 3d 99 5b 26 be
       0.00084294344 -0.16353308 0.111165576 -0.16245879
000200 72 a9 1f be e1 ad 7c 3e 22 a8 ca bd 1c c7 19 be
       -0.15591982 0.24675705 -0.0989535 -0.1501736
000210 0f 1f 38 bc 5d 36 1e bd 86 7c 76 be 27 94 3b be
       -0.011237874 -0.038626064 -0.2407094 -0.18318234
000220 85 01 c9 3d 97 51 12 be 3a f3 b2 bd c3 08 94 3d
       0.09814743 -0.14288937 -0.08737798 0.07228234
000230 02 18 07 be 18 18 e4 bd e0 58 7e bc d2 15 f0 bc
       -0.13192752 -0.11137408 -0.015524119 -0.02930728
000240 74 0f 1a bd dc 7e 11 3e 6e 5c 06 bd e6 13 9c be
       -0.037612393 0.1420855 -0.03280299 -0.3048393
000250 3d 1f 55 3e a5 44 3e bd d9 b1 52 3d a1 1e b1 bc
       0.20812698 -0.046452183 0.05143914 -0.02162105
000260 c1 85 c0 3c fd 8c 26 be 2c 3a 23 bd 5a 14 c9 3d
       0.023501279 -0.1626472 -0.0398504 0.09818335
000270 9c ab 4d 3d 48 eb 12 bd 79 3c 61 be 63 02 38 3e
       0.050212488 -0.035868913 -0.21995725 0.1796966
000280 fd 99 71 3e 39 67 e0 3d 43 c2 76 be 5d 55 46 3e
       0.23593898 0.10957188 -0.24097542 0.19368501
000290 25 19 17 3d 4b c7 71 3d 38 12 2c 3d cc 0d 15 be
       0.036889214 0.05902795 0.042009562 -0.14556044
0002a0 01 c8 90 bd fd 62 80 3c 1a 32 45 3e 58 14 79 3e
       -0.07069398 0.015672201 0.19257393 0.24324167
0002b0 e8 a3 bb 3d 7b 4a 12 3e eb 78 8e 3e 51 dc e4 bd
       0.09162122 0.14286225 0.27826628 -0.111748345
0002c0 9c 6b 78 3d de 21 34 be 70 e7 93 3d f3 c4 d5 3d
       0.0606495 -0.17591044 0.072218776 0.10437956
0002d0 bd c3 40 3e 6c 91 1f 3e 19 a4 91 be 4b dd 25 be
       0.18824668 0.15582818 -0.2844551 -0.16197698
0002e0 09 d7 e6 3b f2 c3 47 3e 62 46 93 be 22 ce 88 3e
       0.007044677 0.19508341 -0.28764635 0.26719767
0002f0 e1 d2 6a bd 00 9c 0c bc 8e b2 c3 3e 74 b9 98 3e
       -0.057330016 -0.008582115 0.38222164 0.2982899
000300 35 3e 30 be 2b 5e 87 3e ba 7d 32 3e 56 72 1f 3e
       -0.1721123 0.26439032 0.17430773 0.1557096
000310 31 e9 80 be ee 53 a3 be d9 48 41 3e 5d 42 a6 bc
       -0.2517791 -0.3189997 0.18875445 -0.020295316
000320 b1 2e ac 3e 6c 41 51 be 8f b3 e4 3d f2 a3 fc 3c
       0.33629373 -0.20435113 0.111670606 0.030839894
000330 5b ba 54 be 8f aa 98 be ee d7 af 3e 2a be 25 3e
       -0.20774214 -0.29817626 0.3434443 0.16185823
000340 2a e6 17 be 3b f9 83 be 55 9e 04 bd 27 3e f3 3c
       -0.14833894 -0.25776085 -0.03237756 0.029692722
000350 e1 fb db bb 01 25 f8 3d 1b 7c 7a 3d 3f e2 fa bd
       -0.006713376 0.12116433 0.061153512 -0.12250184
000360 4e fb 97 3e 82 80 78 be b7 e6 27 3d 18 83 89 3e
       0.29683918 -0.24267772 0.04099151 0.2685783
000370 1e de c0 3d 7b a5 a1 bd 14 45 b8 3d b7 93 8a 3d
       0.094173655 -0.07892891 0.089975506 0.067664556
000380 84 e3 9a be ec cb c3 be 04 11 86 be fa 74 ba 3e
       -0.30251706 -0.38241518 -0.26184857 0.3641737
000390 29 e7 e5 3d 86 ee 0d 3e 06 47 ae be a3 10 88 3d
       0.11225731 0.1386052 -0.34038562 0.06643798
0003a0 37 e6 3d be 0c 86 22 3d 3e dc cf bc fe 59 fc 3d
       -0.18544851 0.03967862 -0.025373574 0.12321852
0003b0 09 a0 4f be 53 f7 38 bd a2 43 af bd 94 8b 13 3d
       -0.20275892 -0.04515774 -0.08557822 0.036021784
0003c0 51 ab 1a be 74 df 06 be 8d 80 93 be e7 b1 ef bc
       -0.15104415 -0.13171178 -0.28809014 -0.029259635
0003d0 01 1a a0 3e 03 45 89 3e 10 aa 60 3d 9f 94 4f be
       0.3126984 0.26810464 0.054849684 -0.20271538
0003e0 ef 2b fe bd e7 3f 84 3e 97 4d 1a 3e 86 5a b4 3d
       -0.124107234 0.25830004 0.1506866 0.088063285
0003f0 e4 a1 51 3e da 1f ca 3c 52 8c 12 bd bb 8b fa 3c
       0.20471913 0.024673391 -0.03577835 0.030584207

bias f4 [16]
000000 17 02 5f 3e 75 3d f2 bd bc c8 a1 3e 75 ae a8 3e
       0.21778141 -0.11828128 0.3159846 0.329456
000010 01 2c f5 3c e9 77 16 3e b2 fc a6 3d 60 31 6a 3e
       0.02992821 0.1469418 0.081536666 0.22870398
000020 56 92 c1 bc 99 2e 3c 3d 61 19 3f 3e 02 24 2f 3e
       -0.023629349 0.045942876 0.18662025 0.1710358
000030 a8 90 9e 3e 61 3b a7 3e 47 f2 e4 bb d1 3f 6f 3e
       0.3096974 0.3266249 -0.0069868895 0.23364188

weight f4 [16, 16]
000000 2d 20 e3 3e 44 76 01 3d df b8 c3 be d7 36 1b be
       0.44360486 0.031606928 -0.38226983 -0.15157638
000010 db 0f 36 be bb 1b d3 3d e6 29 fe 3e ab 37 b9 be
       -0.17779486 0.103080235 0.4964134 -0.36175284
000020 db 97 69 bd 74 7d 9e 3e 5c 1f f6 bb 47 73 c3 bd
       -0.057029586 0.30955088 -0.0075110625 -0.09543472
000030 15 68 36 bd 57 82 d9 3e 55 4c 80 be 96 8b 82 3e
       -0.044532854 0.42482254 -0.25058237 0.2549712
000040 8b a3 3b be 1e 5e 53 bc b4 ce 96 be 0b 81 bd be
       -0.18324105 -0.012900857 -0.29454577 -0.37012514
000050 df c9 81 bd 87 80 53 be 8d e6 fa bd 82 66 8b be
       -0.06337332 -0.20654498 -0.12251005 -0.27226645
000060 0f 70 e5 bd 31 92 d0 bd 17 8d 01 be 96 ea b1 3b
       -0.11203014 -0.10184134 -0.12651478 0.005429576
000070 60 d6 8d be f8 be 18 be 6d 3a 5a 3c e6 0a 17 be
       -0.27702618 -0.14916599 0.013319594 -0.14750251
000080 78 58 aa be c8 b6 0e 3c b5 e8 95 bd d5 9b cc bd
       -0.3327062 0.008710571 -0.07319776 -0.0999066
000090 5e 39 82 bd e7 1b ce bd be 0e 9d bd 86 98 ab 3d
       -0.06358598 -0.10063916 -0.076688275 0.08378701
0000a0 2b 0c 90 be 58 63 2c bd 6d a3 61 be 26 19 2f bd
       -0.28134283 -0.04208693 -0.22034998 -0.042748593
0000b0 c1 1d 75 be 83 00 9b be 83 0a d6 bd 19 59 95 be
       -0.23937131 -0.30273828 -0.10451224 -0.2916954
0000c0 af 88 8c be e8 0b dc 3d 5a a4 c5 3d 4b 8c 41 be
       -0.2744803 0.107444584 0.09650488 -0.18901174
0000d0 eb 06 91 be 62 a8 0a 3e c5 81 b6 3d a3 1a ae bd
       -0.2832559 0.13540795 0.0891147 -0.08501174
0000e0 e2 e1 4f be 97 f0 8f be a9 4b 20 3e 53 48 b5 bd
       -0.20301011 -0.28113243 0.15653862 -0.088516854
0000f0 67 58 32 3e d3 59 4d be 8c a2 53 be 4f 76 3c 3e
       0.17416535 -0.20053796 -0.20667475 0.18404506
000100 16 98 a1 be de 2f bc 3d 8f 0c 80 be e5 db 03 3d
       -0.31561345 0.091888174 -0.2500958 0.03219213
000110 c8 47 a5 be c1 4f 2a be c2 2e 87 be ab eb f5 3d
       -0.32281327 -0.16631986 -0.2640286 0.12007841
000120 8d 5b cc bd 57 d4 06 3e af b0 ed bd c8 f4 8e be
       -0.099783994 0.13166939 -0.11605965 -0.27921128
000130 fd c4 44 be f2 a2 88 be ae cf 4c 3d 2e 59 43 be
       -0.1921577 -0.26686817 0.050002746 -0.19076988
000140 d4 96 83 be ac d2 ca 3d 80 70 c2 bd 6b 85 a4 be
       -0.2570101 0.09903464 -0.09494114 -0.3213304
000150 cb b0 41 be c1 09 07 3c 60 d5 7f be bb dc a1 bd
       -0.18915097 0.008242072 -0.2498374 -0.07903429
000160 6d cf e5 bd 8f 1d ec bd 86 40 42 be 77 74 32 be
       -0.11221204 -0.11529075 -0.18969926 -0.1742724
000170 46 b1 2c be ba c9 7f be dc 17 b4 bd 80 73 52 be
       -0.168645 -0.24979296 -0.08793613 -0.20551872
000180 a2 c2 14 be 1d 7e 98 be 87 5a a9 bd 34 27 0c be
       -0.14527372 -0.29783717 -0.0826922 -0.1368683
000190 ab 5c 48 3d 1c 37 57 be 8c 39 a3 be 12 31 a0 be
       0.0489165 -0.21017116 -0.31879842 -0.31287438
0001a0 b4 0b bb be e6 59 96 be 9a a6 44 bd d6 1f 82 be
       -0.36532366 -0.29365462 -0.048010446 -0.25414914
0001b0 d7 56 b9 3b b1 fa 3f bd 49 37 ef 3d a9 45 49 bd
       0.005656104 -0.046869937 0.11680467 -0.0491387
0001c0 00 fb 7e be 59 a6 57 be ab a0 9e be 0b a6 18 be
       -0.24900436 -0.2105955 -0.30981955 -0.1490709
0001d0 87 74 75 be 49 3a 8a be d6 25 66 3d 2e 65 34 3c
       -0.23970233 -0.26997593 0.056188427 0.011010451
0001e0 23 03 de 3d 10 57 bb bc 25 e3 8d bd 80 49 64 be
       0.10840442 -0.022868663 -0.0692809 -0.22293663
0001f0 28 38 06 3d c7 c3 0a be f5 bd 18 3e a9 53 a7 be
       0.0327684 -0.13551246 0.14916213 -0.32681015
000200 fb b4 23 3e 86 c7 a8 ba 8a 83 95 be 7b ef 65 be
       0.15987007 -0.0012876845 -0.2920192 -0.22454636
000210 90 4e c3 3c c0 39 70 be 08 c6 50 be 3c 3d a5 bb
       0.023841172 -0.2345953 -0.20388043 -0.0050427
000220 87 c5 0f 3e 68 2f 84 3c ff 97 ae 3d d1 34 b2 3d
       0.14040194 0.016135886 0.08525085 0.0870148
000230 e5 9a 15 bd ee c0 94 be 54 ea cf bd 7b 69 ea bd
       -0.036524672 -0.29053444 -0.101521164 -0.114459
000240 88 34 8c 3e aa c4 34 3d 50 c4 45 be e1 65 a8 3d
       0.27383828 0.044132866 -0.19313169 0.08222557
000250 10 e6 22 3e df 5b f0 bc 03 d4 5f 3e d2 31 21 bb
       0.15908074 -0.029340683 0.2185822 -0.0024596346
000260 4c 67 70 3e 57 91 df bd d0 9a be be 67 ca 94 3d
       0.23476905 -0.10916393 -0.37227488 0.07265168
000270 0c a6 46 be 45 1a a4 3e 44 79 8f be f8 a6 21 be
       -0.1939928 0.32051292 -0.28022206 -0.1578635
000280 5e e2 cf bd 89 3c c4 be 39 81 33 be f7 5f 08 be
       -0.10150598 -0.38327435 -0.17529763 -0.13317858
000290 f8 03 dd 3d dc 07 87 3d ba 42 b7 3d 51 6d d7 bd
       0.107917726 0.06593296 0.08948274 -0.10518897
0002a0 7a 2c 58 bd aa 1b b4 bd eb 66 c4 be 16 27 f8 bd
       -0.05277679 -0.08794339 -0.3835977 -0.1211683
0002b0 69 2a bd be 8a 27 8a bc 1e 5e ba 3d b1 4a 57 bd
       -0.3694642 -0.016864557 0.09099983 -0.052561466
0002c0 42 62 67 be 18 c3 fc 3d 6c f0 93 be 80 c9 a8 be
       -0.22596076 0.12341899 -0.28894365 -0.32966232
0002d0 be a7 49 be 6c e9 a6 be f7 b3 9c 3d 59 ee 14 be
       -0.19692895 -0.32599962 0.07651513 -0.14544047
0002e0 15 1e 6e be 6e 88 95 be 9e 30 42 be 87 ba 32 be
       -0.23253663 -0.2920565 -0.18963858 -0.17453967
0002f0 09 67 8f ba d5 66 ab be de 5b 33 3d 60 e1 d2 3d
       -0.0010940741 -0.33476892 0.043788783 0.10296893
000300 27 5a 20 bd ba 87 9e 3a 12 53 66 bd 51 d7 75 be
       -0.039148476 0.0012094893 -0.056231566 -0.24007918
000310 f5 8a 6c bd f5 e0 c5 bd 0b c8 89 bc af c0 82 bd
       -0.057749707 -0.09662048 -0.01681902 -0.06384408
000320 5d b3 c5 bc bf 2d 71 3d 9c 3a a5 be fd ff b5 be
       -0.024133379 0.058881517 -0.32271278 -0.35546866
000330 76 17 5a be a6 ff 3e 3d d2 76 1d be f6 c7 40 be
       -0.21298012 0.046630524 -0.15377358 -0.18826279
000340 9a 43 85 bd 89 79 25 3d 80 35 80 bd d1 c5 bb be
       -0.065070346 0.040399108 -0.06260204 -0.3667436
000350 f2 fd 5d be 01 67 20 be e0 90 0d be fb 80 de bd
       -0.21678904 -0.15664293 -0.13824797 -0.10864445
000360 fa f0 99 be 60 8f e7 3c 29 96 af be 77 4f 00 3e
       -0.30066663 0.028266609 -0.3429425 0.12530313
000370 bc fd ee bc 52 7b 4e 3d e4 37 99 be 37 73 ba be
       -0.029173724 0.050410576 -0.29925454 -0.36416027
000380 ea 44 56 be 1b 1c 14 be c3 f5 70 be c8 8b 2b be
       -0.20924726 -0.14463846 -0.2353125 -0.16752541
000390 d2 b3 04 bd a6 70 24 3e d3 47 31 bd 56 9b 2c be
       -0.032398053 0.16058597 -0.043281388 -0.16856131
0003a0 1d ed 38 be 6f 65 17 be b3 5b c8 3d 70 84 ea 3d
       -0.18059202 -0.14784788 0.09783115 0.11451042
0003b0 19 31 0f 3d 91 f7 e7 3d 14 1b 88 be 75 93 af bd
       0.034958933 0.113265164 -0.2658316 -0.08573047
0003c0 40 a7 e3 3d ae 4e 3f bd be 61 96 bd d3 c4 8e be
       0.11115885 -0.046705894 -0.073428616 -0.2788454
0003d0 5f 6b 5c 3d e8 d9 1c 3d 50 04 51 be 90 cd 86 be
       0.053813335 0.03829375 -0.20411801 -0.26328707
0003e0 5c e2 48 be 0f 40 c3 bd 3f 44 8d be 13 d6 4f be
       -0.19617599 -0.095337026 -0.2759113 -0.20296507
0003f0 13 17 12 be cf cc 32 be 95 e2 fc bd 4b 1d 9d be
       -0.14266615 -0.17460941 -0.123479046 -0.3068641

bias f4 [16]
000000 18 7c 31 3e 74 1e ee 3c aa 26 59 be 14 55 8d be
       0.17332494 0.029067256 -0.21206155 -0.27603972
000010 43 93 9a be 24 76 bb be f5 20 54 bd 74 12 89 bd
       -0.30190477 -0.36613572 -0.051789243 -0.06692973
000020 57 41 e4 bd 4f d4 99 be 99 ac 14 3e 84 4d f4 bd
       -0.11145275 -0.3004479 0.14518966 -0.119288474
000030 5e 84 97 bd e5 8b 16 be b8 c0 70 be e1 f9 9e be
       -0.07398294 -0.14701803 -0.23511016 -0.31050017

weight f4 [30, 16]
000000 a4 20 ff 3b 3b e9 a8 bc bd b2 e7 bc 85 c5 d4 bd
       0.0077858735 -0.020619025 -0.028283471 -0.10389236
000010 1c a9 f7 bd f3 bc ed bd d4 11 1a 3d d1 ad 17 be
       -0.12092802 -0.11608305 0.03761466 -0.148124
000020 d4 25 6b bd 5e e0 0d bd 7e 47 00 3d a0 f6 c9 bd
       -0.057409123 -0.0346378 0.03131818 -0.09861493
000030 80 a4 f6 3b d0 15 01 be b9 47 36 bd f1 14 1f be
       0.007526934 -0.12605977 -0.044501994 -0.15535332
000040 32 e4 2f 3c d6 21 0e 3d a1 c9 cf bd 6f e3 8a 3b
       0.010735558 0.034700237 -0.101458795 0.004238538
000050 ee 63 a5 3c a0 14 8f 3d d6 bf 44 3c bb 88 b7 bc
       0.020189252 0.06986356 0.012008628 -0.022404065
000060 8c 2b 03 bd f4 7b 83 bc e3 b7 32 3c a8 90 02 3e
       -0.03202395 -0.016050316 0.0109081 0.12750494
000070 94 4d 34 3b 3e 8d 3d 3c 90 0c 06 3d c8 91 2d bd
       0.002751206 0.011569319 0.032726824 -0.042375356
000080 ad b8 a3 3c c6 6e 81 bb be 06 9c 3d b2 0c 0e bd
       0.019985521 -0.003949973 0.076184735 -0.034680076
000090 e8 2e 24 3b 8b fd dc bd 77 a7 dd 3b 99 dc 2d 3c
       0.0025052372 -0.10790547 0.006764348 0.010611677
0000a0 65 7f ee ba a8 4c 42 3d 4c 14 91 3d 36 4d f4 3d
       -0.0018195926 0.047436386 0.070839494 0.11928789
0000b0 f8 dc 1d 3d 2e a4 d8 3d 88 03 bd 3c 5f fc 12 3d
       0.03854081 0.1057819 0.023072973 0.03588521
0000c0 7f 98 4b bd d8 5d 3c be ee a2 3f be 73 24 95 bd
       -0.04970598 -0.18395174 -0.18714496 -0.07282343
0000d0 54 d5 87 be 72 de 80 3d 59 00 00 be 45 66 7b bd
       -0.26529944 0.06292428 -0.12500133 -0.06137683
0000e0 4f d7 be bc 38 8c 68 bd d2 2f cc bd 9d 81 f4 3d
       -0.023296027 -0.056774348 -0.099700585 0.11938784
0000f0 60 ef ba 3d 5e ee 3b be 76 74 cd bd cc 1d 30 bd
       0.091276884 -0.18352649 -0.10031979 -0.042997167
000100 4b 5f d4 3d 11 e1 1c 3e 79 5f d0 3c 38 05 fa 3d
       0.10369738 0.15320231 0.02543615 0.12208027
000110 b3 6b 76 bc de 63 0e 3d 62 2c 08 3e 07 11 d7 3d
       -0.015040326 0.03476321 0.1329818 0.105012946
000120 b2 f5 76 3d f6 b7 b0 3d 99 1d 11 3d 5a 3f c4 3d
       0.060292907 0.08628838 0.035428617 0.09582396
000130 cc 88 d4 bd 9c 9c d3 3d 07 57 d5 3d f1 62 d5 bd
       -0.103776544 0.10332605 0.1041699 -0.10419262
000140 b4 c5 a9 3c 6c bf 9f bc 8c 27 e3 bc ae d2 95 bb
       0.020724155 -0.019500457 -0.027728818 -0.004572234
000150 40 e6 2a 3e 92 6e 1f 3e 6b 04 42 3d 11 af 53 bc
       0.16689396 0.15569523 0.047367495 -0.012920157
000160 42 c4 33 3d 54 1e 83 3b 58 c4 5e 3d 73 2f 27 3e
       0.043888338 0.004001418 0.054386467 0.16326694
000170 a1 ca c4 3d b1 22 09 3e a7 2b dd bb 56 bd c6 bd
       0.09608961 0.1339214 -0.0067495885 -0.09704082
000180 f9 da 1e bd df 95 86 bd 29 05 0a be d0 07 a6 3c
       -0.038783047 -0.065715544 -0.13478531 0.020267397
000190 b3 af 9d 3d 18 40 49 be 1a 9f 90 bd 96 cc 27 bb
       0.076995276 -0.19653356 -0.07061596 -0.002560412
0001a0 30 fe b8 3c a3 d1 5f 3d c2 6b a6 3d 5b e2 3e be
       0.022582144 0.054643285 0.08126022 -0.18641035
0001b0 c0 ad 95 3d d0 5e 3d be 34 3c a8 bd d7 ad cd 3d
       0.07308531 -0.184932 -0.08214608 0.10042923
0001c0 d0 db 68 bd b2 0f be bd b7 96 57 be 94 70 9e bc
       -0.056850255 -0.092803374 -0.21053587 -0.01934079
0001d0 2a 26 cc bb 2a ca 95 bd 73 61 00 3d dd a2 db 3d
       -0.0062301354 -0.0731395 0.031342935 0.10724423
0001e0 3c da d7 3d 2c e8 16 3d f3 4f d5 3c 56 7d 20 3e
       0.10539672 0.03684251 0.0260391 0.15672812
0001f0 be 2a f7 3d 35 89 f5 bd 38 32 8e bd 29 0c a2 3d
       0.12068699 -0.11989061 -0.06943172 0.079124756
000200 b3 26 47 3c 45 00 2e bc 65 c3 0c 3e 38 7e 17 be
       0.012155223 -0.010620181 0.13746412 -0.14794242
000210 67 30 ab 3d aa 1a 6d bb 60 d5 0d 3d d4 7e 5b 3d
       0.083588414 -0.0036179223 0.03462732 0.05358775
000220 1d f1 d4 3c 51 5b ec 3c 21 63 45 bd 0c 6f 11 be
       0.025993878 0.028852137 -0.04819024 -0.14202517
000230 54 2d d4 3d af eb 06 3e 24 3f 3f bc ec 75 b4 bd
       0.10360208 0.13175844 -0.011672769 -0.08811554
000240 13 36 64 3c f3 83 aa bd 9a 6c c7 3c 43 8a 83 3c
       0.013928908 -0.083259486 0.024343777 0.01605714
000250 ef 4a d7 3c 3b 32 f6 3d 05 67 86 3c 8a 20 9b bd
       0.026280848 0.120212995 0.016406545 -0.07574566
000260 a0 17 3e bd 24 12 df ba 43 02 58 3d 2d 32 06 be
       -0.04640925 -0.0017018956 0.052736532 -0.13105078
000270 8f b4 93 3c 37 85 87 bd 9b fe 29 bb 49 f8 b9 3d
       0.018030433 -0.066172056 -0.002593911 0.0908056
000280 ee 78 4b bb 70 1c 83 bd 45 26 06 be e8 b4 14 3d
       -0.0031047422 -0.064019084 -0.13100536 0.03630534
000290 37 2e c0 3d 0a a0 1b bc 59 c3 8b 3c 1e 22 f0 bd
       0.09383815 -0.0094986055 0.017060922 -0.11725257
0002a0 a9 0c 32 3d 27 56 10 3d 6e a0 b5 3c b9 03 e2 bd
       0.043469105 0.03523841 0.022171225 -0.11035866
0002b0 cc 06 26 3d d3 70 5a 3d cf f9 fa 3b 0a 2b 49 bd
       0.040533826 0.053330254 0.007659174 -0.04911331
0002c0 9e 99 11 bc 7a ee 2f bd 7f 07 23 3e 71 b6 2e 3e
       -0.008886723 -0.04295204 0.15920828 0.17061783
0002d0 1c 95 e4 3d 0e ca 11 be db 20 25 3e ef 3c 81 3d
       0.11161253 -0.14237234 0.16125815 0.0631045
0002e0 ac 8e d3 3d 47 51 3e bc c1 c4 ee bd 63 30 1f 3e
       0.10329947 -0.011616058 -0.116586216 0.15545802
0002f0 fd 46 b0 bd 64 2a 6e bd 5d d0 3d 3e 05 7b 1f 3e
       -0.0860729 -0.058145896 0.18536516 0.15574272
000300 90 a6 b2 3c e8 ce a3 bd d6 30 65 bc a0 4e b0 bb
       0.021807939 -0.079984486 -0.013988694 -0.0053804666
000310 d7 e2 79 bd 67 f6 8a bc d8 a8 0f bd 28 5d e6 bc
       -0.061007347 -0.016963197 -0.03507313 -0.028120592
000320 0b 4d ab 3d c1 4e 40 3c 3e 29 c0 bc 90 49 af bd
       0.08364304 0.011737526 -0.023457166 -0.08558953
000330 7a 89 f6 3c e7 40 e8 3d a1 29 97 bc a3 ea 4a 3d
       0.03009485 0.11340504 -0.018452467 0.049540173
000340 23 e2 0f 3e d0 c6 4f 3e 5f 30 82 3c 41 b9 62 be
       0.14051108 0.20290685 0.015892206 -0.22140981
000350 5a ea be bd 98 db f8 bd 55 42 97 3c 71 1c ac 3d
       -0.09322043 -0.12151259 0.018464247 0.08403862
000360 8b 2f 20 bb f6 90 31 3e 93 34 aa 3e 04 ff 07 be
       -0.00244424 0.17340454 0.33243236 -0.13280874
000370 4e 7b 53 3e cd b0 eb 3d 13 ce 7e 3d 78 41 59 3e
       0.20652506 0.115083314 0.062208246 0.2121638
000380 d6 54 d4 39 69 03 c2 bd 05 c1 36 3b 9e 84 c4 bd
       0.00040499 -0.09473307 0.0027886045 -0.09595607
000390 62 93 ea 3d 47 96 9c bd 3c 58 8c bc 2f 37 9e bd
       0.11453892 -0.07645851 -0.017131917 -0.07725369
0003a0 f9 6a 59 3c 31 e8 f8 bc bd 5c bc 3d c7 6a 15 bd
       0.013270133 -0.030384155 0.09197376 -0.036478784
0003b0 13 8c ba ba 33 37 f0 bd 64 8e f8 3b c5 54 81 bd
       -0.0014232419 -0.117292784 0.0075853337 -0.06314997
0003c0 fe 20 76 be 85 51 92 3d 1c 53 d3 38 b3 20 b7 3d
       -0.24036023 0.07144455 0.000100767444 0.08941784
0003d0 0c 75 2b bd ff e0 ca 3d 96 f9 db 3c 9c b8 41 3e
       -0.04185967 0.09906196 0.02685241 0.18918079
0003e0 04 ff 91 3d de 8c 7a be 76 7a d4 bd 89 95 92 3d
       0.071287185 -0.24467799 -0.1037492 0.07157428
0003f0 a4 fe 73 be 58 93 ba 3d f8 97 7f bd 16 49 46 be
       -0.23827606 0.09110135 -0.062400788 -0.19363818

bias f4 [30]
000000 de 6e 1b 3c 35 7a 8e 3c 98 ae 05 3c e0 e7 88 3d
       0.009486882 0.017392257 0.008159302 0.06684852
000010 ad f3 05 be fd 43 48 bd d1 b3 1e 3d da e8 d1 3c
       -0.13081236 -0.048892964 0.038745705 0.025623728
000020 0b 16 b3 bc 54 ee 7f 3c af 38 ac 3c ae b8 e4 bb
       -0.021861097 0.015620787 0.021023123 -0.0069800233
000030 46 53 db bc c7 be be bd 38 c4 27 bc 84 bf 0e 3e
       -0.026773106 -0.09313732 -0.010239653 0.13940245
000040 99 b1 62 3d 35 76 43 3d ea 1d 11 3c 1e 8b 55 3c
       0.05534515 0.047720153 0.00885723 0.013033656
000050 9c 5d b7 3c 9f 92 3c bc d1 e4 42 3b 5c d0 ec 3d
       0.022383504 -0.011509567 0.0029738436 0.11563179
000060 1b d7 bd 3b 02 9b fc bc e8 b2 7b 3d db fa e0 3b
       0.005793465 -0.030835632 0.061449915 0.006865842
000070 88 7a 1c bd 09 b3 06 bd
       -0.038202792 -0.032885585
