results/transformations/mapping_files/PCKTAE/FMNIST_PCKTAE_10_2>FMNIST_PCKTAE_10_1>NeuralNetwork_200_0_nodropout_16_equally.pth (torch, 8846 bytes, 6 tensors)

weight f4 [16, 10]
0	0x3eb56b25	0.35433307
1	0xbd8179f4	-0.06322089
2	0x3e55c5c8	0.20876229
3	0xbede1bb4	-0.4338051
4	0xbe53fda3	-0.20702223
5	0xbe3df3db	-0.18550055
6	0xbf06278f	-0.5240411
7	0x3bfc2ac7	0.007695529
8	0x3e9769c9	0.29572895
9	0xbca774ab	-0.020441374
10	0xbdb6a8dc	-0.08918926
11	0xbe2dfb50	-0.169904
12	0x3cf7b7b9	0.030238973
13	0xbed062d3	-0.40700397
14	0x3e709a0e	0.23496267
15	0x3e4586ec	0.1928975
16	0xbe400e81	-0.18755533
17	0x3c80f7f9	0.015743243
18	0x3f03ff44	0.5156138
19	0x3e18eb3e	0.14933488
20	0x3e74616c	0.23865288
21	0xbd287a06	-0.041131996
22	0xbe5437e0	-0.2072444
23	0xbd711da1	-0.058866147
24	0xbeb1695e	-0.346507
25	0xbe8f9274	-0.28041422
26	0xbedfb820	-0.43695164
27	0xbe2f9cae	-0.17149612
28	0xbee23228	-0.4417889
29	0xbe4ebf0c	-0.20190066
30	0x3e5723e7	0.2100979
31	0x3e016e6c	0.12639779
32	0xbe85a11d	-0.26099482
33	0x3e90c6bd	0.28276625
34	0xbea3b4de	-0.31973928
35	0xbe6ae2fe	-0.22938153
36	0x3eb8e36a	0.36111003
37	0xbd1827c5	-0.037147302
38	0x3eea3c10	0.4574895
39	0x3d9b232b	0.07575067
40	0x3d7d0e5c	0.061781272
41	0xbdb031ca	-0.086032465
42	0xbee2bd60	-0.44285107
43	0x3d80af97	0.06283491
44	0x3ee4ac26	0.4466259
45	0x3ef62001	0.48071292
46	0x3cfdc7d4	0.030979075
47	0xbe6c7e76	-0.23095116
48	0xbdbf3fdc	-0.09338352
49	0xbece48d6	-0.40289944
50	0x3e046d18	0.12932241
51	0x3eb95992	0.3620115
52	0xbef304e5	-0.47464672
53	0xbf03928a	-0.51395476
54	0xbdfe98ac	-0.124314636
55	0xbdfc39f9	-0.12315745
56	0xbdfedaab	-0.12444051
57	0x3e87cd34	0.26523745
58	0xbe925263	-0.2857848
59	0xbd2742e9	-0.040835295
60	0x3eb22b78	0.3479879
61	0xba7da556	-0.0009675821
62	0x3ec1d479	0.37857416
63	0x3d8625d3	0.06550183
64	0xbe9e98b3	-0.30975875
65	0xbe1f03f9	-0.15528859
66	0x3e930266	0.28712767
67	0xbb1eed7b	-0.0024250436
68	0xbdf44c10	-0.1192857
69	0x3e5a3795	0.21310265
70	0xbd01c1fb	-0.031679135
71	0xbecbb696	-0.3978774
72	0xbe5832ed	-0.21113177
73	0x3dc5c988	0.0965758
74	0x3e168396	0.14698634
75	0x3e3f12b3	0.18659477
76	0xbb98f2f4	-0.004667634
77	0xbec4e12d	-0.38453045
78	0xbe9b4e18	-0.30333018
79	0x3dcf7c4c	0.101311296
80	0x3dce1488	0.1006251
81	0xbe1921e0	-0.14954329
82	0x3d8bdb89	0.068289824
83	0x3e62ffa2	0.22167829
84	0xbee5b074	-0.44861186
85	0x3e9864bd	0.29764357
86	0xbd9d2de5	-0.07674769
87	0xbe9a81da	-0.30177194
88	0xbd3fa80c	-0.04679112
89	0xbe8f049e	-0.2793321
90	0xbe96f5df	-0.2948446
91	0x3e2fd76c	0.1717202
92	0xbec2cb4e	-0.38045734
93	0x3e6f1269	0.23346867
94	0x3d312140	0.0432446
95	0xbe361265	-0.17780454
96	0xbe92923b	-0.2862719
97	0x3e28fc1e	0.16502425
98	0x3e22823d	0.15869994
99	0x3eb6ac4f	0.35678336
100	0xbf0f735d	-0.56035405
101	0x3e9c1052	0.304812
102	0x3e563239	0.20917596
103	0xbef74942	-0.4829808
104	0xbe89403a	-0.26806813
105	0x3dfd387e	0.12364291
106	0xbbbda85d	-0.0057878927
107	0x3ebc656b	0.36796126
108	0x3e6f098c	0.23343486
109	0x3d09b41f	0.033619042
110	0xbefc32b5	-0.49257436
111	0x3ce68134	0.02813778
112	0x3e8989de	0.26862997
113	0x3e26c380	0.16285515
114	0xbe856b19	-0.26058272
115	0x3e24a1f0	0.16077399
116	0xbf1b055b	-0.60555047
117	0x3d57eb35	0.052714545
118	0xbe53116f	-0.20612119
119	0xbe241509	-0.1602365
120	0xbdd28e10	-0.102810025
121	0xbee2cdfa	-0.44297773
122	0x3ecc1923	0.39862928
123	0x3e3cd4f9	0.18440618
124	0xbdeed021	-0.11660791
125	0xbef6e074	-0.4821812
126	0x3b8b1ca5	0.004245358
127	0xbea1d4fc	-0.31607807
128	0x3de73dbb	0.11291071
129	0x3d76bc87	0.060238387
130	0xbdaa9476	-0.08329098
131	0x3e579a27	0.21054898
132	0x3eb82fe0	0.35974026
133	0xbf054d0d	-0.52070695
134	0xbe8de7a8	-0.27715802
135	0xbe4ef4ac	-0.20210522
136	0x3ccf0b1a	0.025273848
137	0x3e944920	0.2896204
138	0x3e5650d9	0.20929278
139	0xbd33301b	-0.04374705
140	0xbd8db7b2	-0.06919803
141	0xbf06612a	-0.5249201
142	0xbeb5560e	-0.35417217
143	0xbed7c6ae	-0.42143768
144	0xbeb093ad	-0.34487668
145	0xbe96916f	-0.29407832
146	0xbc7695d7	-0.015050373
147	0x3ea6c24b	0.3257011
148	0x3c93daf5	0.018048743
149	0xbeadc371	-0.33938172
150	0x3dd46b15	0.10371987
151	0x3d9caab4	0.076497465
152	0x3e2da3c8	0.16957009
153	0x3e47192a	0.19443193
154	0x3e961600	0.2931366
155	0xbef8a618	-0.4856422
156	0x3d2303e2	0.039798625
157	0x3e7f7827	0.24948178
158	0xbd288e4b	-0.041151326
159	0xbedc4b1c	-0.43026054

bias f4 [16]
0	0x3e97e7d6	0.29669064
1	0x3ee90f2b	0.45519385
2	0x3e32e49e	0.17470023
3	0x3eaa604e	0.332766
4	0x3d2eab8a	0.04264406
5	0x3c038808	0.008028038
6	0x3e955d44	0.2917272
7	0x3e1ce3f1	0.15321328
8	0x3e9d8f5f	0.30773446
9	0x3dfb7d49	0.122797556
10	0xbe5b6e32	-0.21428755
11	0x3d93db79	0.072195955
12	0x3e0af964	0.13571697
13	0x3e854a88	0.26033425
14	0x3ec6b3d5	0.38809076
15	0x3ec96b7e	0.39339823

weight f4 [16, 16]
0	0xbc2cd96a	-0.010549882
1	0xbe6f7ca6	-0.23387393
2	0x3ec53803	0.38519296
3	0x3ad628c0	0.0016339049
4	0x3e3e0000	0.18554688
5	0x3cd20ead	0.025641764
6	0x3dcefc88	0.1010676
7	0x3ebd8be7	0.370208
8	0xbca7d0fa	-0.02048539
9	0x3e8c2ad8	0.27376437
10	0xbe462aa1	-0.19352199
11	0x3dfcbeb0	0.12341058
12	0x3c46ff07	0.012145764
13	0xbea2e3bb	-0.3181437
14	0xbe2ed751	-0.17074324
15	0xbd9d10e8	-0.0766924
16	0x3e6813b4	0.22663766
17	0x3e08cba8	0.13358939
18	0x3ea6aaa1	0.32552055
19	0x3e38d882	0.18051341
20	0xbe7d9935	-0.24765475
21	0x3eceb7ca	0.40374595
22	0xbe479a43	-0.1949244
23	0xbe49e06b	-0.19714515
24	0x3d9b8564	0.075938016
25	0x3e70f65a	0.23531476
26	0x3eda212c	0.42603433
27	0xbe25c4a5	-0.16188295
28	0xbe7df43a	-0.24800196
29	0xbd495706	-0.049155258
30	0x3eb7ade5	0.35874858
31	0xbdf16371	-0.11786545
32	0x3f10d45d	0.5657404
33	0x3e72edef	0.23723577
34	0x3e7b54bc	0.24544042
35	0xbef1137d	-0.4708518
36	0xbde1b59b	-0.110209666
37	0xbdcd2281	-0.10016347
38	0x3ed4090b	0.4141315
39	0x3e251899	0.16122665
40	0x3e7d1e72	0.24718645
41	0xbefb0c7b	-0.4903296
42	0xbcdb0fce	-0.026740935
43	0xbe062136	-0.13098606
44	0xbdb5e71f	-0.088819735
45	0x3e6d359e	0.23164985
46	0xbd8cec1c	-0.06880972
47	0x3cc2d17c	0.02378153
48	0xbd67e2f3	-0.05661292
49	0xbe06d32f	-0.13166498
50	0xbe6ca429	-0.23109497
51	0x3ec40e76	0.38292283
52	0x3d3f128b	0.046648543
53	0x3dd4dbd8	0.10393494
54	0x3edd3afa	0.43209058
55	0xbed01aa8	-0.40645337
56	0xbdacee19	-0.08443851
57	0xbdcd5def	-0.10027682
58	0x3e8388d7	0.25690338
59	0xbcfd8df9	-0.030951487
60	0x3eb0a854	0.34503424
61	0x3ed9f209	0.4256747
62	0xbe3ce3f5	-0.18446334
63	0xbd6c390b	-0.057671588
64	0xbe022085	-0.12707718
65	0x3e833bc6	0.2563154
66	0xbec3755d	-0.3817548
67	0x3dd265da	0.10273333
68	0x3e6fb62f	0.23409341
69	0xbe4fbabd	-0.20286079
70	0xbe5821a7	-0.21106587
71	0x3e85dff6	0.2614743
72	0x3e373ef0	0.17895103
73	0x3d9d5d1a	0.07683773
74	0xbd65e094	-0.056122378
75	0x3e5f3f4b	0.21801488
76	0x3e34724e	0.17621729
77	0xbe485a48	-0.1956569
78	0xbe2347bb	-0.15945332
79	0x3db6547b	0.08902832
80	0x3ea9eb07	0.33187124
81	0xbde2f548	-0.1108194
82	0x3e23bb75	0.15989478
83	0xbdd39b76	-0.10332386
84	0xbef2defb	-0.47435746
85	0xbeb7e97a	-0.35920316
86	0x3e9e1124	0.30872452
87	0x3c2533aa	0.010083118
88	0x3edd349a	0.43204194
89	0x3e49c049	0.19702257
90	0x3ed9236e	0.42409843
91	0x3ef5bc78	0.47995353
92	0x3e3a4c10	0.18193078
93	0xbc1a748b	-0.0094272
94	0x3e4dda19	0.20102729
95	0xbe8b47e6	-0.27203292
96	0x3d7f5e7a	0.06234596
97	0x3e11d3b2	0.14240912
98	0x3db48eef	0.08816325
99	0xbe10cf2b	-0.14141528
100	0xbdeccb64	-0.11562231
101	0x3c523892	0.01283087
102	0xbd6a77de	-0.05724322
103	0x3df1ea5c	0.11812279
104	0xbdb158fa	-0.08659549
105	0x3bf37a6e	0.0074303662
106	0xbeced3fe	-0.40396112
107	0xbe08abea	-0.1334683
108	0x3ed909cd	0.4239029
109	0xbd4b2e54	-0.04960473
110	0x3eaa6cda	0.33286172
111	0x3de618bf	0.11235189
112	0x3f05a8fe	0.52210987
113	0x3e85afd8	0.2611072
114	0x3e88deaf	0.26732394
115	0x3d94bec5	0.07262949
116	0xbec1d3c4	-0.37856877
117	0x3dcec26b	0.10095676
118	0xbb345f87	-0.002752276
119	0xbecc71f3	-0.39930686
120	0xbe1257f8	-0.1429137
121	0x3de3938b	0.11112126
122	0xbe087152	-0.13324478
123	0xbe189845	-0.14901836
124	0x3e80146d	0.25015584
125	0x3e4abbb1	0.19798161
126	0x3da53e16	0.080684826
127	0x3ea34b67	0.31893465
128	0xbd78d063	-0.060745608
129	0x3ec04291	0.37550786
130	0xbdb72bb4	-0.089438826
131	0x3e5014e0	0.20320463
132	0x3d042535	0.032262046
133	0x3d2a0815	0.041511614
134	0xbecfb5fe	-0.40568537
135	0x3e2201a8	0.15820944
136	0x3c5e626d	0.013573271
137	0x3dd7a88d	0.105301954
138	0x3e54dd9f	0.20787667
139	0x3def6bcd	0.11690483
140	0xbe39a094	-0.18127662
141	0xbe5aa6fa	-0.21352759
142	0xbd9f5019	-0.07778949
143	0xbec99345	-0.3937017
144	0x3e829918	0.25507426
145	0x3f09a7de	0.5377177
146	0xbe050d39	-0.12993325
147	0x3d390278	0.04516837
148	0xbe6b733c	-0.22993177
149	0xbe66fb8c	-0.22556895
150	0x3e057cc4	0.13035876
151	0x3dd9122e	0.105991706
152	0xbeaa823f	-0.33302495
153	0x3e92d3e2	0.2867728
154	0x3f01cd02	0.5070344
155	0x3b92d9d2	0.0044815326
156	0xbdc32b0d	-0.09529696
157	0x3e6931b7	0.22772871
158	0xbe995e6f	-0.2995486
159	0xbd570b7d	-0.05250119
160	0x3e9cc150	0.30616236
161	0x3e9d0e05	0.3067476
162	0x3ed0cd74	0.40781748
163	0x3d969f7e	0.073546395
164	0x3eb89730	0.36052847
165	0xbd81b087	-0.06332498
166	0xbe0698b6	-0.13144192
167	0xbd5fc65a	-0.054632522
168	0x3e144cf2	0.14482477
169	0x3e8d1cbd	0.27560988
170	0xbe216a33	-0.15763168
171	0xbb4f2a5a	-0.0031610937
172	0xbd2713ae	-0.040790252
173	0xbea14e49	-0.3150504
174	0xbe945f5c	-0.28979003
175	0x3e21094b	0.15726201
176	0xbe241843	-0.1602488
177	0x3dc61123	0.09671237
178	0xbda6751f	-0.08127808
179	0xbe8ece33	-0.27891693
180	0xbd76e326	-0.06027522
181	0x3e001c36	0.12510762
182	0xbd7a9d4d	-0.06118517
183	0xbeac1044	-0.3360616
184	0xbeb3db9a	-0.3512848
185	0xbeba6e26	-0.36412162
186	0xbe30bd90	-0.17259812
187	0x3ecb318b	0.39686236
188	0x3e2273b3	0.15864448
189	0x3dd66db5	0.10470144
190	0x3de33984	0.110949546
191	0x3eb2fbb4	0.3495766
192	0x3ce6f9da	0.02819531
193	0xbe3bd015	-0.18341096
194	0x3e2ad830	0.16684031
195	0x3edfb946	0.4369604
196	0x3ea52540	0.32254982
197	0xbd4310c4	-0.04762341
198	0x3ea6032f	0.32424304
199	0x3e49e329	0.19715561
200	0x3ed15470	0.40884733
201	0xbc500b7d	-0.0126980515
202	0xbea050ff	-0.31311795
203	0xbed1be58	-0.40965533
204	0xbe8567b2	-0.26055676
205	0xbe34dd9c	-0.17662662
206	0x3e2a1422	0.16609243
207	0x3e0392a8	0.12848914
208	0xbda4887a	-0.08033843
209	0xbe9d19ae	-0.30683655
210	0x3ec1cb40	0.3785038
211	0xbd2aeca4	-0.041729584
212	0xbe67a665	-0.22622068
213	0x3ea43b5f	0.32076547
214	0x3eae67fd	0.34063712
215	0x3bd963cd	0.0066342116
216	0xbe3a7b3b	-0.18211071
217	0x3ec6ae45	0.38804832
218	0x3e504216	0.2033771
219	0xbd8e557f	-0.06949901
220	0x3e8353b1	0.2564979
221	0x3c4746d4	0.012162883
222	0xbe2063a8	-0.15663016
223	0x3e77c55a	0.24196377
224	0xbc1f3d50	-0.009719208
225	0xbebc1c0c	-0.36740148
226	0x3ec328ec	0.38117158
227	0xbdbba230	-0.09161794
228	0xbdd4deed	-0.10394082
229	0x3eaff934	0.34369814
230	0x3e97cfc4	0.296507
231	0x3e68d8dd	0.22738977
232	0x3e4d6bb8	0.20060623
233	0xbea36a7e	-0.31917185
234	0x3e26a987	0.16275607
235	0x3da80eac	0.082059234
236	0x39e6dc7e	0.00044033298
237	0x3e15124a	0.14557758
238	0x3e9a78cf	0.30170295
239	0xbdf2df02	-0.118589416
240	0x3d4c0866	0.049812697
241	0x3eaad38e	0.33364528
242	0xbdf667bb	-0.12031504
243	0x3ec4d029	0.38440064
244	0x3e029d76	0.12755379
245	0x3c0d25fa	0.008615011
246	0xbd8339f6	-0.064075395
247	0x3cb85a0e	0.022503879
248	0xbe850e83	-0.25987634
249	0x3e9553d3	0.29165515
250	0xbca14b6b	-0.019689282
251	0xbe3b9ae8	-0.18320811
252	0x3e12bc13	0.14329557
253	0x3d1ae361	0.0378145
254	0x3e83aba6	0.25716895
255	0xbe373540	-0.17891407

bias f4 [16]
0	0x3d4abebd	0.04949831
1	0x3e08bd0c	0.13353366
2	0x3e0dcce0	0.13847685
3	0xbced329b	-0.028954795
4	0x3d6b1104	0.057389274
5	0x3e41a87d	0.1891193
6	0x3e962162	0.29322344
7	0x3b158567	0.002281511
8	0xbdf2ca0e	-0.11854945
9	0x3e622575	0.22084601
10	0x3a90f5bf	0.0011059566
11	0xbadbc57a	-0.0016767227
12	0x3e439a88	0.19101918
13	0x3e6af447	0.22944747
14	0xbcf9a7a6	-0.030475449
15	0xbd653dc4	-0.055967107

weight f4 [10, 16]
0	0x3e6fe03b	0.23425381
1	0x3ed50e71	0.4161258
2	0xbe124f1d	-0.14287992
3	0x3d17b20a	0.037035026
4	0xbe6f5afc	-0.23374552
5	0x3e96d3e4	0.29458535
6	0x3d00a574	0.03140779
7	0x3e2ab517	0.16670643
8	0x3e6a87c9	0.2290336
9	0xbea207ae	-0.31646484
10	0x3c4f4d58	0.0126527175
11	0xbeb6aab2	-0.35677105
12	0xbd8b24e6	-0.06794147
13	0x3e192e99	0.14959182
14	0x3e45efbd	0.19329734
15	0x3ded6867	0.11592179
16	0x3ea86022	0.32885844
17	0xbed386e3	-0.41313848
18	0xbb039f22	-0.0020083864
19	0xbcff1173	-0.03113625
20	0xbdc2a5e1	-0.09504295
21	0x3d97d5e4	0.07413843
22	0x3e9bcf75	0.30431715
23	0xbdc27352	-0.09494652
24	0x3e348e20	0.17632341
25	0x3e9c054b	0.30472788
26	0x3e422122	0.18957952
27	0xbe775cc9	-0.24156488
28	0x3eaa54de	0.33267874
29	0x3de38565	0.11109427
30	0x3dd4f033	0.10397377
31	0xbdedab83	-0.11604979
32	0xbe43aa2b	-0.19107883
33	0xbebf88dc	-0.37409103
34	0xbef2b4f2	-0.47403675
35	0x3efb6c81	0.4910622
36	0xbdb9c45b	-0.09070655
37	0xbe3e29d0	-0.18570638
38	0x3e19410b	0.14966218
39	0x3dfe1699	0.12406654
40	0xbe58e4a8	-0.21180975
41	0xbdbb7c8f	-0.09154617
42	0xbe951268	-0.29115605
43	0xbe19d46f	-0.15022443
44	0x3edd468e	0.4321789
45	0x3e868762	0.26275164
46	0x3de565df	0.11201071
47	0xbbc1e3ce	-0.005917049
48	0x3e828afa	0.25496656
49	0x3e80fb27	0.25191614
50	0xbdbe3e49	-0.09289224
51	0x3d8fa5a6	0.07014017
52	0xbe44bcca	-0.19212642
53	0xbe510f64	-0.20416027
54	0xbeb9a4e2	-0.36258608
55	0xbdc88f89	-0.09793002
56	0x3e15612e	0.14587852
57	0x3e726364	0.23670727
58	0x3c78c122	0.015182765
59	0x3e6e6551	0.23280837
60	0xbde051dd	-0.10953114
61	0x3ed3d0cd	0.4137024
62	0xbcfe5f08	-0.031051174
63	0xbec41c61	-0.383029
64	0xbe57e017	-0.21081577
65	0x3e545af0	0.20737815
66	0x3e00be55	0.12572606
67	0x3e8d8295	0.2763869
68	0xbea424d0	-0.32059336
69	0xbea746d1	-0.32671216
70	0xbec8d586	-0.39225405
71	0x3e5e1609	0.21688093
72	0xbe236447	-0.15956222
73	0x3eca6b38	0.39534926
74	0x3ef0d945	0.47040763
75	0xbe702fdc	-0.23455757
76	0x3e77ed0e	0.24211523
77	0xbd94cd38	-0.07265705
78	0xbe7a9815	-0.24472077
79	0x3d1949a2	0.037423737
80	0x3e6f9b8c	0.2339918
81	0x3d7e95e8	0.06215468
82	0xbe007a4c	-0.12546653
83	0x3dd4ace4	0.10384539
84	0x3e2a1da3	0.16612868
85	0x3e45db5a	0.19321957
86	0x3df516f8	0.119672716
87	0xbe06769e	-0.13131186
88	0x3dfa42f1	0.12219799
89	0x3d9b943f	0.07596635
90	0xbe0c7db8	-0.13719833
91	0xbe5eaa12	-0.21744564
92	0xbead953f	-0.33902928
93	0x3def3835	0.116806425
94	0xbe7cb4d0	-0.2467835
95	0x3f06418a	0.52443755
96	0xbe30b4d8	-0.17256486
97	0xbe74f8e8	-0.23923075
98	0x3e9d90a3	0.30774412
99	0x3ed58f45	0.41710868
100	0xbe7f9c9f	-0.2496209
101	0x3ee3b2c2	0.4447232
102	0xbea2e128	-0.31812406
103	0xbe18039d	-0.14845128
104	0xbe751fcd	-0.23937912
105	0x3de5680d	0.11201487
106	0xbe8b1a2c	-0.27168405
107	0x3d81affc	0.063323945
108	0xbeaa16e0	-0.33220577
109	0x3df87e4c	0.12133464
110	0x3e5f82ca	0.21827236
111	0xbe87ac5b	-0.26498684
112	0x3eecd787	0.46258184
113	0xbbd5b22b	-0.0065214834
114	0xbec7e997	-0.39045402
115	0x3d310fe6	0.043228053
116	0x3e7a5162	0.24445108
117	0x3e0f424c	0.13990134
118	0xbe4cccc0	-0.19999981
119	0x3cb1d581	0.021708252
120	0xbe357bc8	-0.17723
121	0xbe08a9b9	-0.13345994
122	0x3ed0674e	0.40703815
123	0x3dceac1c	0.10091421
124	0xbe0df46e	-0.13862774
125	0x3e383fc4	0.17993075
126	0xbea31cc1	-0.31857875
127	0xbea061c3	-0.31324586
128	0xbd0c68bb	-0.034279566
129	0xbe8c7434	-0.27432406
130	0xbe0a9b9f	-0.13535927
131	0xbe11a6f5	-0.14223845
132	0xbe3f7379	-0.18696393
133	0xbe69124d	-0.22760887
134	0x3edde04f	0.43335196
135	0x3eed2f15	0.46324983
136	0xbe89e9e3	-0.26936254
137	0x3d2001ee	0.03906434
138	0x3d9e0f0f	0.07717716
139	0x3e7f62bb	0.24940006
140	0xbee36847	-0.44415495
141	0x3e9554a9	0.29166153
142	0x3d19b2d6	0.037524067
143	0xbeb5f99b	-0.35541996
144	0x3e38b9e0	0.18039656
145	0xbca08022	-0.019592348
146	0x3f08c3dd	0.53423864
147	0xbd62c50a	-0.055363692
148	0xbda36020	-0.07977319
149	0xbe32ff5b	-0.17480223
150	0x3e0ac0e4	0.13550144
151	0xbe3489a3	-0.17630629
152	0x3e061ff1	0.13098122
153	0xbe623c9c	-0.22093433
154	0x3e014994	0.12625724
155	0xbe69301c	-0.22772259
156	0x3d73ae92	0.059492655
157	0x3e24389a	0.16037217
158	0x3e518b95	0.20463403
159	0xbec315ad	-0.38102475

bias f4 [10]
0	0xbe621c99	-0.22081222
1	0xbe65bf71	-0.2243631
2	0xbd71cfc2	-0.059036024
3	0x3d6f8398	0.058475107
4	0xbe158153	-0.14600115
5	0xbcad3623	-0.021143978
6	0x3e065f32	0.13122252
7	0x3e50d23e	0.20392701
8	0xbe0fdb47	-0.14048491
9	0xbe17dbb4	-0.14829904
