results/transformations/mapping_files/PCKTAE/FMNIST_PCKTAE_10_1>FMNIST_PCKTAE_10_3>NeuralNetwork_100_0_nodropout_128_equally.pth (torch, 83224 bytes, 6 tensors)

weight f4 [128, 10]
000000 c0 85 ac 3c 4b 2c 83 3e 7a 68 8e be 98 74 25 be
       0.02105987 0.2561973 -0.27814084 -0.16157758
000010 d8 a6 ac 3d 2a 36 51 be d0 b4 73 3e ff 4e e9 3d
       0.084302604 -0.20430818 0.23799443 0.113920204
000020 89 88 94 3e da a2 5a 3e 1d 16 21 3e f6 13 a2 3e
       0.29010418 0.21351185 0.15731092 0.31655854
000030 8a 12 0c 3e 69 da 8c be 6c 41 14 be 8c f1 0a be
       0.13678947 -0.27510384 -0.14478081 -0.13568705
000040 db e0 88 bd b7 a5 9b 3d 2c 9e cf bd 8e 94 b9 bd
       -0.06683513 0.07599967 -0.10137591 -0.09061538
000050 c6 7f 4f 3e 66 74 82 3e 5f b1 7a 3e b4 f5 28 3e
       0.20263585 0.2547943 0.24481724 0.16499978
000060 2a cc bb 3c 00 b1 66 be 25 af 26 3e d0 08 c9 bd
       0.022924501 -0.22528458 0.1627775 -0.09816134
000070 47 f1 68 3e 60 22 3f 3e 4b 4e ad be 30 4b 32 3e
       0.2274829 0.18665457 -0.33848795 0.17411494
000080 bf 81 05 bd 7d 84 48 be 35 96 a1 3e 16 db 44 be
       -0.03259444 -0.1958179 0.3155991 -0.192242
000090 e9 bc 1d be 2f 2c 74 bd cb fc 1a 3e 06 3d 01 be
       -0.15404095 -0.05961245 0.15135495 -0.12620935
0000a0 02 c2 99 be 28 f2 0b 3d 5c ac 3b be 62 86 79 be
       -0.3003083 0.034166485 -0.18327469 -0.24367669
0000b0 1a f0 c3 3d 1d f7 39 be 28 7b ec bd 33 fc 3c be
       0.0956728 -0.18160672 -0.11546928 -0.18455581
0000c0 4c 6e ce 3d e1 f0 99 be ec 59 33 bd 33 be 48 be
       0.10079631 -0.3006659 -0.043786928 -0.19603805
0000d0 09 1c b4 3e bc 13 b3 3e 8b 8c 30 be ca fe 1d 3e
       0.3517764 0.34975994 -0.17241113 0.15429226
0000e0 e3 63 d2 3d 69 12 02 be 41 fc 60 be c4 7a 47 3d
       0.10272958 -0.12702335 -0.21971227 0.048701063
0000f0 fc 09 98 bd a4 0a c3 3c e6 d8 45 be 71 74 32 3e
       -0.07423779 0.023808785 -0.19321021 0.17427231
000100 da 35 c6 bd df 1d 68 3e ce 6d 42 3e 50 4c 41 be
       -0.0967824 0.22667645 0.189872 -0.18876767
000110 8b 20 2f 3e 00 bc 70 3e 12 bc 38 be 72 01 97 3e
       0.17102258 0.23509216 -0.18040493 0.2949329
000120 63 ac 1e 3e bb 87 38 3e 99 06 2c 3e 3a e6 1b bd
       0.15495448 0.18020527 0.16799392 -0.038061358
000130 90 f9 44 be 64 92 8a 3e 83 e1 32 be 64 ec 9e 3e
       -0.19235826 0.27064812 -0.17468838 0.31039727
000140 b8 89 1d be 8d 1d cf bd 3a db fe bd ff 2c 1d be
       -0.15384567 -0.10113058 -0.12444158 -0.15349196
000150 fd 1c 8e 3d d4 4e 0f be fe 11 26 be b1 0d b0 bd
       0.06939123 -0.13994914 -0.16217801 -0.085963614
000160 8b 77 a9 be ef a2 9d 3e d4 0d 56 3e 0e c4 01 be
       -0.33099017 0.3078837 0.20903713 -0.12672445
000170 10 71 9f be 57 6e 8d bd 52 46 17 be 6e c8 a1 be
       -0.31140947 -0.06905811 -0.14772919 -0.31598228
000180 7a 3b 2a 3e ad e6 b5 3e e4 2b 9a 3e aa 32 0a 3e
       0.16624251 0.35527554 0.3011161 0.1349589
000190 c5 aa ca bd 71 3f c1 3d dd a9 ea bd b1 00 a5 bd
       -0.09895853 0.094359286 -0.1145818 -0.080567725
0001a0 00 7c 81 3c 48 d4 8b be 5b 0d 6c 3e 75 79 a9 3e
       0.015806198 -0.27310395 0.2305197 0.33100477
0001b0 81 65 8f bd 89 ee 98 3d 2c 4d 47 3e ae 7d 63 3d
       -0.07001782 0.07467372 0.19463032 0.05553978
0001c0 75 42 c7 bc c2 c9 da bd eb af 8f 3e f6 ab 2f be
       -0.024323681 -0.106830135 0.28063902 -0.17155442
0001d0 bc b1 75 3d f2 fa 8a be 33 e6 9e 3d ba 7b 9d be
       0.059983954 -0.2714458 0.07758751 -0.30758458
0001e0 6e ca 42 be 38 9d 3b bd 10 d1 2a be e4 d8 b5 3e
       -0.19022533 -0.045804232 -0.16681314 0.35517037
0001f0 d0 be 13 3e 51 e8 57 bd dc 39 06 3e aa bb ab be
       0.14428258 -0.05271179 0.13108009 -0.33541614
000200 9e b4 88 bd 11 08 02 3e 46 f8 66 3e c2 21 9b be
       -0.06675075 0.1269839 0.22555646 -0.30299193
000210 6e 0a 87 3d 3f 33 93 3e 67 ed 40 3e 73 06 9a be
       0.06593786 0.28750035 0.18840562 -0.30083045
000220 20 52 16 be a0 60 87 3c f0 a8 9c 3e ea 38 27 be
       -0.14679766 0.016525567 0.3059764 -0.16330305
000230 89 40 a6 3e 06 d1 6c 3e a8 83 f4 3d ea b1 67 3e
       0.3247111 0.23126611 0.11939174 0.22626463
000240 bf eb 41 be 00 a9 98 3e 21 67 e5 bd 5c a0 92 3e
       -0.18937586 0.29816437 -0.11201311 0.2863797
000250 c0 97 65 3d e5 64 09 be 60 ae 9b bd 65 1f d4 3d
       0.056052923 -0.13417394 -0.07601619 0.103575505
000260 ed eb 51 3e 72 5b bd bd 41 87 69 be 04 0f 84 3e
       0.20500155 -0.092459574 -0.22805502 0.25792706
000270 f5 f2 19 3e c3 79 1e 3d 79 ba 21 3e 1e 34 9f 3e
       0.15034087 0.03869034 0.1579379 0.3109445
000280 fb 48 71 be c5 cc a1 be 0a 7c 4a be f3 39 c3 3d
       -0.23562996 -0.3160154 -0.1977388 0.09532537
000290 00 cf 18 3e 2c d5 60 bd e6 c1 94 be 5b ad 93 3d
       0.14922714 -0.054890797 -0.29054183 0.07210799
0002a0 28 64 0f be b7 39 1d bd 14 cc 5a 3e c1 66 5f be
       -0.1400305 -0.03838512 0.21366912 -0.21816541
0002b0 03 df a1 bd 45 38 84 bd bb 5f 87 be 29 11 39 be
       -0.07903864 -0.06456045 -0.26440224 -0.18072952
0002c0 d0 c9 6e 3d 1c 21 7f 3e 80 91 85 3e 55 f1 a9 3e
       0.058297932 0.24914974 0.2608757 0.33191934
0002d0 d2 4f 3e 3e 34 74 6e 3e 3b 90 39 3e 4a 3d 52 bc
       0.18585137 0.23286515 0.18121426 -0.012831995
0002e0 ff 1d 29 3e ac ce 87 bd 38 a0 5a 3d fb 5a 68 be
       0.16515349 -0.066312164 0.053375453 -0.22690956
0002f0 39 30 29 bd 08 d9 0e bd 69 25 95 be 95 70 98 be
       -0.041305754 -0.034874946 -0.29130104 -0.29773393
000300 71 5b c1 be 6e ea 43 be 75 43 30 bb a6 8a 22 be
       -0.37765077 -0.19132397 -0.0026895676 -0.15873203
000310 6e fe 1e be 07 ce e3 3d c8 56 2d 3e b1 55 20 be
       -0.15526745 0.11123281 0.16927636 -0.15657689
000320 ee ee 42 bd 94 d3 c2 bd 99 25 9e be 84 c9 85 be
       -0.047591142 -0.095130116 -0.3088806 -0.26130307
000330 95 c6 80 3e a6 c2 be 3e 72 f5 35 3e 8a ea e0 bd
       0.25151506 0.3725788 0.17769411 -0.10982235
000340 30 d0 f3 bd c7 f4 41 3e 31 88 1d 3e 19 9c a0 be
       -0.11904943 0.18941031 0.15383984 -0.31369093
000350 be ac 2e bd 64 ac ee bd 1a 85 3a 3e 0f 05 8c be
       -0.04264521 -0.11653975 0.18214837 -0.2734761
000360 9d 99 80 be 81 b9 18 be 95 70 87 be b8 cd 99 3e
       -0.25117198 -0.14914514 -0.2645308 0.30039763
000370 cc 4b 1b 3e 77 17 a4 be 2f 30 85 3e 4d fe 89 3d
       0.15165633 -0.32049152 0.26013324 0.06737957
000380 53 75 a9 be 02 4b 48 be 67 52 15 3e ae 92 85 3e
       -0.33097324 -0.19559863 0.14582215 0.2608847
000390 82 0a e1 bc d7 2d 87 be 00 85 4a 3e 18 80 a3 bd
       -0.02747083 -0.2640216 0.19777298 -0.07983416
0003a0 5b d1 04 3e 33 82 52 3c b0 7f 8c 3e 7b 0c 5b 3e
       0.12970488 0.012848425 0.27441168 0.2139148
0003b0 e6 51 2b 3d 80 f6 8c 3d d4 fc 08 be d3 ae 04 bd
       0.04182615 0.06882954 -0.13377696 -0.032393288
0003c0 9a c3 70 be cf 55 37 3e 01 61 1d bd 31 cf 7b bd
       -0.23512116 0.17903827 -0.03842259 -0.06147689
0003d0 7b 47 b1 3d e9 44 47 3e 4d d9 37 be 13 a3 bb 3e
       0.08656212 0.19459881 -0.17953987 0.36647853
0003e0 c1 ea 0e bd 15 c1 26 3e 90 a7 8c bd 4a fa 5a be
       -0.034891848 0.16284592 -0.068678975 -0.2138454
0003f0 07 27 89 be 1c a6 a9 be 28 39 2b bd 74 99 03 be
       -0.26787588 -0.33134544 -0.041802555 -0.12851506

bias f4 [128]
000000 6f 97 85 bd f5 04 d9 bd c6 9f ce bd ef 8a 94 be
       -0.06523024 -0.105966486 -0.10089068 -0.29012248
000010 3d ba 24 be a2 5f 8d bc cb f2 cb bd d6 2f 21 3e
       -0.1608667 -0.017257515 -0.099584185 0.15740904
000020 81 71 00 be 49 39 83 3e 22 32 5b 3d b5 0d c7 3c
       -0.12543298 0.25629643 0.053514607 0.024298528
000030 8c 05 a9 bb a0 fb 82 be 26 d6 90 bd 4a 6d 5b bc
       -0.005158132 -0.255826 -0.070720956 -0.013392756
000040 3b 2a b5 3d a3 83 58 3e de 17 eb bd a9 b6 6d be
       0.088459454 0.21143965 -0.11479162 -0.2321421
000050 82 19 25 3c 4a 90 33 3c 2a 3b 84 be 66 82 24 be
       0.010076882 0.010959694 -0.2582639 -0.16065368
000060 ae c2 8d 3e 39 19 35 be 9a c1 1b be 91 8a 33 3e
       0.2768759 -0.17685403 -0.15210572 0.17533328
000070 88 ef 36 3e 47 67 50 3e db 1f f3 3d 4e 20 65 3d
       0.17864811 0.20351897 0.1187131 0.05593901
000080 36 1b 8d bd 33 79 d8 bc 2d 8f 67 bd 4e a3 c4 3d
       -0.06889956 -0.02642498 -0.056533027 0.096014604
000090 d3 29 8f be 90 0f 54 be 1c d5 49 3d d3 01 34 be
       -0.27961597 -0.20709062 0.049275503 -0.17578821
0000a0 57 29 b2 bd d4 51 18 be 57 57 9a bd a1 b5 15 be
       -0.08699291 -0.14874965 -0.0753619 -0.14620067
0000b0 31 e2 7e 3e be c7 56 bd 9d 38 59 bd 21 f9 83 be
       0.24890973 -0.052436583 -0.053032506 -0.25776008
0000c0 80 a5 d5 3d 31 ea 02 3d b9 b3 59 3e 4e 76 32 be
       0.10431957 0.031961624 0.21259965 -0.17427942
0000d0 bd d2 51 3d 82 b7 8b bb 29 a6 e7 3d 5f 84 19 be
       0.051226366 -0.004263819 0.113109894 -0.14991902
0000e0 67 1f 80 3e f8 ff 82 be 16 b8 de 3d 92 ca 47 3e
       0.25023958 -0.25585914 0.10874955 0.19510868
0000f0 13 a1 b4 bd a9 89 72 3d b0 4f 27 3e c4 be f8 bd
       -0.08819785 0.059213314 0.16338992 -0.12145761
000100 b2 fd c6 3d 5c cd 15 3e 2f 7f 0b 3d 07 af 6e 3d
       0.09716357 0.1462912 0.03405684 0.058272388
000110 aa af aa 3d a6 35 8d be 0e e1 d2 3c 47 f1 c3 3d
       0.083342865 -0.27579993 0.02574208 0.095675044
000120 6b dc 2f be a7 6f 52 be 8b e8 ab 3d d6 87 31 be
       -0.17173927 -0.20550404 0.083939634 -0.17336974
000130 6f 96 87 be 6f 0c 51 3e 87 2c d0 3d 91 3c ea 39
       -0.2648196 0.204149 0.10164743 0.00044677083
000140 df 8d a2 3d f1 ac f3 bd d0 1f 2c 3e da de 2b 3e
       0.07937216 -0.1189822 0.1680901 0.1678423
000150 19 71 7b 3e 03 47 8c bd 0a 79 d8 3d d4 0d 7c be
       0.24554862 -0.06849482 0.10569961 -0.2461465
000160 6e f9 e3 bd 1f d6 1a be df c6 ba 3d 14 4a 91 be
       -0.11131559 -0.15120743 0.09119963 -0.2837683
000170 fb 69 51 be ff 6c 9f 3e 63 b8 7f 3e b8 a3 80 3e
       -0.20450585 0.31137845 0.24972682 0.25124907
000180 1c fe 19 3e c2 23 90 be 87 ac 4d 3e 76 92 1e be
       0.15038341 -0.2815228 0.20085345 -0.15485558
000190 8c f8 3d 3e 28 1c 81 be f8 fa b3 bc f5 33 3e 3c
       0.18551844 -0.25216794 -0.021970257 0.011609067
0001a0 64 69 07 3c 33 be 1c be 51 ac 25 3e 4c 07 6d be
       0.008264873 -0.1530693 0.16179015 -0.23147315
0001b0 bd 52 99 3e 0c 1b 73 3e 8a 99 0c be ea 50 13 3e
       0.29945937 0.23740786 -0.13730446 0.14386335
0001c0 3b 3d 3a be c3 27 87 be a8 26 88 bd 98 d1 84 be
       -0.1818742 -0.26397523 -0.06647998 -0.25941157
0001d0 2c 7f 54 be d5 5a f9 3d 38 0d f0 3d 41 02 fd bd
       -0.20751637 0.12175528 0.11721271 -0.123539455
0001e0 93 19 0a be 42 de 90 bd 53 1c 4f 3e c7 54 31 bd
       -0.13486318 -0.07073642 0.20225649 -0.04329374
0001f0 33 d4 2e 3e e9 a8 84 3e 10 9a b7 bd bb 3f 73 be
       0.17073135 0.25910118 -0.08964932 -0.2375478

weight f4 [128, 128]
000000 36 ca 7d bd 1e f3 33 3d c8 e1 15 be 37 fe 98 3c
       -0.06196042 0.043933026 -0.1463691 0.018675907
000010 98 f2 9b bd 66 98 33 be dc bf 98 3d 11 bf ce 3b
       -0.076146305 -0.17538604 0.07458469 0.006309398
000020 1f 47 32 3c 93 3b b0 bc 80 8a 8c 3d bb 49 d2 bb
       0.010881214 -0.021512782 0.06862354 -0.0064174808
000030 09 79 72 bc 56 12 e3 3c 15 12 20 bc 86 49 1c bb
       -0.014799365 0.027718704 -0.009769936 -0.0023847534
000040 9e 13 22 3b fc 5d 3b bd d1 fd 0c be 85 db 10 be
       0.002473093 -0.045743927 -0.13768698 -0.1414624
000050 24 06 80 3d ef 59 b2 3c 2f e5 c9 bd 5f 12 0a be
       0.06251171 0.0217714 -0.098581664 -0.1348357
000060 22 18 fb bc 04 f0 b4 bd 81 66 1f bd 5c 6e 82 bd
       -0.030651156 -0.08834842 -0.038916115 -0.06368706
000070 c9 c2 23 be c5 c2 0a be 8d 92 f6 3d e5 8c 0e 3d
       -0.15992273 -0.13550861 0.12039671 0.034802336
000080 3e b5 4e bd 53 af 05 3a 2b 6a 9b bc c6 ee 3f 3d
       -0.050465815 0.00050996727 -0.018971523 0.04685857
000090 24 c3 31 be 66 0a fc bb f2 62 db bc b1 95 ef 3d
       -0.17359596 -0.0076916693 -0.02678058 0.11698473
0000a0 bf 67 fc 3d 2b d9 ee 3d 8b 85 f4 3c 61 81 61 bb
       0.123244755 0.11662515 0.029848834 -0.0034409391
0000b0 19 01 9d bb 77 52 a3 3d fb 16 a4 3d 98 e6 1b ba
       -0.0047913906 0.07974713 0.08012196 -0.0005947142
0000c0 14 e2 ee bd 26 10 2b 3c 79 ca dd bd c1 d9 85 3d
       -0.11664215 0.010440862 -0.10829634 0.06535674
0000d0 97 c6 aa bd 2c 45 64 3d 32 20 dc 3c 75 de ef 3b
       -0.08338659 0.05573003 0.02687082 0.00732022
0000e0 f8 fc 64 bd 32 12 ea 3c 4f d3 b7 bb ad b8 38 3d
       -0.055905312 0.02857313 -0.0056099067 0.045097996
0000f0 d2 cd 9f 3d 8c ca a2 bb 18 bb 8e 3d 9f 68 f7 bc
       0.07802929 -0.004967993 0.06969279 -0.030201254
000100 77 91 ac bb 1e 62 a4 bb 5d db bb bb 2b 69 29 3d
       -0.005266364 -0.0050165793 -0.0057329373 0.04136006
000110 9d f8 9a bd 92 7c 74 bd 1a 7a 93 3c 13 3d cc bd
       -0.075669505 -0.059689112 0.018002558 -0.099725865
000120 e3 66 f2 3d 73 9f af 3c 75 37 29 3e ea 25 08 be
       0.1183603 0.021438336 0.16525061 -0.13295713
000130 07 f7 91 3c 09 e1 fd bd 77 45 b7 3d 5b b5 b5 3d
       0.017817987 -0.12396438 0.08948796 0.088724814
000140 33 3c 82 bd 3a 00 b1 3d ce 9d 73 3c ae 54 ae 3d
       -0.06359138 0.08642621 0.014869167 0.08512245
000150 19 1f 39 3d 6f 42 b3 3d 77 b9 41 3d c3 b1 30 be
       0.045195673 0.087529056 0.047296014 -0.1725531
000160 99 ab 46 bd 63 27 6c 3d 66 68 c1 3c 20 64 38 bc
       -0.048503492 0.05765475 0.023609351 -0.01125434
000170 bb 67 a8 3c 3d ec c0 3b 09 83 2e bd 77 5d de 3d
       0.020557275 0.005887537 -0.042605434 0.10857671
000180 24 33 ab 3b 1d 21 94 3d 54 63 85 bd 68 24 d1 bc
       0.0052246023 0.07232878 -0.06513086 -0.025530055
000190 5e c8 78 bd 75 a6 a6 bc 2a 55 9b bd 77 4c 7c bd
       -0.06073796 -0.020343045 -0.07584603 -0.06159636
0001a0 01 02 8d bc ce 60 e4 3d c6 3b 59 3d 13 b1 dd bd
       -0.01721287 0.111512765 0.05303552 -0.1082479
0001b0 e9 41 07 be 59 5a 9d bd 32 e2 42 bc 6f 8b 0d 3c
       -0.13208736 -0.07683248 -0.0118947495 0.008639201
0001c0 85 71 b3 3d 0c 2c fa bc c1 59 91 bc 15 9a 94 3d
       0.087618865 -0.030538581 -0.017742993 0.07255951
0001d0 af d5 d8 bd 3a 92 ea bb 16 b1 43 3e 34 6a da bc
       -0.10587632 -0.007158545 0.19110522 -0.02666197
0001e0 13 9c 84 bd b3 05 62 be 15 e3 fd bd 3d 2a 22 be
       -0.06475081 -0.22072487 -0.12396828 -0.15836425
0001f0 9a 7a 89 bc cd 12 94 3c b5 86 8b ba 75 4b da 3c
       -0.016782094 0.018075371 -0.0010645004 0.026647309
000200 60 47 97 bd f5 c3 24 bd e4 6c f0 bd 0b 56 f9 bc
       -0.073866606 -0.04022594 -0.11739519 -0.030436536
000210 09 94 07 be 38 e1 f3 3d 2c 75 03 bd fb 57 89 bd
       -0.13240065 0.119081914 -0.032094166 -0.06706234
000220 fc 08 aa 3d ee 57 7f 3d 63 9d 73 bd e8 94 1e be
       0.08302495 0.062339716 -0.059476268 -0.1548649
000230 13 5f ca 3d 8e 2c 45 3b da 96 db 3b 67 cf 20 3d
       0.09881415 0.003008637 0.0067013325 0.039260294
000240 fa fa 47 bc 51 05 9e bc 8b a2 08 be 5e 93 e8 bd
       -0.012205834 -0.019289644 -0.13343255 -0.11356233
000250 dd 2e a2 3d 10 47 19 3e 3a 34 df 3a 05 84 cd 3d
       0.07919095 0.14968514 0.0017029115 0.10034946
000260 70 77 ea bd 97 6d 21 3e 71 70 f6 bb 5d e0 a8 bc
       -0.11448562 0.15764461 -0.0075207283 -0.020614797
000270 38 b6 ad 3c 52 26 19 ba 00 b1 de bc 3f 70 19 bd
       0.021205053 -0.0005842197 -0.02718401 -0.03746056
000280 bd 63 84 3d 83 07 d2 bc 18 0e 38 bc 72 b6 12 bc
       0.06464336 -0.025638347 -0.011233829 -0.008954631
000290 e4 6c 59 3d f7 3a e2 bd 8e fa f2 bc d1 5e b3 3d
       0.05308236 -0.11046403 -0.02966049 0.08758319
0002a0 8d 10 c2 3c 4d 2d 02 3d 63 61 50 3d 81 24 2b bc
       0.023689533 0.031781483 0.050874125 -0.010445715
0002b0 ba b2 9c bc 15 25 f5 bd 88 ea c2 ba f8 cf 42 3d
       -0.019128192 -0.119699635 -0.0014870921 0.047561616
0002c0 61 db aa bc 59 2a ed 3c 12 0d ba bc aa 9a e3 bd
       -0.020856561 0.028950857 -0.02271131 -0.11113484
0002d0 3f cb ca bd 03 ab 97 bc 5d fb a9 bd d3 00 09 3d
       -0.09902047 -0.018514162 -0.08299897 0.03344805
0002e0 0c f4 ec 3d a6 16 b6 3d b7 2e 24 bd 5c df c9 bc
       0.11569986 0.088910386 -0.040083613 -0.024642639
0002f0 a5 8a ff bd 63 e6 c6 bd ee 6f ac 3c 02 90 40 bd
       -0.12477616 -0.097119115 0.021049466 -0.047012337
000300 b2 63 01 bd 23 10 ea bc 4c 7a d7 bc 6b f6 96 3d
       -0.031589217 -0.028572148 -0.026303433 0.07371219
000310 07 d1 c4 3d e9 c4 29 3d 7e de d1 3d b9 09 db bd
       0.09610181 0.041447554 0.10247515 -0.10695214
000320 9c a5 0d 3c 8b 0a cc bd 7c 9c 8f bd 42 de 4b 3d
       0.008645441 -0.099629484 -0.07012269 0.04977251
000330 1c e3 b2 bd 6e fd ec bc 7d 7d 24 3d 96 e6 e5 bd
       -0.08734724 -0.028929438 0.040158737 -0.112256214
000340 bb 4c be 3b 4d 0b 0e bd fe ae 28 3c 2c e2 9d 3d
       0.005807487 -0.034678746 0.010295628 0.077091545
000350 30 55 7a 3d 09 32 97 bd 7b 7f 0c 3d 5d 0f 74 3d
       0.061116397 -0.0738259 0.034301262 0.059584964
000360 c1 bc e6 3c aa a7 0f be a9 16 9c 3d 63 3e d3 bb
       0.028166177 -0.14028803 0.076215096 -0.006446646
000370 e6 a7 c6 bd e8 fd 07 bb 46 c9 ed 3c e3 13 34 3d
       -0.09699993 -0.0020750705 0.029026639 0.043964278
000380 6e dc b0 3d 13 3b 30 bd 8f 1c 22 3e ac 7d 32 3d
       0.086357936 -0.043025088 0.15831207 0.04357688
000390 84 90 f7 bd ae b2 6f bb 77 41 8f bb 4a b7 a0 bb
       -0.12088111 -0.0036575007 -0.0043718177 -0.0049046623
0003a0 90 ea 6b bd 52 06 b5 3d 80 2f 94 3b 06 17 05 bd
       -0.057596743 0.08839096 0.004522264 -0.03249266
0003b0 1a fe 90 3d bf 21 e4 bd 77 a3 6e 3d b5 13 86 3d
       0.07079716 -0.11139249 0.05826136 0.065467276
0003c0 af e7 04 3d 46 3f b8 bc e8 c5 38 3d b4 80 84 3b
       0.032447513 -0.022491109 0.045110613 0.004043663
0003d0 56 28 44 bd 45 4b e9 bd b9 95 3d 3d ca f9 95 bb
       -0.04789003 -0.1139131 0.046285365 -0.0045768963
0003e0 07 60 15 3d e8 54 ee bc 96 52 b5 bd 7f a7 3f bd
       0.036468532 -0.02909322 -0.08853643 -0.046790596
0003f0 bc 24 d8 3d 49 5a b6 3c 30 c7 f4 3c c9 1a bd bc
       0.105538815 0.022259848 0.029880136 -0.023084061

bias f4 [128]
000000 4e 78 46 3d 73 7a ce 3d a0 9d 1f 3c 94 26 bb 3d
       0.048454575 0.10081949 0.009742171 0.091382176
000010 59 6d 1d 3d e6 49 6f 3d dd 3b 01 bc c5 30 d6 bc
       0.03843436 0.058420084 -0.007887808 -0.026146302
000020 6b 0a 15 3d 6e 1f 82 3d 18 70 69 3c 46 a8 5f bd
       0.03638689 0.06353651 0.014247917 -0.054603837
000030 a9 63 e8 3d 08 09 8d bc d5 7f ca bb 16 9d 6b bc
       0.11347134 -0.01721622 -0.0061797895 -0.014380714
000040 53 90 95 3d be 4e 07 bc 03 c3 6a 3d 83 5a 2d 3c
       0.07302918 -0.00825852 0.057314884 0.010580662
000050 10 96 f6 3c a4 5a 25 3d bc 3f e7 bb 6a 9d 1e bd
       0.030100852 0.040369645 -0.0070571583 -0.03872434
000060 9e 8b 4b bd c3 c1 d3 3d aa cf d0 3c 6e 3b ac 3c
       -0.049693696 0.103396915 0.025489647 0.021024432
000070 44 fe 20 bd 67 0c 76 3d 4d fe 56 bd 21 44 69 bd
       -0.039304987 0.06007042 -0.052488614 -0.05694974
000080 d1 60 b0 bd 6c 18 55 bd 37 99 ce bc ac 17 a5 3d
       -0.08612216 -0.052025244 -0.025219543 0.08061156
000090 e8 95 10 bd 26 1a bd bd f9 8e bb bc 5d e2 fe 3c
       -0.03529921 -0.09233503 -0.022895323 0.031113798
0000a0 ed 3c 33 ba f4 3f 89 bd 47 2c 89 3d 5f 57 0d 3d
       -0.0006837387 -0.06701651 0.06697898 0.03450715
0000b0 e3 55 6a 3d da 46 f0 3c 9d 74 90 3d 47 a8 ae 3d
       0.057210814 0.02933066 0.07053492 0.0852819
0000c0 0a 22 17 bd 8b 3c 2d bc a8 02 58 3d e7 fe 8a bd
       -0.036897697 -0.010573517 0.05273691 -0.067869
0000d0 25 57 a8 3d 2d 8d bf bc 3c cb 99 3d f3 dd 89 3d
       0.082197465 -0.023382748 0.07509467 0.067317866
0000e0 d6 da be bd da 3a 5e 3d e0 a6 48 bd 58 e4 84 3d
       -0.093190834 0.054255344 -0.04898727 0.064888656
0000f0 3b 96 6a bd 1a bf e1 3d 9e ae 1e 3b c7 cd b6 3d
       -0.057272177 0.11022778 0.0024212967 0.08925968
000100 74 ee b0 3b b6 26 42 bd 61 90 a3 3d f0 2d 98 3d
       0.0053995196 -0.0474002 0.079865225 0.07430637
000110 27 31 ab bd 62 88 28 bd 32 f7 96 bb 1e 0d 5f bc
       -0.083589844 -0.04114569 -0.0046071047 -0.013613967
000120 39 15 7a bd 1e f0 91 3d ce 13 7b bd 09 ee b2 bd
       -0.061055396 0.07125877 -0.061298184 -0.08736808
000130 9a 18 99 3d 1d 47 40 bd 33 dd 8b 3d ac 70 9a bd
       0.074753955 -0.04694282 0.068293 -0.07541022
000140 30 a8 38 3d a3 2f b8 bd a9 f1 3f bd 31 a8 57 bd
       0.04508227 -0.08993461 -0.046861324 -0.052650634
000150 97 6b 4d 3d 63 fe 18 bd 1e ea 57 bd 98 cc e4 3c
       0.050151434 -0.037351977 -0.052713506 0.02792959
000160 83 cc 9d bd 01 bc dd bb e0 30 3c 3d 2a 3e 7e bd
       -0.07705023 -0.0067667966 0.04594505 -0.062071003
000170 04 4b 18 bd 81 ab 08 3c 8a d6 ae bc 99 bc ea bc
       -0.037180915 0.008341671 -0.021342535 -0.028654383
000180 60 ac 87 3d b4 98 10 3d be fa 81 bd 5c 6b 92 3c
       0.06624675 0.03530188 -0.063466534 0.017873459
000190 ac 5c 2b 3d b3 1c e4 3d f2 65 8b 3d 7e 21 34 bd
       0.041836426 0.111382864 0.06806554 -0.043977253
0001a0 90 28 d3 bd c4 68 1a bd dc 57 c5 bb 7d bf 59 3d
       -0.10310471 -0.03769757 -0.0060224365 0.053161133
0001b0 5e 86 e7 bc 00 bf 91 bc 02 83 29 bd b1 91 1b bb
       -0.028262313 -0.017791271 -0.041384704 -0.0023737962
0001c0 6b 8a 83 bc cb f1 00 bd c0 6c f3 35 dd 8b 6d bd
       -0.016057214 -0.03148059 1.8136561e-06 -0.057994712
0001d0 b1 80 e0 3c a1 21 8a bd 10 5a 0c bd 19 3f f5 3c
       0.027405115 -0.067446955 -0.034265578 0.029937314
0001e0 28 63 cc bc 57 23 7b 3d 01 98 c7 3d f6 6a 84 bd
       -0.024949625 0.061313 0.09745789 -0.06465714
0001f0 e9 16 35 3c 06 b7 b3 bd b8 38 1c bd e0 a7 a6 bc
       0.0110528255 -0.08775143 -0.03814003 -0.02034372

weight f4 [10, 128]
000000 da 3c 40 bd f9 ed eb 3d 7d d6 c4 3c a7 b1 e9 bd
       -0.046933033 0.11519999 0.024028057 -0.114108376
000010 0c ae a3 3c d0 3e bf bb 74 85 a8 bd 52 e2 2a bd
       0.019980453 -0.0058363453 -0.08228579 -0.041719742
000020 cb a6 2a bd 8c 25 98 bd c2 25 e3 3d d5 78 a2 3d
       -0.041662972 -0.074290365 0.11091186 0.07933203
000030 af d1 a2 bd a0 f1 89 bd b4 76 8c bd 2c ec 7e bd
       -0.0795015 -0.067355394 -0.06858578 -0.06223695
000040 94 f0 eb 3a b9 85 da 3d 51 fb ec bc 02 1d 0f bd
       0.0018000775 0.10670037 -0.02892843 -0.034939773
000050 b6 26 f2 bd e5 af de 3b b7 73 10 be 69 41 b2 bd
       -0.1182379 0.0067958706 -0.14106642 -0.08703882
000060 65 3b b7 3d 2a e8 c4 bd a2 83 6a 3c 32 a4 ac 3d
       0.089468755 -0.09614594 0.01431361 0.08429755
000070 16 0a 4e 3d c0 38 d0 bd 77 e2 79 3c df d4 b0 3d
       0.050302587 -0.10167074 0.015251747 0.08634352
000080 5f 2c 94 bd 34 fd 48 bd 9d 89 a0 bd cf 84 82 3d
       -0.072350256 -0.0490696 -0.07838748 0.063729875
000090 19 b6 a1 3d e4 8b 51 3c 8f 4e aa bd 68 35 f5 3c
       0.078960605 0.0127897 -0.08315765 0.029932693
0000a0 fb 16 ae 3c 3a c9 03 be 59 ce 80 bd 8f d5 d7 bd
       0.021251192 -0.1286973 -0.06289358 -0.1053878
0000b0 1f 43 ab bd 95 06 8d bd da bd a8 3d 56 d4 f0 3d
       -0.08362412 -0.06886021 0.08239336 0.1175925
0000c0 15 04 ae 3d 5b 68 d7 3d 55 1b 6b 3d f4 48 c8 3c
       0.08496872 0.10517951 0.057399113 0.02444885
0000d0 41 02 a5 bc a4 c3 84 3d 98 5e 5c bd 9e eb b0 bd
       -0.020142676 0.06482628 -0.05380115 -0.086386904
0000e0 51 27 8f 3c 39 9e 44 3d ed bc d2 3c c5 34 e3 3d
       0.017474802 0.048002455 0.025724852 0.11094049
0000f0 ea 77 96 bd 99 71 75 bb 99 87 f5 bd 28 e3 38 ba
       -0.073470905 -0.0037451743 -0.11988754 -0.0007052892
000100 fc d6 bd bd 48 3c 2f 3c 2b d9 f0 3d 26 a3 3e bb
       -0.09269521 0.0106955245 0.117601715 -0.0029088943
000110 4f 75 fa 3c 33 17 b6 bd f7 07 f2 3d 27 47 1e 3d
       0.030573515 -0.08891144 0.118179254 0.038642075
000120 00 29 08 3e 4c 5b e7 3d 72 54 54 3d 05 f6 22 3e
       0.1329689 0.1129671 0.051838346 0.15914162
000130 c6 f0 18 3e c4 36 22 3c f0 38 57 3d b3 ee a8 3c
       0.14935598 0.009900752 0.052544534 0.020621633
000140 64 2d f6 bc 7c 8d 84 3b 05 46 24 3d bb 33 27 bb
       -0.03005094 0.0040451866 0.04010584 -0.0025513011
000150 18 43 c4 bc 92 f0 07 bc 08 10 b5 bd 1c c7 ba ba
       -0.023957774 -0.0082971025 -0.08840948 -0.0014250013
000160 7c 08 60 bd 5a 02 72 3d 28 00 aa 3d aa ac 8d bc
       -0.05469559 0.059084274 0.08300811 -0.017294247
000170 3d 32 08 3e f6 db d1 bc 46 7b f4 3d b5 18 5f bd
       0.13300414 -0.02561758 0.11937575 -0.05446692
000180 6e 9e be 3d cd 0b b0 bd 22 1a fd bd 65 08 bc bd
       0.09307562 -0.08596001 -0.123585 -0.09181289
000190 49 ba 2f 3c 8e 01 d5 3b 58 84 99 bd ad 3c 94 bd
       0.010725566 0.0065004295 -0.07495946 -0.072381355
0001a0 c5 58 00 3d 56 2d 0b 3d c1 9f ed ba 7d bf 94 3d
       0.031334657 0.033978783 -0.0018129275 0.07263086
0001b0 06 89 8b 3c ba ea 4a 3d b5 1b 79 bc d1 59 a7 bd
       0.017033111 0.04954026 -0.01520436 -0.08171428
0001c0 91 8b 55 3c cc a5 5d 3d 6d 1f 62 3d 93 95 ea bd
       0.0130337635 0.054113194 0.05520575 -0.1145431
0001d0 b5 8c 6d bb 83 02 08 3d 91 3d 9f bc f5 4e 8b bd
       -0.0036247198 0.03320552 -0.019438537 -0.06802169
0001e0 1f e9 7f bd 8e 01 04 3e 4e 89 ef 3c 39 66 24 3d
       -0.06247818 0.12891218 0.029240277 0.04013655
0001f0 87 94 2e be 4f a9 2b 3d 37 91 0d bd 49 50 46 be
       -0.17048846 0.041909512 -0.034562316 -0.19366564
000200 49 30 09 3e 30 02 0b bd 18 8f ba 3d b2 37 53 3d
       0.13397326 -0.033937633 0.09109324 0.051566787
000210 46 bb b0 3b 12 29 0e 3d 10 60 17 3c da 9f 1c bd
       0.0053934185 0.034707136 0.009239212 -0.038238384
000220 ca 70 b0 3c 78 b9 a8 bc 98 36 0f 3d 74 f7 68 3d
       0.021538157 -0.02059625 0.034964174 0.056876615
000230 e8 03 fe bd bb 9f 06 bd 97 92 82 bb 02 8b 0a 3d
       -0.12403089 -0.032867175 -0.00398476 0.033823974
000240 98 c3 ef ba c6 54 bf 3d 74 f1 ed 3c 03 07 7e bd
       -0.0018292544 0.09342341 0.029045798 -0.062018406
000250 74 17 0a 3d 74 fd c7 3c b8 a3 f1 3d 4f de 9b 3c
       0.033713773 0.024412848 0.11798805 0.019026903
000260 e7 e4 ae 3d 24 7e 5b bb 9c 8a f8 bd 75 b4 79 3d
       0.085397534 -0.0033491934 -0.12135813 0.060963113
000270 1f a5 9d 3d b8 c6 c4 bd 72 9f 3c bd 8d 3b d3 3c
       0.0769751 -0.09608215 -0.046050496 0.025785232
000280 0e 05 31 3d 06 7a db bd b8 10 ac 3d 76 64 d2 39
       0.04321771 -0.107166335 0.08401626 0.0004012917
000290 a4 25 c0 3a 38 8a 00 3e 2d e1 99 3c 5d 99 82 3d
       0.0014659655 0.12552726 0.01878413 0.06376908
0002a0 bf 5a 87 3d b1 e9 0f 3b 23 f1 88 bc c6 8e fd bd
       0.06609105 0.002195936 -0.016716545 -0.123807475
0002b0 92 0d 0e bb 7e f1 88 3d b7 ab 6b bc f9 80 d1 bd
       -0.002167557 0.06686686 -0.014384202 -0.10229678
0002c0 ad eb a9 3d eb 50 40 bd f0 56 c0 3d 1e 32 c2 3d
       0.08296905 -0.04695217 0.09391582 0.09482215
0002d0 b2 23 f2 3a 74 24 a5 3d eb 87 b0 bc 4e 8f c7 bd
       0.0018473773 0.080635935 -0.021549186 -0.0974413
0002e0 ab ee fd 3d d2 05 93 bd 59 ad 35 bd 1d fa 05 bd
       0.12399038 -0.071788445 -0.04435477 -0.03270923
0002f0 18 35 03 3d 9f b7 f2 3c 1f fc b5 3c 93 97 7d 3d
       0.032033056 0.029628573 0.022214947 0.06191213
000300 ed 38 0a 3b 64 78 d9 3d 00 01 8d bd 4f a5 85 bd
       0.002109106 0.10618666 -0.06884956 -0.06525671
000310 d1 71 e5 3d b7 e7 fa 3d d9 32 6b 3c 8d f5 5a bd
       0.112033494 0.12251227 0.014355385 -0.05345683
000320 95 bd a6 bc 70 c6 79 bd 5a 2e 8d bd 9d 88 b3 bc
       -0.020354072 -0.06098026 -0.068936065 -0.021915728
000330 04 46 9e bc c5 77 0b be 6d 97 bd 3d e4 69 01 3e
       -0.019320495 -0.13619907 0.09257398 0.1263805
000340 b4 f8 ba bd 5d e6 85 3d dc 7a b4 3d 6e 3b c3 3d
       -0.091294676 0.06538079 0.08812496 0.0953282
000350 1c f3 c6 3d 90 0b bb 3d d9 cd 1d bd 07 41 75 3d
       0.09714338 0.09133065 -0.03852639 0.059876468
000360 5d 0e 81 3d d8 cd 84 3c 60 69 9f 3d b8 a2 9b 3d
       0.06301568 0.016211435 0.077837706 0.075993955
000370 1f cb 0d bd 15 9f 9e 3d 1d ee 87 bb a6 b8 a7 bd
       -0.03461754 0.07745186 -0.0041482584 -0.08189516
000380 f8 8c 7d bd 7a 6c e2 bc 1e d4 d1 bd 09 5c 0d bd
       -0.061902016 -0.027639616 -0.10245536 -0.0345116
000390 2e 1f 49 3d 5b 4b 86 bd 34 77 b9 bc ac 60 2f bd
       0.049102 -0.06557342 -0.022639848 -0.042816803
0003a0 18 06 b8 3d d9 bf 12 bc 09 ca 45 3d 50 9c 1f be
       0.08985537 -0.008956873 0.04828838 -0.15586972
0003b0 d7 21 1f 3c 42 78 c0 bd e2 41 d8 3c 33 20 cd bd
       0.009712658 -0.09397937 0.026398603 -0.10015907
0003c0 53 8b ee bd 2a d6 22 bd 61 15 85 3d a7 55 e1 3d
       -0.11647668 -0.039755024 0.06498218 0.11002665
0003d0 86 2a aa bd 2e 88 a6 3d cc 88 8c bd 70 86 09 3e
       -0.08308892 0.08131443 -0.068620294 0.1343019
0003e0 a1 60 9b 3d 8b 3c b6 3d 30 fc ae bd 8d 3c 6a 3d
       0.0758679 0.088982664 -0.08544195 0.057186652
0003f0 52 00 e6 3d b8 98 06 3d 13 a5 4b 3d a6 31 80 3d
       0.1123053 0.032860488 0.049717974 0.0625947

bias f4 [10]
000000 35 d0 87 bd 35 5b c1 bc a8 e1 c2 bc b3 ea 93 bd
       -0.06631509 -0.023603061 -0.023789242 -0.072225
000010 91 20 47 bd 0b bf d4 3c 12 ce a2 bb 81 08 2c bc
       -0.048615042 0.025970003 -0.004968413 -0.010500074
000020 ba 7f 38 3d fc b5 29 bd
       0.045043685 -0.04143332
