results/transformations/mapping_files/PCKTAE/FMNIST_PCKTAE_30_3>FMNIST_PCKTAE_30_1>NeuralNetwork_100_0.1_nodropout_128_equally.pth (torch, 103852 bytes, 6 tensors)

weight f4 [128, 30]
0	0x3a245dc1	0.0006270074
1	0xbb8ae52a	-0.0042387443
2	0x3ba1d56e	0.004938773
3	0x3a9c7933	0.0011937976
4	0x3b128019	0.0022354184
5	0xbb61b1d4	-0.003443827
6	0x3af9ab82	0.0019048306
7	0x3abb0be5	0.0014270513
8	0x38ecc9c2	0.00011290937
9	0x3a6e9735	0.0009101511
10	0xbb7d9d7e	-0.003869861
11	0x3a5b6dad	0.000837053
12	0xbac39908	-0.0014922926
13	0x3a1be849	0.0005947394
14	0xba2862c2	-0.00064234075
15	0x3b918b18	0.00444163
16	0xba386518	-0.0007034107
17	0xbb503863	-0.003177189
18	0x386891ae	5.5448785e-05
19	0x3a0f972f	0.0005477545
20	0x3aacd1cf	0.0013185086
21	0xbabb76c8	-0.0014302367
22	0x392912f8	0.00016124162
23	0xb917bc2e	-0.00014470585
24	0xb96050e5	-0.0002139244
25	0x3b7647e9	0.0037579483
26	0xbbae26c5	-0.0053146803
27	0x3b0c92fa	0.002144991
28	0xbaa39388	-0.0012479881
29	0x3ba4af33	0.005025768
30	0x3a9083da	0.0011025623
31	0xbb2b317e	-0.002612203
32	0x3b20063e	0.0024417783
33	0xbb170600	-0.0023044348
34	0xbb511c7c	-0.0031907847
35	0xb9b0a0f6	-0.0003368926
36	0xbb177819	-0.0023112355
37	0x3b8389d0	0.0040142313
38	0x3b134542	0.00224717
39	0xbba4f6db	-0.0050343103
40	0x37dd6814	2.6393718e-05
41	0x3b17dfff	0.0023174284
42	0x39215d8b	0.00015389004
43	0x390cc472	0.00013424622
44	0xbba4a7c5	-0.0050248825
45	0xb9e74382	-0.0004411005
46	0xba29c6d9	-0.0006476469
47	0xbb1c41a2	-0.002384283
48	0x3bae4c14	0.005319128
49	0x3b7cd022	0.0038576205
50	0xb88d51f5	-6.7386696e-05
51	0x3a40beb4	0.0007352636
52	0xba5eb574	-0.00084956666
53	0x3945d6fd	0.00018867473
54	0xbb0b64a8	-0.0021269713
55	0xbb8bfcd9	-0.004272085
56	0x38ef3e62	0.00011408028
57	0x383991d8	4.4243265e-05
58	0x3badae38	0.0053003095
59	0xbafe60f6	-0.0019407559
60	0xbb838f40	-0.0040148795
61	0x3bad776c	0.005293777
62	0xbabd9300	-0.0014463365
63	0x3b1b3aef	0.002368625
64	0x3b3640d7	0.0027809644
65	0x3b04438f	0.002018187
66	0x3a57f3b4	0.0008237914
67	0xbab17a20	-0.0013540424
68	0x3b9cdb87	0.004786912
69	0x3aaaf183	0.0013041947
70	0x39e411f2	0.0004350092
71	0x3a1f0cec	0.0006067294
72	0x3a4f93fc	0.0007918475
73	0xbbae00ae	-0.0053101396
74	0xba209a76	-0.0006126532
75	0xbafe7868	-0.0019414546
76	0xb7c27498	-2.3180895e-05
77	0xbb948d62	-0.0045334557
78	0xba37ed5a	-0.0007016264
79	0x3b78f8cb	0.003799009
80	0xbb86ece5	-0.0041175955
81	0xbb0934e0	-0.0020936057
82	0xba8ebecc	-0.0010890602
83	0x38bfbc36	9.142647e-05
84	0xbb616a98	-0.003439581
85	0x393d49b3	0.000180519
86	0xba9e8f79	-0.0012097202
87	0x3baa2772	0.0051926905
88	0x3b08f1de	0.0020896117
89	0x3bac2ba4	0.005254226
90	0x3ac6a558	0.0015155477
91	0x3a1c47e9	0.0005961643
92	0xba0611bb	-0.00051143364
93	0xb94d6338	-0.00019587285
94	0x3a5d917e	0.0008452161
95	0x3ab30d1d	0.0013660524
96	0xba5eb220	-0.00084951706
97	0xbb714d14	-0.0036819624
98	0xba85e61a	-0.001021567
99	0x3ad387d3	0.0016138501
100	0x3ba7d569	0.005121876
101	0xba66e6fd	-0.00088082236
102	0xbaea18ab	-0.0017860135
103	0xb9217254	-0.00015396747
104	0x3b8ad117	0.0042363512
105	0x3b02f828	0.0019984338
106	0xb893ecda	-7.053623e-05
107	0x3a9aeda8	0.0011820095
108	0x39c701fb	0.00037957713
109	0xbab0a9ce	-0.001347834
110	0x3ae204f6	0.001724391
111	0x3aa83108	0.0012831995
112	0xbb8a552a	-0.004221578
113	0xb8bea8b4	-9.0913294e-05
114	0x3a536669	0.00080642715
115	0xbb35a843	-0.00277187
116	0x3b78451f	0.0037882996
117	0xbb2a2c8e	-0.0025966498
118	0x3bab7c61	0.005233333
119	0x39b90dc9	0.0003529622
120	0x3ba0e96c	0.0049106386
121	0x3b0c77f3	0.00214338
122	0x3ba28e26	0.004960793
123	0xbaad09f4	-0.0013201819
124	0xbb0bd694	-0.0021337615
125	0x3a971e83	0.0011529479
126	0xbab2d1e9	-0.001364288
127	0xbabfe9c8	-0.0014641816
128	0x3a4cf6e9	0.0007818775
129	0x3bacc091	0.005271979
130	0xba9fe451	-0.0012198781
131	0xba1f4ef5	-0.0006077134
132	0xbace4345	-0.0015736601
133	0x3b2e098f	0.002655599
134	0x3ba140ca	0.0049210535
135	0x3ace3050	0.0015730951
136	0xba997860	-0.0011708848
137	0x3b141c38	0.0022599827
138	0x3ad5197e	0.0016258208
139	0x3a8ea23d	0.0010882091
140	0x3b061b8b	0.0020463194
141	0x37325358	1.0629032e-05
142	0xbb0f524a	-0.0021869116
143	0xb9eae11e	-0.00044799683
144	0xbb5b4709	-0.0033459088
145	0xba6989c4	-0.00089087733
146	0xb833acde	-4.283792e-05
147	0xba6cada1	-0.0009028558
148	0xbb897b7c	-0.0041956287
149	0x3b0326c3	0.0020012117
150	0xba212ce2	-0.00061483507
151	0x3ba945ec	0.005165806
152	0x3b9b57cb	0.0047406903
153	0xbb9f76ba	-0.004866448
154	0x3b1b1971	0.0023666287
155	0x3b78bb2d	0.0037953362
156	0x382f7dd6	4.1840445e-05
157	0x3b938900	0.0045024157
158	0xba6ef6ae	-0.00091157376
159	0x3abb52a8	0.0014291601
160	0xbbabe798	-0.005246114
161	0x399bf080	0.0002974309
162	0x39f8aa2a	0.00047429028
163	0xbbaa4dcf	-0.005197264
164	0xb9c670a4	-0.00037849427
165	0xbb1a3400	-0.002352953
166	0xbb1a901e	-0.0023584436
167	0x3bab375b	0.0052251047
168	0x3ba749e9	0.0051052463
169	0xbb2e8cf9	-0.002663432
170	0x3b9f462b	0.0048606596
171	0x3b752d76	0.003741113
172	0xbb6d1604	-0.0036176452
173	0xbba9a5af	-0.0051772217
174	0xb9a94fbc	-0.000322936
175	0x3a9bb5f1	0.0011879784
176	0xbb43b722	-0.0029863794
177	0xbb5c5721	-0.0033621269
178	0xbba56b39	-0.0050481823
179	0x3b8ffad8	0.0043939166
180	0xbb06a6e8	-0.0020546261
181	0x3abacb8e	0.0014251338
182	0x3b30b163	0.00269612
183	0x3b1b6d78	0.0023716372
184	0x3bae5290	0.005319901
185	0x3b0820ba	0.002077146
186	0xbaaaf512	-0.0013043007
187	0xbb91aed3	-0.0044458895
188	0x39e12bf9	0.00042948106
189	0x3ac1d57a	0.0014788352
190	0xbb9cfd21	-0.0047909175
191	0x39a93d6c	0.00032279955
192	0x3b1aa59b	0.0023597244
193	0x38c45960	9.362656e-05
194	0xbb2699c0	-0.0025421232
195	0xbb997671	-0.004683309
196	0x39cbb50d	0.0003885407
197	0x38800e1b	6.106143e-05
198	0xba68f292	-0.00088862434
199	0x3b0a1b5c	0.0021073436
200	0x39e7bbe6	0.0004419975
201	0xb92d1c0a	-0.00016509011
202	0x3baa25c0	0.0051924884
203	0xbae47dcc	-0.001743251
204	0x3b7d82b8	0.003868265
205	0xb84f09a4	-4.9361624e-05
206	0x3b3de0da	0.0028973133
207	0xb961f91f	-0.00021550477
208	0x3a89ae51	0.0010504221
209	0xbb0436a8	-0.002017418
210	0x38507231	4.9697413e-05
211	0xbb2f1981	-0.0026718082
212	0x3b3034ae	0.0026886868
213	0xbbaba134	-0.005237723
214	0xba28518f	-0.00064208446
215	0x3a1f1855	0.00060689944
216	0xba929fa2	-0.001118649
217	0xbb6aa971	-0.0035806561
218	0x399a66eb	0.0002944985
219	0xbb64653e	-0.0034850384
220	0x3a42f691	0.0007437254
221	0xbba9cbf6	-0.0051817847
222	0x3a8eefa8	0.0010905163
223	0x3a18f35b	0.00058346026
224	0xbbad10ff	-0.005281567
225	0xbad25188	-0.0016046027
226	0xbb67e0a9	-0.003538171
227	0xbbaa6d82	-0.0052010426
228	0x3a253d41	0.0006303378
229	0x38e0becb	0.0001071669
230	0xbaa3f67e	-0.0012509373
231	0x3960be3a	0.0002143317
232	0xb9e0f05b	-0.00042903688
233	0xba750016	-0.0009346021
234	0xb999d6ac	-0.00029342377
235	0xba65c8f9	-0.0008765604
236	0xbbacf7aa	-0.0052785473
237	0x395f284c	0.00021281949
238	0x3a81e8b7	0.0009911273
239	0xbba4d6cb	-0.005030488
240	0x3a57efa6	0.00082373095
241	0xba03e7d4	-0.00050317985
242	0xbb193ee1	-0.0023383426
243	0xbb1af3bf	-0.002364382
244	0x3976646d	0.000234978
245	0xbaaf3bf2	-0.0013369306
246	0x3b8046e7	0.003914702
247	0xbb1030d2	-0.0022001755
248	0x3b187bbd	0.0023267113
249	0xbab64d8b	-0.0013908608
250	0x39d02b48	0.000397051
251	0xba8a9a9c	-0.0010574642
252	0xba20ec8a	-0.00061387627
253	0x3b4d8286	0.0031358316
254	0xbb13c703	-0.002254904
255	0xbb2bef52	-0.0026235175

bias f4 [128]
0	0xb8b4a3c9	-8.613576e-05
1	0xb74e1ea0	-1.2285687e-05
2	0xba95054d	-0.0011369378
3	0x3b1a1ce6	0.002351576
4	0x3a724e9a	0.000924328
5	0xba806b91	-0.0009797682
6	0xba95d913	-0.0011432491
7	0xbad10287	-0.0015946188
8	0xbb96ab2b	-0.0045980415
9	0xba391d58	-0.00070615625
10	0x3b0f2017	0.0021839195
11	0xbbade2e7	-0.00530659
12	0x39144c60	0.00014142832
13	0x3baa6ab8	0.00520071
14	0xbaaf1547	-0.0013357782
15	0xb90e0766	-0.00013544931
16	0xb8a06f77	-7.6501565e-05
17	0x38e86afd	0.0001108255
18	0x3a04155a	0.0005038582
19	0x3b033d38	0.0020025503
20	0xb830b0c8	-4.212631e-05
21	0xbb132d41	-0.0022457393
22	0xbb1b7fb5	-0.0023727242
23	0x37530350	1.2577351e-05
24	0xbb0f8a12	-0.0021902365
25	0xbb0cd407	-0.0021488683
26	0x37cf9700	2.4746638e-05
27	0xb9e48084	-0.000435833
28	0x3b138369	0.0022508746
29	0xb9ead48b	-0.00044790315
30	0x3b0df93a	0.0021663443
31	0xbb1cade5	-0.002390736
32	0x3b4e0bb4	0.003144008
33	0x38a8eb15	8.054652e-05
34	0xbad8a7a5	-0.0016529454
35	0x3a95cca5	0.0011428787
36	0x3ad33801	0.0016114713
37	0x3bab993a	0.005236772
38	0x3a1b809f	0.0005931947
39	0x3b158c30	0.0022819154
40	0xbba30ffd	-0.004976271
41	0xb926f18c	-0.00015920977
42	0xbba7f329	-0.0051254225
43	0xba20f3ba	-0.0006139834
44	0xbb82589d	-0.0039778487
45	0xbb02ca31	-0.0019956941
46	0x3a760742	0.0009385237
47	0xbb887217	-0.004163991
48	0x383bcb20	4.477345e-05
49	0x39bffeec	0.0003662029
50	0x382d352a	4.1295927e-05
51	0x3a25880e	0.0006314524
52	0x39e9d952	0.0004460314
53	0x389ba2d4	7.421305e-05
54	0xbbac1252	-0.0052512074
55	0xb9d4e11c	-0.0004060351
56	0xb92dacb4	-0.00016562903
57	0x38c818e2	9.541378e-05
58	0xbb19571c	-0.0023397868
59	0x3a7c517d	0.000962518
60	0xb9d3defc	-0.00040411192
61	0xba802256	-0.0009775858
62	0x3ae3a389	0.0017367463
63	0x3b1b3043	0.002367989
64	0x3a5b91f4	0.0008375936
65	0xb9d16eba	-0.00039946084
66	0x3b882d17	0.0041557658
67	0x3ac90b22	0.0015338401
68	0x3acb4ca4	0.0015510512
69	0xb98c45b1	-0.00026754805
70	0xbb07b5d2	-0.0020707739
71	0xba687572	-0.00088675984
72	0xba16a1f9	-0.00057461817
73	0x3aaafd8c	0.0013045534
74	0xbb1885f2	-0.0023273197
75	0xb9ab0140	-0.00032616593
76	0x3b01f7af	0.0019831469
77	0xbae05c18	-0.001711729
78	0x3b679ac5	0.0035340053
79	0xba9d8fec	-0.0012021041
80	0x39ffba86	0.0004877636
81	0x3b9fefdf	0.00488089
82	0xbb0fe352	-0.0021955562
83	0xbb196fa4	-0.002341249
84	0xbaede60c	-0.0018150224
85	0xbbad97ce	-0.0052976375
86	0xbaa181cf	-0.0012322011
87	0xbb8bd899	-0.004267764
88	0xb9ec4ec9	-0.00045072127
89	0xbb910a35	-0.0044262656
90	0x3b5d5342	0.003377155
91	0xbb1fc17a	-0.0024376796
92	0xb90556b6	-0.00012716171
93	0x3b01e4f7	0.0019820312
94	0xb79610a0	-1.7889135e-05
95	0xbbabfa25	-0.0052483254
96	0xb85c8130	-5.2572403e-05
97	0x39a89972	0.00032157783
98	0xbaadeb00	-0.0013268888
99	0xbb2abf11	-0.0026053826
100	0x395d9b86	0.0002113414
101	0xbb10d9a3	-0.0022102378
102	0x3a6b2381	0.0008969829
103	0xbb6d0391	-0.0036165456
104	0xbb43e794	-0.002989267
105	0x380404aa	3.1475596e-05
106	0x3b04c50e	0.0020259055
107	0x3a4be634	0.00077781384
108	0x3bacc473	0.005272442
109	0x3a9ebc6b	0.0012110596
110	0xb9239d5a	-0.0001560351
111	0x3ba23840	0.004950553
112	0x3aa80fbc	0.0012822072
113	0x3afa4dd2	0.0019096679
114	0xbacd043e	-0.0015641523
115	0x3b339cc7	0.002740668
116	0xbbae14e9	-0.0053125513
117	0xbb8e20f7	-0.004337426
118	0x3a403c90	0.0007333243
119	0x3a5e5024	0.000848057
120	0xbbaa90cd	-0.00520525
121	0xb97274a2	-0.00023122368
122	0x38b21262	8.4911255e-05
123	0xbac89923	-0.0015304427
124	0x3a5547a0	0.0008135978
125	0xbb0bd937	-0.0021339187
126	0x3aabb4bc	0.0013100128
127	0x3a7a1622	0.0009540041

weight f4 [128, 128]
0	0x3a840b48	0.0010074163
1	0x3966321f	0.00021953181
2	0xb8368ff6	-4.3526255e-05
3	0x3aac392e	0.00131396
4	0xba937576	-0.0011250216
5	0x39050fb8	0.00012689724
6	0xb8cc1ad8	-9.732478e-05
7	0xba61a7cf	-0.0008608074
8	0xb9e0d982	-0.00042886665
9	0xba63a34e	-0.0008683697
10	0xb8a12bc1	-7.685228e-05
11	0xbb0a3c1b	-0.0021092955
12	0x38c0b17e	9.188334e-05
13	0x3a6ee037	0.000911239
14	0xbaeebd82	-0.0018214437
15	0xb9ddbf4c	-0.00042294932
16	0x3afc2f2d	0.0019240134
17	0x3a140423	0.00056463684
18	0x3a571632	0.00082049065
19	0xbad45d12	-0.0016202054
20	0x3b13136c	0.0022441996
21	0xbaa083fd	-0.0012246367
22	0x39e05bf8	0.0004279313
23	0xba5966b9	-0.00082932
24	0x395952d6	0.00020725591
25	0xbaf853b3	-0.0018945843
26	0x3aaa1a9a	0.0012977899
27	0xb8ee50a0	-0.00011363742
28	0xb8f1e581	-0.00011534524
29	0x3965c4d4	0.00021912466
30	0xb9773df4	-0.00023578835
31	0x399e1371	0.00030150593
32	0xba0786f4	-0.0005169951
33	0xb8afe6bc	-8.387628e-05
34	0x39244cb2	0.0001566883
35	0x3b180d33	0.0023201227
36	0xbb1a76e8	-0.0023569409
37	0xba4c2ef3	-0.00077889784
38	0x3a69fca3	0.00089258904
39	0x3a92cb37	0.0011199479
40	0x3a6641c4	0.00087836036
41	0xb86613ac	-5.4854594e-05
42	0x3b0e6a36	0.0021730787
43	0x3b0844d4	0.0020792978
44	0x3b197960	0.0023418292
45	0x3a67ede0	0.0008847397
46	0x3a1cce97	0.0005981712
47	0x3a182836	0.0005804332
48	0x3a5d58d7	0.0008443719
49	0x3b0f8835	0.0021901254
50	0xb8774f12	-5.896303e-05
51	0x3a5a1f98	0.0008320748
52	0x3a43ef65	0.0007474332
53	0x392e2113	0.00016606254
54	0x3737b470	1.0949661e-05
55	0xba10fc60	-0.0005530771
56	0xb9864408	-0.0002560916
57	0xb5f4f500	-1.8250721e-06
58	0x3a355350	0.00069170166
59	0xb5a32600	-1.2155506e-06
60	0xba114461	-0.00055415
61	0x3b1bcb7d	0.0023772412
62	0xb978ebd0	-0.0002373897
63	0x3a98d055	0.0011658767
64	0xb9b0274a	-0.0003359861
65	0x3a4f1dcc	0.00079008634
66	0x3b049dc2	0.0020235633
67	0x39e740e2	0.00044108095
68	0xba201a74	-0.00061074574
69	0xba06f54f	-0.0005148248
70	0xba2de66b	-0.0006633761
71	0xbb129555	-0.002236684
72	0xbb0a471f	-0.002109952
73	0x385a9fb7	5.2123996e-05
74	0x3b10ddbd	0.0022104823
75	0x39327d5e	0.00017022106
76	0x3ab24378	0.001360043
77	0xb829efd9	-4.0516115e-05
78	0x3953229b	0.0002013542
79	0x3a4896b6	0.0007651852
80	0x3942a3c7	0.00018562294
81	0x392a885a	0.00016263258
82	0x3a1afd14	0.00059123454
83	0x38d382d8	0.000100856356
84	0xb9a78e78	-0.0003195887
85	0x3b06a902	0.0020547514
86	0x3a2783d5	0.0006390189
87	0x3aac1fd3	0.0013132043
88	0xbab2fbe3	-0.001365539
89	0xba4269db	-0.00074162864
90	0x3a181e26	0.00058028323
91	0x3a5c3348	0.00083999755
92	0x3879f7ac	5.959689e-05
93	0x381349a9	3.5116132e-05
94	0xbace9dbc	-0.0015763561
95	0x3a3cb10e	0.0007198014
96	0x3a9b232b	0.0011836042
97	0xba1ae73c	-0.00059090904
98	0xbab2a253	-0.0013628699
99	0x3b18d200	0.002331853
100	0x39a7ea1c	0.00032027147
101	0xba60302e	-0.0008552101
102	0x3b0a30fe	0.002108633
103	0x3a5535b4	0.00081333076
104	0x3b0a8bac	0.002114038
105	0xb8962488	-7.159362e-05
106	0xba6113b0	-0.00085860025
107	0xb855ebe0	-5.1002833e-05
108	0xbab0aae4	-0.0013478664
109	0xba2b7610	-0.0006540725
110	0x3aacdd7b	0.0013188565
111	0xb98d146f	-0.0002690884
112	0x39aa0348	0.00032427371
113	0x3a3d2731	0.0007215618
114	0xba99566f	-0.0011698733
115	0xbb1b0485	-0.0023653817
116	0x3a3f6042	0.00073004153
117	0x3b088616	0.0020831875
118	0x3b0a94f2	0.0021145907
119	0xba0d9a6e	-0.0005401735
120	0x387765f4	5.898434e-05
121	0xb88f83b0	-6.8433e-05
122	0x3919065b	0.00014593585
123	0x3aed486e	0.0018103251
124	0xb7bbb4e0	-2.2376364e-05
125	0x3a43ee47	0.0007474166
126	0xba8b332c	-0.0010620109
127	0x3938c650	0.00017621485
128	0xb9cd8ce4	-0.0003920562
129	0x3a1a0ee0	0.00058768503
130	0xbae98ba2	-0.0017818103
131	0x3a0a0a2b	0.00052657974
132	0xbb155097	-0.002278363
133	0xbb0bef96	-0.002135252
134	0xb88731cc	-6.446577e-05
135	0x39c02166	0.00036645978
136	0x3b15b918	0.002284592
137	0xbad3caac	-0.0016158423
138	0x3af919d2	0.0019004887
139	0x3b18fe55	0.0023344953
140	0x39018fab	0.00012355919
141	0xb7f25160	-2.8886541e-05
142	0xbb080b0c	-0.0020758538
143	0xb9fb689e	-0.00047952397
144	0xb96ed80b	-0.00022777931
145	0x399258e6	0.00027913525
146	0x3890bbeb	6.9014575e-05
147	0xb91c5b7b	-0.00014911398
148	0x3a1caa74	0.0005976327
149	0x371a7f80	9.208801e-06
150	0xba62642a	-0.00086361414
151	0x3b1a5135	0.0023546938
152	0xb9236290	-0.00015581609
153	0x3ac760be	0.0015211327
154	0x3b15c5c8	0.0022853483
155	0x39353fcc	0.00017285271
156	0xb9beddac	-0.00036404782
157	0xbb101e49	-0.0021990708
158	0x3aa6595b	0.0012691425
159	0xb9ab6ae3	-0.00032695298
160	0xba8121d6	-0.0009852003
161	0x39ca1c7b	0.00038549662
162	0xb93ee60d	-0.00018205513
163	0x3877f8a0	5.912094e-05
164	0x3a3fe318	0.00073199114
165	0x3ab4cec3	0.001379453
166	0x3a8cf4f6	0.0010754156
167	0xb9df4bf5	-0.00042590467
168	0x39caa2f2	0.00038649846
169	0x38798a64	5.9495113e-05
170	0x38ec7766	0.000112755966
171	0xb7306120	-1.0513031e-05
172	0x381e5368	3.7747814e-05
173	0x39abe1f6	0.00032784016
174	0xbae50535	-0.0017472865
175	0xbaa81fed	-0.0012826897
176	0xba1f81d0	-0.0006084712
177	0x39e7c820	0.00044208858
178	0x3aa91bd0	0.0012901966
179	0x39d6935a	0.00040927046
180	0xbb18a00e	-0.002328876
181	0xb911d8ae	-0.00013908997
182	0xb7807c9c	-1.5316815e-05
183	0x3ab46fb3	0.0013766199
184	0x3b16e7fd	0.002302646
185	0xba4b0fbd	-0.00077461806
186	0x3b095bf5	0.0020959352
187	0xbb0191b7	-0.001977069
188	0xb916b660	-0.00014373055
189	0xb9a61a37	-0.0003168152
190	0x388927f6	6.5401124e-05
191	0xb91397e5	-0.00014075598
192	0x3a8446f6	0.0010091949
193	0xba318e8e	-0.00067732565
194	0xb9940358	-0.0002823125
195	0x3ab407f5	0.0013735282
196	0x3b0e5a2e	0.0021721232
197	0xba1b1216	-0.0005915476
198	0x3b1b6664	0.0023712153
199	0xb931540a	-0.00016911342
200	0xba94ebbb	-0.0011361757
201	0xb74b5320	-1.2119097e-05
202	0xba0ec970	-0.00054468866
203	0xb8e0053c	-0.00010682127
204	0x3b0615f6	0.0020459867
205	0x3a6349cf	0.0008670361
206	0x3a56cd83	0.0008194076
207	0x3aa8e3c9	0.0012885268
208	0xba8d1c06	-0.0010765798
209	0xb954890e	-0.00020268952
210	0xba5923ae	-0.000828321
211	0xb94ba497	-0.00019420903
212	0x3a13e73c	0.00056420616
213	0xb7bf064c	-2.2771907e-05
214	0x3aeda495	0.0018130714
215	0xba531548	-0.00080521824
216	0xb9328168	-0.0001702361
217	0x3a9ae266	0.001181674
218	0x3aae9d8b	0.0013322098
219	0x3a5b95d2	0.0008376512
220	0x3a2221bb	0.0006184836
221	0x391933c0	0.00014610495
222	0x3b0a5ee9	0.00211137
223	0x3b1c15e6	0.0023816763
224	0x3897a49a	7.2309005e-05
225	0xb9f98400	-0.0004759133
226	0xba059d7a	-0.0005097013
227	0x38952816	7.11234e-05
228	0xb9edde30	-0.00045369705
229	0xba936508	-0.001124532
230	0x3afbfd87	0.0019225337
231	0xbaafd6a4	-0.0013415408
232	0xba3a9375	-0.000711731
233	0x3a05f2fd	0.00051097554
234	0x3a9f5342	0.001215555
235	0x3b0b3e26	0.002124676
236	0x3a4cbd43	0.00078101846
237	0xb912db08	-0.0001400524
238	0xb98a5d56	-0.00026390952
239	0xbab14b6e	-0.0013526508
240	0xba11a14a	-0.0005555345
241	0x3a90297e	0.0010998694
242	0xba934cf4	-0.0011238144
243	0xba44e749	-0.0007511271
244	0xbab61971	-0.001389308
245	0xb9687076	-0.00022167139
246	0x3a18966a	0.0005820753
247	0x39c6a4d8	0.0003788832
248	0xba0755f1	-0.00051626476
249	0x3a02cec8	0.0004989919
250	0xb9e8e634	-0.00044422003
251	0xbb0d6463	-0.0021574728
252	0x3ae71f25	0.0017633183
253	0xb995c620	-0.0002856711
254	0x39c064aa	0.00036696094
255	0x394588b9	0.00018838317

bias f4 [128]
0	0xba846ae7	-0.001010266
1	0xb997e530	-0.00028971722
2	0x39f4257f	0.00046567243
3	0xbad16db6	-0.0015978131
4	0xbaabefec	-0.0013117767
5	0xbb10236a	-0.0021993765
6	0x3a96af6d	0.0011496373
7	0xbb236156	-0.0024929843
8	0x3b0b041e	0.002121217
9	0x393a55b2	0.00017770266
10	0x3acc9f19	0.001561138
11	0xba2ee34f	-0.0006671445
12	0xb9abe952	-0.000327895
13	0xba48ef1b	-0.0007665024
14	0x384e12fc	4.9131908e-05
15	0x3aeb5753	0.0017955102
16	0x3b278780	0.0025562942
17	0xbb120969	-0.002228344
18	0xb86aa0f8	-5.593986e-05
19	0x39c31b1f	0.00037213505
20	0xb9243243	-0.00015658983
21	0xb9ac0be6	-0.00032815262
22	0xb885dad0	-6.382691e-05
23	0x3ad68fe4	0.0016369787
24	0xbb055af0	-0.0020348392
25	0x3ad22169	0.0016031686
26	0x399701ea	0.0002880239
27	0x3a8cebab	0.0010751387
28	0x394bdbb6	0.00019441437
29	0xb9ab3ff2	-0.00032663305
30	0xbae033f1	-0.0017105323
31	0x39a3c6d1	0.00031237912
32	0xb8c7d2cb	-9.528323e-05
33	0x3834a8c8	4.3072534e-05
34	0x3ad1ca62	0.0016005749
35	0x387ffe33	6.103348e-05
36	0x3b0d1b7f	0.0021531282
37	0x393e79bd	0.00018165163
38	0x3a41e67e	0.0007396712
39	0x39865d5c	0.0002562803
40	0xbb0f2014	-0.0021839188
41	0xb95aa4d1	-0.00020851499
42	0xb8892fce	-6.5415734e-05
43	0x3a193d34	0.0005845607
44	0xbae2aa82	-0.0017293247
45	0x3b0f9a52	0.002191205
46	0x38c7db06	9.529856e-05
47	0x379354e8	1.7563303e-05
48	0xba1f4498	-0.000607559
49	0xb8df59a2	-0.00010650164
50	0xbae713d8	-0.0017629815
51	0xba2d9af2	-0.0006622515
52	0xbaffef52	-0.0019526279
53	0xba190f9b	-0.0005838812
54	0x39c66a9a	0.00037844927
55	0xbab501b6	-0.0013809714
56	0x39e39b12	0.0004341235
57	0xba2cc0ae	-0.0006589991
58	0x384a3046	4.820551e-05
59	0x3a92e997	0.0011208531
60	0xbb02ad0e	-0.0019939574
61	0x38063a5a	3.2002434e-05
62	0x3a981a63	0.0011604544
63	0xb98a1e62	-0.00026344048
64	0xbac811a4	-0.0015264046
65	0x397f98e9	0.00024375659
66	0x3a454938	0.0007525864
67	0xba3a7e28	-0.00071141357
68	0x3a35ea39	0.0006939504
69	0x3af26a84	0.0018494879
70	0xba611b6d	-0.00085871556
71	0x3a925659	0.001116465
72	0x3ab2cf34	0.0013642074
73	0x39d7f4f2	0.00041190494
74	0xba6df31f	-0.00090770604
75	0x3a63ceac	0.00086901593
76	0x3a5995a1	0.00083001895
77	0xbb1f3e31	-0.0024298544
78	0x3b03446c	0.0020029796
79	0xbab403c9	-0.0013734038
80	0x3a547b04	0.0008105489
81	0x38b56941	8.6503576e-05
82	0xb9dfa196	-0.00042654265
83	0xb976eea8	-0.00023549295
84	0x3aa500b8	0.0012588715
85	0xb9a26372	-0.0003097314
86	0x3a63fb8b	0.00086968456
87	0x3b0d0c41	0.0021522196
88	0x3964e032	0.00021827294
89	0x3b165115	0.0022936512
90	0x3acb6f43	0.001552083
91	0x3a05bcb2	0.0005101665
92	0x3a7d15ad	0.0009654414
93	0x3b168106	0.0022965088
94	0x397f087d	0.00024321857
95	0xbb077b14	-0.0020672726
96	0xba3fbaa5	-0.0007313884
97	0xb9dcd861	-0.00042122885
98	0x382b1daa	4.0797204e-05
99	0xbaefe33a	-0.0018301972
100	0xbb086f51	-0.0020818303
101	0xbb15ea55	-0.0022875268
102	0xbb0a360e	-0.0021089348
103	0x39035310	0.00012524077
104	0xbb117d73	-0.0022200018
105	0x3a1217a0	0.00055729784
106	0x38c4327c	9.355412e-05
107	0xb8b4f232	-8.628181e-05
108	0xbb11df76	-0.0022258437
109	0x39956a01	0.00028498474
110	0xba80be3a	-0.0009822317
111	0x3abd8c8e	0.0014461444
112	0xb965ee42	-0.000219279
113	0x3a5be173	0.00083877816
114	0xb9d33dbf	-0.0004029106
115	0x3a13fd20	0.00056453235
116	0xb800d632	-3.0717063e-05
117	0x384b6a2c	4.8497852e-05
118	0xbb1255bc	-0.0022328934
119	0x371f26e0	9.48619e-06
120	0xba790b42	-0.0009500274
121	0xb915edb8	-0.00014298304
122	0xb90ed344	-0.00013620878
123	0x3b07a846	0.0020699664
124	0x39bcabc6	0.00035986135
125	0x38bf3c9b	9.1188784e-05
126	0xb9751fd4	-0.00023376878
127	0xb9429a08	-0.00018558663

weight f4 [30, 128]
0	0x39236a7a	0.00015584557
1	0x39d4e0a2	0.00040603156
2	0x3b05cd16	0.002041643
3	0x3aee4c6b	0.0018180733
4	0xb89f9be6	-7.610749e-05
5	0x3a04d81a	0.0005067602
6	0x37f15860	2.8770592e-05
7	0xbaaf73d3	-0.0013385959
8	0xbb0ecd8f	-0.0021790003
9	0xbab284d9	-0.0013619914
10	0x3b14f65f	0.0022729856
11	0xba3386d0	-0.0006848397
12	0xb9c22d19	-0.00037036164
13	0x3ac2edf4	0.0014871941
14	0xb9429788	-0.00018557732
15	0x3b0eb47e	0.0021775062
16	0x39cbd0ce	0.0003887475
17	0x39f1f870	0.00046152202
18	0xb9c3738c	-0.00037279387
19	0x3989abe0	0.00026258733
20	0x3b16bc19	0.0023000299
21	0x3b12598e	0.002233121
22	0xba0e5a18	-0.0005430295
23	0xbaefc7a1	-0.0018293747
24	0xba2d66f8	-0.000661477
25	0x39138d82	0.00014071728
26	0xb7f22678	-2.8866561e-05
27	0x3a228f7a	0.0006201189
28	0xb9a1cb4a	-0.00030859775
29	0xb7b6d630	-2.179583e-05
30	0xba9e1c7d	-0.0012062934
31	0xba13d5e1	-0.00056394754
32	0x37804244	1.5289646e-05
33	0x3b084476	0.002079276
34	0xbb007a08	-0.0019603986
35	0xba450a41	-0.00075164816
36	0x395b7639	0.00020929509
37	0x3a56fc54	0.0008201052
38	0x3b169180	0.0022974908
39	0xba174c83	-0.0005771594
40	0x39c3c72e	0.000373417
41	0x3a48b9c0	0.00076570734
42	0x39516b16	0.00019971686
43	0xb8e06398	-0.00010699703
44	0x3729d748	1.0123309e-05
45	0xba22411f	-0.00061895134
46	0xb8e214dc	-0.00010780405
47	0x3b0e6b7b	0.0021731544
48	0x38c68b20	9.46729e-05
49	0x37c4f870	2.3480708e-05
50	0xba6e2253	-0.0009084094
51	0x39d079c4	0.00039763574
52	0xb9171316	-0.00014407592
53	0xbab93366	-0.0014129698
54	0x3609f200	2.0555453e-06
55	0xbb1b43a4	-0.002369144
56	0xba237ac1	-0.00062362483
57	0xb9c8b393	-0.00038280766
58	0xb8dbdf92	-0.00010484377
59	0xba18b6dc	-0.0005825588
60	0x39b721df	0.00034929716
61	0x3a1947dc	0.00058471947
62	0x39ae897e	0.00033290306
63	0xbab7cb19	-0.001402232
64	0x3a9bd251	0.0011888241
65	0xba76f9aa	-0.0009421358
66	0x39d4ae96	0.00040565868
67	0xbaf7b3ed	-0.0018898227
68	0x39cbbfb7	0.00038862016
69	0xb95ecade	-0.00021247144
70	0xbab19112	-0.0013547263
71	0xba0d540f	-0.0005391249
72	0x3a457feb	0.0007534015
73	0xba038d71	-0.000501833
74	0x39f22251	0.00046183405
75	0x3aecf2fd	0.0018077787
76	0xba47e81c	-0.00076258346
77	0xbb142fed	-0.0022611574
78	0x3b1c4c4e	0.0023849192
79	0x3a810f23	0.000984643
80	0xba915a11	-0.0011089464
81	0x3ab96238	0.0014143651
82	0x3977e6d6	0.00023641749
83	0xba8454c6	-0.0010096065
84	0xba534518	-0.0008059307
85	0xbb1988a1	-0.0023427384
86	0x3ad91e52	0.0016564822
87	0xba8995f9	-0.0010496966
88	0x3aa24444	0.0012379964
89	0xbaa4fe6c	-0.0012588031
90	0x3a47b25c	0.0007617825
91	0x3a756590	0.00093611423
92	0xba2b4546	-0.0006533455
93	0x39005b26	0.00012240987
94	0x389edd00	7.5751916e-05
95	0x3a609e8c	0.0008568547
96	0x39a2b21a	0.00031031744
97	0x374cac40	1.2199453e-05
98	0x3b10b2a6	0.002207914
99	0xba503a40	-0.000794325
100	0xbaa1cbc6	-0.0012344054
101	0x3844bbe8	4.6905043e-05
102	0xbb11b00c	-0.0022230176
103	0x3ab1a414	0.0013552927
104	0xbaa4b250	-0.0012565348
105	0xb8a55b37	-7.884803e-05
106	0xbb0348a2	-0.0020032306
107	0x3a34dd38	0.0006899419
108	0xba6dc984	-0.00090708607
109	0x3ab75ac7	0.0013988846
110	0xb9e6706f	-0.00043952788
111	0xbb158966	-0.0022817492
112	0xbb199a9a	-0.0023438097
113	0xbab5ecc7	-0.0013879769
114	0xb9d336c6	-0.00040285866
115	0xba32cb7b	-0.0006820482
116	0x3aad2ac0	0.0013211593
117	0x34dee700	4.1518797e-07
118	0x39549c96	0.00020276228
119	0xbb0095b4	-0.001962048
120	0xb88770fc	-6.4583466e-05
121	0xba61faaf	-0.00086204236
122	0xbb158bf4	-0.0022819014
123	0x39a2e642	0.00031070603
124	0x3b14a81e	0.0022683213
125	0x3a82b14d	0.0009971053
126	0xba2fb715	-0.00067030016
127	0xba239e95	-0.0006241587
128	0xb82ed26e	-4.168081e-05
129	0xb9cfeca5	-0.0003965843
130	0xba066998	-0.0005127429
131	0x39c8df41	0.0003831331
132	0xba56ce76	-0.0008194217
133	0xb99cb1f6	-0.0002988723
134	0x3b1179fe	0.0022197957
135	0xb90821b0	-0.0001298252
136	0x3b06e9c5	0.0020586115
137	0xb8a24488	-7.737527e-05
138	0xba15592a	-0.00056971854
139	0x39556414	0.00020350545
140	0x398d208a	0.0002691786
141	0xb74f3928	-1.2351469e-05
142	0x39dcde0f	0.00042127116
143	0xbace85ec	-0.0015756465
144	0xba955d18	-0.0011395542
145	0x39b98c5d	0.00035390529
146	0x3a150cff	0.00056858355
147	0x3aa6483a	0.001268632
148	0x3889da94	6.5733824e-05
149	0x3aa31e2f	0.0012444908
150	0x3a83de6c	0.0010060794
151	0x3b18dad7	0.0023323798
152	0x3ab3b679	0.0013710997
153	0xb931e5de	-0.00016965668
154	0x3afa8b1d	0.0019114945
155	0x3afb6710	0.0019180495
156	0x3b1952c8	0.0023395289
157	0x39a4ff3b	0.0003147068
158	0x3aece719	0.0018074244
159	0x3b00edd7	0.0019673014
160	0xb96b8832	-0.00022462083
161	0xb9ce06d0	-0.00039296458
162	0xba623f12	-0.0008630614
163	0xb89a4668	-7.3564064e-05
164	0x39513f67	0.00019955412
165	0x3915afa7	0.00014275183
166	0xb9c1c708	-0.00036960118
167	0x3b1b838a	0.0023729526
168	0x3908a890	0.00013032765
169	0xbad59814	-0.0016295933
170	0x3a97aa78	0.0011571189
171	0xba81c4bc	-0.000990055
172	0x391b1ffe	0.0001479387
173	0xb94224c0	-0.00018514972
174	0xbb07d3e9	-0.0020725674
175	0x3812d5f4	3.5008372e-05
176	0x39434d70	0.00018625497
177	0xbb12588f	-0.0022330617
178	0xba9c278f	-0.0011913645
179	0x38e37a14	0.00010846942
180	0xba06a3d4	-0.00051361066
181	0xbaf03c16	-0.0018328454
182	0xbab34f98	-0.0013680337
183	0x3b1c0fd7	0.0023813152
184	0x38454010	4.7028123e-05
185	0x3afcf544	0.0019299169
186	0x3aec6e82	0.0018038305
187	0xb9c28fa3	-0.0003710958
188	0xbb12ff1a	-0.0022429884
189	0x398bd9a8	0.00026674313
190	0xbab0cd97	-0.0013489005
191	0x38e1d3da	0.000107682965
192	0xb997ae52	-0.00028930843
193	0xb8816ee2	-6.171853e-05
194	0x39575761	0.00020536549
195	0x39e2483f	0.00043159907
196	0xbb1b87b1	-0.0023732001
197	0x37371880	1.0913354e-05
198	0x388057f6	6.1198996e-05
199	0xb85c1ea8	-5.248064e-05
200	0xb8119ed9	-3.4718632e-05
201	0xb9bfa0c7	-0.00036550147
202	0xbaa9a681	-0.0012943299
203	0x39c36964	0.0003727182
204	0xbab3d651	-0.0013720487
205	0x39ae8534	0.0003328711
206	0xb9908cec	-0.00027570815
207	0xbb1c7a50	-0.0023876615
208	0xb9e85057	-0.00044310346
209	0x3afe1193	0.00193839
210	0xb98f4481	-0.00027326125
211	0xb99dc5d5	-0.0003009277
212	0xbb191888	-0.002336057
213	0xba5e4898	-0.0008479445
214	0xba812448	-0.0009852732
215	0x3b17e4c8	0.0023177136
216	0xba312c84	-0.00067586475
217	0x39d9584d	0.00041455255
218	0xb9dbcf56	-0.00041925412
219	0x38d0fbfb	9.965148e-05
220	0x3aee904b	0.0018200962
221	0xb8ecb734	-0.00011287481
222	0xb8ec7330	-0.00011274812
223	0xbad0f05d	-0.0015940774
224	0x3ae22443	0.0017253238
225	0xbaa357f1	-0.0012462122
226	0x3985a58a	0.00025491073
227	0xba137b80	-0.0005626008
228	0xb9e0ef2e	-0.00042902812
229	0x3a69e234	0.00089219515
230	0x3ae37f7d	0.001735672
231	0x3b02a64d	0.0019935549
232	0x39fedfa0	0.0004861327
233	0x3b1932dd	0.0023376264
234	0xb9874db8	-0.00025807112
235	0xba685f91	-0.0008864338
236	0xbaa31e89	-0.0012445013
237	0xb93c1ef1	-0.00017940604
238	0x3a497ec1	0.00076864293
239	0x3900a7c0	0.00012269523
240	0x39a01984	0.0003053659
241	0xb889d468	-6.572233e-05
242	0x3adecf56	0.0016999047
243	0x396de3c7	0.00022686935
244	0xb83504a6	-4.3158092e-05
245	0x3b18c5e0	0.0023311302
246	0xb91e9c99	-0.00015126391
247	0x3af77cae	0.0018881762
248	0x39dd9cf2	0.00042269338
249	0x3a1dc7dc	0.0006018856
250	0x39200d94	0.00015263847
251	0x3ae3ce81	0.0017380269
252	0x3a6537e3	0.00087439845
253	0xbb181410	-0.0023205318
254	0xbb0c9170	-0.0021448992
255	0xbaa9d0cb	-0.0012955902

bias f4 [30]
0	0xbc925ceb	-0.017866572
1	0xbc2a0c16	-0.010378858
2	0xbbadb5ce	-0.005301214
3	0x3c8001a3	0.01562578
4	0xb9c5f6e1	-0.00037758707
5	0x3b527933	0.0032115697
6	0x3cdf6c79	0.027273403
7	0xbba277e8	-0.0049581416
8	0x3a8cb84e	0.001073608
9	0x3d911da5	0.07085732
10	0xbb5d66c4	-0.0033783177
11	0xbb8578bc	-0.0040732305
12	0x3ba98ebd	0.0051744864
13	0xbc0f16fb	-0.008733506
14	0x3c012d4b	0.007884334
15	0x3be27a29	0.0069115353
16	0x3c0343aa	0.008011738
17	0xbbd706d4	-0.0065620933
18	0xbc0a73e9	-0.008450487
19	0xbbcca82a	-0.0062456327
20	0xbc50d671	-0.012746439
21	0xbc2a4dbb	-0.010394509
22	0xbb42a1d7	-0.0029698515
23	0xbc7a33a4	-0.015271101
24	0x3aa7aa42	0.001279183
25	0x3afb3c69	0.0019167784
26	0x3d3f4e98	0.046705812
27	0x3bcc8a6a	0.006242086
28	0x3acdc108	0.0015697787
29	0x3c59d3e1	0.013295145
