results/transformations/mapping_files/PCKTAE/FMNIST_PCKTAE_50_1>FMNIST_PCKTAE_50_2>NeuralNetwork_200_0.1_nodropout_16_equally.pth (torch, 14178 bytes, 6 tensors)

weight f4 [16, 50]
000000 6c 5a 56 ba 37 11 0e b9 4c 87 09 b9 20 80 35 3a
       -0.0008176926 -0.00013548588 -0.0001311574 0.0006923694
000010 11 f3 2b ba 41 ab 6b b8 2b 2a fe 39 79 45 0f b9
       -0.0006559352 -5.618786e-05 0.00048478073 -0.00013663423
000020 5a a5 2e 37 15 41 d7 b8 2e 55 3f ba d2 8e 53 ba
       1.0409707e-05 -0.000102641214 -0.00072987645 -0.0008070293
000030 f3 96 cc b9 1c 73 b6 39 26 b9 54 38 68 f8 df 36
       -0.00039022378 0.00034799508 5.071717e-05 6.674836e-06
000040 50 f9 d0 37 84 fd 40 36 52 fd c0 37 a0 fe 67 39
       2.4911627e-05 2.8757795e-06 2.3006145e-05 0.00022124732
000050 35 62 e5 b8 26 a1 f1 39 0f 59 88 39 ef 1a 17 ba
       -0.000109378634 0.00046087167 0.00026006295 -0.0005764206
000060 7b ab 9e b9 07 43 28 b8 f7 c6 75 b9 26 aa 48 39
       -0.0003026387 -4.0116745e-05 -0.00023439141 0.00019136872
000070 36 58 e5 39 36 e5 42 3a 32 25 36 39 01 4d ce 39
       0.00043744006 0.0007434668 0.00017370729 0.00039348754
000080 26 52 9c b7 60 db 9b 39 f4 44 8a 36 f5 42 e0 b8
       -1.8634903e-05 0.0002972735 4.1207477e-06 -0.00010693624
000090 bf 94 33 b9 36 33 10 b9 55 70 ad 39 2b 5b 31 3a
       -0.00017126183 -0.00013751988 0.00033080825 0.0006765599
0000a0 4c 44 fd 39 22 83 32 b8 4c eb 41 b9 32 96 6a b9
       0.00048306806 -4.2560634e-05 -0.00018493569 -0.00022371931
0000b0 27 d5 50 ba 40 0c 5b b9 50 08 1b 3a d6 45 a9 39
       -0.00079663325 -0.00020890031 0.00059140194 0.00032286224
0000c0 15 f3 91 38 f6 73 13 39 a6 23 b0 38 9a 7e 4e ba
       6.959416e-05 0.00014062211 8.398974e-05 -0.00078771415
0000d0 74 18 20 b8 b2 6a ac 39 db b7 e3 38 13 0b 7b 39
       -3.8169746e-05 0.0003288589 0.00010858449 0.00023941351
0000e0 b2 51 e2 b7 44 66 d2 37 6a d8 a4 39 88 08 fd 39
       -2.6979342e-05 2.5081572e-05 0.0003144176 0.00048262277
0000f0 11 4c a8 b9 f5 0c 55 ba 7f 5d fd b9 df f3 fd 39
       -0.0003210013 -0.0008127236 -0.0004832558 0.00048437619
000100 6e ed 56 ba 80 43 c2 b7 9c 55 84 38 73 d9 8b b7
       -0.0008198832 -2.3158034e-05 6.3101965e-05 -1.6671349e-05
000110 fc c8 fa b8 cd 9e 0b ba 91 6f 41 ba c6 98 f0 b9
       -0.00011958365 -0.00053260924 -0.00073789904 -0.00045890192
000120 22 06 df 37 30 0d ab 39 f4 85 af b6 1f 56 c5 b7
       2.6586527e-05 0.00032625487 -5.2310006e-06 -2.3524333e-05
000130 90 3a 34 36 52 5a 60 38 0e be 81 38 33 50 26 3a
       2.6856178e-06 5.348988e-05 6.1866e-05 0.0006344348
000140 3c fb df 37 a8 71 a7 b8 4e e8 aa b9 c6 77 fd 38
       2.6700662e-05 -7.984351e-05 -0.00032598007 0.0001208629
000150 c6 c7 28 b8 bc 48 9c 39 4b 99 14 39 7a 91 bc 38
       -4.0240375e-05 0.0002980883 0.00014171486 8.991636e-05
000160 82 ed 0e b9 c2 95 3a b9 24 2f aa b9 43 56 95 39
       -0.00013630654 -0.00017794131 -0.0003246005 0.00028483765
000170 0c c6 58 37 b8 32 93 b9 cb a5 9f 39 f3 5d 53 3a
       1.2920715e-05 -0.00028075813 0.0003045037 0.0008063011
000180 cf 32 f2 39 ea 4e 6b 39 40 e3 97 b5 4e 4f 11 3a
       0.00046195692 0.00022440744 -1.1316515e-06 0.00055431284
000190 63 e4 dd 39 94 69 2c b9 01 4a 4a 39 18 c3 92 36
       0.00042322566 -0.00016442529 0.0001929179 4.373851e-06
0001a0 0e 71 3a 3a f2 23 ab b9 76 92 86 b9 8f 33 87 b9
       0.00071121834 -0.00032642443 -0.00025667594 -0.0002578762
0001b0 a8 ba 0b b9 41 8f 39 b9 dd eb a4 39 b3 35 54 3a
       -0.00013325608 -0.00017696341 0.0003145625 0.000809516
0001c0 75 d6 4b ba ba 8d d4 b9 e5 ac a4 39 e5 26 0c 38
       -0.0007775792 -0.00040541386 0.00031409334 3.3414824e-05
0001d0 f7 0a e1 b8 41 0c b8 b8 9b e7 a6 b9 41 05 0c 3a
       -0.000107308784 -8.776086e-05 -0.00031834547 0.0005341359
0001e0 60 6b 55 3a 9f b7 2e 38 b4 e8 f6 37 89 d5 05 b9
       0.00081413053 4.1655843e-05 2.9433846e-05 -0.00012763416
0001f0 94 7f 78 b9 32 7f 85 b8 94 1f 6c 39 2f 03 61 b8
       -0.0002369865 -6.365626e-05 0.00022518478 -5.3647145e-05
000200 16 e5 51 ba ba 23 90 39 02 1f be b7 0a 81 29 38
       -0.0008006854 0.0002749244 -2.2664204e-05 4.0412917e-05
000210 d7 46 18 3a 2b cf f3 39 41 e1 f6 b9 f6 6e aa b9
       0.0005808896 0.00046502924 -0.00047088604 -0.000325076
000220 7f eb 45 ba 59 9f 4b b7 25 97 39 3a c4 0f 1f ba
       -0.0007550045 -1.2136844e-05 0.0007079712 -0.0006067718
000230 ac 91 9d b9 3c 1c 4d 39 41 05 1d 39 20 ee 4e 38
       -0.00030053908 0.00019560842 0.00014974644 4.9336e-05
000240 22 e3 0b 38 f2 f3 09 3a 1a 5f f9 39 6d e7 74 38
       3.3351716e-05 0.0005262486 0.00047563837 5.8389665e-05
000250 85 75 24 3a 8e c6 cd b9 c6 64 f0 b9 33 84 85 39
       0.0006273615 -0.00039248582 -0.0004585145 0.00025466233
000260 2a 93 d5 39 31 7d 22 39 92 ed 6a b7 8b 19 74 b9
       0.00040736172 0.00015496161 -1.40028005e-05 -0.00023279169
000270 5f 7c 55 ba b4 95 23 39 10 e7 93 39 88 0f 3a 39
       -0.0008143838 0.0001560066 0.0002821018 0.00017744128
000280 f4 e8 07 3a 9b b4 5f 39 b2 ce 9e b8 01 66 16 b8
       0.0005184554 0.00021334218 -7.572527e-05 -3.5857785e-05
000290 38 0f d6 39 f9 8b c6 38 26 ef ff 38 14 f9 d1 b9
       0.000408286 9.467448e-05 0.000122038924 -0.00040049164
0002a0 7d 13 4e 3a a9 19 2e 3a 16 eb 82 b8 ae a5 54 3a
       0.00078611803 0.0006641397 -6.242671e-05 0.00081118464
0002b0 8f 48 48 3a 52 a4 1f 39 08 2d 10 ba ea 59 99 37
       0.00076402066 0.00015224636 -0.0005499874 1.828089e-05
0002c0 2e 1a 24 b8 8d d9 26 b8 5b bf cf 39 56 00 56 ba
       -3.912503e-05 -3.9780094e-05 0.00039624688 -0.0008163502
0002d0 7f 77 36 b8 f3 24 08 b8 79 15 d7 39 fa 93 9e b9
       -4.350347e-05 -3.245934e-05 0.00041023994 -0.0003024636
0002e0 d2 2b 74 38 1b 0c 44 b7 54 19 86 39 b6 85 2a ba
       5.8214944e-05 -1.1685329e-05 0.00025577343 -0.000650491
0002f0 b2 4a eb b8 70 1c ec b9 ac 28 c4 39 74 68 e5 b8
       -0.00011219586 -0.00045034615 0.00037414336 -0.00010939027
000300 86 9a 39 b7 e2 47 87 b9 1f cf 0f ba d0 b3 34 39
       -1.1062837e-05 -0.00025802763 -0.00054858805 0.00017233123
000310 6e 04 8f b7 82 ff 53 b9 ec ea fa b9 7f be 72 b9
       -1.7048991e-05 -0.00020217712 -0.00047858746 -0.00023149884
000320 c7 3c 23 b9 39 cb c9 38 4b 7e fd b9 79 95 24 ba
       -0.00015567533 9.62228e-05 -0.00048350016 -0.00062783767
000330 dc 36 f7 39 30 7a 3e ba 0f 78 55 ba 63 a3 71 b9
       0.00047152385 -0.0007266132 -0.00081431953 -0.00023044417
000340 49 91 ae b9 3a b6 a2 39 84 24 a3 37 7e 5d fc b9
       -0.00033296112 0.00031034817 1.9448118e-05 -0.00048134843
000350 bc 05 62 b6 50 5d 7c 38 e7 48 de 39 f0 f7 66 36
       -3.3679962e-06 6.0168386e-05 0.00042397456 3.441699e-06
000360 dc b0 53 3a dc 0c d4 b7 5d eb 53 ba 20 a9 2d 36
       0.00080753653 -2.5278357e-05 -0.0008084083 2.5877453e-06
000370 49 a2 e5 39 6c 91 b3 b6 8c 2e f3 b9 3a a2 1c b7
       0.00043799196 -5.351545e-06 -0.00046383252 -9.336096e-06
000380 88 ec 4f 38 d0 0f a7 b9 2a a4 10 39 99 09 26 b8
       4.9572933e-05 -0.00031864503 0.00013794066 -3.9586423e-05
000390 f4 b9 22 39 00 c9 7c 38 a4 46 64 39 0c ea dd b9
       0.00015518797 6.0268678e-05 0.0002177009 -0.00042326783
0003a0 98 c7 dd b9 9c 97 a2 39 bc bb bd b7 5c 5e 07 38
       -0.00042301114 0.00031012006 -2.2617976e-05 3.2274387e-05
0003b0 5a e1 76 39 fc 5f f6 b8 3e 86 12 b8 30 9e 58 b9
       0.00023544338 -0.000117480726 -3.4934135e-05 -0.00020658295
0003c0 8a ec 34 39 84 bc 20 b8 58 c0 fd 39 3e d3 28 ba
       0.00017254255 -3.832254e-05 0.00048399228 -0.0006440169
0003d0 64 25 13 39 86 35 21 b9 db 11 0f 3a 86 bf 80 37
       0.00014032942 -0.00015374096 0.0005457678 1.5347974e-05
0003e0 9c c6 1a 38 2a 85 ab 39 1e d6 d1 37 67 eb 76 39
       3.690143e-05 0.00032714877 2.5014448e-05 0.00023548082
0003f0 6a cf 60 b8 47 16 50 3a 0e b8 13 3a 59 51 6a b8
       -5.359893e-05 0.000793789 0.0005635031 -5.586571e-05

bias f4 [16]
000000 2f 4c 2a ba b3 68 50 b8 57 e0 fa b9 cc a3 d5 b9
       -0.00064963376 -4.9688573e-05 -0.00047850862 -0.00040748564
000010 6c 97 22 b7 29 74 a3 b8 2c 31 c9 38 94 5a 4c ba
       -9.691208e-06 -7.794082e-05 9.593586e-05 -0.00077954796
000020 f8 91 04 39 35 76 82 b8 d4 b4 ca 38 6a 5d 9a b9
       0.00012642879 -6.220901e-05 9.6657925e-05 -0.00029442768
000030 61 1e d0 39 cd 21 3f b9 82 2d 7a 38 76 b5 3c ba
       0.00039695486 -0.00018227771 5.9647027e-05 -0.00071986706

weight f4 [16, 16]
000000 a9 04 44 38 a7 ac 55 3a 3e 9d be b8 b0 99 44 3a
       4.673438e-05 0.00081510324 -9.089195e-05 0.0007499708
000010 46 db 26 ba c4 14 e9 37 ec 90 b4 37 85 e8 b5 38
       -0.0006365072 2.7785434e-05 2.1525157e-05 8.674063e-05
000020 88 97 af b8 4d f6 95 bb 94 f6 23 3b 28 c2 a3 ba
       -8.372875e-05 -0.0045764805 0.0025018798 -0.0012493776
000030 7c 3f 5f 38 8b 41 02 38 a6 ed 88 3a 08 f7 28 3a
       5.3226468e-05 3.1055457e-05 0.0010446801 0.0006445502
000040 c6 0d 3d ba 41 d0 0d 39 c2 2c 86 b6 cb 8c 19 3b
       -0.000721183 0.00013524388 -3.9987217e-06 0.0023429866
000050 29 17 ce 39 22 63 be 39 67 7e 85 39 33 06 c8 3a
       0.00039308637 0.00036313484 0.00025461914 0.0015260637
000060 c3 db 44 3a c0 af 49 39 50 59 42 38 2b f9 7c b9
       0.00075095537 0.00019234326 4.6336383e-05 -0.00024125415
000070 75 57 9d b8 95 14 d1 3a 63 3c 50 38 d3 fd 63 b9
       -7.5026335e-05 0.0015951568 4.9647304e-05 -0.00021742964
000080 1e 03 c6 3a 2d 5f 7b 38 2a da b4 ba be 5e e3 3a
       0.001510713 5.9931703e-05 -0.0013797928 0.0017346961
000090 f9 e2 f9 ba 32 23 80 b7 65 13 ea 39 2e fe e8 38
       -0.0019064836 -1.5275178e-05 0.00044646408 0.00011109967
0000a0 01 0c 43 3a 54 6a 8c 38 a1 f8 98 39 6a 16 01 ba
       0.00074404484 6.6955254e-05 0.00029176942 -0.00049242994
0000b0 10 a2 fa 39 a6 dc 37 ba 18 5b 99 3a 26 e4 46 ba
       0.00047804462 -0.0007013775 0.0011700122 -0.00075870974
0000c0 cb 85 ee b7 73 f3 35 39 5f ab 33 ba a7 e0 1c b9
       -2.8434113e-05 0.00017352197 -0.00068538444 -0.00014961009
0000d0 10 ce 0b 3a 67 43 0f 3a 33 a9 9a 3a 5e d1 a4 b9
       0.0005333135 0.0005465061 0.0011799693 -0.00031436508
0000e0 f8 94 c1 bb 35 2c ef 3a ea 8e b6 b9 48 0e 8c bb
       -0.005907651 0.0018247428 -0.00034820224 -0.0042741634
0000f0 ac 27 a3 39 4f 08 6d b9 6c 1b 60 b6 86 83 4c b9
       0.0003111934 -0.00022605176 -3.3394563e-06 -0.00019503952
000100 1a 7f b0 ba 50 5e df ba e4 70 44 ba 25 f6 fd b9
       -0.0013465614 -0.0017041657 -0.00074936287 -0.00048439312
000110 4c 61 27 3b a3 b8 78 39 16 57 e5 38 3a 70 0d 37
       0.0025540171 0.00023719906 0.00010935792 8.430385e-06
000120 8a bc e8 b9 5a dc 4a bb be b4 59 b8 ac e2 0f 39
       -0.0004439096 -0.0030954094 -5.190516e-05 0.00013721985
000130 3b 86 ac b9 04 4c 2a ba 84 9f 3b 39 53 60 0d b9
       -0.00032906406 -0.00064963126 0.00017893134 -0.00013482691
000140 70 6b aa ba 4c 83 a9 39 02 75 03 ba 48 ef a2 ba
       -0.001300199 0.00032332016 -0.0005014689 -0.001243093
000150 d5 e9 10 bb 24 68 3d ba bb 6a 23 b9 e5 10 06 b8
       -0.002211203 -0.0007225296 -0.00015584652 -3.1963824e-05
000160 b1 a2 ca 38 b8 06 7c 3b 70 69 7b b7 0c 7e 52 ba
       9.662414e-05 0.0038456153 -1.4985315e-05 -0.00080296467
000170 00 db c2 b8 34 f1 77 3a 94 3c d3 ba ec 84 b8 3a
       -9.291433e-05 0.00094582443 -0.0016116076 0.00140777
000180 ae 38 1b 38 76 d9 48 ba fa bc 5d b9 26 b3 ab bb
       3.7007667e-05 -0.0007661799 -0.00021146602 -0.005239862
000190 ef c7 54 ba 68 f3 d5 38 36 ea 21 39 be 65 22 b8
       -0.00081169506 0.000102019694 0.00015441407 -3.8718565e-05
0001a0 fe 0d fb ba aa 85 7d 38 6d 35 98 b9 cd 88 28 b9
       -0.001915395 6.0444385e-05 -0.00029031505 -0.00016072691
0001b0 ff 6a 34 b8 93 e7 17 3a d5 72 16 b9 7f ed 01 37
       -4.3014992e-05 0.00057947 -0.00014347893 7.7442955e-06
0001c0 58 19 57 3b f8 83 c0 39 1a b4 ed ba d9 e1 f9 3a
       0.0032821503 0.00036719418 -0.001813534 0.00190645
0001d0 97 11 b9 3a aa ce 8a 3a aa 32 3c ba 41 7d 7e 39
       0.0014119622 0.0010590155 -0.00071791804 0.00024269988
0001e0 ba 98 35 3a f1 12 a9 ba 8b 72 17 ba 84 3f f8 3a
       0.000692736 -0.0012899322 -0.0005777261 0.0018939828
0001f0 98 42 7a bb f0 87 1b 36 59 6c 04 b8 b5 8b fd 39
       -0.0038186666 2.3175926e-06 -3.157216e-05 0.0004836001
000200 03 98 6d 3b 7a 7c f3 39 79 4a d1 3a 78 39 e4 3a
       0.0036253936 0.00046441314 0.0015967629 0.0017412147
000210 c8 2a a5 39 88 47 29 38 62 2b 52 39 44 ef 8f ba
       0.00031503127 4.035936e-05 0.00020043322 -0.0010981341
000220 bd c9 9f bb 2e f3 83 b9 1c 97 fc 38 16 c8 e2 ba
       -0.004876344 -0.0002516745 0.00012044443 -0.0017302062
000230 82 f5 36 3a 86 59 7c bb 82 d0 27 b9 9a d0 a8 38
       0.00069793325 -0.0038505509 -0.00016004036 8.049719e-05
000240 2f a9 5d 3b 45 38 af b8 e0 79 de b9 eb 85 b5 38
       0.0033822765 -8.355131e-05 -0.00042433944 8.655697e-05
000250 82 fd e6 b8 99 1e a0 b9 47 7e 84 3b 15 38 7c ba
       -0.00011014474 -0.00030540375 0.0040433737 -0.0009621394
000260 64 8e b8 ba 9f eb 11 ba ca a0 fd ba 49 73 a5 39
       -0.0014080522 -0.00055664213 -0.0019350287 0.00031557147
000270 cf 79 fa 3a 99 41 e4 3a 80 c3 9c b5 46 d1 e2 38
       0.0019109788 0.0017414569 -1.1679804e-06 0.000108155
000280 ae ae f2 b7 ef 21 f4 3a c0 99 bc 34 9b 3c b9 38
       -2.892999e-05 0.0018625836 3.5129597e-07 8.832776e-05
000290 44 a8 f3 ba 0e 5f b2 39 17 4e 77 b8 a8 83 41 b9
       -0.0018589576 0.00034021627 -5.8962116e-05 -0.0001845496
0002a0 18 d8 51 bb 90 b8 e5 b9 9f 11 56 ba 32 b9 f0 ba
       -0.003201967 -0.00043815793 -0.0008166078 -0.0018365739
0002b0 68 ea db 3a 17 e0 cf bb 63 f7 aa bb 2a 5d 19 39
       0.0016778233 -0.0063438523 -0.005217479 0.00014625923
0002c0 46 6a cc 38 6b bf 7b b9 78 47 b0 3a 8c 48 e2 3a
       9.747273e-05 -0.00024008534 0.0013449034 0.0017264052
0002d0 23 09 59 39 8f 66 6d bb f8 94 69 b9 86 13 50 37
       0.00020698136 -0.003622446 -0.00022276107 1.2402312e-05
0002e0 08 5f 11 b9 4a 83 f3 b8 92 e4 e2 ba 39 25 6a ba
       -0.0001386368 -0.000116115974 -0.0017310551 -0.0008931938
0002f0 c6 30 e0 38 d9 4a f2 ba de 95 0a b8 60 0f 9f 38
       0.00010690237 -0.0018485441 -3.304134e-05 7.5845746e-05
000300 12 c0 a5 3a 2a 0e 92 b9 48 12 91 39 3d 53 d2 b9
       0.0012645742 -0.00027857843 0.00027670176 -0.0004011634
000310 a0 11 80 3a 88 d2 67 39 1f 50 dd 39 1c a7 b7 b9
       0.0009770878 0.00022108306 0.000422121 -0.00035028986
000320 62 24 f9 b9 9d 98 7c 3a cd ac 11 bb 35 aa f9 3a
       -0.00047520088 0.0009635778 -0.0022228241 0.0019047918
000330 f0 b6 4f ba dc 61 a0 39 b7 9d 0d b9 e7 0d 49 3a
       -0.0007923683 0.0003059049 -0.00013505561 0.0007669613
000340 f3 af 5a ba 36 90 eb b8 7c 69 d4 39 f4 ae 7d bb
       -0.00083422585 -0.000112325346 0.00040514383 -0.0038709017
000350 2e 58 36 b9 14 35 ed 39 6e 5a 50 ba a7 02 ea 3a
       -0.00017389722 0.0004524371 -0.00079480454 0.0017853574
000360 eb 35 9f 39 8f 28 c7 b9 12 c4 79 3b e4 0d 9b 3a
       0.00030367015 -0.00037986456 0.0038111252 0.0011829701
000370 9d ed e5 b8 8f 2d 54 ba 66 96 e2 3a 79 ba a7 ba
       -0.0001096383 -0.0008093947 0.0017287254 -0.0012796662
000380 bf 6a f4 ba ac 4a 80 3a ba 25 35 b9 f0 8c c4 ba
       -0.0018647535 0.0009787879 -0.0001727556 -0.0014995616
000390 1b 2d 95 ba 70 cb 72 b8 36 b1 2d 39 38 2c 90 bb
       -0.001138124 -5.7886762e-05 0.00016564582 -0.0043998025
0003a0 b0 e1 ff 39 74 97 cc ba f1 cc b4 39 51 af ca 38
       0.0004880554 -0.0015609101 0.0003448497 9.664766e-05
0003b0 4a 84 d3 bb e0 b9 39 b6 83 bd 14 b9 c6 72 11 39
       -0.006454979 -2.7675342e-06 -0.00014184978 0.00013871034
0003c0 5f f9 fa ba 04 71 97 ba 02 e6 1f b8 ba f1 36 37
       -0.0019147805 -0.0011554067 -3.8122766e-05 1.0904327e-05
0003d0 d2 b9 0f b8 02 7d d8 b9 db 71 9d b9 dd 41 24 b9
       -3.4266915e-05 -0.0004129187 -0.00030030202 -0.00015664795
0003e0 95 56 13 3a ff 6f bf b9 37 d1 83 b9 fb 04 6b b9
       0.00056205067 -0.00036513802 -0.00025142144 -0.00022413202
0003f0 a2 7a 26 b9 d5 71 4b ba 6d ff 0a 3a b4 a1 a9 ba
       -0.00015876678 -0.0007760798 0.00053023436 -0.0012941868

bias f4 [16]
000000 8f 5f 3b ba bb bc dd ba 59 2b f6 39 37 c4 22 3a
       -0.0007147723 -0.0016917208 0.00046953073 0.0006209048
000010 10 05 a0 b9 3e 2a d7 b8 7f 51 2d ba 38 83 0b b8
       -0.0003052135 -0.00010259867 -0.000661157 -3.326239e-05
000020 b3 30 00 bb 12 20 b5 ba cd dd 9e ba 97 21 cb 3a
       -0.0019560277 -0.0013818762 -0.0012120545 0.0015497681
000030 f9 13 c4 38 6e cb 47 38 ac 8b ee 38 02 02 36 bb
       9.3497285e-05 4.7634756e-05 0.0001137474 -0.0027772193

weight f4 [50, 16]
000000 c8 7d 74 39 ea 55 8d 38 20 ff b0 b9 7c 7a 91 3b
       0.0002331651 6.739407e-05 -0.0003375942 0.00443965
000010 b2 fc 03 39 7c d1 bc 3a dc 72 ef b8 cc cc 6b b8
       0.0001258727 0.0014405693 -0.00011417802 -5.6219098e-05
000020 1c c6 42 3a f8 46 5f 39 f9 7c bf 3b d8 15 4a b9
       0.00074300333 0.00021293375 0.0058437553 -0.00019272359
000030 ba 7a be ba cd 80 cd ba 5a d7 8d b9 61 25 d4 39
       -0.0014532425 -0.0015678644 -0.00027054065 0.0004046364
000040 02 7d 8a 3a 36 e8 16 3a 94 a7 e2 b9 07 fc ec 3a
       0.001056582 0.0005756648 -0.00043230935 0.0018080481
000050 ab e8 57 3a 01 fd 52 b8 a2 38 20 b8 cb e3 5d 3a
       0.00082362694 -5.030353e-05 -3.8199716e-05 0.0008464425
000060 c6 a9 1a ba 4e d5 15 3a 0c 8a fd b9 eb 3e a9 3a
       -0.0005899932 0.0005715684 -0.00048358773 0.0012912428
000070 00 62 10 39 2c 8e e6 bb 94 b1 ed 3a a4 98 f6 ba
       0.00013769418 -0.007035991 0.0018134587 -0.0018813801
000080 6b 02 d5 38 97 4a 91 b9 dc c9 ae 3b ed 9c b8 b8
       0.00010157082 -0.0002771213 0.005334122 -8.8030334e-05
000090 f0 04 99 b9 73 23 4c ba 40 eb f9 36 10 0a 4a 3a
       -0.00029186113 -0.0007787265 7.448165e-06 0.0007707188
0000a0 67 62 1d ba 31 17 13 b9 25 9d e7 ba d8 89 cd ba
       -0.0006003738 -0.00014027652 -0.0017670734 -0.001568134
0000b0 76 79 b5 38 38 b2 86 38 fe 5f 30 3a 5c 15 57 bb
       8.6533764e-05 6.422814e-05 0.0006728171 -0.0032819128
0000c0 fe 7f f6 3a 8b f0 c5 3a 28 5f 0e b9 10 4d 54 3a
       0.0018806455 0.0015101595 -0.00013577624 0.00080986414
0000d0 3d cc cb 3a 2a f2 e6 b8 ca de 67 b9 c7 4a 11 ba
       0.0015548539 -0.00011012361 -0.00022112872 -0.0005542454
0000e0 cc 70 5a 39 dd 32 0c 39 8b e0 33 39 67 6e 9d 39
       0.0002083212 0.00013370388 0.00017154419 0.0003002763
0000f0 6a 9f 3c 3a 77 ae 2c b9 86 73 8f bb 11 0b fa ba
       0.00071953854 -0.00016468191 -0.004377785 -0.0019076784
000100 30 20 24 b8 43 60 57 38 1d 29 0b 3a d9 ce 0c 38
       -3.9130624e-05 5.1349645e-05 0.00053085556 3.3571243e-05
000110 6e 8b 55 3a f4 ba 5f b7 91 81 f9 3a 2e 40 32 bb
       0.0008146082 -1.3335364e-05 0.0019035806 -0.0027198899
000120 8d e9 2a 3a c8 83 58 3a ee ab d8 38 0a 07 b7 b8
       0.0006519787 0.0008259383 0.00010331707 -8.727431e-05
000130 49 51 e3 b8 0c 1f 2a b9 a4 27 42 b9 7e 75 55 39
       -0.00010839344 -0.00016224029 -0.00018516049 0.00020357032
000140 ab eb 9b b8 56 82 01 bb 4d a3 f1 ba ea b3 d5 b9
       -7.4348725e-05 -0.0019761524 -0.0018435508 -0.00040760572
000150 ab ee 25 37 80 11 79 39 04 8b 50 ba ce b2 b4 38
       9.890336e-06 0.0002375301 -0.0007955285 8.616374e-05
000160 04 a6 c4 39 d8 d0 49 b9 8f 00 b0 39 b8 ba a4 38
       0.00037507724 -0.00019246654 0.00033569752 7.8549085e-05
000170 37 67 1b 3a c7 1d a6 3b 10 3d df b9 fd 7f dd b9
       0.0005928161 0.0050694677 -0.0004257937 -0.00042247763
000180 2e 1d b6 b7 56 0b 82 3a 78 1a d1 b7 7e 3c bd 38
       -2.1709679e-05 0.0009921591 -2.4927067e-05 9.02349e-05
000190 6c 9e 6d 3a 0c 38 3e b9 a5 b2 24 b8 90 59 74 bb
       0.0009064439 -0.00018140691 -3.9267023e-05 -0.0037284829
0001a0 da fa 81 b9 d4 bc 8d b8 01 05 97 3a ef d7 66 38
       -0.00024791696 -6.758576e-05 0.0011521877 5.5037377e-05
0001b0 29 a0 cc 39 ee 2d eb b9 4e 1f a6 39 cc 50 32 37
       0.0003902924 -0.00044856913 0.0003168531 1.0628439e-05
0001c0 8b f0 e9 39 14 d7 1a 38 8a 32 ab b9 0b 6d 37 39
       0.00044620442 3.691677e-05 -0.00032653316 0.00017492862
0001d0 e5 fc ea ba b8 78 f9 3a 98 94 85 b9 9d 82 ab 3a
       -0.0017928152 0.0019033169 -0.00025478448 0.001308519
0001e0 42 1f 81 b8 54 25 51 39 19 3a 20 3a 72 22 75 38
       -6.1570216e-05 0.00019945699 0.0006112173 5.844463e-05
0001f0 e0 04 ae 39 e1 a3 4c ba dc 26 e1 3a aa d7 98 39
       0.00033191498 -0.0007806402 0.0017177719 0.00029152381
000200 ef 35 49 ba b7 01 5c b7 1b d8 52 ba c4 84 42 b7
       -0.0007675578 -1.3113421e-05 -0.00080430665 -1.1594213e-05
000210 ac 26 c7 b7 00 b8 a9 b6 c2 61 fd 38 0e fc b8 38
       -2.3740657e-05 -5.058013e-06 0.00012082189 8.8207526e-05
000220 12 89 4d 3a a2 17 47 39 35 c0 ba b8 b0 ad 81 b7
       0.00078405545 0.00018986923 -8.9049725e-05 -1.5458878e-05
000230 c4 af a5 39 9c 35 68 3a a4 56 05 37 9c 0a fe b8
       0.00031602208 0.0008858086 7.94759e-06 -0.0001211364
000240 42 2a cf ba 4e 8b f9 ba b4 ea bd 38 2f fe bb 39
       -0.001580544 -0.0019038708 9.055939e-05 0.000358568
000250 f0 78 ac b9 1f e1 30 ba ff e1 e7 38 cc 3c 00 b9
       -0.00032896502 -0.0006747413 0.000110570334 -0.0001222968
000260 e5 ee fa 39 b5 a8 19 b9 64 64 8d 37 68 4e a4 3a
       0.00047861706 -0.00014654065 1.6855258e-05 0.0012535574
000270 84 7d 46 ba 57 17 db 3a e2 fc 2f 3a 84 9a 13 39
       -0.0007571804 0.001671533 0.00067134027 0.00014076574
000280 67 d0 fa ba ac e3 6b 38 26 3a 0e 3b b6 22 09 b9
       -0.0019135595 5.6240402e-05 0.002170214 -0.00013078269
000290 da c9 d3 39 96 ca 0c 39 a2 20 24 b8 2e c8 58 b9
       0.00040395447 0.0001342691 -3.913104e-05 -0.00020673938
0002a0 63 f4 84 37 e4 7e 0a 3a 7f 2c 75 39 50 42 84 b8
       1.5849428e-05 0.00052831904 0.00023381597 -6.306602e-05
0002b0 0d a4 28 b8 67 4f 3b ba fb cd f3 b9 9a d5 85 3a
       -4.0207105e-05 -0.0007145316 -0.0004650204 0.0010210753
0002c0 4b b2 13 bb 08 73 64 b9 19 3e cf 38 40 83 6f 3a
       -0.002253669 -0.00021786627 9.882096e-05 0.0009136684
0002d0 40 eb 07 b7 26 b2 6f 39 85 ec 39 ba db e9 ec 3a
       -8.1014e-06 0.00022859182 -0.0007092434 0.0018075065
0002e0 6a 87 17 3b 43 52 fb ba 8a b7 fa 3a 55 af 7f 38
       0.0023121485 -0.0019174296 0.0019128185 6.096003e-05
0002f0 04 16 54 ba cf 66 2d 39 74 d3 af 38 b9 5c 6c 3a
       -0.0008090439 0.00016536865 8.3840365e-05 0.00090165023
000300 7b 08 b0 3a 34 7e cb b7 12 89 a5 37 dc f6 bb b7
       0.0013430262 -2.4258254e-05 1.9733361e-05 -2.240709e-05
000310 96 80 bd 39 c1 6b 1b 39 ec b0 14 ba 96 87 9a 3a
       0.00036144693 0.00014822093 -0.00056721154 0.0011789675
000320 83 05 d2 37 51 06 21 3a d4 8c 8d 39 9b 9f 23 b9
       2.5036517e-05 0.0006142604 0.0002699854 -0.00015604349
000330 98 4e 07 39 e1 a9 84 b9 fc d4 82 b9 fe 17 40 38
       0.00012903882 -0.00025303572 -0.00024954218 4.579871e-05
000340 68 f5 a9 39 ef 9f 43 ba ec 95 7d 39 1d 17 2b 3a
       0.00032417034 -0.00074624916 0.0002418381 0.00065265765
000350 ec e1 5a b9 75 44 74 39 07 32 28 ba fe 97 e6 3a
       -0.00020874263 0.00023295156 -0.0006416146 0.0017592905
000360 eb 97 d4 39 cc d2 94 39 1e d1 e2 b7 ac ba 6c b9
       0.0004054898 0.00028385816 -2.7038677e-05 -0.00022576255
000370 f4 51 22 38 f6 84 f9 ba 56 aa 01 b9 82 5f 9a 39
       3.8700135e-05 -0.0019036818 -0.00012365854 0.00029444328
000380 3e ac a8 b8 82 58 f1 3b a7 15 4d 3a 03 02 ba ba
       -8.042947e-05 0.0073652873 0.0007823356 -0.0014191273
000390 fe 6e d5 b8 9a 54 36 b9 a2 50 9b b9 3f 33 1d 3b
       -0.000101773054 -0.00017388389 -0.0002962398 0.0023986844
0003a0 63 c1 cf ba c6 b4 ab b9 6c 6b 5a b9 13 64 38 ba
       -0.001585048 -0.00032750348 -0.00020830118 -0.0007033955
0003b0 3e 2f 2d ba 27 ba e2 b9 24 50 f2 ba d5 66 00 3b
       -0.0006606466 -0.00043244773 -0.0018487019 0.0019592543
0003c0 a6 f7 35 39 cd 02 f6 39 6d 36 4d ba 24 63 92 b9
       0.00017353761 0.00046922863 -0.00078282395 -0.00027921156
0003d0 c5 b9 c9 ba 6a ee 04 39 60 30 12 b7 a7 cc 2b 3a
       -0.0015390447 0.00012677317 -8.713541e-06 0.0006553628
0003e0 1c e1 76 bb 48 cb 05 b9 a0 17 cd b7 a7 c3 99 37
       -0.0037670797 -0.00012759597 -2.4448906e-05 1.8330129e-05
0003f0 35 33 37 3a 4c 8f b6 3a 6c e6 a7 37 da 19 c1 b9
       0.00069885264 0.0013928204 2.001525e-05 -0.0003683109

bias f4 [50]
000000 61 0d ab 3b ae 0b 1b bb db ff 45 bb 46 b8 f7 3a
       0.0052201007 -0.0023658085 -0.0030212316 0.0018899522
000010 08 a1 4a bb 08 d2 ff ba a1 da c8 bb 3b e4 ec 39
       -0.0030918736 -0.001951755 -0.006129578 0.00045183473
000020 70 dc e7 ba b5 69 a2 ba 58 4a 66 3a 71 e2 2c bb
       -0.0017689597 -0.0012391122 0.0008784882 -0.0026380087
000030 24 ca 28 bb d8 c1 48 3b e7 83 fe bb 1c 45 31 ba
       -0.002575525 0.0030633118 -0.007767189 -0.0006762312
000040 f8 bc df bb 67 d2 b0 bb db ec f1 ba 2d 37 67 3b
       -0.0068279468 -0.0053961757 -0.0018457429 0.003528069
000050 b0 9d bf bb a4 2c ad 3c fa df d9 bc 9c 31 39 bb
       -0.0058476552 0.02113945 -0.026596058 -0.002825833
000060 7a c4 8c 3b b7 fb 1c bb b5 bb a4 3b 02 3f 8e 3b
       0.004295883 -0.0023953745 0.0050272592 0.004341007
000070 b6 41 bb bc 4d 6a 09 bc f2 a9 0d 3a 68 39 14 3b
       -0.022858482 -0.0083871605 0.0005404047 0.0022617225
000080 df a0 d6 3b 1e ff 97 3b b8 0f 68 3a 66 41 31 3b
       0.006549939 0.0046385666 0.000885244 0.0027047037
000090 d6 d6 ff b9 b5 20 d0 bb 3d ff e6 ba cb b1 5a 3a
       -0.00048797455 -0.006351555 -0.0017623674 0.0008342533
0000a0 16 1c fc 3a 07 1d 8d bb 46 af 4f bb d8 60 44 bb
       0.0019234444 -0.004306439 -0.0031690164 -0.002996495
0000b0 4d ff 03 3c 00 00 2a 3b d7 6f 20 bb 18 79 30 3a
       0.008056474 0.0025939941 -0.0024480724 0.00067319116
0000c0 e8 f3 23 3b cc 4d df 3b
       0.0025017206 0.006814694
