results/transformations/mapping_files/PCKTAE/FMNIST_PCKTAE_30_2>FMNIST_PCKTAE_30_1>NeuralNetwork_50_0_noisy_128_equally.pth (torch, 103718 bytes, 6 tensors)

weight f4 [128, 30]
0	0x3ea1c8a6	0.31598395
1	0xbdf63ed2	-0.12023701
2	0x3df5891a	0.11989041
3	0xbe9983fe	-0.29983515
4	0x3e8a5f15	0.27025667
5	0x3d2da33e	0.042392008
6	0xbe4bf9ea	-0.19919553
7	0xbd8b58ba	-0.068040326
8	0x3e816050	0.25268793
9	0x3d0902fe	0.03345012
10	0xbd8c3c63	-0.06847455
11	0x3e92a6da	0.28642923
12	0xbd010c76	-0.031506024
13	0xbe208586	-0.15675935
14	0x3c902c39	0.017599212
15	0xbdf3b4d1	-0.11899722
16	0xbcaae042	-0.020858888
17	0xbe138754	-0.14407092
18	0xbdf99983	-0.12187483
19	0x3e90db15	0.28292146
20	0xbe9fcd29	-0.31211212
21	0xbd54e1cf	-0.05197316
22	0x3ead9fb9	0.3391092
23	0xbea6ecf3	-0.32602653
24	0x3e23a9a8	0.15982687
25	0x3e9a5124	0.3014003
26	0xbeaa4b9a	-0.33260804
27	0xbddba272	-0.10724343
28	0xbe644dc2	-0.22295287
29	0x3e787f80	0.24267387
30	0x3e3fdf0a	0.18737426
31	0xbc875369	-0.016519265
32	0x3ccc9889	0.024975078
33	0xbe473be3	-0.19456439
34	0xbe876026	-0.26440543
35	0xbd8e290d	-0.069414236
36	0x3e2768c5	0.1634856
37	0xbe35b9e0	-0.17746687
38	0x3bd21173	0.0064107715
39	0xbeb0ae92	-0.34508187
40	0x3dcc216e	0.09967314
41	0xbe871d20	-0.26389408
42	0x3ea06ab6	0.31331414
43	0xbe37f6cd	-0.17965241
44	0x3e132af1	0.1437185
45	0xbeb2488f	-0.34820983
46	0x3e9653db	0.29360852
47	0xbe9b3d2a	-0.30320102
48	0xbe66e944	-0.22549921
49	0x3d7338ae	0.059380226
50	0x3e07d965	0.13266523
51	0xbcd7318c	-0.026268743
52	0x3e353750	0.17696881
53	0x3d3e9f5e	0.046538703
54	0xbdca1125	-0.09866551
55	0xbdb8a67c	-0.090161294
56	0xbe157583	-0.14595608
57	0xbe2edb56	-0.17075858
58	0xbeaa5cec	-0.3327402
59	0xbd6d1654	-0.057882622
60	0x3dbd4975	0.092425264
61	0x3e21acc0	0.15788555
62	0xbe2fb1cf	-0.17157672
63	0xbe34c367	-0.17652665
64	0x3e28c4a8	0.16481268
65	0x3e2d38c1	0.16916181
66	0x3db0f04c	0.08639583
67	0x3e4f20a9	0.20227303
68	0x3e4492bf	0.19196604
69	0xbe1899c2	-0.14902404
70	0xbce72c7c	-0.028219454
71	0xbdd4f07e	-0.10397433
72	0xbd370b58	-0.044688553
73	0xbe020772	-0.12698153
74	0xbdf5115c	-0.11966202
75	0x3ed5174b	0.41619334
76	0xbda688d3	-0.08131566
77	0x3d2ee1f8	0.04269597
78	0xbed2715f	-0.4110212
79	0x3da39197	0.079867534
80	0xbdbd0da5	-0.09231118
81	0x3e784ef1	0.24248864
82	0xbe6d7c4f	-0.23191951
83	0x3db1b12c	0.08676371
84	0x3e43cf7f	0.19122122
85	0xbc38dddf	-0.011283367
86	0x3db8a553	0.09015908
87	0xbe19b788	-0.15011418
88	0xbc5bbbd1	-0.013411478
89	0x3d28f31c	0.041247472
90	0xbe41056c	-0.18849725
91	0x3ca8337b	0.02053236
92	0xbcd1124a	-0.025521416
93	0x3be7d7a9	0.0070752692
94	0xbeae2c90	-0.34018373
95	0xbdb9dd68	-0.09075433
96	0xbddf0aff	-0.10890769
97	0x3eeb0385	0.45901123
98	0x3e729091	0.2368796
99	0xbd10a599	-0.035314176
100	0xbdabc7c5	-0.083877124
101	0xbe9e6fd9	-0.30944708
102	0x3e95d16c	0.2926134
103	0x3d23423b	0.039858084
104	0x3cc0d673	0.023539757
105	0x3ea816d0	0.32829905
106	0xbe81a3e8	-0.25320363
107	0x3e18257d	0.1485805
108	0xbe01505b	-0.1262831
109	0x3e2ab46e	0.16670391
110	0xbe5c73cb	-0.21528547
111	0x3e1b7b2c	0.15183705
112	0x3d613a81	0.054987434
113	0xbc9d0705	-0.019168386
114	0xbd76549d	-0.060139287
115	0xbe482d43	-0.19548516
116	0xbe5deead	-0.21673079
117	0x3e6574e7	0.22407876
118	0x3d90775f	0.07054018
119	0xbe523d8a	-0.20531288
120	0x3db621fa	0.08893199
121	0xbe2deabc	-0.16984075
122	0xbe7638b4	-0.24045068
123	0xbc475937	-0.012167267
124	0xbdeb23e2	-0.114814535
125	0xbd9014a9	-0.070351906
126	0xbde28706	-0.1106091
127	0x3daeff70	0.085448146
128	0xbe07877c	-0.13235277
129	0xbd5e0c5a	-0.054210998
130	0xbe47543b	-0.19465725
131	0x3e9c05d8	0.30473208
132	0xbe43ef20	-0.19134188
133	0xbea036f8	-0.31291938
134	0x3d0cdaec	0.034388468
135	0x3d337a98	0.043818086
136	0x3e03b548	0.12862122
137	0xbcdfa2d6	-0.027299326
138	0x3c355d3c	0.011069592
139	0xbcd3dd1b	-0.025862267
140	0x3ce07f46	0.027404439
141	0xbe556328	-0.20838606
142	0xbddcb250	-0.10776198
143	0x3e15302e	0.1456916
144	0x3e1dba07	0.15402995
145	0x3d56465e	0.0523132
146	0xbeb43aff	-0.3520126
147	0x3dd09d88	0.10186297
148	0xbe3b40f3	-0.18286495
149	0xbd9cfda0	-0.07665563
150	0xbe225c63	-0.15855555
151	0x3dae660b	0.08515557
152	0xbd9e1474	-0.07718745
153	0xbc3945b3	-0.0113081215
154	0xbe5a5c9b	-0.21324389
155	0xbb5ea302	-0.0033971672
156	0x3e61c50c	0.22047824
157	0xbb315f93	-0.0027065023
158	0xbe396966	-0.18106613
159	0xbc3b0c5e	-0.011416523
160	0xbd984ac9	-0.07436139
161	0xbdee3e63	-0.11632993
162	0x3e441d4b	0.191518
163	0x3e644290	0.22291017
164	0xbd804365	-0.062628545
165	0x3df9ac35	0.12191049
166	0xbe5ee030	-0.21765208
167	0x3e326beb	0.1742398
168	0x3e669451	0.22517516
169	0xbe662f0f	-0.22478889
170	0xbd62450d	-0.055241633
171	0xbd53dacd	-0.051722337
172	0xbe268e88	-0.16265309
173	0x3d2c0683	0.041998398
174	0xbe481acd	-0.19541474
175	0xbda2d235	-0.0795025
176	0xbdf1aaf8	-0.11800188
177	0xbda2b7a1	-0.07945181
178	0x3e535185	0.20636566
179	0x3e048c88	0.12944233
180	0x3d995350	0.07486594
181	0x3e3ac5cc	0.18239516
182	0x3e2667f1	0.16250588
183	0xbe54ec1f	-0.20793198
184	0x3ec1307a	0.37732297
185	0x3eca92c4	0.39565098
186	0x3e2f9820	0.17147875
187	0xbcd29da8	-0.025709942
188	0x3e7197d4	0.23593074
189	0x3db94b3f	0.09047555
190	0xbe2f26d9	-0.17104663
191	0xbe00a669	-0.1256348
192	0x3dfb624f	0.1227461
193	0x3e354983	0.17703824
194	0x3d8f58d4	0.069993645
195	0x3e41c22f	0.18921731
196	0xbe930ebc	-0.2872218
197	0xbe144468	-0.1447922
198	0xbe45b271	-0.19306351
199	0x3dfcb5bf	0.12339353
200	0xbdfbecb2	-0.123010054
201	0x3eabd493	0.3356062
202	0x3e63e014	0.22253448
203	0xbe8f03a1	-0.27932456
204	0x3e980964	0.29694664
205	0x3e21bbaa	0.15794244
206	0x3da58009	0.080810614
207	0x3e2ef308	0.17084897
208	0xbe45443e	-0.19264314
209	0x3eaeead7	0.34163544
210	0x3e31a6b6	0.17348751
211	0xbe0ae351	-0.13563277
212	0xbdacbab4	-0.08434048
213	0x3b379c1f	0.002801664
214	0x3d95d1c1	0.07315398
215	0xbc9e431e	-0.019319113
216	0xbca7120b	-0.020394346
217	0xbdc68c37	-0.096947126
218	0xbc5c896e	-0.0134605
219	0xbd6b95dd	-0.057515968
220	0xbe3ed0c1	-0.18634321
221	0x3dfdace4	0.12386492
222	0x3ddcc71f	0.10780167
223	0x3e0cc9da	0.13748875
224	0xbe4d6f05	-0.20061882
225	0xbebdd6f2	-0.37078053
226	0xbe950570	-0.2910571
227	0xbe1b80a4	-0.15185791
228	0x3e91ac88	0.28451943
229	0x3e6c5b38	0.23081672
230	0xbdb7040a	-0.08936317
231	0xbc8cb596	-0.01717643
232	0x3eac5d00	0.33664703
233	0x3e30cdcc	0.17266005
234	0x3d83a63e	0.064281926
235	0x3d51c5ff	0.051214214
236	0x3d840051	0.06445373
237	0x3ddf7f5b	0.10912963
238	0xbc59c44c	-0.01329143
239	0x3e60babb	0.21946232
240	0x3e4e956a	0.20174184
241	0x3d8232a3	0.063573144
242	0xbe88549b	-0.2662705
243	0xbdeaaac5	-0.11458353
244	0x3da90575	0.08252994
245	0x3d5554d8	0.052082866
246	0xbee7107c	-0.45129764
247	0xbe66dc4c	-0.22544974
248	0x3e136a93	0.14396124
249	0xbe90e9ec	-0.28303468
250	0x3e5c6bfa	0.21525565
251	0xbc661746	-0.014043635
252	0x3d9f142d	0.0776752
253	0x3ecb328e	0.39687008
254	0xb8997280	-7.316936e-05
255	0xbdb61dc6	-0.088923976

bias f4 [128]
0	0xbcfa7b73	-0.030576443
1	0xbde555c8	-0.11198002
2	0x3e68021a	0.22657052
3	0x3e167c98	0.14695966
4	0x3e718909	0.23587431
5	0x3d47865d	0.048712123
6	0x3e4acefc	0.19805521
7	0x3e9cb029	0.3060315
8	0xbad74af9	-0.0016425542
9	0x3d19e96d	0.037576128
10	0x3e812a9a	0.25227815
11	0x3de96776	0.11396687
12	0xbd835ffe	-0.064147934
13	0xbe18f574	-0.14937383
14	0x3debae59	0.115078636
15	0x3dbc6718	0.09199351
16	0x3e2f915a	0.17145291
17	0x3d486b14	0.048930243
18	0x3d576d11	0.05259425
19	0x3d2bce44	0.041944757
20	0x3e870617	0.26371834
21	0x3b8daf0c	0.0043238457
22	0xbd854f7d	-0.06509302
23	0x3e050892	0.1299155
24	0x3e4b2f4f	0.19842266
25	0x3e4936eb	0.19649856
26	0x3e3787c9	0.17922892
27	0x3d4bb537	0.049733367
28	0x3c65e55a	0.014031732
29	0xbd8edbd7	-0.06975525
30	0x3e607a1e	0.21921584
31	0x3df3735c	0.118872374
32	0x3e0d6bc7	0.13810645
33	0x3e401a1a	0.18759957
34	0x3dcaa7f0	0.09895313
35	0x3e1fa4b9	0.1559018
36	0xbe03b44b	-0.12861745
37	0x3b64d47f	0.0034916697
38	0x3d6f4c31	0.05842227
39	0x3e558094	0.2084983
40	0x3cdfa79c	0.027301602
41	0x3db520fd	0.08844183
42	0x3e14996e	0.14511654
43	0x3e116fa0	0.14202738
44	0x3d3cc8c1	0.04608989
45	0x3e09be53	0.13451509
46	0x3d9c1e65	0.07622985
47	0xbc988bdb	-0.018621376
48	0x3e321d54	0.17394
49	0x3cd86400	0.026414871
50	0xbced3d3b	-0.028959861
51	0x3dadd34f	0.084875695
52	0x3dc27772	0.09495439
53	0xbd668317	-0.05627736
54	0x3ddab649	0.106792994
55	0x3d9c1a6b	0.07622226
56	0x3e50299e	0.20328376
57	0x3df47465	0.11936263
58	0xbcc04b06	-0.023473274
59	0xbd77c6e9	-0.06049243
60	0x3d70312f	0.058640655
61	0xbccf70dd	-0.025322372
62	0x3d1eebf5	0.038799245
63	0xbc473d57	-0.012160621
64	0x3e3084f9	0.17238225
65	0x3d78a4ec	0.060704157
66	0x3df6719a	0.120333865
67	0x3e5f7b00	0.21824265
68	0x3e1dc9d1	0.15409018
69	0x3dc1e8ca	0.09468229
70	0x3e491f68	0.19640887
71	0x3e203de1	0.15648605
72	0x3e552dc9	0.20818247
73	0xbc28e8de	-0.010309426
74	0x3dce0e12	0.100612774
75	0x3e0fd099	0.14044417
76	0x3e401793	0.18758993
77	0x3e9753a1	0.2955599
78	0x3e3f566d	0.18685313
79	0xbd0f6b04	-0.035014167
80	0xbc6eb0e3	-0.01456854
81	0x3e79b15a	0.2438406
82	0xbdd1d0af	-0.10244881
83	0x3dcef362	0.10105015
84	0xbddf5c15	-0.10906235
85	0x3dc1eafb	0.09468647
86	0x3e0fa05f	0.1402602
87	0x3e1f1cb9	0.155383
88	0xbdb40f05	-0.08791927
89	0xbb82ff08	-0.0039976873
90	0x3dc0c570	0.09412658
91	0x3e0225fe	0.12709805
92	0xbd5a2ef9	-0.053267453
93	0xbb9361be	-0.0044977358
94	0xbcf186a9	-0.029483156
95	0x3e44696a	0.19180837
96	0x3d57f0b3	0.052719783
97	0x3cde7a91	0.027158054
98	0x3d0d7471	0.034534875
99	0xbc8bba9c	-0.017056756
100	0x3e107eb0	0.14110827
101	0x3df42e1a	0.11922856
102	0xbaa8c2b6	-0.0012875411
103	0x3e4c5bd7	0.19956909
104	0x3da71883	0.08158972
105	0xbc7ba99b	-0.015360261
106	0xbc8c60ea	-0.017136056
107	0x3e1d4fd7	0.15362488
108	0x3ea0ab1b	0.31380543
109	0x3e19ad18	0.15007436
110	0x3df2d04b	0.11856135
111	0x3e3c36f3	0.18380336
112	0xbd9c1e94	-0.0762302
113	0x3d971240	0.07376528
114	0xbd7be5d5	-0.06149848
115	0x3e8249b4	0.25446856
116	0x3e72457e	0.23659322
117	0x3ddde209	0.108341284
118	0x3e81a369	0.25319985
119	0x3d21d425	0.039508957
120	0x3d93533a	0.071936086
121	0xbd4c4417	-0.049869623
122	0x3e15feb3	0.14647941
123	0xbda1d531	-0.07901991
124	0x3db87787	0.09007173
125	0x3e555f82	0.20837215
126	0xbc1aa6bf	-0.009439169
127	0x3db39a4b	0.087696634

weight f4 [128, 128]
0	0xbd937299	-0.07199592
1	0x3e101e2c	0.1407401
2	0xbe04556b	-0.1292321
3	0xbddbb317	-0.10727518
4	0x3d11d0cb	0.03559951
5	0xbdc43b3d	-0.09581611
6	0xbe15d48e	-0.14631864
7	0x3caa5f6d	0.020797456
8	0xbd2c09a9	-0.0420014
9	0xbe3aceb0	-0.18242908
10	0xbd9697a5	-0.07353143
11	0x3d6c93ea	0.05775825
12	0xbdacbf97	-0.0843498
13	0xbc090d15	-0.008364935
14	0xbe47c469	-0.19508518
15	0xbd91c598	-0.07117766
16	0xbd102daa	-0.0351998
17	0xbd1a3447	-0.03764751
18	0xbd7fcc67	-0.062450793
19	0x3db82a17	0.08992403
20	0xbd7f874e	-0.062384896
21	0xbd57de61	-0.05270231
22	0x3d3d77dd	0.04625689
23	0x3d922797	0.071364574
24	0xbe1e7374	-0.1547373
25	0xbd348f03	-0.0440817
26	0xbdf85199	-0.121249385
27	0xbdbb25e5	-0.09138087
28	0x3d634942	0.055489786
29	0xbd85526a	-0.0650986
30	0xbdaafd68	-0.08349115
31	0xbd80a95e	-0.06282304
32	0xbdbefd2b	-0.09325632
33	0xbe441289	-0.19147696
34	0x3e1925c3	0.14955811
35	0xbd6ffafa	-0.05858896
36	0xbdff41d8	-0.124637306
37	0x3d86b132	0.06576766
38	0x3ad10652	0.0015947318
39	0xbdd0a514	-0.10187736
40	0xbde21219	-0.11038608
41	0x3d8fb8c8	0.07017666
42	0xbd9c117f	-0.076205246
43	0x3e0259c3	0.12729554
44	0x3e053cf5	0.13011535
45	0x3c8cda62	0.017193977
46	0xbdc0ea52	-0.09419693
47	0x3c96f769	0.018428521
48	0xbc021dd4	-0.007941682
49	0xbda37574	-0.07981387
50	0x3df9803b	0.12182661
51	0xbe2a3e9a	-0.16625443
52	0xbd6cca6c	-0.057810232
53	0xbdb79397	-0.089636974
54	0x3dac68c5	0.08418421
55	0x3c5f8da8	0.013644613
56	0x3b1111c4	0.0022135833
57	0x3c80b057	0.015709085
58	0xbc21e93b	-0.009882267
59	0x3b6e262c	0.003633867
60	0xbdf0d0c1	-0.11758567
61	0xbd7b0ffb	-0.061294537
62	0xbd9e45ad	-0.07728133
63	0xbc095d9d	-0.008384136
64	0xbddb9eb8	-0.107236326
65	0xbdb63067	-0.08895951
66	0x3ab53ac1	0.0013826714
67	0x3c6e580a	0.014547357
68	0x3db4f9ee	0.08836733
69	0x3c00442a	0.007828752
70	0x3d15299f	0.036416646
71	0x3d913c0b	0.070915304
72	0x3dbd0f3f	0.092314236
73	0xbdf433da	-0.119239524
74	0xbdbc43b2	-0.09192599
75	0xbde690bf	-0.11258077
76	0x3c5c7895	0.013456483
77	0xbdb3d280	-0.08780384
78	0xbcefed25	-0.029287884
79	0x3d15f4a1	0.03661025
80	0xbdaded94	-0.0849258
81	0xbe0621c5	-0.1309882
82	0x39c81bcc	0.00038167683
83	0xbe019ad6	-0.12656721
84	0x3e39413d	0.18091293
85	0xbc7fd22f	-0.0156140765
86	0xbce0035a	-0.027345348
87	0xbe2547b6	-0.16140637
88	0xbcc8242e	-0.024431314
89	0x3d6f3b69	0.058406267
90	0xbd60eb21	-0.054911736
91	0x3b244367	0.002506459
92	0xbe19ccfd	-0.15019603
93	0xbe1ca7c0	-0.15298367
94	0x3c1773c5	0.00924391
95	0x3d81d184	0.0633879
96	0x3cee89e2	0.029118482
97	0xbe120028	-0.14257872
98	0xbdcbd7a4	-0.099532396
99	0x3d808b1a	0.062765315
100	0xbd1a0e18	-0.037611097
101	0x3da8eba9	0.082480736
102	0xbcc96641	-0.024584891
103	0xbde952f7	-0.113927774
104	0xbe184864	-0.14871365
105	0x3d2c424f	0.042055424
106	0xbb31bf58	-0.0027122106
107	0xbcb4f69d	-0.02209025
108	0x3c47f3cf	0.012204125
109	0x3ce51464	0.027963825
110	0x3d0f1c76	0.03493925
111	0x3d8c97d9	0.068649
112	0xbde62c03	-0.11238863
113	0xbe0c6f46	-0.13714322
114	0xbda6444f	-0.081184976
115	0xbd4529fc	-0.048135743
116	0x3de5a8ed	0.11213861
117	0x3da8ce49	0.08242471
118	0xbc3a5ab1	-0.011374162
119	0x3e140822	0.14456227
120	0xbe1aa82b	-0.15103213
121	0xbd47442c	-0.048649
122	0xbd7441ac	-0.059632942
123	0xbd891a2b	-0.06694444
124	0xbdb770b4	-0.08957043
125	0xbc1e4908	-0.009660967
126	0x3d29f0f4	0.041489556
127	0xbd58332b	-0.052783173
128	0xbd083598	-0.033254236
129	0xbdaf1e34	-0.08550683
130	0xbd34bec4	-0.04412724
131	0x3d04a4e8	0.03238383
132	0xbddee39d	-0.108832575
133	0xbda5f460	-0.081032515
134	0x3bf92108	0.0076028146
135	0xbc18fa6d	-0.00933705
136	0xbd21ec05	-0.039531726
137	0xbdd7c2c2	-0.10535194
138	0x3cf67d93	0.030089175
139	0xbcd4a801	-0.025959017
140	0xbd7a64e5	-0.061131377
141	0x3c32a921	0.010904581
142	0xbccb6240	-0.024827123
143	0xbdb7f884	-0.089829475
144	0x3cd35b27	0.0258003
145	0xbdadd1de	-0.084872946
146	0x3d29c6fc	0.041449532
147	0xbdd1f24d	-0.10251293
148	0xbda573b8	-0.08078712
149	0x3ba77198	0.005109977
150	0x3c8b4363	0.016999906
151	0xbd86b987	-0.06578355
152	0xbd2ccb53	-0.042186093
153	0xbb518fdb	-0.0031976614
154	0xbbd98ef0	-0.006639354
155	0xbdf3c4a7	-0.11902743
156	0x3d7b7b9e	0.061397187
157	0x3bed8796	0.007248829
158	0x3cc99e66	0.024611663
159	0xbd903f3f	-0.07043313
160	0xbdcd6849	-0.100296564
161	0xb9f8bff5	-0.00047445265
162	0xbdff4fde	-0.12466405
163	0xbd37a783	-0.044837486
164	0xbd0cb5a3	-0.03435291
165	0x3cd3e65a	0.025866676
166	0xbd7e303c	-0.06205772
167	0xbd1cf2d7	-0.038317528
168	0xbb34515a	-0.002751431
169	0xbdf0c036	-0.11755411
170	0xbd4c2462	-0.049839385
171	0xbd31cd96	-0.043408953
172	0xbd7e1302	-0.062029846
173	0x3b7152fc	0.0036823144
174	0xbd6d3de2	-0.057920344
175	0x3cf02957	0.029316587
176	0xbd2f9694	-0.042868212
177	0x3cd1b4c5	0.025598893
178	0xbd8a405d	-0.067505576
179	0xbdb24968	-0.087054074
180	0xbdeb66de	-0.1149423
181	0xbdc65316	-0.09683816
182	0xbd9e528e	-0.0773059
183	0xbdc2b710	-0.09507573
184	0xbdedaa32	-0.11604728
185	0xbd2ad9ea	-0.041711725
186	0x3c6c8232	0.014435338
187	0xbddfd7d1	-0.109298356
188	0x3d0c7fb5	0.03430148
189	0xbdb4f0cd	-0.088349916
190	0xbaf03372	-0.0018325879
191	0xbde1f30f	-0.11032688
192	0x3d17e721	0.037085656
193	0xbdd99e4f	-0.10625898
194	0xbdcab07c	-0.09896943
195	0xbd8d3f29	-0.068968125
196	0xbd640171	-0.055665437
197	0xbd918baa	-0.07106717
198	0xbe069145	-0.13141353
199	0xbd8b9906	-0.06816296
200	0xbd92f4f0	-0.07175624
201	0xbd0dd16d	-0.034623552
202	0x3b8f895d	0.0043803887
203	0xbdbe5713	-0.09293952
204	0x3d29545e	0.041340224
205	0xbde6c9d6	-0.11268966
206	0xbe05ba38	-0.13059318
207	0xbdfc6c50	-0.123253465
208	0xbd41d8cc	-0.047325894
209	0xbd9fb772	-0.07798661
210	0xbd5f5c49	-0.05453137
211	0x3b24deef	0.0025157293
212	0xbd81b780	-0.06333828
213	0x3d7f0115	0.06225689
214	0xbcce0469	-0.025148587
215	0x3bb5fbbe	0.0055536916
216	0xbb7c28c9	-0.0038476458
217	0xbca16d6f	-0.019705502
218	0xbdeb39be	-0.11485623
219	0xbd153516	-0.03642758
220	0xbd4326d7	-0.047644462
221	0xbdfa3d18	-0.12218684
222	0x3c346dc2	0.011012496
223	0xbdd3175c	-0.1030719
224	0x3d23457a	0.03986118
225	0xbd0f6583	-0.03500892
226	0xbd480e11	-0.04884154
227	0xbdac0fd7	-0.08401459
228	0xbdbd6821	-0.09248377
229	0xbdd3ac80	-0.10335636
230	0xbe042abb	-0.12906925
231	0xbcbf6ed3	-0.023368275
232	0xbd25c355	-0.040469486
233	0xbdcc85de	-0.09986471
234	0xbd42731d	-0.04747306
235	0xbdf885b2	-0.12134875
236	0x3b8ca700	0.004292369
237	0xbd10bf11	-0.035338465
238	0xbdc84a8f	-0.09779846
239	0xbd8b778f	-0.06809913
240	0xbde03c5a	-0.10949011
241	0xbd2f1c69	-0.042751703
242	0xbde98318	-0.11401957
243	0xbd19fec5	-0.037596483
244	0xbd4f7e7e	-0.05065774
245	0xbbdd0e3a	-0.0067460807
246	0xbb8f040e	-0.004364497
247	0xbd8abd69	-0.06774408
248	0x3c6b464b	0.014360021
249	0xbd502742	-0.05081869
250	0xbc351345	-0.0110519575
251	0xbc60ae59	-0.013713443
252	0xbdcd7d44	-0.10033658
253	0xbded9650	-0.116009355
254	0xbdc7ca7e	-0.09755419
255	0xbdec184f	-0.11528074

bias f4 [128]
0	0xbdb6ee77	-0.08932202
1	0xbcc7b4d5	-0.02437822
2	0xbd5ca141	-0.05386472
3	0xbda600ce	-0.08105622
4	0xbca82582	-0.020525698
5	0xbdd9b76f	-0.1063069
6	0xbdf17fa2	-0.11791922
7	0xbc125c07	-0.008933074
8	0x3c0ee70f	0.008722081
9	0xbdcdf203	-0.10055926
10	0xbdd70e2c	-0.1050075
11	0xbd155f66	-0.036467932
12	0xbd13b725	-0.036063332
13	0xbd377ba0	-0.044795632
14	0xbdb39d5e	-0.0877025
15	0x3da04bf6	0.078269884
16	0xbcf6d405	-0.030130396
17	0x3d3fa95b	0.04679237
18	0xbc321ca3	-0.010871085
19	0x3aad63f4	0.0013228641
20	0x3d321003	0.0434723
21	0xbb5948e4	-0.0033155018
22	0xbdb8d497	-0.09024923
23	0xbdb49773	-0.08817949
24	0xbd23d8e7	-0.040001776
25	0xbddacbeb	-0.106834255
26	0x3c496a0b	0.012293349
27	0xbdd1040f	-0.10205852
28	0xbde9b40f	-0.114112966
29	0xbd1f42c5	-0.038882036
30	0xbd87711f	-0.06613373
31	0xbd4e8a32	-0.050424762
32	0xbdf1ab9d	-0.11800311
33	0xbdac1f99	-0.08404464
34	0xbd4f7fc8	-0.05065897
35	0x3cafbefd	0.021453375
36	0xbddab2cf	-0.10678636
37	0xbdbb2832	-0.09138526
38	0xbe069ca1	-0.13145687
39	0x3c5d479f	0.013505845
40	0xbd618bac	-0.055064842
41	0xbddcc5f5	-0.10779945
42	0xb839a156	-4.4257693e-05
43	0x3d15bf52	0.03655941
44	0xbd9a83d0	-0.075446725
45	0xbd3acf04	-0.04560758
46	0x3c6433ea	0.013928393
47	0x3ae55b5c	0.0017498541
48	0xbcc98807	-0.024600996
49	0xbdcef15b	-0.10104629
50	0xbe22432c	-0.15845937
51	0xbccab92e	-0.024746504
52	0xbcfd0919	-0.030888127
53	0x3d99d06c	0.075104564
54	0xbd8cf741	-0.068830974
55	0xbe16c59c	-0.1472382
56	0x3b31cc9c	0.0027130013
57	0x3cb8a713	0.022540605
58	0x3d39b656	0.045339905
59	0xbd6f15ab	-0.058370274
60	0xbcbbcbb5	-0.022924284
61	0xbdbaf286	-0.09128289
62	0xbde32674	-0.11091319
63	0x3beaa9db	0.0071613616
64	0x3ca38bbd	0.019964093
65	0xbdf41437	-0.11917918
66	0x3c033e11	0.008010403
67	0xbba3be44	-0.0049970467
68	0xbd292bc1	-0.041301493
69	0xbd170a0d	-0.03687482
70	0xbdd4cab2	-0.103902236
71	0xbdf93dfc	-0.12170026
72	0x3d327e9a	0.043577768
73	0xbd286fb3	-0.04112215
74	0xbdf3529d	-0.118809916
75	0xbc664eaa	-0.014056841
76	0x3c5c8079	0.013458365
77	0xbd8836f6	-0.06651108
78	0xbd1b63ff	-0.03793716
79	0x3c98e450	0.018663555
80	0x3ce7af5a	0.028281856
81	0xbe0eba45	-0.13938244
82	0xbd8749a1	-0.066058405
83	0x3c562468	0.013070203
84	0xbd420563	-0.04736842
85	0xbc9cde32	-0.01914892
86	0x3cac3f95	0.021026412
87	0x3c94ce77	0.018164856
88	0x3d85f857	0.06541508
89	0x3cc90603	0.024539
90	0xbdfd45f6	-0.123668596
91	0x3beaceca	0.0071657645
92	0xbdaf0665	-0.085461415
93	0x3abb91bb	0.0014310399
94	0xbcce9b8a	-0.025220651
95	0xbabe673c	-0.0014526616
96	0xbdbe165f	-0.09281611
97	0xbbd09dfc	-0.0063664895
98	0xbdee7b7f	-0.11644649
99	0xbd35d62a	-0.044393696
100	0xbd0ccccb	-0.034374993
101	0xbd21567e	-0.039389126
102	0xbdec40fa	-0.11535831
103	0xbdbfbd7b	-0.093623124
104	0x3c0a2a38	0.008432917
105	0xb9f21b5e	-0.00046178227
106	0xbd7efe9a	-0.062254526
107	0xbdae090a	-0.08497818
108	0x3d0ff1ec	0.035142824
109	0xbd3bcf31	-0.04585189
110	0xbdf3eae1	-0.11910034
111	0xbcbf9f0d	-0.023391271
112	0xbda4a7b5	-0.080398
113	0xbc5c90a0	-0.013462216
114	0x3d307dac	0.0430886
115	0x3b95c240	0.0045702755
116	0xb944f6ad	-0.0001878391
117	0xbda85b79	-0.08220572
118	0x3c6139bb	0.013746674
119	0x3cb4fadf	0.02209228
120	0xbde7f246	-0.11325507
121	0xbdb77e55	-0.08959643
122	0xbd17a106	-0.0370188
123	0xbdc2c756	-0.095106766
124	0x3cb13deb	0.02163597
125	0x3c75f473	0.0150118945
126	0xbd95e2fc	-0.073186845
127	0xbbd3acb4	-0.006459797

weight f4 [30, 128]
0	0xbd8390c0	-0.06424093
1	0x3d61fa2b	0.05517022
2	0x3d1e391d	0.038628686
3	0x3d1bb954	0.03801854
4	0xbd9c8073	-0.07641687
5	0x3dd505c1	0.10401488
6	0x3d58c86a	0.052925505
7	0xbd829298	-0.06375617
8	0x3cd4bb7a	0.025968302
9	0xbd81bf78	-0.06335348
10	0xbca81ca6	-0.020521473
11	0xbd4b58b8	-0.049645156
12	0x3d0fae51	0.03507835
13	0xbd54b14c	-0.051926896
14	0xbb5065ef	-0.0031799038
15	0x3dabeda3	0.08394935
16	0xbc2c5b89	-0.010519871
17	0xbcb8cdb0	-0.022559017
18	0x3c7619b7	0.015020779
19	0xbd6c6bdc	-0.05772005
20	0xbc7c6b43	-0.015406433
21	0x3c48482f	0.012224241
22	0xbd9637f1	-0.07334889
23	0x3d973392	0.07382883
24	0xba6fe539	-0.00091512833
25	0xbd40444c	-0.046940133
26	0xbd6ef6c1	-0.05834079
27	0xbbfa8a99	-0.0076459167
28	0x3c214231	0.009842441
29	0xbd2b60a2	-0.041840203
30	0x3d66cb1a	0.056346036
31	0x3d2c4d31	0.042065803
32	0x3d2dcf7f	0.04243421
33	0x3c41b810	0.011823669
34	0x3c9ff349	0.019525187
35	0xbcc17d17	-0.023619218
36	0xbd36bfb5	-0.04461642
37	0x3d62a070	0.055328786
38	0xbd9febcf	-0.07808649
39	0x3d12aa10	0.035806715
40	0xbc9773ef	-0.018487899
41	0x3ca9268c	0.020648263
42	0x3a72331f	0.0009239185
43	0x3d4bbb64	0.049739257
44	0xbd49d218	-0.049272627
45	0xbd3b7458	-0.04576525
46	0xbd6ec0de	-0.0582894
47	0x3d660a8e	0.05616241
48	0x3d52c22c	0.051454708
49	0xbd3a92f8	-0.045550317
50	0xbbcb366e	-0.006201557
51	0x3dab098e	0.08351432
52	0x3d4d19f9	0.050073598
53	0x3ca166b7	0.019702299
54	0xbb2baa45	-0.0026194018
55	0xbd06cbc9	-0.03290919
56	0xb861785c	-5.3756274e-05
57	0x3d17e4d2	0.037083454
58	0xbd89b74f	-0.067244165
59	0x3d890b4c	0.06691608
60	0xbc5b3bc2	-0.013380947
61	0x3ccefca0	0.025266945
62	0xbcf78949	-0.03021683
63	0xbce0ccb3	-0.027441358
64	0x3da68e66	0.08132629
65	0xbd9866d1	-0.07441486
66	0x3d681eca	0.056669988
67	0x3cd76be2	0.02629656
68	0xbc243dc5	-0.010024493
69	0xbd5bfaa3	-0.053705823
70	0x3dab42e1	0.083623655
71	0x3d48506c	0.04890482
72	0x3cb1d6a5	0.021708796
73	0x3d58073b	0.05274127
74	0x3ca8c449	0.020601409
75	0xbd03890e	-0.032113127
76	0xbd88b570	-0.066752315
77	0x3d5d8823	0.05408491
78	0x3df63c16	0.12023179
79	0xbd3e1ebc	-0.04641603
80	0x3d10237f	0.0351901
81	0x3d35064c	0.04419546
82	0xbcda2bc3	-0.026632195
83	0xbbc67792	-0.0060567344
84	0xbc9474c4	-0.018122084
85	0x3cb00a6a	0.02148934
86	0x3c8d48ef	0.017246692
87	0x3bf73230	0.0075438246
88	0x3d5c17c4	0.053733602
89	0xbba72bd8	-0.005101662
90	0xbceea82a	-0.029132921
91	0xbdaa8595	-0.0832626
92	0x3d704bd5	0.05866607
93	0x3d32138e	0.04347568
94	0x3d51980d	0.051170398
95	0xbd96e30b	-0.07367524
96	0xbd25777e	-0.04039716
97	0x3d60f25f	0.054918643
98	0xbd88a81a	-0.06672688
99	0xbcc1f4b3	-0.023676252
100	0xbdcee115	-0.10101525
101	0xbb4828cc	-0.0030541895
102	0xbda2620c	-0.07928857
103	0xbd617268	-0.055040747
104	0x3ce56f76	0.02800725
105	0x3cdd208b	0.026993057
106	0x3b530ebf	0.0032204834
107	0x3d37c551	0.04486591
108	0xbce6a41d	-0.028154427
109	0xbcb631f7	-0.022240622
110	0x3d056e26	0.03257575
111	0x3d6502a2	0.055910714
112	0xbd1674f8	-0.036732644
113	0xbd43fdaf	-0.047849353
114	0xbd50db3c	-0.05099033
115	0xbbf2c738	-0.0074090026
116	0xbb074e95	-0.0020646204
117	0x3c3f7d2d	0.011687559
118	0x3bb2c328	0.0054553933
119	0x3c95f79d	0.018306548
120	0xbc7d9e48	-0.015479632
121	0xbc9d9ea6	-0.019240689
122	0x3db86528	0.09003669
123	0x3d9cc49c	0.07654688
124	0x3d3f2881	0.046669487
125	0xbdd2a64d	-0.102856256
126	0xbd514487	-0.051090743
127	0x3dda9d2f	0.10674512
128	0xbb18a568	-0.002329195
129	0x3bf1a739	0.007374671
130	0x3a8cc4c6	0.0010739795
131	0x3cc77341	0.02434695
132	0x3ce4d9be	0.027935859
133	0x3d5c397d	0.053765763
134	0x3d1d3f29	0.038390312
135	0xbd972f80	-0.07382107
136	0xbdab35a1	-0.08359838
137	0xbd01f108	-0.031724006
138	0xbd66574e	-0.056235604
139	0xb958e5e4	-0.00020685006
140	0xbcd9256b	-0.0265071
141	0xbc6a36d8	-0.014295302
142	0xbc41ce81	-0.0118290195
143	0x3be203f3	0.0068974434
144	0x3cbe3f76	0.02322362
145	0xbd85b049	-0.06527764
146	0xbc927936	-0.017880064
147	0xbb8ff187	-0.004392806
148	0xbd3bc47f	-0.04584169
149	0x3d0615be	0.03273558
150	0x3c72ed6f	0.014827116
151	0x3d806b5b	0.062704764
152	0x3cd12654	0.025530972
153	0x3d8245e3	0.06360986
154	0xbcda915d	-0.026680643
155	0x3d12b5f7	0.035818066
156	0x3d0804bf	0.03320765
157	0xbd51ae68	-0.051191717
158	0xbbde2d31	-0.0067802896
159	0xbd33e2df	-0.043917533
160	0x3c2e87b0	0.010652468
161	0x3c1f28a6	0.009714281
162	0x3c3fd41a	0.011708284
163	0xbba9ddac	-0.005183896
164	0x3ce19da2	0.027540985
165	0x3b8dca5b	0.004327101
166	0x3cfaf261	0.030633153
167	0xbc0f0808	-0.008729942
168	0xbd02002d	-0.03173845
169	0xbd583e5d	-0.05279385
170	0x3d48a35d	0.04898392
171	0xbcf1da71	-0.029523106
172	0x3db31187	0.087435775
173	0xbc5bb847	-0.013410634
174	0xbd0118b3	-0.031517696
175	0x3a71aa35	0.0009218783
176	0xbd3ca737	-0.046057906
177	0x3d497efa	0.04919336
178	0xbc180a1c	-0.009279754
179	0x3c760a51	0.015017108
180	0x3bda01ad	0.006653032
181	0x3ceaf1e2	0.028679792
182	0xbbbe9c69	-0.0058169854
183	0xbd2ca2f8	-0.042147607
184	0xba56d2bd	-0.00081948546
185	0x3d0216df	0.031760093
186	0x3be6e279	0.0070460406
187	0x3d013a4d	0.03154974
188	0x3d9b1a5e	0.075733885
189	0xbcad030e	-0.02111962
190	0x3d2c1b17	0.042018022
191	0x3d68073d	0.056647528
192	0xbc86a2ae	-0.016434994
193	0x3d9843b6	0.0743479
194	0x3c142d75	0.009044041
195	0x3d6c526d	0.057695795
196	0xbcbedf96	-0.023299973
197	0x3bdf600e	0.0068168705
198	0xbd8326dc	-0.06403896
199	0xbc527dc8	-0.012847371
200	0xbd9a2dba	-0.07528253
201	0x3b35e462	0.0027754535
202	0xbb52a205	-0.0032140028
203	0xbb6b9233	-0.0035945296
204	0x3d396840	0.045265436
205	0xbd3678de	-0.04454886
206	0x3d54f909	0.05199531
207	0xbc008aa6	-0.007845556
208	0x3c7ddf87	0.015495188
209	0xbd21bd80	-0.039487362
210	0xbd42fdd8	-0.047605366
211	0x3c565b69	0.013083317
212	0x3d595e7c	0.053068623
213	0xbd12d451	-0.035847012
214	0x3d758fde	0.059951656
215	0xbd1a300d	-0.03764348
216	0x3c215acb	0.009848307
217	0xbd904438	-0.07044262
218	0xbc6a6376	-0.01430594
219	0x3ba12993	0.004918286
220	0xbd169769	-0.03676549
221	0x3c37c313	0.011215943
222	0xbd8e2ee1	-0.06942535
223	0x3c063a0d	0.008192551
224	0xbd97cc09	-0.074119635
225	0xbb6406c9	-0.0034794083
226	0x3d32975f	0.04360139
227	0x3bed6d1a	0.007245672
228	0x3b942e9d	0.0045221583
229	0xbd48191f	-0.048852082
230	0xbd2a804c	-0.04162626
231	0x3d0b3fb5	0.033996303
232	0xbd29b251	-0.04142982
233	0x3cff45be	0.031161185
234	0xbcba7628	-0.02276142
235	0xbd8bc1d2	-0.06824078
236	0x3d329f27	0.04360881
237	0xbd9c26a3	-0.07624557
238	0x3d028a21	0.03187001
239	0x3d37e78f	0.044898566
240	0xbd48efd8	-0.049056858
241	0xbd84d2a4	-0.06485489
242	0x3d557392	0.05211217
243	0xbb25d972	-0.002530661
244	0x3d7b83ee	0.061405115
245	0x3e0d461e	0.13796279
246	0xbd75fbd9	-0.060054634
247	0x3d0af84d	0.033928204
248	0x3d4721b6	0.048616134
249	0xbb0bd35f	-0.0021335704
250	0xbdc4b2c4	-0.09604409
251	0xbda0c956	-0.07850902
252	0xbd01d568	-0.03169766
253	0xbc0d2929	-0.00861577
254	0x3c9f6128	0.019455507
255	0xbd562d91	-0.05228955

bias f4 [30]
0	0xbcfbf072	-0.030754302
1	0x3dd5ba2e	0.104359016
2	0x3bca7681	0.0061786775
3	0xbd76f5a5	-0.06029286
4	0x3caa9664	0.020823665
5	0xbd1f258b	-0.038854163
6	0x3d23d8a0	0.04000151
7	0x3c27aaca	0.01023359
8	0x3c415ecf	0.011802389
9	0xbd436b57	-0.04770979
10	0xbd2d8799	-0.042365644
11	0xbd3fa847	-0.04679134
12	0xbd42c869	-0.047554407
13	0xbb9c84ad	-0.0047765584
14	0xbd959f04	-0.073057204
15	0xbb42d7cb	-0.0029730673
16	0xbaf5df7c	-0.001875862
17	0xbbe2ac26	-0.0069174943
18	0xbd95cbce	-0.07314263
19	0x3dc03fcc	0.09387168
20	0xbd750de6	-0.059827708
21	0x3cb83076	0.022484045
22	0xbc3b4e99	-0.011432313
23	0xbd1698a4	-0.036766663
24	0xbc56df92	-0.013114827
25	0xbcce1e4b	-0.02516093
26	0x3d6cc8f4	0.05780883
27	0x3d121320	0.03566277
28	0x3cf232d3	0.02956525
29	0xbc3f4319	-0.011673712
