results/transformations/mapping_files/PCKTAE/FMNIST_PCKTAE_50_1>FMNIST_PCKTAE_50_2>NeuralNetwork_100_0_noisy_128_equally.pth (torch, 124336 bytes, 6 tensors)

weight f4 [128, 50]
0	0xbd0e47c6	-0.034736417
1	0x3bf9da9a	0.0076249363
2	0xbdf51849	-0.11967523
3	0xbc8f235c	-0.017472915
4	0x3e35c096	0.17749247
5	0xbe349161	-0.17633583
6	0xbe449e00	-0.19200897
7	0xbe5fc0e7	-0.2185093
8	0x3e12dd84	0.14342314
9	0x3d1c65e3	0.038183104
10	0xbeb1ad0e	-0.34702343
11	0xbc287dae	-0.010283871
12	0xbe39371b	-0.18087427
13	0x3e5ea119	0.21741141
14	0x3df3bfcb	0.11901816
15	0xbcf654d0	-0.030069739
16	0x3eaf3ce9	0.34226158
17	0xbdd550c2	-0.10415794
18	0xbd9f658f	-0.07783043
19	0x3d8e9ee2	0.06963898
20	0xbe70c4b5	-0.23512538
21	0xbe3796f2	-0.17928675
22	0x3d3ab6cd	0.04558449
23	0xbe4493ba	-0.19196978
24	0xbed14490	-0.40872622
25	0x3dd6d17a	0.10489173
26	0x3e2ff2f5	0.17182525
27	0xbe01c48a	-0.1267263
28	0x3e4defe6	0.20111045
29	0xbe768291	-0.24073245
30	0xbec9adcb	-0.39390406
31	0x3e7034b2	0.23457602
32	0x3de925c2	0.11384155
33	0xbd703de7	-0.058652785
34	0xbdec8945	-0.115496196
35	0xbde06c16	-0.10958116
36	0xbe5dc47d	-0.21656986
37	0x3d4b37a9	0.04961363
38	0xbeb34079	-0.35010126
39	0x3e5809b3	0.2109745
40	0x3eb25e9f	0.34837815
41	0x3de70786	0.11280732
42	0xbcf1afdc	-0.029502802
43	0x3db04ba4	0.08608177
44	0xbd32bb33	-0.04363556
45	0x3b907ee2	0.004409657
46	0xbe0507c4	-0.12991244
47	0xbe0df02c	-0.1386115
48	0xbca45459	-0.020059751
49	0x3cb2fa61	0.021847906
50	0xbe25914e	-0.1616871
51	0xbcc863f3	-0.024461722
52	0x3df96e24	0.12179211
53	0xbe361d93	-0.17784719
54	0xbdbebed9	-0.09313745
55	0xbe3bb960	-0.18332434
56	0x3d51530e	0.051104598
57	0x3db726f3	0.08942976
58	0x3e05a772	0.13052157
59	0xbdafa5fc	-0.08576581
60	0xbc47eec1	-0.012202919
61	0x3cfaee26	0.030631136
62	0x3e74b949	0.23898806
63	0x3cbee00c	0.023300193
64	0x3d9f3e6c	0.07775578
65	0x3d6fbc94	0.05852945
66	0xbe028c53	-0.12748842
67	0xbd94f883	-0.07273962
68	0xbccfc10f	-0.025360612
69	0xbda8770a	-0.0822583
70	0xbd293145	-0.041306753
71	0x3e3fc9c8	0.18729317
72	0xbe589fed	-0.21154757
73	0xbdca9ffa	-0.09893794
74	0x3e88f676	0.26750535
75	0x3d134f73	0.03596444
76	0xbd504c82	-0.050854214
77	0x3d0bdb06	0.034144424
78	0x3d95a216	0.07306306
79	0xbd9455e7	-0.07242947
80	0x3d529fcb	0.05142192
81	0x3de5b072	0.11215295
82	0x3dc5c6e1	0.09657074
83	0x3d21eac9	0.03953055
84	0x3e0a0473	0.1347826
85	0xbdc72773	-0.09724321
86	0xbe598f5b	-0.21246092
87	0xbdf84c1a	-0.1212389
88	0x3e628d6d	0.22124262
89	0x3e01b3e3	0.12666278
90	0x3e135143	0.14386468
91	0x3dc74ddd	0.09731648
92	0x3dd02461	0.10163189
93	0xbdd41aed	-0.10356698
94	0xbdd2a837	-0.10285991
95	0xbbb1c316	-0.0054248674
96	0xbd2a38db	-0.041558128
97	0x3ea0c6a2	0.31401545
98	0xbd8a4839	-0.06752057
99	0xbded2785	-0.115798034
100	0xbb9898c5	-0.0046568834
101	0x3d50ee67	0.05100861
102	0x3e743914	0.23849899
103	0xbe8a80e4	-0.2705146
104	0x3c61ff4d	0.013793779
105	0xbd67967d	-0.05654
106	0xbe7cb5ea	-0.2467877
107	0xbd7d8cf7	-0.061902013
108	0x3e25390f	0.16135047
109	0x3d2558ff	0.040368076
110	0xbe683b73	-0.22678928
111	0x3aaeb4c4	0.0013329019
112	0xbd8b5404	-0.06803134
113	0x3d4e2937	0.050332274
114	0xbed5db16	-0.41768712
115	0x3b973aad	0.004615149
116	0xbcc59e17	-0.024123235
117	0xbe6fff38	-0.23437202
118	0x3d5f7d8a	0.054563083
119	0x3e0ed92e	0.13950035
120	0x3e1979fd	0.14987941
121	0xbcd567ce	-0.026050474
122	0xbd3e39b8	-0.046441764
123	0xbe380df6	-0.17974076
124	0x3e0faed2	0.14031532
125	0x3e31f124	0.17377144
126	0x3e2c421e	0.16822097
127	0xbe6a8970	-0.22903991
128	0xbde5cc34	-0.11220589
129	0xbe18fb83	-0.14939694
130	0xbed15e53	-0.40892276
131	0x3d03251d	0.032017816
132	0xbdb6e0fe	-0.089296326
133	0xbd45822a	-0.048219837
134	0x3dc05a9e	0.09392284
135	0xbeae5a92	-0.34053475
136	0x3ea00bd9	0.3125904
137	0x3ebf5f51	0.37377408
138	0xbeb7ffad	-0.35937253
139	0x3e100467	0.1406418
140	0x3e70039a	0.23438874
141	0x3d98d143	0.074617885
142	0x3daa146b	0.08304676
143	0xbe3d04b3	-0.18458824
144	0x3e7599fa	0.23984519
145	0x3e32c108	0.17456448
146	0x3d8e1ff4	0.06939688
147	0x3ce53030	0.02797708
148	0x3cfdde45	0.030989775
149	0xbc8cf6c9	-0.01720752
150	0xbdcb89e6	-0.099384114
151	0x3cdcfcc6	0.026976
152	0x3de055ae	0.10953842
153	0x3ccd5247	0.025063647
154	0x3cf288c4	0.02960623
155	0xbda3b500	-0.079935074
156	0x3c8fc9aa	0.017552216
157	0x3eb028bc	0.34406078
158	0x3de160cd	0.110047914
159	0xbe84f238	-0.25966048
160	0x3ac26dba	0.0014833726
161	0x3e26f3e0	0.16303968
162	0x3c53f25d	0.012936202
163	0xbe901842	-0.28143507
164	0xbeb2cc3b	-0.3492144
165	0x3d998c05	0.0749741
166	0x3e22f042	0.15911964
167	0x3d99be2f	0.07506978
168	0x3e880072	0.2656284
169	0xbbb76f99	-0.0055980203
170	0x3e5dc446	0.21656904
171	0x3dfacdd4	0.1224629
172	0xbe2973a8	-0.16548026
173	0xbe0cc2b8	-0.13746154
174	0xbc93985d	-0.018016988
175	0x3e253a5f	0.16135548
176	0x3e4967ab	0.19668452
177	0x3e4e557f	0.20149802
178	0xbd933e14	-0.07189575
179	0x3ce9edf1	0.028555842
180	0x3eb899d8	0.36054873
181	0x3e1222d3	0.14271097
182	0xbcb6776c	-0.022273742
183	0x3d9da2ec	0.076970905
184	0x3d9ad6e5	0.07560519
185	0x3e81191b	0.25214466
186	0xbe05deaa	-0.13073221
187	0x3c9be3e6	0.019029569
188	0x3d745918	0.05965528
189	0x3d844307	0.06458097
190	0x3c5998fa	0.013281101
191	0xbde89713	-0.1135694
192	0x3da4fd03	0.08056071
193	0xbdb46a52	-0.088093415
194	0xbcb80eb3	-0.022467947
195	0x3cfe7fa4	0.031066723
196	0x3dd919ba	0.1060061
197	0x3d7c4da5	0.061597485
198	0x3df7b374	0.12094775
199	0xbd4feed3	-0.05076487
200	0x3e1d9d7b	0.15392105
201	0x3d21effb	0.039535504
202	0x3e21a15b	0.15784208
203	0x3ce223d3	0.027604973
204	0x3e4b8338	0.19874275
205	0x3da0453a	0.07825704
206	0xbe4f2986	-0.20230684
207	0xbd80aa14	-0.0628244
208	0x3dfcece3	0.1234987
209	0x3e282744	0.16421229
210	0xbe7b5b9e	-0.24546668
211	0x3d4bd14d	0.04976015
212	0x3cadad55	0.021200815
213	0x3e22ae02	0.15886691
214	0xbda746d4	-0.08167806
215	0xbe18d27c	-0.14924043
216	0x3cb82bda	0.022481848
217	0xbe393617	-0.1808704
218	0xbddc8c24	-0.10768917
219	0xbd55b066	-0.05217018
220	0x3dbacd69	0.0912121
221	0x3e14011f	0.14453553
222	0xbda9cdec	-0.082912296
223	0xbe7c6ca6	-0.24650821
224	0xbe70ab8b	-0.23502938
225	0xbe82e5f7	-0.25566074
226	0x3d512b53	0.051066708
227	0xbe19415d	-0.1496634
228	0xbe10f727	-0.14156781
229	0xbde356a4	-0.1110051
230	0xbea1f35d	-0.31630984
231	0x3e26f691	0.16304995
232	0x3d538829	0.051643524
233	0xbdfc2801	-0.12312318
234	0xbbac69d0	-0.0052616373
235	0xbbbc3fb4	-0.0057448987
236	0xbe672f33	-0.22576599
237	0x3dcb8be5	0.09938792
238	0xbe9ca601	-0.305954
239	0x3e681b5e	0.2266669
240	0x3e1a2a94	0.15055305
241	0x3e6698ac	0.22519177
242	0xbdcb379a	-0.099227145
243	0x3e0c3bc8	0.1369468
244	0xbdaa50fa	-0.08316226
245	0x3d07781f	0.03307354
246	0x3db82197	0.08990782
247	0x3d09c61e	0.033636205
248	0xbd647969	-0.05577985
249	0xbd823452	-0.063576356
250	0xbe8a495f	-0.27009103
251	0xbe30a0cd	-0.1724884
252	0xbdade04e	-0.08490048
253	0xbe0e1d08	-0.13878262
254	0x3d35d917	0.044396486
255	0xbdf6be5c	-0.12048027

bias f4 [128]
0	0x3e9a9163	0.30189046
1	0xbd40971f	-0.04701912
2	0x3e813cf0	0.25241804
3	0x3d49a9e0	0.04923427
4	0x3d884771	0.06654251
5	0x3dea7bb3	0.11449375
6	0x3e23c280	0.15992165
7	0x3e4ebf68	0.20190203
8	0x3cf39264	0.02973289
9	0x3e48f8db	0.19626181
10	0x3e4a34e2	0.19746736
11	0x3dd0beb7	0.10192626
12	0x3e2a8a3d	0.16654296
13	0x3d2ddac8	0.042444974
14	0xbd3204ee	-0.043461733
15	0x3e672ca1	0.22575618
16	0x3e55d590	0.20882249
17	0xbdcd3982	-0.10020734
18	0x3e8733b1	0.26406625
19	0x3e328329	0.17432846
20	0x3d40f547	0.047108915
21	0x3e3220c1	0.17395307
22	0xbd42d1ce	-0.047563367
23	0xbc9fc4ce	-0.019503023
24	0x3aaa93c6	0.0013014011
25	0xbdecc607	-0.11561208
26	0x3d4e66ae	0.05039089
27	0x3e420f81	0.18951227
28	0x3de6b5fe	0.11265181
29	0x3e786a88	0.24259388
30	0xbd9cd958	-0.076586425
31	0x3dc8a884	0.09797767
32	0xbd5caa3f	-0.053873297
33	0x3de1f003	0.11032107
34	0x3dc39daa	0.095515564
35	0x3dd7e442	0.105415836
36	0x3d8a5067	0.06753617
37	0xbc28deb5	-0.010307004
38	0x3e1a667c	0.15078157
39	0x3c8d5a9e	0.017255124
40	0x3dfefcb6	0.124505445
41	0x3d957c1b	0.07299062
42	0x3d3a0a09	0.045419727
43	0x3e16a705	0.1471215
44	0xbc0768bd	-0.008264718
45	0x3c9863b5	0.018602232
46	0xbd48d01c	-0.049026594
47	0x3d582e3c	0.052778468
48	0x3e0a0357	0.13477837
49	0x3d4a6fca	0.049423017
50	0x3dae553b	0.0851235
51	0x3d87a766	0.066237256
52	0x3dc0fa4e	0.09422742
53	0x3dbe6fcf	0.092986695
54	0x39819f4c	0.00024723483
55	0x3e5fd385	0.21858032
56	0xbd6cad3f	-0.057782408
57	0x3cdc746a	0.02691098
58	0xbc35ba68	-0.011091806
59	0x3e5aa8a3	0.21353392
60	0xbae1a5c0	-0.0017215535
61	0x3e96e929	0.29474762
62	0x3e21fc4f	0.15818904
63	0x3ddcfda1	0.107905634
64	0x3e68af33	0.22723083
65	0x3d8a2e16	0.067470714
66	0x3d1bf2fc	0.038073525
67	0x3de9d9e1	0.1141851
68	0x3c1f1072	0.009708511
69	0x3e884266	0.26613158
70	0x3b33b7d9	0.0027422814
71	0x3e6111ec	0.21979493
72	0x3dae6127	0.08514624
73	0x3e445b52	0.19175461
74	0xbb4d0f88	-0.0031289775
75	0x3e2ce834	0.16885453
76	0x3cb0ee45	0.02159799
77	0x3d5fe58e	0.05466228
78	0xba04ff5f	-0.00050734536
79	0x3db00a03	0.085956596
80	0x3e1f4799	0.15554656
81	0x3e871974	0.26386607
82	0x3d1372df	0.03599822
83	0x3dbcfd50	0.09228003
84	0x3d031ea9	0.03201166
85	0x3c15f36a	0.009152273
86	0x3e374615	0.17897828
87	0xbd7e34b7	-0.06206199
88	0x3e551383	0.20808224
89	0x3e1ce738	0.15322578
90	0x3e076739	0.1322297
91	0xbd24d19a	-0.040238954
92	0x3e0856e3	0.13314395
93	0x3e27d74b	0.16390721
94	0x3e09582b	0.1341254
95	0x3e670079	0.22558774
96	0x3e3d1801	0.18466188
97	0x3e40a0a5	0.18811281
98	0xbcd4f72b	-0.025996765
99	0x3d14ee95	0.036360342
100	0x3e268891	0.16263033
101	0x3e535492	0.2063773
102	0x3e58a674	0.21157247
103	0x3e0c58e7	0.13705789
104	0x3d86b767	0.0657795
105	0x3e76841a	0.2407383
106	0xbd402545	-0.046910543
107	0x3df9c4c0	0.1219573
108	0x3dda0f09	0.10647399
109	0x3cf23ac7	0.029569043
110	0x3dc5eaf3	0.09663954
111	0x3e0fb9f4	0.14035779
112	0x3d64478e	0.055732302
113	0x3e197434	0.14985734
114	0x3e0056d9	0.1253313
115	0x3e400ced	0.18754931
116	0x3ddc8e6c	0.10769352
117	0x3d0638f1	0.032769147
118	0x3dc2cfe5	0.09512309
119	0x3d01c8d0	0.03168565
120	0x3e364b73	0.17802219
121	0x3e525bfe	0.20542905
122	0xbc1f6ffd	-0.00973129
123	0x3b812168	0.00394075
124	0x3e883a69	0.26607063
125	0xbd054b3b	-0.03254245
126	0x3e873ae6	0.26412123
127	0x3d16af87	0.03678849

weight f4 [128, 128]
0	0x3c9adbb1	0.018903585
1	0xbd11ac0f	-0.03556448
2	0xbcd8a656	-0.026446503
3	0xbce81399	-0.028329657
4	0x3b37c8df	0.0028043312
5	0xbd8e2dc4	-0.06942323
6	0xbc20720e	-0.009792818
7	0xbe09e55e	-0.13466403
8	0xbd817495	-0.063210644
9	0xbcbaf0f2	-0.02281997
10	0xbd9a62b7	-0.075383596
11	0x3d11524a	0.035478868
12	0xbbcb40b9	-0.006202784
13	0x3cbedc95	0.023298541
14	0xbdc94265	-0.09827117
15	0xba3982bb	-0.00070766703
16	0xbd62c663	-0.055364978
17	0xbd812181	-0.063052185
18	0xbdc1803c	-0.09448287
19	0x3cac3305	0.021020422
20	0xbc86011d	-0.016357953
21	0xbd84ab04	-0.06477931
22	0xbd634e09	-0.055494342
23	0x3d0d10ba	0.03443978
24	0xbd5bcebc	-0.053663954
25	0xbc2e8a10	-0.010653034
26	0xbdd879a3	-0.10570075
27	0xbdbf006f	-0.093262546
28	0x3d1c3085	0.03813221
29	0xbcf5b2c4	-0.029992469
30	0x3c5f8205	0.013641839
31	0xbd23b367	-0.039966013
32	0x3c4e60f8	0.012596361
33	0xbd1f4c6e	-0.03889125
34	0xbd16fb1c	-0.03686057
35	0xbca7a0b0	-0.020462364
36	0xbda78527	-0.08179694
37	0xbd712063	-0.058868777
38	0xba980ab6	-0.0011599872
39	0xbde7d84e	-0.11320554
40	0x3c71e2a7	0.014763511
41	0xbdf3b156	-0.118990585
42	0xbd27640f	-0.040866908
43	0xbc579a85	-0.013159399
44	0xbd235def	-0.039884504
45	0x3cf14417	0.029451413
46	0xbde11f4c	-0.109922975
47	0xbce5d57b	-0.028055897
48	0xbe08a51a	-0.13344231
49	0x3b9d9a81	0.004809678
50	0x3d2835c8	0.041066915
51	0xbdbfa426	-0.09357481
52	0xbdd75f42	-0.10516216
53	0xbd4af5b9	-0.049550746
54	0xbc96d78f	-0.018413333
55	0xbddf2ed7	-0.10897606
56	0x3d0cc9be	0.034372084
57	0x3d26c205	0.040712375
58	0xbcdd4def	-0.0270147
59	0xbd694c2e	-0.056957416
60	0xbde09c24	-0.109672815
61	0xbd4feb5d	-0.05076157
62	0xbda05141	-0.07827998
63	0xbdb51e54	-0.08843675
64	0xbd4ebd15	-0.05047329
65	0xbd91f121	-0.0712607
66	0xbdb22af6	-0.086996004
67	0x3cbe0b79	0.02319883
68	0xbd9137f4	-0.0709075
69	0xbde6e2d4	-0.11273733
70	0xbc358313	-0.011078614
71	0xbce25b82	-0.027631525
72	0xbdfec626	-0.124401376
73	0xbe1053ef	-0.14094518
74	0xbddd33a3	-0.108008645
75	0xbcf6db98	-0.030134007
76	0xbdd51d1f	-0.10405945
77	0xbcbc2f42	-0.022971753
78	0x3d21593b	0.039391737
79	0xbd1db274	-0.038500264
80	0xbdd6f9f3	-0.10496893
81	0x3c2c6e06	0.0105242785
82	0x3d13432f	0.035952743
83	0xbe14d088	-0.14532673
84	0xbd162dc7	-0.03666475
85	0xbde59b01	-0.11211205
86	0xbd827164	-0.06369284
87	0xba515df9	-0.00079867203
88	0xbd636510	-0.055516303
89	0xbc69220b	-0.014229308
90	0xbc67f93e	-0.014158545
91	0x3ca689ea	0.020329434
92	0xbdb6d0d8	-0.089265525
93	0x3c90e0b9	0.017685281
94	0xbd7bc889	-0.061470542
95	0xbdeb1ed9	-0.11480493
96	0xbdde3b4e	-0.10851155
97	0xbd19f2cd	-0.03758507
98	0xbc827b75	-0.01592801
99	0xbd89e3d0	-0.06732905
100	0xbdfac21b	-0.12244054
101	0xbb8d8cac	-0.004319748
102	0xbdf1a7a0	-0.1179955
103	0xbc0ef4cf	-0.008725359
104	0xbdabebc8	-0.08394581
105	0xbdd407e1	-0.10353065
106	0x3cc5b3e0	0.024133623
107	0xbd8d7f32	-0.06909026
108	0x3bfea4b2	0.007771098
109	0x3c8fe0fe	0.01756334
110	0xbca02c1c	-0.019552283
111	0xbc27a43f	-0.01023203
112	0x3c2e037f	0.010620951
113	0xbd91b346	-0.07114272
114	0x3d15b317	0.036547747
115	0xbd207467	-0.03917351
116	0xbd9df7ef	-0.07713305
117	0xbdded7c5	-0.108809985
118	0xbd11b69f	-0.03557455
119	0xbc8cad57	-0.017172499
120	0xbda23563	-0.07920339
121	0xbd9a0ca4	-0.07521942
122	0xbd12b52a	-0.035817303
123	0x3d3437c2	0.043998487
124	0xbdb5e66d	-0.08881841
125	0xbce9eaf1	-0.028554412
126	0x3d0e9f69	0.034819994
127	0xbdcf120e	-0.101108655
128	0xbdf5d229	-0.120029755
129	0xbdca507e	-0.09878634
130	0xbde89f57	-0.11358517
131	0xbd00c957	-0.031442013
132	0x3b977d07	0.0046230587
133	0xbe000a39	-0.125039
134	0xbd8cf658	-0.06882924
135	0xbca4ad61	-0.020102205
136	0x3d1056a0	0.035238862
137	0xbdb8af45	-0.09017805
138	0xbd13e9cd	-0.03611164
139	0x3ce9f2cc	0.028558157
140	0xbda414ff	-0.08011817
141	0xbd2fd400	-0.04292679
142	0xbcd60ddb	-0.026129654
143	0xbde3c778	-0.1112203
144	0xbd978c56	-0.07399814
145	0xbdbeca90	-0.093159795
146	0xbd3b72be	-0.045763724
147	0xbde0f5ab	-0.109843574
148	0xbc994f58	-0.018714592
149	0xbdd94cff	-0.10610389
150	0x3d4b362b	0.049612205
151	0x3cba6913	0.022755181
152	0xbcb62536	-0.02223454
153	0x3c05b118	0.008159898
154	0xbd1a21f5	-0.03763004
155	0xbd508ab2	-0.05091352
156	0xbd8233a6	-0.063575074
157	0xbd7df620	-0.0620023
158	0x3be62b64	0.0070242155
159	0x3d4316a1	0.047629002
160	0xbb544cbc	-0.003239437
161	0xbdde99f0	-0.10869205
162	0xbe089e57	-0.13341652
163	0x3cd8c2bc	0.026460044
164	0x3d10aaaf	0.035319027
165	0xbdd34544	-0.10315946
166	0xbd2d5b9f	-0.042323705
167	0xbd1cde06	-0.038297676
168	0xbdf66483	-0.1203089
169	0xbd8aa303	-0.06769373
170	0xbd74231d	-0.0596038
171	0x3cbcc726	0.02304418
172	0xbdd0a7c8	-0.10188252
173	0xbabdea7e	-0.001448944
174	0xbdceaf7d	-0.100920655
175	0x3be016ca	0.006838654
176	0xbd9d08c8	-0.076676905
177	0x3d1786a0	0.036993623
178	0xbe045d76	-0.12926278
179	0x3c82111f	0.015877305
180	0x3c6b639c	0.01436701
181	0x3d27c4f2	0.040959306
182	0xbd7cda0a	-0.061731376
183	0x3c3475a2	0.011014374
184	0xbd8fabb9	-0.07015175
185	0xbd1e2183	-0.038606178
186	0xbd2779c8	-0.040887624
187	0xbdb139c7	-0.08653598
188	0xbdbbea21	-0.09175516
189	0xbdb1418d	-0.08655081
190	0xbdfd763f	-0.12376069
191	0x3d0a6119	0.033784006
192	0x3c0450eb	0.008075933
193	0xbd70c113	-0.05877788
194	0xbc33cfb7	-0.010974816
195	0x38edf5c2	0.000113468166
196	0x3ce5b0bd	0.028038377
197	0xbd9370a4	-0.07199219
198	0xbddac46e	-0.10681997
199	0xbe02bd84	-0.12767607
200	0x3a7bc016	0.0009603513
201	0x3ce465b6	0.02788053
202	0x3c73cc7c	0.014880296
203	0xbd94282f	-0.07234227
204	0xbd76e780	-0.06027937
205	0xbdc8afb5	-0.097991385
206	0x3d034ae4	0.032053843
207	0x3d12ecda	0.03587041
208	0xbdff149a	-0.12455101
209	0xbdb4b9bc	-0.088244885
210	0xbd089f2f	-0.033354934
211	0xbdedc55f	-0.11609911
212	0xbd9dafa4	-0.076995164
213	0xbd809174	-0.06277743
214	0xbdbdf00d	-0.09274302
215	0x3a780a6f	0.0009462004
216	0x3cef6bce	0.02922621
217	0x3c4e846f	0.012604817
218	0xbd338ede	-0.04383742
219	0xbd269460	-0.040668845
220	0xbe113e67	-0.14183961
221	0xbdab85b8	-0.08375114
222	0xbbd55fd7	-0.006511669
223	0xbdd59118	-0.10428065
224	0x3cc6033f	0.02417147
225	0xbcd28408	-0.025697723
226	0xbe078e5f	-0.13237904
227	0x3cb4f375	0.022088746
228	0xbd8bbeeb	-0.06823524
229	0xbd88bf3e	-0.066771016
230	0xbdc2fe2b	-0.09521135
231	0x3ab2e7fa	0.0013649457
232	0xbb80f56d	-0.003935507
233	0xbe03c2fb	-0.12867348
234	0x3d112b9b	0.035441976
235	0xba3a77db	-0.0007113197
236	0xbd247dc8	-0.040159017
237	0xbdbf8554	-0.09351602
238	0xbd106a11	-0.035257403
239	0xbd68e0ce	-0.056855015
240	0xbd5fead3	-0.054667305
241	0xbe13e878	-0.14444149
242	0x3c9355b6	0.017985206
243	0xbd6e010d	-0.05810647
244	0xbc0c108e	-0.008548869
245	0x3cb0fd30	0.021605104
246	0x3d025868	0.031822592
247	0xbd232836	-0.03983327
248	0xbd8bcae2	-0.06825806
249	0xbdc959de	-0.09831594
250	0xbdb3c92b	-0.08778604
251	0xbd329b44	-0.043605104
252	0xbdaceda2	-0.08443762
253	0xbd72207a	-0.059113003
254	0xbd0af568	-0.033925444
255	0xbd811298	-0.063023746

bias f4 [128]
0	0x3c9c2c9b	0.019064238
1	0xbe014122	-0.12622502
2	0x3c954c1d	0.01822477
3	0xbccc041a	-0.0249043
4	0xbd16cde9	-0.036817465
5	0x3c536c5b	0.012904252
6	0x3cfaf59e	0.030634698
7	0xbdfdbe3a	-0.123897985
8	0xbc908899	-0.01764326
9	0xbd4a3a8e	-0.04937225
10	0xbca17d39	-0.019713031
11	0xbdde457d	-0.108530976
12	0xbd969618	-0.07352847
13	0xbd906205	-0.07049946
14	0xbd478e95	-0.04871996
15	0xbdf001e1	-0.117191084
16	0xbe11617a	-0.1419734
17	0xbd03c4f2	-0.032170244
18	0xbd9f75e3	-0.07786157
19	0xbda202e1	-0.07910705
20	0x3ca8185e	0.020519432
21	0xbd81c6fc	-0.063367814
22	0xbd5bcf40	-0.053664446
23	0xbc0ca2ee	-0.008583767
24	0x3ccc1a5d	0.024914915
25	0x3cd10681	0.025515797
26	0xb9882aa2	-0.00025971705
27	0xbc829333	-0.01593933
28	0xbdad4480	-0.08460331
29	0x3c496e4b	0.012294362
30	0xbd97e726	-0.07417135
31	0xbd834ef1	-0.06411541
32	0xbdb460c4	-0.08807519
33	0x3cf9a2ea	0.030473191
34	0xbceeeccf	-0.029165654
35	0x3ba82df4	0.005132431
36	0xbccfaa8c	-0.025349878
37	0x3b94f3f6	0.004545684
38	0xbde4c911	-0.11171163
39	0x3c3c2dac	0.011485498
40	0x3c853dcd	0.01626482
41	0xbd45ffb5	-0.048339564
42	0xbdcb6a59	-0.099323936
43	0xbd629d19	-0.0553256
44	0x3c75f692	0.0150124
45	0xbcf1f8f1	-0.02953765
46	0xbdc9bacc	-0.09850082
47	0xbd255b24	-0.04037012
48	0xbde7afcf	-0.1131283
49	0xbd85e65e	-0.0653808
50	0x3d971186	0.07376389
51	0x3c619a21	0.013769657
52	0x3ce86cda	0.028372217
53	0x3bb24a08	0.005440954
54	0xbc90a4ce	-0.01765671
55	0xbd736ef9	-0.059432004
56	0xbc8c0b75	-0.017095307
57	0xbdf07eae	-0.11742912
58	0xbd89c471	-0.06726921
59	0xbdd361a1	-0.103213556
60	0x3d92a738	0.07160801
61	0xbc4329e0	-0.011911839
62	0x3d096638	0.03354475
63	0xbc11700e	-0.008876814
64	0x3c0dfa5a	0.0086656455
65	0x3dd11e35	0.1021084
66	0x3c72dfab	0.014823834
67	0x3d90eb89	0.07076175
68	0xbd9dd11f	-0.07705902
69	0x3cc820db	0.02442973
70	0x3d603963	0.05474223
71	0xbdd0e64b	-0.10200175
72	0xbdb8ee6a	-0.09029849
73	0xbc8d2841	-0.017231109
74	0xbceb5c97	-0.028730674
75	0x3d8d128e	0.06888305
76	0xbd9bc2f4	-0.07605544
77	0xbc8e1def	-0.017348258
78	0xbda2eefa	-0.079557374
79	0xbda46386	-0.08026795
80	0xbde5c849	-0.11219842
81	0xbda4b6a8	-0.080426514
82	0xbdc18405	-0.09449009
83	0x3c955aaa	0.018231709
84	0xbd47fe1f	-0.048826333
85	0xbdf61d0c	-0.12017259
86	0xbdebb4ee	-0.11509119
87	0xbe0bed4c	-0.1366474
88	0xbc482cd8	-0.012217723
89	0xbe0fa537	-0.14027868
90	0xbe0cf995	-0.13767083
91	0xbdc47656	-0.09592883
92	0xbe0d07be	-0.13772485
93	0xbe0620f2	-0.13098505
94	0x3ca30c93	0.019903457
95	0xbd8b8009	-0.0681153
96	0xbd7b4ca5	-0.06135239
97	0xbcdd9a79	-0.027051197
98	0x3cb0d7c1	0.021587254
99	0x3bbb7100	0.0057202578
100	0xbd8a9159	-0.06766004
101	0xbdcb0dc1	-0.09914733
102	0x3d3f82d7	0.046755638
103	0xbd89d1f1	-0.06729496
104	0x3b6ff99d	0.0036617287
105	0xbd2a1861	-0.041527156
106	0xbd4e8d58	-0.050427765
107	0xbd62c71b	-0.055365663
108	0xbd2f5a02	-0.042810448
109	0x3b551df4	0.0032519074
110	0x3d1f53df	0.038898345
111	0xbdc62213	-0.09674468
112	0xbcd560ed	-0.026047194
113	0xbb0d883c	-0.0021596095
114	0xbd564c8e	-0.052319102
115	0xbdd4a7fd	-0.10383604
116	0xbd629597	-0.05531844
117	0xbddb76e0	-0.10716033
118	0xbdd0eb20	-0.102010965
119	0xbcc37d87	-0.023863567
120	0xbe102057	-0.14074837
121	0xbe11c7d9	-0.14236392
122	0xbcb42dee	-0.021994557
123	0xbd413a55	-0.04717477
124	0xbda6c6f6	-0.081434175
125	0xbe098ab4	-0.13431817
126	0x3ce9434a	0.028474469
127	0xbc8f6389	-0.017503517

weight f4 [50, 128]
0	0x3d2b292d	0.041787315
1	0xbd084c8c	-0.033276126
2	0xbc3857e0	-0.01125142
3	0x3cb57728	0.022151545
4	0xbc330b24	-0.010927949
5	0x3d569980	0.052392483
6	0xbcc263e2	-0.023729268
7	0xbd0c1445	-0.034199018
8	0xbd9a399b	-0.075305186
9	0xbb56c227	-0.0032769532
10	0xbd76d5f2	-0.060262628
11	0x3d27dea2	0.040983804
12	0xbd0900d4	-0.033448055
13	0xbae5cbc9	-0.0017532046
14	0x3b832051	0.004001655
15	0xbc93efca	-0.018058676
16	0x3d5640df	0.05230796
17	0x3c925237	0.017861469
18	0x3c9abafb	0.018887987
19	0xbcc65d15	-0.024214307
20	0x3c8b1c5a	0.016981293
21	0x3c87a069	0.016555982
22	0xbd39cd8d	-0.045362044
23	0xbca87452	-0.020563278
24	0xbd7bcf5e	-0.061477058
25	0xbd84274e	-0.06452809
26	0xbbf43803	-0.007452966
27	0x3a9d9932	0.0012023805
28	0x3d06a8cf	0.032875832
29	0x3cd33e3e	0.025786515
30	0x3c8a1690	0.016856462
31	0xbd13a671	-0.036047403
32	0xbbc492c0	-0.0059989393
33	0xbca0972b	-0.019603333
34	0x3ce92e05	0.028464327
35	0x3d5ea57f	0.054357048
36	0xbd1dcfd8	-0.038528293
37	0x3c1ccbbe	0.00957006
38	0x3d178784	0.036994472
39	0x3c9cf2b3	0.019158697
40	0xbb38d18c	-0.0028201072
41	0x3d55f4c8	0.052235395
42	0xbd6b607b	-0.057465058
43	0xbc1be561	-0.009515137
44	0xbca50785	-0.020145187
45	0xbc25fe67	-0.010131455
46	0x3d8af945	0.06785826
47	0x3c1a11cd	0.009403658
48	0xbd571d5a	-0.052518226
49	0x3cfb3e2f	0.0306693
50	0x3c32ca79	0.010912531
51	0xbd07d079	-0.0331578
52	0x3c6044d0	0.013688281
53	0x3d723927	0.059136536
54	0xbd832cd4	-0.06405035
55	0x3c40f3ff	0.011776923
56	0xbd24d4d2	-0.040242024
57	0x3d704972	0.058663793
58	0x3ac2e4b6	0.0014869187
59	0xbcc81532	-0.02442417
60	0xba32cc42	-0.0006820598
61	0xbd4c168b	-0.049826186
62	0xbd7cfac7	-0.061762597
63	0xbd19896a	-0.037484564
64	0xbabc98d9	-0.0014388814
65	0x3aaa5f36	0.0012998346
66	0x3d3c1420	0.04591763
67	0xbc32add3	-0.010905701
68	0x3d0127d4	0.031532124
69	0xbc7fa51b	-0.015603329
70	0x3ca6b62d	0.02035054
71	0xbd38578f	-0.045005377
72	0x3cad1a8b	0.02113082
73	0x3c382705	0.011239772
74	0xbc7f4ef8	-0.015582792
75	0x3c920441	0.017824294
76	0xbc1d57b8	-0.009603433
77	0xbcf16222	-0.029465739
78	0xbc883bc1	-0.016630055
79	0xbd355ea2	-0.044279702
80	0x3c16097e	0.009157537
81	0xbd073b4c	-0.033015534
82	0x3ae897ee	0.0017745474
83	0xbc855610	-0.01627639
84	0xbab5814f	-0.0013847741
85	0x3d0290fa	0.03187654
86	0x3d2eae68	0.042646796
87	0xbd7a2f35	-0.061080176
88	0x3c57f14c	0.013180088
89	0x3d1d76f4	0.03844352
90	0x3d17a7b2	0.03702516
91	0x3c979d42	0.018507604
92	0xbd05cef6	-0.032668076
93	0x3d1fa74c	0.038977906
94	0xbce7c94e	-0.028294232
95	0xbc1e5575	-0.009663929
96	0xbd15459f	-0.03644335
97	0x3b7a6db8	0.003821237
98	0x3d2c9189	0.04213098
99	0x3c9c469b	0.019076636
100	0xbcafc822	-0.021457735
101	0xbd42e20a	-0.04757885
102	0xbb210259	-0.002456805
103	0xbd602692	-0.054724284
104	0xbb226b70	-0.0024783276
105	0xbc37c44e	-0.011216236
106	0xbca0ec59	-0.01964395
107	0x3d359260	0.044329047
108	0x3c9f0211	0.019410165
109	0xbd10edfd	-0.035383213
110	0xbcf912c5	-0.030404458
111	0xbc8e630a	-0.01738121
112	0x3c300727	0.010743893
113	0x3cbb5411	0.022867234
114	0x3cf16bc6	0.029470336
115	0xba5e7be6	-0.000848709
116	0x3c8eba49	0.017422812
117	0xbd4a70e9	-0.049424086
118	0xbd50394f	-0.050835904
119	0x3c2fd4aa	0.010731855
120	0xbd0e3cb4	-0.03472586
121	0xbd1a2859	-0.037636135
122	0xbc57b1e6	-0.013164973
123	0x3c10ca7c	0.008837339
124	0x3b71115f	0.0036784036
125	0xbcc1f2fb	-0.023675432
126	0x3c8b4ed7	0.017005367
127	0xbb8f6814	-0.0043764208
128	0xbbb432f7	-0.0054992395
129	0x3d5c4f3a	0.053786494
130	0xbd286511	-0.04111201
131	0x3ccd0e21	0.025031151
132	0xbd21a2b7	-0.039461818
133	0xbd235187	-0.039872672
134	0xbc9d94a5	-0.019235918
135	0x3c1e46e8	0.00966046
136	0xbb6053d7	-0.003422966
137	0xbc43dccd	-0.0119544985
138	0x3d33dca8	0.043911606
139	0x3ce07c8e	0.027403142
140	0x3a875b9a	0.0010326982
141	0x3bd61928	0.0065337606
142	0xbd027f2e	-0.03185957
143	0xbc97ef91	-0.018546851
144	0x3d0e87a6	0.034797333
145	0xbcbbd793	-0.022929942
146	0xbc8c5bbe	-0.01713359
147	0x3c714a1a	0.01472714
148	0x3c70c870	0.0146962255
149	0xbd4cd929	-0.050011788
150	0xbcf0a9b3	-0.029377794
151	0xbd129eac	-0.035795853
152	0x3caf2d24	0.02138383
153	0x39d5dff5	0.00040793387
154	0xbbede436	-0.007259871
155	0x3c40f794	0.011777777
156	0x3d6114ee	0.0549516
157	0xbd452417	-0.04813012
158	0xbd1f8871	-0.03894848
159	0xbc2c7d9d	-0.010527995
160	0xbb9cd96d	-0.0047866614
161	0x3c505086	0.012714511
162	0xbc9bd8dc	-0.019024305
163	0xbd110199	-0.035401914
164	0x3bc191d2	0.0059072757
165	0x3b25d561	0.0025304186
166	0xbd5e7c7f	-0.054317947
167	0xbc6f5217	-0.014606974
168	0xbca7afaf	-0.020469515
169	0xbc4dc78a	-0.012559781
170	0xbd23e354	-0.04001172
171	0xbca7f8ac	-0.020504318
172	0xbc490c9e	-0.012271075
173	0x3cc4b28d	0.02401092
174	0x3d276f7a	0.040877797
175	0xbb8b4c98	-0.004251074
176	0xbd1617f1	-0.036643926
177	0xbcaa537f	-0.020791767
178	0xbc40bd16	-0.011763832
179	0x3d30b49e	0.043141
180	0xbbc849d7	-0.006112318
181	0x3af90c9c	0.001900095
182	0x3d1bd8df	0.03804862
183	0xbd468e95	-0.04847582
184	0x3cb78afd	0.022405142
185	0x3d1bfbb8	0.038081855
186	0x3da5f193	0.08102717
187	0xbcee2b57	-0.0290734
188	0x3be26c1c	0.0069098603
189	0x3b6805ce	0.003540385
190	0x3d01637f	0.031589027
191	0xbcb3281e	-0.021869715
192	0xbb505cb4	-0.0031793537
193	0x3bc11aaf	0.0058930735
194	0x3c0dc5fb	0.008653159
195	0x3cba1e3e	0.022719499
196	0x3baff1af	0.005369387
197	0x3d12895d	0.03577553
198	0x3c27628c	0.0102163665
199	0xbc8280c4	-0.01593054
200	0x3d01849b	0.031620603
201	0x3ceff58e	0.029291894
202	0x3cb14943	0.02164138
203	0x3bc26ace	0.0059331423
204	0xbbabe030	-0.005245231
205	0xbb27a108	-0.002557816
206	0xbc9c4e5b	-0.019080332
207	0x3c88de55	0.016707579
208	0xbd14a734	-0.03629227
209	0xbd39e2b2	-0.04538221
210	0xbd029c19	-0.031887148
211	0x3c486010	0.012229934
212	0xbc7d7c07	-0.015471465
213	0x3d6141d9	0.054994438
214	0x3c4686cd	0.0121171
215	0xbd2bb712	-0.041922636
216	0xbcde9080	-0.027168512
217	0xbd17622c	-0.03695886
218	0x3d1f06bb	0.038824778
219	0xbbb0113d	-0.0053731487
220	0x3d0393bd	0.032123316
221	0xbd12d38f	-0.03584629
222	0xbcafe4ce	-0.021471407
223	0x3c445204	0.011982445
224	0x3a85e5ef	0.001021562
225	0x3cba8b07	0.022771372
226	0xbccf4d2e	-0.025305357
227	0x3b81e41c	0.0039639603
228	0xbb980d28	-0.00464024
229	0xbcee8566	-0.029116344
230	0xbcef49e7	-0.029210044
231	0xbc1c5acd	-0.009543133
232	0xbc783660	-0.015149683
233	0xbd2b7e67	-0.041868594
234	0x3c14e1c0	0.009087026
235	0x3cec2a64	0.028828807
236	0x3c3ad2e8	0.011402823
237	0xbc222394	-0.009896178
238	0xbcb4bd5d	-0.022062952
239	0x3cc4bd31	0.024015995
240	0x3ce5c091	0.028045924
241	0x3c451438	0.012028746
242	0x3b901d45	0.0043980205
243	0x3bf2a70c	0.0074051674
244	0x3c907666	0.017634582
245	0xbccccb31	-0.024999233
246	0x3d01f938	0.031731814
247	0x3ca6b92f	0.020351974
248	0x3ccb414e	0.024811413
249	0xbcd6169c	-0.026133828
250	0xb96b06eb	-0.00022413924
251	0xbcc9496e	-0.024571147
252	0x3d2428b4	0.04007788
253	0x3b7bd77a	0.0038427995
254	0xbc9ae9ad	-0.018910253
255	0xbd52a075	-0.051422555

bias f4 [50]
0	0x3cb1a29e	0.021683987
1	0x3c80f5c1	0.015742185
2	0x3d23d94f	0.040002163
3	0xbc4864c0	-0.012231052
4	0xbce1fe31	-0.027587028
5	0xbd23b64e	-0.03996878
6	0xbc84f37d	-0.016229386
7	0xbcdea494	-0.027178086
8	0xbd89b65b	-0.06724235
9	0xbba92b18	-0.005162608
10	0xbccf2202	-0.02528477
11	0xbb293652	-0.002581973
12	0xbc9c55ec	-0.01908394
13	0x3c7508ad	0.014955682
14	0xbb22cac6	-0.00248401
15	0xbd5be260	-0.053682685
16	0xbcbb72e2	-0.022881929
17	0x3c9b8406	0.018983852
18	0xbc3c1ab3	-0.011480975
19	0x3ca7bc06	0.020475399
20	0x3c70ff40	0.014709294
21	0x3cdf4490	0.027254373
22	0x3dd79231	0.10525931
23	0x3d4f69c5	0.05063798
24	0x3c46d363	0.012135359
25	0x3b09bcb0	0.0021017008
26	0x3cbf45d6	0.02334873
27	0x3d02c49d	0.031925786
28	0x3db64fc4	0.08901933
29	0xbc3f7d4f	-0.011687591
30	0x3cce17b7	0.025157792
31	0x3ba6404c	0.0050735828
32	0xbcd9a4b2	-0.02656779
33	0x3cbe19bb	0.023205629
34	0xbaadc6ee	-0.0013258138
35	0xbc9b6702	-0.018970016
36	0xbccd540b	-0.025064489
37	0x3cd3e5e3	0.025866454
38	0x3ca9425f	0.020661531
39	0x3d0082d0	0.031374753
40	0xb9cbf9fb	-0.00038905427
41	0x3b448364	0.0029985541
42	0xbcc13494	-0.023584642
43	0xbb955521	-0.0045572673
44	0x3c523fe4	0.0128326155
45	0xbc915c29	-0.01774414
46	0x3b95dc42	0.004573376
47	0x3d0e78a5	0.034783024
48	0xbca76a83	-0.020436531
49	0x3d088dab	0.03333823
