results/transformations/mapping_files/PCKTAE/FMNIST_PCKTAE_30_1>FMNIST_PCKTAE_30_3>NeuralNetwork_200_0.1_nodropout_16_equally.pth (torch, 11554 bytes, 6 tensors)

weight f4 [16, 30]
00000000: d46a f3ba d45c a6ba 4b0b 31ba 927d 16b9
00000010: 2329 8eb7 8b0b 3ab9 eeab 88b7 089d ac39
00000020: 5a97 efb7 640f c036 13ad 3c3a 44b7 43b9
00000030: 8258 6fb9 beda b7b9 b3b2 e0b9 376e beba
00000040: 68e4 2b37 e83d 9238 88cf 0cb9 b950 12b9
00000050: 20b1 ad39 d83c 55b9 bcd0 bdba 41a4 a2b9
00000060: c05b 3e3a 1c3b bd37 5aef e8b9 7c70 433a
00000070: f8d7 c2b8 7801 aa39 8e8f ddba c64a a139
00000080: 7c5e 03b7 ea4d 9e39 a9d8 9fb9 e0a5 7cba
00000090: d8c1 1c38 5605 fbb9 ac5a 103a d62b 8538
000000a0: c918 3339 58d8 8ab5 d7a7 30b8 0a26 bf39
000000b0: 42ed 0c39 6914 bd39 e323 aa39 28ba bab8
000000c0: 47fa e33a c68b ebba 3e64 1cba 5a59 51ba
000000d0: f998 fdb9 c5c7 39b8 d9f3 f1ba e524 1e3a
000000e0: fd54 a238 ca70 cb39 947b 3d3a 2cd3 ea3a
000000f0: d7cb 84b9 a071 2336 f3c9 50b9 aa23 f2b8
00000100: a7cb 7139 fc0d 5eb8 edd3 3bba a42e d239
00000110: a082 c735 b609 a839 383a abb9 3484 b3b9
00000120: 9ab6 d5b8 a4f4 4a3a 597b a939 1737 f7ba
00000130: 9276 3c3a 5602 f2b9 90f0 1b37 6ea6 8839
00000140: bca3 cf39 2271 8536 61f1 9439 18eb a436
00000150: a841 fbb8 fc03 6039 1cfc e139 df07 4439
00000160: 984f 0bb8 521c a63a 7e04 9037 d8e2 c938
00000170: e415 de38 1675 06ba b7c1 c63a e210 543a
00000180: 7457 2cb8 dcec bcb9 9b20 143a 33f3 123a
00000190: d613 6239 531f 0aba 42b1 4038 64dc 2637
000001a0: 7833 6b37 889d 22ba ea77 6eb8 24b0 e23a
000001b0: 17ed b6b9 0145 8db9 5667 88b9 c8ce f7b8
000001c0: cae0 c9b8 c60f acb9 4710 3b3a f757 17ba
000001d0: 5c9f e8b7 6603 c139 a8d1 24b9 e30d 3339
000001e0: e577 463a fe9b f039 89ab b03a b6bc c9b9
000001f0: 4f53 2c39 77a0 2db9 be0e 4b38 db93 6cb8
00000200: 9e4f 2d3a 5c27 003a 8d82 f3ba b68e 2bba
00000210: a195 22ba 1d04 b9b8 2072 d7ba a682 a939
00000220: 5d26 a23a fb01 4739 5c09 e5b8 766d a9b9
00000230: 0caf ee3a 171a 94ba ef61 0c39 932b 55ba
00000240: 4e59 2f3a 6fe0 0b39 a04b eb3a e10f 66b9
00000250: 0d24 a239 fbfe 4cb8 a11e a8ba b24c c039
00000260: dfd4 2fb8 5a41 9f38 3ecc 0cba 7c8e 02b8
00000270: 48b0 8bb7 38e1 cf39 ff32 c138 b5b4 8f39
00000280: 00d6 77b9 1c7e afb8 e0bf 513a 7062 9937
00000290: 8823 f73a 87ce aeb8 0b86 f439 b463 d238
000002a0: d740 1a3a 4059 4db9 92e1 77b9 7129 63b9
000002b0: 1926 4139 93fe 8bb9 cdb7 a7b9 9b34 15b7
000002c0: b4fb b63a 5489 8539 680d ee38 f232 dd39
000002d0: c77e 47b8 3026 d9b8 dd47 53ba d5f6 8ab9
000002e0: 6611 38ba bf51 46b9 d30d 0d39 71aa a9b9
000002f0: 1bd6 49ba 9a6b 91b9 382b 6139 e8d0 5639
00000300: 82a5 c0b9 ea48 21b7 1aff f1ba d77f 493a
00000310: eb59 2d38 ab11 a839 6eb8 94b9 8c67 f236
00000320: 764e d037 47d8 da38 480c 2b3a a8c6 6eb7
00000330: 24b0 ab39 af9d 203a 16aa 3db9 5d82 c238
00000340: be7b aa39 469b 3638 3265 9639 27da d739
00000350: f490 9a39 6ebe 5fba 5808 93b9 f613 1a3a
00000360: 9b1e 5bba d673 3aba 5398 1139 3cfa cab9
00000370: 1849 98b9 e00a 08ba 1f84 07b7 0781 3f3a
00000380: 1f1d 6c38 1fd7 0c38 eec0 393a 400c 0137
00000390: ec94 a839 9bae a337 bea5 c6b8 fb17 4839
000003a0: bd41 4fba 92d1 a7b9 4b80 22ba 0670 4f3a
000003b0: 2e2a 7c39 987f 9139 0049 2f3a b227 92b7
000003c0: 8163 0a39 db4c 2dba efd9 64b9 bcb4 4f3a
000003d0: 2e66 3bb9 8d79 deba a3e1 2c3a a3a8 403a
000003e0: 0d36 143a da27 343a 4bc2 81b8 ab2d 11b9
000003f0: c45c c13a fb7c 61b9 20d4 bbb8 28ab 3eb9
-0.0018571266 -0.001269246 -0.0006753697 -0.00014351893 -1.6946875e-05 -0.00017742642 -1.6292524e-05 0.00032923394
-2.8561499e-05 5.7238376e-06 0.0007197421 -0.00018664921 -0.00022825788 -0.00035067456 -0.0004285775 -0.0014528696
1.0245574e-05 6.9733534e-05 -0.00013428752 -0.00013953717 0.000331291 -0.00020335929 -0.0014481763 -0.00031021427
0.00072615966 2.255808e-05 -0.0004442882 0.0007455421 -9.290868e-05 0.0003242602 -0.0016903745 0.00030764024
-7.830207e-06 0.0003019416 -0.00030488268 -0.00096377544 3.737383e-05 -0.00047878426 0.0005506675 6.350099e-05
0.00017080003 -1.0344766e-06 -4.2117983e-05 0.000364587 0.00013439826 0.00036064096 0.00032451664 -8.9038454e-05
0.0017393314 -0.0017970733 -0.0005965865 -0.00079860317 -0.00048369894 -4.4293487e-05 -0.0018459513 0.00060327194
7.740592e-05 0.00038803212 0.00072281924 0.0017915717 -0.00025328874 2.4355031e-06 -0.00019911658 -0.00011546102
0.00023059417 -5.294195e-05 -0.0007165063 0.0004008907 1.4864672e-06 0.00032050692 -0.00032659038 -0.0003424004
-0.00010190644 0.0007742143 0.00032326093 -0.0018861023 0.0007189299 -0.00046159577 9.29473e-06 0.0002606394
0.00039604108 3.9768793e-06 0.000284086 4.9149494e-06 -0.00011980842 0.00021363789 0.0004310318 0.00018694949
-3.321431e-05 0.0012673235 1.716823e-05 9.62668e-05 0.00010589862 -0.00051291415 0.0015163933 0.0008089674
-4.1089443e-05 -0.00036034628 0.00056506105 0.00056056975 0.00021560429 -0.000526895 4.594145e-05 9.945685e-06
1.4019075e-05 -0.00062032836 -5.68553e-05 0.0017294926 -0.0003489039 -0.00026945028 -0.00026016933 -0.00011816394
-9.626297e-05 -0.0003281815 0.00071359094 -0.00057733007 -2.7730763e-05 0.0003681436 -0.00015718362 0.00017075943
0.0007570966 0.0004589259 0.0013478856 -0.00038478308 0.00016434233 -0.00016558343 4.84127e-05 -5.6404486e-05
0.000661129 0.00048886775 -0.0018578336 -0.0006544398 -0.0006202106 -8.8222536e-05 -0.001643721 0.00032331533
0.0012371052 0.00018978857 -0.00010921314 -0.00032315747 0.0018210127 -0.0011299279 0.00013387924 -0.0008131798
0.00066890277 0.00013339681 0.0017951615 -0.00021940425 0.00030925908 -4.887486e-05 -0.0012826511 0.00036678236
-4.1921503e-05 7.5938835e-05 -0.00053710106 -3.1127114e-05 -1.6652179e-05 0.00039649918 9.212456e-05 0.00027409723
-0.00023635477 -8.36814e-05 0.0008001309 1.828486e-05 0.0018855194 -8.335435e-05 0.00046639176 0.000100321515
0.00058842957 -0.00019583572 -0.00023639787 -0.00021663845 0.00018420107 -0.0002670182 -0.00031989664 -8.89334e-06
0.0013960511 0.00025470054 0.000113512215 0.00042190362 -4.7563368e-05 -0.00010354479 -0.00080597197 -0.00026505315
-0.00070216355 -0.00018913204 0.00013451958 -0.0003236118 -0.00076994457 -0.00027736725 0.00021473772 0.00020486454
-0.00036744407 -9.613324e-06 -0.0018462867 0.0007686591 4.1330157e-05 0.0003205662 -0.0002836617 7.2242165e-06
2.4832068e-05 0.00010435335 0.00065249624 -1.4232159e-05 0.00032746897 0.00061270123 -0.00018087807 9.274923e-05
0.00032517122 4.353679e-05 0.00028685626 0.00041170532 0.00029481167 -0.0008535151 -0.00028044241 0.0005877608
-0.00083587476 -0.0007112598 0.00013885023 -0.00038714882 -0.00029046158 -0.0005189609 -8.077389e-06 0.00073052983
5.6293906e-05 3.357895e-05 0.00070859387 7.691851e-06 0.00032154412 1.9512421e-05 -9.4722476e-05 0.0001908242
-0.0007906219 -0.00032008864 -0.0006198927 0.0007913116 0.00024048306 0.0002775162 0.0006686598 -1.742304e-05
0.00013197774 -0.00066108786 -0.00021824961 0.0007923355 -0.00017871775 -0.0016973481 0.0006594902 0.00073493476
0.0005653806 0.00068723934 -6.187389e-05 -0.0001384529 0.0014752378 -0.00021504231 -8.956366e-05 -0.00018183573

bias f4 [16]
00000000: 0e60 84ba 830f 19b9 e961 14ba e80d e2ba
00000010: d9d3 3e3a 7d87 c138 07dc a6b9 1c8e ea38
00000020: 0a05 b139 2b3c 1b39 ca8f 2fb9 c4d6 c939
00000030: 1027 11b9 e5ba ecb8 ff79 e8ba 1edf e3b9
-0.0010099427 -0.00014596996 -0.00056603417 -0.0017246576 0.00072794926 9.228194e-05 -0.0003182592 0.000111844594
0.00033763825 0.00014804366 -0.00016742866 0.0003849772 -0.0001384283 -0.00011288169 -0.0017736553 -0.0004346305

weight f4 [16, 16]
00000000: ce3b 6038 ee41 d03a 0a53 08bb a16f 053a
00000010: 808c f039 f29d 85ba bc8c 8fb7 24fe 4abb
00000020: 48b7 be3b 1b8e baba 1c0a 9fb7 fc50 7f39
00000030: d8fd a139 202e 7a3a e175 e7b8 c3df ed3a
00000040: 004c 293a 80c1 fa3a 546a d43a 64ad dbb9
00000050: b313 8f39 42e1 d2b8 ebee a939 e327 f53a
00000060: 65d6 0f3a 867a 64b9 6e0e 0a3a 539b a5b9
00000070: 769b 2ab9 6e6d b139 5dcc b4b9 9b8f e3ba
00000080: 88d9 c737 7b27 1dba 0957 92ba f391 923a
00000090: 8158 1e39 90ec d23a fba4 c23a 8108 c739
000000a0: 3a26 7739 f0c3 d539 06d3 083a 6926 fa3a
000000b0: 0cc8 94b6 c181 533a da5b 7239 6034 953a
000000c0: a16d 463a 46b1 2d3a ff6b 92ba 860a 003a
000000d0: 7f23 ae39 a692 a03b 92bf f23a 6ae3 7c3b
000000e0: 9923 f3ba 9b30 3938 43a8 7a3a b72e f2ba
000000f0: d6f7 e53a 2215 b939 a3e9 43b9 6680 1c39
00000100: d029 4139 b2fb aa39 f4e5 7eb9 e305 c53a
00000110: 3dda 023a f84b ed3a ff57 58ba a8fb 9c39
00000120: 5318 fc38 3c3d 4239 1470 d239 2a2e 4fb9
00000130: 97d1 e839 0638 243b 388f 1d3a 34fa 523a
00000140: 1bdb ac39 c21a ad38 3a81 d73a 4a0e aab8
00000150: 9ea0 083b 84c6 e4b8 268f 8b3a a2d1 fe3a
00000160: 70b4 4d39 17f2 3939 6b07 573a e7f5 36ba
00000170: 3aea 9cb9 7279 82ba 8de5 b73b cded 2eb9
00000180: 1e00 c6ba 93ea 8cba 0b07 4dba 8aa3 353a
00000190: acea 8eba a05e dc38 e227 653b 2bb1 9b3a
000001a0: b237 b639 b7d6 813a 04be ceba 9818 feb6
000001b0: 1b86 f8ba c105 ef3a 5cd0 8cb7 481a ce39
000001c0: 7214 c03a f8c3 0d37 6912 07b8 c33e f43a
000001d0: c209 4dba 40e0 e737 7664 963b 4883 373a
000001e0: f532 f839 da71 3938 f053 15b9 6a26 f93a
000001f0: 45f2 8d39 c23a 24ba b825 0f3b c396 2c3a
00000200: 7fa1 abb8 ed08 b6ba a84a 26ba 7ca0 68b9
00000210: 48ec 2839 dcd7 c137 ed35 7db7 7f62 03bb
00000220: 363f 573a 91ec cd39 b92e 8238 8499 1d39
00000230: af41 15b8 c456 26bb 8676 9c39 d59a 0839
00000240: 1b2d faba a2fb c837 5185 fe38 869f e3ba
00000250: 3d40 52ba 6eb9 9bb9 c203 62bb f186 e03a
00000260: 0fe1 0bba 2574 bd39 6165 92ba afd8 6939
00000270: c019 05b5 0eb8 32ba 241d 8d3a 23b5 0ebb
00000280: 30e8 1db6 0180 f83a 89a1 f839 bc16 abb8
00000290: 6902 cfb9 e0cc fbb9 c583 56ba f2a7 9239
000002a0: a5fd e6b9 5bc1 f23a 6205 53ba a303 3bba
000002b0: 9a47 d8ba 8f04 8939 e026 90bb c69c cfb9
000002c0: dcbf 85bb a050 feb9 08a2 b539 3a0c a839
000002d0: 3230 c4ba 0418 c039 a3b6 b5ba ee08 b4b7
000002e0: 9c55 f73a 2ecf 5c38 5798 dabb 5607 f0ba
000002f0: fe14 e6b9 9f70 4fba 3424 7eb8 4273 ffb9
00000300: 94d3 d83a 9b08 9dba 941e 213a 5484 f83a
00000310: 1fcd 50b9 a8ae 9ab6 ec3b e1b8 dd7c f6b9
00000320: be12 7fb7 4843 c8b9 b0ad 9c36 e4fa 8739
00000330: 8764 ddba 8ef6 93ba 8f76 f73a 1211 443b
00000340: 1e60 2f38 12fa 4a39 cec4 82bb 227c 5639
00000350: d666 d239 9daf a339 15ad 9e39 2a89 5e3a
00000360: f4d7 2aba 7d67 553a da64 2839 33e3 b3bb
00000370: dc07 0939 d12e d63a a90e 033a e234 f93a
00000380: 612c 89b7 21e2 2239 3e44 17ba 9544 2d39
00000390: 8b63 2ab9 7743 3839 e167 1738 0c84 f4ba
000003a0: 1688 9bb9 f416 76b9 9063 50ba d401 0a39
000003b0: ee1e a5b8 5c01 0bb7 84b8 c7b9 fe0a 4b39
000003c0: b53f 423a a524 0838 2203 3f39 dfdf f439
000003d0: ded8 f9b9 95a3 ddb9 d6c2 8139 24e3 91b9
000003e0: a327 2d39 263a b5ba 3af2 c43a 3f57 85bb
000003f0: 2864 0cb6 0e1a 5839 b8fa cfb9 a0d3 97b7
5.346146e-05 0.0015888789 -0.0020801448 0.00050901814 0.00045881048 -0.0010194166 -1.7112463e-05 -0.0030974234
0.0058201887 -0.0014233025 -1.8958985e-05 0.00024348864 0.0003089744 0.00095436163 -0.00011036895 0.0018148351
0.0006458163 0.0019131154 0.0016206005 -0.0004190012 0.00027289763 -0.00010055538 0.000324122 0.0018703904
0.00054869644 -0.00021789418 0.00052664324 -0.00031586978 -0.00016270377 0.00033841602 -0.00034484538 -0.0017361523
2.3823945e-05 -0.0005994958 -0.0011164855 0.0011182412 0.00015101024 0.001609223 0.0014850193 0.00037962574
0.00023569996 0.0004077251 0.0005219433 0.0019084933 -4.4340322e-06 0.0008068346 0.00023113136 0.0011383407
0.00075694366 0.0006625842 -0.0011171101 0.00048843806 0.00033214313 0.0049002944 0.0018520227 0.0038587698
-0.0018550038 4.4152705e-05 0.0009561816 -0.0018477057 0.0017545174 0.00035301695 -0.00018683686 0.00014925151
0.0001842149 0.00032612454 -0.00024308992 0.0015031662 0.00049916265 0.0018104305 -0.00082528585 0.00029942137
0.00012020827 0.00018524093 0.00040137826 -0.00019758256 0.00044406645 0.0025057807 0.0006010416 0.00080481474
0.00032969643 8.254267e-05 0.0016441711 -8.108893e-05 0.0020847688 -0.000109088636 0.001064752 0.0019441138
0.00019617542 0.0001773316 0.00082027045 -0.00069793913 -0.0002992915 -0.0009954406 0.0056120814 -0.00016682521
-0.0015106236 -0.0010751061 -0.0007821179 0.0006928971 -0.0010903678 0.00010508043 0.00349664 0.0011878362
0.0003475524 0.0009905909 -0.0015773182 -7.572653e-06 -0.0018960865 0.0018235968 -1.6786325e-05 0.00039310963
0.0014654531 8.449882e-06 -3.2203654e-05 0.0018634427 -0.00078215834 2.764177e-05 0.0045896126 0.00070004584
0.00047340212 4.421347e-05 -0.00014241016 0.0019008641 0.0002707412 -0.0006264859 0.002184255 0.00065837445
-8.1839964e-05 -0.0013888158 -0.0006343522 -0.00022185029 0.0001610975 2.310791e-05 -1.5092531e-05 -0.0020047722
0.0008211018 0.00039276903 6.207586e-05 0.00015029876 -3.558554e-05 -0.0025381306 0.00029842946 0.0001302765
-0.0019086929 2.3959034e-05 0.00012136496 -0.0017366267 -0.00080204365 -0.0002970206 -0.0034487103 0.001713006
-0.00053359655 0.00036135424 -0.0011169129 0.00022301333 -4.958383e-07 -0.00068175874 0.0010766131 -0.0021775446
-2.3529974e-06 0.0018959047 0.000474226 -8.15815e-05 -0.00039483912 -0.00048027094 -0.00081830873 0.0002797242
-0.00044057998 0.0018520759 -0.00080498133 -0.0007134026 -0.0016500831 0.00026134073 -0.0043991655 -0.00039598922
-0.0040817093 -0.00048506726 0.00034643733 0.00032052567 -0.0014967977 0.00036638987 -0.0013863634 -2.146183e-05
0.0018870118 5.264504e-05 -0.0066709924 -0.0018312733 -0.0004388466 -0.0007913205 -6.0592036e-05 -0.00048723264
0.0016542547 -0.0011980714 0.0006146219 0.0018960335 -0.0001991284 -4.6098903e-06 -0.000107399974 -0.00047013807
-1.5203548e-05 -0.000381971 4.669382e-06 0.00025936135 -0.0016890921 -0.0011288689 0.0018879938 0.0029917401
4.1812767e-05 0.0001935738 -0.003990746 0.00020454873 0.0004013094 0.00031220625 0.00030265065 0.0008489067
-0.0006517165 0.0008140726 0.00016059299 -0.0054897307 0.00013068266 0.0016340857 0.0004999438 0.0019012953
-1.6352338e-05 0.00015533764 -0.0005770362 0.00016524114 -0.00016249546 0.0001757274 3.609795e-05 -0.0018655076
-0.00029665296 -0.00023468939 -0.0007949406 0.00013161387 -7.873574e-05 -8.285362e-06 -0.00038093713 0.00019363684
0.0007410006 3.2459055e-05 0.00018216347 0.00046706104 -0.0004765456 -0.00042274283 0.0002474996 -0.00027825788
0.00016513332 -0.0013826534 0.0015025802 -0.0040692384 -2.0919924e-06 0.00020609071 -0.00039668917 -1.8099148e-05

bias f4 [16]
00000000: 9bdd a839 7eaf 1a3a 9219 b3b8 7359 de3a
00000010: 505f 8939 e6b3 bc3a 9d12 dfba 7606 06ba
00000020: ce27 2138 65af 8eba c248 c339 5eb8 603a
00000030: 6a9f fcb8 514a 55bc 9c91 c1b9 515a 2c3c
0.00032208566 0.0005900784 -8.540148e-05 0.0016963914 0.0002620169 0.0014396876 -0.0017019097 -0.0005112657
3.8422462e-05 -0.0010886012 0.00037247507 0.0008572395 -0.000120459896 -0.013018207 -0.00036920316 0.01051958

weight f4 [30, 16]
00000000: f4dc 47b8 3db2 563b 9e52 dab9 2771 ab39
00000010: bda9 f63a 854a 543a 7a67 01ba 7a21 cebb
00000020: 22e9 9939 304a 2fb7 1b18 b138 d18a c1b9
00000030: 6275 9838 1eb6 0239 6b99 e4bb d40b 14b9
00000040: 9e1d a636 62bb 9b3b ec56 56ba 512e 0ebb
00000050: 4e7f 8bb8 c898 29b9 ffbb f9ba 30b2 e4b5
00000060: b521 36ba d0f4 5139 d773 3c39 4af0 f93a
00000070: 8073 2839 0f66 2cb8 753f d93b 2270 023c
00000080: bc90 5d37 b896 9b38 110f 7eba 03ca 0c3a
00000090: 8b9b d939 68c4 5a38 b28d d5b9 0dcd a437
000000a0: 427f daba 00e2 d839 26b1 f6b8 22ce cc38
000000b0: 15fa b8b9 8a44 63ba faa4 48b9 94d2 9937
000000c0: 0f47 0e3b b5e8 5939 347c f1ba d8ee 6139
000000d0: 44b5 a7b9 0066 74ba 8972 15ba b295 2db9
000000e0: bf96 bd3a a0ad 82b9 7f26 d2ba 843b 0bba
000000f0: 50fc 19b9 7449 113a be08 f13b 53fb 81ba
00000100: 1450 93b8 1277 ca39 c628 003a 1e23 f7ba
00000110: 17c0 efba 90e5 e8b9 af6e 3938 7cd5 39ba
00000120: ecbf c0b9 2d94 143a 53b4 bfbb 4e29 ffba
00000130: 065f 2a3a 9591 fd3a 75d6 efba 5de9 c6bb
00000140: 722d 95b8 d6b7 8fba 6d4b ef3b f9d3 86bb
00000150: d2f4 353a 8d59 e3ba 7534 4cb9 d3b9 42bb
00000160: 7633 ddba 884f 4e38 9bbc 49ba bbe1 94b9
00000170: 123e af3a 4eed 95b9 2f59 613a f6a1 44ba
00000180: bc6e 1039 9259 cc38 8feb feba cff0 2fb9
00000190: bc32 a3ba d59c e2b9 3c80 ba39 57a0 413b
000001a0: 552f bab9 1bd3 a7ba e78d 35b9 14dd 8d3a
000001b0: e608 f63a fe31 1c3b 05b5 4138 3413 fab8
000001c0: f864 e1b9 ffe2 1d38 3562 be3b a589 4b3a
000001d0: c818 d1b5 971d 7b38 6f92 f2ba d779 ec38
000001e0: 472c dcb9 8e64 eeb8 3669 81b8 5123 ebba
000001f0: 92f8 5239 e781 40ba 8eea efb8 8483 df38
00000200: 0206 a838 f1bb 03ba e1e4 ac3b c0e4 4d3a
00000210: aab7 7739 6c60 83ba 0e51 b238 04c1 b0b9
00000220: 65ea b5b9 8b44 823a 09d3 93b9 48fe e43a
00000230: f5f5 1839 8491 9ab9 6db4 88bb a9e8 cb39
00000240: 908c 9a37 c44f 9eb8 3a16 53ba c5a8 dbb9
00000250: a4f2 ed39 e2c7 cb39 bd1f 49b9 bd34 d2bb
00000260: ec1f 58b9 5d66 ad39 9859 69b8 7445 e7ba
00000270: ea48 2f39 689a 0a3b 4fb6 02b8 135f b4b9
00000280: da04 7ab9 3669 d7b9 b8ed 9b37 cc13 293a
00000290: f22d a5b9 d7d7 91b9 30bd 4aba 3829 303a
000002a0: d2c4 143a bccb f7ba 02a8 e337 a485 a1b8
000002b0: be06 ef39 1ed3 c9bb de30 e5b7 d689 a2ba
000002c0: daf5 a239 2ad0 d0ba ede8 21b9 ac5a a7b7
000002d0: 6f09 f93a 4a6a e439 a78c b83a a4e2 8cb6
000002e0: 2278 8d38 3283 acb8 ef5a dab8 e375 42ba
000002f0: 046c a53a 1e1b 4238 f005 4a37 e551 3739
00000300: 880e 6ab8 9587 eeba 6ad3 58b8 ec8a e13a
00000310: e063 4a3a 5b24 9fb9 685c 033a 8666 edb8
00000320: 5047 5038 c6fe 4eba 0c79 10b9 584e 203a
00000330: 4490 c9b7 f3a3 9c3a 4eea db3b 9c91 f73a
00000340: a575 f338 1c2a 0039 2a58 2fba 1561 4e3a
00000350: f597 8f39 6a8f 0ab9 1e2c c037 09d3 56b9
00000360: d840 5dba af4b 4a39 7c6b 27b8 b430 5038
00000370: 215d 8c39 1b65 90b9 1e24 da38 7494 6738
00000380: bc88 2f39 d9cd a83b c4e0 4dba b407 faba
00000390: 42b3 b6b8 f368 12b8 a61a f1b9 681f ab38
000003a0: dc86 f938 f8c3 05b7 dde3 0e39 3239 b439
000003b0: 2c83 7837 d42f 0038 6906 f7ba 98ea f839
000003c0: 24c1 e0b8 280a fa39 7ce5 063a c1b9 ccb8
000003d0: a8f4 4ab9 9fb4 2d39 9642 41b7 4d1d 8dbb
000003e0: 50a3 2bb6 eec2 a9ba 2f7d 0739 2982 163a
000003f0: 20fe 74b9 6d82 e3b8 fc96 e13a 59c0 9738
-4.7651076e-05 0.0032760047 -0.00041641755 0.00032699967 0.0018818896 0.00080982625 -0.00049363787 -0.006290612
0.00029356132 -1.0448086e-05 8.444508e-05 -0.00036915255 7.269789e-05 0.0001246561 -0.0069762967 -0.00014118786
4.9506334e-06 0.0047525624 -0.00081764045 -0.0021695087 -6.651749e-05 -0.00016174011 -0.001905322 -1.7039183e-06
-0.0006947772 0.00020022993 0.00017972231 0.0019068804 0.00016064756 -4.1103045e-05 0.006629879 0.007961305
1.3206325e-05 7.4190495e-05 -0.0009691576 0.0005370678 0.00041505354 5.2158168e-05 -0.00040732097 1.9645808e-05
-0.0016670006 0.00041367114 -0.000117631906 9.765873e-05 -0.0003528154 -0.0008669576 -0.00019134945 1.833708e-05
0.0021709835 0.00020781423 -0.0018423856 0.00021546648 -0.00031987776 -0.00093230605 -0.0005700966 -0.00016554332
0.0014464482 -0.00024924893 -0.0016033201 -0.0005311298 -0.00014685211 0.00055422564 0.0073557785 -0.0009916819
-7.024422e-05 0.00038617157 0.0004888888 -0.001885507 -0.00182915 -0.00044421526 4.421052e-05 -0.00070890016
-0.00036764087 0.0005667832 -0.0058503537 -0.0019467266 0.0006499145 0.0019345755 -0.0018298166 -0.0060702995
-7.1133385e-05 -0.0010964822 0.0073026926 -0.0041146246 0.0006941083 -0.0017345414 -0.00019474498 -0.002971281
-0.0016876298 4.9188297e-05 -0.0007695646 -0.00028396942 0.0013369939 -0.000285963 0.0008596358 -0.00075009407
0.00013774162 9.744162e-05 -0.0019448864 -0.00016779009 -0.0012451033 -0.00043222928 0.00035572227 0.0029545033
-0.0003551195 -0.0012804003 -0.00017314368 0.0010823333 0.0018770962 0.0023833509 4.6183373e-05 -0.00011924506
-0.00042990572 3.7643124e-05 0.005810047 0.0007764346 -1.5578926e-06 5.987062e-05 -0.0018506775 0.000112760514
-0.0004199466 -0.00011367454 -6.1707964e-05 -0.0017939602 0.0002011976 -0.00073435757 -0.00011440097 0.00010657965
8.011983e-05 -0.0005025259 0.005276308 0.0007854216 0.00023624176 -0.0010023243 8.502799e-05 -0.00033713144
-0.00034697648 0.000993864 -0.00028195258 0.0017470801 0.00014587476 -0.00029481587 -0.004171899 0.00038892523
1.8423685e-05 -7.5488846e-05 -0.0008052323 -0.00041896678 0.00045384944 0.00038868102 -0.00019180677 -0.0064149783
-0.00020611257 0.00033073398 -5.563497e-05 -0.00176446 0.00016716463 0.0021149162 -3.1164203e-05 -0.0003440311
-0.00023843665 -0.00041086384 1.8588136e-05 0.00064497883 -0.00031505484 -0.00027817368 -0.00077338796 0.0006720009
0.00056750805 -0.0018905322 2.7138743e-05 -7.701971e-05 0.00045590656 -0.0061592003 -2.7321683e-05 -0.0012400697
0.00031082222 -0.0015931178 -0.00015440928 -1.9950174e-05 0.0019000004 0.0004356674 0.0014080004 -4.1987096e-06
6.7457804e-05 -8.226036e-05 -0.00010411988 -0.0007418079 0.0012620692 4.627846e-05 1.2041521e-05 0.00017482748
-5.580348e-05 -0.0018198366 -5.1695308e-05 0.001720754 0.0007720571 -0.0003035393 0.0005011023 -0.00011320137
4.965748e-05 -0.00078962406 -0.00013778004 0.000611519 -2.4028246e-05 0.0011950716 0.006711281 0.0018888
0.00011609056 0.00012222718 -0.00066888577 0.0007872743 0.00027388302 -0.00013214131 2.2908727e-05 -0.00020487247
-0.00084401434 0.00019292416 -3.9916005e-05 4.9636423e-05 0.00026772267 -0.0002754115 0.000104017774 5.521295e-05
0.00016740238 0.005151492 -0.0007853622 -0.0019075782 -8.711826e-05 -3.4906854e-05 -0.00045986957 8.159765e-05
0.00011898365 -7.973045e-06 0.00013627061 0.0003437489 1.4812493e-05 3.056212e-05 -0.0018846515 0.00047477032
-0.000107171276 0.00047691283 0.000514589 -9.7620774e-05 -0.00019355363 0.00016565852 -1.15192e-05 -0.0043064714
-2.5576046e-06 -0.001295177 0.00012921238 0.0005741441 -0.00023364322 -0.00010848497 0.0017211135 7.2360686e-05

bias f4 [30]
00000000: 40c3 bd3c 02c0 48bb dc3c efba 22d3 a0b9
00000010: 8ee2 94bb abd7 6d3b 15cb 65bc b70a 8d3b
00000020: f210 0bbc 1b5a 96bc 9e9e e13b 7fa5 503b
00000030: b963 1a3c 0755 843b 6d06 873b afea a83c
00000040: 9ac8 1dbb ce51 a9bd 921a 6a3c bdc9 883c
00000050: b6c6 243b 5dea c63b c172 f13b 9487 88bb
00000060: 3323 143c b14e aeba c2e4 923c 5d1e 84bc
00000070: 57a3 423c bb06 0fbc
0.023164392 -0.0030632024 -0.001825239 -0.00030674884 -0.004543609 0.0036291878 -0.014025469 0.004304256
-0.008487927 -0.018353513 0.0068853637 0.0031836925 0.00942319 0.0040384564 0.004120639 0.020619718
-0.0024075867 -0.08267556 0.014288561 0.016697759 0.0025142855 0.0060704187 0.007368416 -0.004166553
0.009041595 -0.0013298598 0.017931346 -0.01612776 0.011879764 -0.008729632
